MLConfig/results/hb01/Lion.onnx (onnx, 281871 bytes, 7 tensors)

network_body.linear_encoder.seq_layers.0.weight f4 [256, 10]
0	0x3da89dd8	0.08233231
1	0xbc8cf42b	-0.017206272
2	0xbef14074	-0.47119486
3	0x3d623f06	0.055235885
4	0x3db50d41	0.088404186
5	0x3eb51b31	0.35372308
6	0x3e82e3bd	0.25564376
7	0x3df1f80e	0.11814891
8	0xbcddc50a	-0.027071495
9	0xbe073ab2	-0.13205984
10	0xbe8b2ebb	-0.2718409
11	0x3e877a1a	0.26460344
12	0xbedb456a	-0.42826396
13	0x3c4aed2b	0.012385647
14	0xbec9bd31	-0.39402154
15	0x3e530c12	0.20610073
16	0x3eb335ac	0.35001886
17	0xbef0db94	-0.47042525
18	0x3ea3984c	0.3195213
19	0xbeef20c2	-0.4670468
20	0x3deaea2d	0.11470447
21	0xbe4abc28	-0.19798338
22	0xbe967316	-0.2938468
23	0x3ea91e7b	0.33031067
24	0x3ed827b0	0.4221778
25	0xbd2cecdb	-0.04221807
26	0x3e9e957e	0.30973428
27	0xbc58d26d	-0.013233763
28	0xbec87f96	-0.3915984
29	0xbe630af1	-0.22172143
30	0x3ea26874	0.31720316
31	0xbd40b1b8	-0.047044486
32	0xbeaf10a9	-0.34192398
33	0xbecd1ca6	-0.4006092
34	0xbe55817a	-0.20850173
35	0x3efd2872	0.4944492
36	0x3e92a9ae	0.2864508
37	0xbe620b8f	-0.22074722
38	0xbe93cb05	-0.2886583
39	0xbe10a611	-0.1412585
40	0x3d0770fe	0.033066742
41	0xbe753353	-0.2394536
42	0x3d41550e	0.047200255
43	0xbe5be8ef	-0.21475576
44	0xbe73e59b	-0.23818056
45	0x3e08898c	0.1333372
46	0x3ec44590	0.38334322
47	0xbec4fd4f	-0.3847451
48	0x3f76991c	0.96327376
49	0xbda5c333	-0.08093872
50	0x3c1fbeb7	0.00975006
51	0x3e216cbf	0.1576414
52	0xbe689126	-0.2271162
53	0x3d703ed9	0.058653686
54	0xbe51cc0b	-0.20487992
55	0xbf1dcf6f	-0.61644644
56	0x3d9858d0	0.07438815
57	0xbcc2357f	-0.02370715
58	0x3e337bf8	0.17527759
59	0x3e556e62	0.20842889
60	0xbe7458ad	-0.23861952
61	0x3d179d58	0.03701529
62	0x3ebf3b9c	0.37350166
63	0xbd4b82a0	-0.04968512
64	0x3ea450c9	0.32092884
65	0xbec728eb	-0.38898405
66	0x3ed95e58	0.4245479
67	0xbe91e719	-0.28496626
68	0xbef8b63e	-0.4857654
69	0xbf8e8cb9	-1.1136695
70	0x3dad88eb	0.08473381
71	0xbf474424	-0.7783835
72	0x3d94a956	0.07258861
73	0x3eead965	0.45868984
74	0xbf02f5bb	-0.51156205
75	0x3e2b9ec5	0.16759785
76	0x3e5b4fab	0.2141711
77	0xbe9e0e7f	-0.30870435
78	0xbe2b08fc	-0.16702646
79	0x3eb145f8	0.34623694
80	0x3f587638	0.8455539
81	0xbd6c7d94	-0.057736948
82	0x3e3f5044	0.18682963
83	0x3eaf3277	0.3421819
84	0x3e5e7ab2	0.21726492
85	0x3ea0b5ce	0.31388706
86	0xbe1809d8	-0.14847505
87	0xbe232dbf	-0.1593542
88	0x3f1209ab	0.57046
89	0x3efe7ad5	0.49703088
90	0xbdbec36b	-0.09314617
91	0x3f80288d	1.0012375
92	0xbf1bd3b2	-0.60869896
93	0x3e173f43	0.14770226
94	0x3e1473f7	0.14497362
95	0xbf864238	-1.0488958
96	0x3e9d20a0	0.30688953
97	0x3e161e4c	0.14659995
98	0x3e8d05bb	0.27543435
99	0xbcc99ddf	-0.024611412
100	0xbe15ade3	-0.14617114
101	0x3c9bc355	0.01901404
102	0xbd511a23	-0.051050317
103	0xbe9047fb	-0.28179917
104	0xbd98f54c	-0.07468662
105	0x3dbdf368	0.09274942
106	0x3ec88df0	0.3917079
107	0xbd979563	-0.0740154
108	0x3eb9e85c	0.3631009
109	0xbe387790	-0.1801436
110	0x3db26b9c	0.08711931
111	0xbe41cdc0	-0.18926144
112	0x3e77e7cf	0.24209522
113	0x3f496467	0.78668827
114	0x3e868b33	0.26278076
115	0xbec98a4c	-0.39363325
116	0x3d1d0b80	0.038341045
117	0x3f748901	0.9552155
118	0x3e4a6752	0.19765976
119	0x3e7dc2dc	0.24781364
120	0x3e8ef83d	0.27923766
121	0x3e7f7e47	0.24950515
122	0x3dabd105	0.08389477
123	0x3f1e9d75	0.6195901
124	0x3c3a032b	0.011353294
125	0x3c86eb5d	0.016469652
126	0x3e9842d5	0.2973849
127	0xbe0badda	-0.13640538
128	0xbf0a31fd	-0.53982526
129	0x3ef8fafb	0.48628983
130	0x3ed4f2d4	0.41591513
131	0x3e8dfac1	0.27730373
132	0x3f273807	0.65319866
133	0xbec0e30f	-0.37673232
134	0xbd893579	-0.06699652
135	0xbecfff38	-0.40624404
136	0x3f1b2f28	0.6061883
137	0x3e041dcb	0.1290199
138	0x3e7f102b	0.24908511
139	0x3e3a087a	0.18167296
140	0xbeb2dc44	-0.34933674
141	0x3e868dc2	0.26280028
142	0xbe53dea8	-0.20690405
143	0xbe9ad3d0	-0.30239725
144	0x3d3ab385	0.04558136
145	0xbdbfb185	-0.09360031
146	0x3e4b2fec	0.198425
147	0x3ddf4524	0.109018594
148	0xbf3b8f30	-0.7326536
149	0xbddff5bb	-0.10935541
150	0xbedc98af	-0.43085238
151	0x3e7543b9	0.23951615
152	0xbe3480ae	-0.17627212
153	0x3ef2f8c7	0.47455427
154	0x3dd5db06	0.10442166
155	0x3ed8837f	0.42287824
156	0x3e97173e	0.2950992
157	0xbe4906ed	-0.19631548
158	0xbee6540c	-0.44985998
159	0x3ed41a16	0.41426152
160	0xbd8f07f9	-0.069839425
161	0xbdb008f4	-0.08595458
162	0xbea4e74d	-0.32207718
163	0xbca07614	-0.019587554
164	0xbe6c753e	-0.230916
165	0x3ea4b457	0.32168838
166	0x3dc3b1b5	0.09555379
167	0xbe697033	-0.22796707
168	0x3cf6f1bd	0.030144567
169	0xbd2241f5	-0.039613683
170	0x3e0100b2	0.12597921
171	0xbe556a88	-0.2084142
172	0xbf22dd46	-0.63618886
173	0x3eba5f56	0.3640086
174	0x3ebe9fba	0.37231237
175	0x3f02994f	0.5101518
176	0xbe57e23d	-0.21082397
177	0xbe79e011	-0.24401881
178	0x3d480793	0.04883535
179	0xbe4e8357	-0.2016729
180	0x3eaefbd5	0.34176508
181	0x3cc1a7a6	0.023639511
182	0x3e939dcf	0.28831336
183	0xbe86bd4d	-0.263163
184	0xbef3f1e6	-0.4764549
185	0xbd8aeb31	-0.067831405
186	0x3ead8ce3	0.3389655
187	0xbf132885	-0.574837
188	0xbe79f59f	-0.24410103
189	0xbe009b18	-0.12559164
190	0x3e52470e	0.20534918
191	0xbe921792	-0.28533608
192	0xbc9607c4	-0.01831425
193	0xbdc6854f	-0.09693395
194	0xbde630a8	-0.11239749
195	0x3f298c2f	0.6622953
196	0x3ef0f1d7	0.4705951
197	0x3ed3148e	0.4122662
198	0x3e82dca1	0.25558951
199	0x3d8682ee	0.065679416
200	0x3e191853	0.14950685
201	0xbe80bd52	-0.2514444
202	0x3e4522d2	0.19251564
203	0x3e899188	0.26868844
204	0x3d0dd4d0	0.034626782
205	0x3c525f3f	0.012840091
206	0x3ea0b055	0.3138453
207	0xbc2046d9	-0.009782516
208	0x3f3ce50e	0.7378701
209	0xbe1dc5cc	-0.15407485
210	0xbe0da2b5	-0.13831599
211	0x3ea50e1e	0.32237333
212	0xbed5c467	-0.41751406
213	0xbe2d6c9f	-0.16935967
214	0x3df9cefb	0.121976815
215	0x3de99687	0.11405664
216	0x3dae67d9	0.08515901
217	0x3d483156	0.048875175
218	0xbee3683a	-0.44415456
219	0x3e128659	0.14309062
220	0xbd9babf8	-0.0760116
221	0xbe52a377	-0.2057017
222	0xbee507c1	-0.44732478
223	0xbee8bfc1	-0.45458797
224	0xbee42d47	-0.44565794
225	0xbea8b4f1	-0.32950547
226	0x3e8c8c49	0.2745078
227	0xbe7548bc	-0.23953527
228	0xbe44a5cb	-0.1920387
229	0x3e835ba4	0.25655854
230	0xbe982e20	-0.2972269
231	0xbd1eb755	-0.038749058
232	0x3d62be35	0.055357177
233	0xbf0b6c6f	-0.5446233
234	0x3eb68528	0.35648465
235	0x3e25801b	0.1616215
236	0xbd6c3afd	-0.057673443
237	0x3d4228ab	0.047402065
238	0x3e5a029c	0.21290058
239	0xbde16491	-0.1100551
240	0xbeba78c3	-0.3642026
241	0xbec70173	-0.38868293
242	0xbe10740a	-0.14106765
243	0xbe3b844b	-0.18312185
244	0x3e798333	0.24366455
245	0x3ede64b9	0.4343622
246	0x3d722b75	0.059123475
247	0xbcf85a39	-0.030316459
248	0xbea6e809	-0.32598904
249	0x3b82ef44	0.003995808
250	0xbeb74c91	-0.35800603
251	0x3e89517e	0.26819986
252	0xbe89c1a4	-0.2690555
253	0xbebc384b	-0.36761698
254	0xbe917b38	-0.2841432
255	0xbd9bb528	-0.07602912

network_body.linear_encoder.seq_layers.0.bias f4 [256]
0	0xba980d97	-0.001160073
1	0x3a9946c8	0.0011694068
2	0xbaf81f1e	-0.0018930172
3	0xbb5a1cc2	-0.00332813
4	0xbb6559c6	-0.0034996136
5	0xb92e6a37	-0.00016633501
6	0x3b03d31c	0.0020114845
7	0xba80f515	-0.0009838665
8	0xb9d05f46	-0.00039743836
9	0x3a5f1e8a	0.00085113256
10	0xbb5243bf	-0.0032083837
11	0xbab09a62	-0.0013473744
12	0x39a810c3	0.00032055945
13	0x39383a5d	0.0001756935
14	0x3a6ea985	0.000910424
15	0xbafddaf3	-0.001936762
16	0xb826e540	-3.979099e-05
17	0xbae1658d	-0.0017196402
18	0x3b4622be	0.003023311
19	0x38630c70	5.41326e-05
20	0xba11ec3a	-0.00055665115
21	0xba4e8895	-0.00078786287
22	0x39168253	0.00014353664
23	0x3be07efd	0.0068510757
24	0x3a8e70a9	0.0010867316
25	0x3ba3046c	0.0049748924
26	0xba819bc0	-0.0009888336
27	0xbb586d32	-0.003302407
28	0xba93d47c	-0.0011278535
29	0xb97f732c	-0.000243616
30	0xbaeb8d89	-0.0017971258
31	0x3952b46c	0.00020094373
32	0xbb3c607b	-0.002874403
33	0xbbc53f6e	-0.0060195243
34	0xba5ad899	-0.00083483156
35	0xbac3a461	-0.0014926308
36	0xbadaffe3	-0.001670834
37	0x395ec08b	0.00021243298
38	0xba8aad5d	-0.0010580231
39	0xba1fe69a	-0.0006099731
40	0xba4164b8	-0.0007377374
41	0x3a975a38	0.0011547273
42	0xbb7d6eef	-0.0038670858
43	0xbaab3402	-0.0013061764
44	0x373f61e4	1.1407279e-05
45	0xba04e38f	-0.0005069309
46	0x3b2779aa	0.0025554695
47	0x398846da	0.0002599273
48	0x3a2b4ba9	0.00065344066
49	0xbb247ef4	-0.0025100084
50	0x397b5b4c	0.00023971236
51	0xb9d380e1	-0.00040341078
52	0x39d6ae2e	0.00040947035
53	0x3b94cf2f	0.0045413
54	0xbb47245e	-0.0030386667
55	0xbaa80f2a	-0.0012821902
56	0xba05c833	-0.00051033794
57	0x3b36c887	0.002789052
58	0x3b3fe09d	0.0029278167
59	0xbbca818e	-0.006179995
60	0x3ac1cce1	0.001478579
61	0x3ad33fde	0.0016117056
62	0xb9be065b	-0.0003624436
63	0x3bdee73b	0.006802467
64	0xba854b06	-0.0010169453
65	0x3b8ccb86	0.004296723
66	0xba7a218f	-0.0009541744
67	0xba3f5c2f	-0.0007299808
68	0x3b885ab6	0.004161204
69	0x3b5481ee	0.0032426077
70	0xba2827ac	-0.0006414603
71	0xbb989b8d	-0.004657215
72	0xb9bd833d	-0.0003614667
73	0xbb9853a1	-0.004648641
74	0x3a362f65	0.00069498114
75	0x38d55008	0.000101715385
76	0xba6ec8c1	-0.0009108894
77	0x3829eca8	4.0513143e-05
78	0xba905b8d	-0.0011013612
79	0x3945ac9b	0.00018851685
80	0xb990af0e	-0.00027596246
81	0xb8616d36	-5.374589e-05
82	0xba9419fc	-0.0011299248
83	0xbaac9de2	-0.0013169611
84	0xbb16d159	-0.0023012965
85	0x3b2c3215	0.0026274968
86	0x39f82a6c	0.00047333853
87	0x375c4884	1.3129906e-05
88	0xbabf4453	-0.0014592506
89	0xba37ee0a	-0.00070163666
90	0xba4df1b9	-0.0007856149
91	0xb7374b90	-1.0925243e-05
92	0xb9a1ced0	-0.000308624
93	0xbb9644e6	-0.00458585
94	0xbacf4f6f	-0.001581652
95	0xbb8573dd	-0.00407265
96	0xbb8560c1	-0.004070372
97	0xba27860a	-0.0006390518
98	0x3b96992d	0.0045958967
99	0xb978bf5b	-0.00023722409
100	0x3a830e00	0.0009998679
101	0xbb440dd4	-0.0029915469
102	0xba1095c0	-0.00055154786
103	0x39cdcd6b	0.00039253695
104	0x3ae6e059	0.0017614468
105	0xba6f3ed9	-0.00091264915
106	0x3affb2cf	0.0019508245
107	0xbae21e24	-0.0017251414
108	0xba0ce999	-0.0005375385
109	0x3a85fab5	0.0010221811
110	0x39cf9fbf	0.00039601137
111	0x3b03b169	0.0020094758
112	0x3b6236f5	0.003451762
113	0x39064574	0.00012805109
114	0x3a2f996e	0.0006698583
115	0x3984b9a8	0.00025315327
116	0xbae1089c	-0.0017168703
117	0xb980594c	-0.00024480594
118	0x38df92b3	0.000106607935
119	0xb9d70493	-0.00041011404
120	0x38c7b4a0	9.5227035e-05
121	0xbb87151f	-0.004122391
122	0xba708a94	-0.0009175923
123	0xba8d268f	-0.0010768938
124	0xba5e3e68	-0.0008477927
125	0x3b8235b9	0.0039736894
126	0xbaf69369	-0.0018812242
127	0xb8b8a75e	-8.804978e-05
128	0xbb5cf6b0	-0.0033716373
129	0xba4c6604	-0.0007797184
130	0xbae7c9cc	-0.0017684042
131	0x3af6090e	0.0018771009
132	0x39069cc2	0.00012837633
133	0xbb64819e	-0.0034867297
134	0xbb9b772c	-0.004744431
135	0x3b3d15c3	0.0028852082
136	0x39ae2ff7	0.00033223603
137	0xbb82e5a5	-0.003994661
138	0x3affedb0	0.0019525792
139	0x3a269585	0.00063546776
140	0xbac0710d	-0.0014682129
141	0xba220d3a	-0.00061817805
142	0xba84c5ce	-0.0010129751
143	0xb9b3088c	-0.00034147908
144	0x396f4735	0.00022819343
145	0xbba8c025	-0.0051498585
146	0x3b035a81	0.0020042958
147	0xbb175c33	-0.0023095727
148	0xb9a7ede2	-0.0003202996
149	0xba2596f0	-0.0006316742
150	0x3bbeb14b	0.005819475
151	0xbbc955e9	-0.0061442745
152	0xbaa781cf	-0.0012779775
153	0xbaac0649	-0.0013124432
154	0xb9ddfb7e	-0.0004233978
155	0xbb03d443	-0.0020115532
156	0x3a8d6ddc	0.0010790187
157	0xbad6fbb0	-0.0016401913
158	0x3b780447	0.0037844346
159	0x3a00e25a	0.00049165415
160	0xb7eefa2c	-2.8488306e-05
161	0xb98c414e	-0.00026751537
162	0xb89be495	-7.433553e-05
163	0xb9d38c0b	-0.00040349396
164	0xb8e76fb8	-0.000110357476
165	0xb962ea82	-0.000216404
166	0x3bd3bc7b	0.0064616776
167	0xbbac4a28	-0.0052578636
168	0x3ae6caf0	0.0017608088
169	0xb9b47381	-0.00034418333
170	0x3b15b2a1	0.0022842067
171	0x3b8053b1	0.003916227
172	0xb991d0ad	-0.0002781203
173	0x3869f8c4	5.578321e-05
174	0x3a8b02a6	0.0010605648
175	0xbaf180b5	-0.0018425199
176	0x3aaece63	0.0013336655
177	0xb9fe9f30	-0.0004856526
178	0x3b09f76a	0.0021052011
179	0x38be8250	9.0841786e-05
180	0xba4f9656	-0.0007918825
181	0x381e1ce2	3.7697035e-05
182	0xbb1e84dc	-0.0024188077
183	0x3a90d7db	0.0011050658
184	0x3a868b0e	0.001026483
185	0x3a8c9e3d	0.0010728311
186	0x3b85a37c	0.0040783267
187	0xba7fac14	-0.00097531197
188	0xba28b8f4	-0.00064362516
189	0xb8cb7cba	-9.7030264e-05
190	0x396e6a5b	0.00022737069
191	0xbab42596	-0.0013744112
192	0xb988861a	-0.00026039855
193	0xba5dd5be	-0.0008462331
194	0x3ad09c2d	0.0015915685
195	0x3a2c236d	0.0006566558
196	0x39749d06	0.00023328149
197	0xba861423	-0.001022939
198	0xbb45943b	-0.0030148167
199	0xb93a28d0	-0.00017753546
200	0x3913152e	0.00014026902
201	0xb9f01ec2	-0.00045799284
202	0xba57d807	-0.00082337897
203	0xba090683	-0.00052271056
204	0x3a55f9e7	0.00081625435
205	0x3aaf512e	0.0013375634
206	0x3adb2915	0.0016720617
207	0xba87a43b	-0.0010348627
208	0x3a3c93bb	0.00071936444
209	0x3b91baad	0.0044473023
210	0x39cc52d4	0.00038971624
211	0xbb2a0c23	-0.0025947175
212	0x3b61ea1e	0.003447182
213	0xbaffcf00	-0.0019516647
214	0xbb1f7395	-0.0024330367
215	0xbb041355	-0.0020153124
216	0x3804b98e	3.1644064e-05
217	0x3af26217	0.0018492368
218	0xb98e92e0	-0.0002719378
219	0xbb15de4c	-0.0022868095
220	0x3b845500	0.004038453
221	0xbb914f1b	-0.004434479
222	0xbaf6e824	-0.0018837494
223	0xba15f43a	-0.00057202915
224	0xbb8830cf	-0.004156209
225	0xba9e4e78	-0.0012077829
226	0xbacd6a80	-0.0015671998
227	0xba022378	-0.00049643917
228	0x377e70d8	1.5165853e-05
229	0xb9f1c3a4	-0.00046112866
230	0x3b035b25	0.002004334
231	0xba55e405	-0.0008159283
232	0xbb2264c7	-0.0024779306
233	0x3a304f8f	0.00067257223
234	0xba8b365a	-0.0010621056
235	0x3b85846b	0.0040746233
236	0xba254f51	-0.00063060696
237	0x3aba2048	0.0014200294
238	0xbaa55eb2	-0.0012616722
239	0xbba924ad	-0.005161843
240	0xbac15d54	-0.0014752545
241	0xb90b8751	-0.00013306482
242	0xba065af2	-0.0005125246
243	0xba84ddd2	-0.0010136908
244	0xbbad62fa	-0.00529134
245	0x3a3608da	0.0006944068
246	0xba7352bc	-0.0009282043
247	0x3ab78b4a	0.0014003303
248	0xba4f1c82	-0.00079006713
249	0x3b0729ab	0.0020624201
250	0xbb7928f5	-0.0038018797
251	0xba8dca9e	-0.0010817831
252	0x3a9f1380	0.0012136549
253	0x39bf9ac2	0.00036545662
254	0x3997c0c5	0.0002894459
255	0xba518dbc	-0.00079938374

network_body.linear_encoder.seq_layers.2.weight f4 [256, 256]
0	0x3d3c1991	0.04592282
1	0xbd2a5cfb	-0.04159258
2	0x3be6aca2	0.0070396224
3	0xbb491dc1	-0.00306879
4	0xbd0e1f5d	-0.03469788
5	0xbd64a15b	-0.055817943
6	0x3dcd898a	0.10035999
7	0xbd77093c	-0.06031154
8	0x3d1497df	0.036277648
9	0xbe041771	-0.12899567
10	0x3bd52dfd	0.0065057264
11	0xbc61b22f	-0.013775392
12	0x3ded7af3	0.11595716
13	0xbcd574a0	-0.026056588
14	0xbd86bf30	-0.06579435
15	0x3d42eae6	0.047587298
16	0x3a5dc47d	0.000845976
17	0x3c9ef5f1	0.019404383
18	0xbd66f6c0	-0.056387663
19	0xbc369cac	-0.011145752
20	0xbd3f559e	-0.04671251
21	0xbd6b39ea	-0.057428278
22	0x3dc42eb2	0.09579219
23	0xbdb4f880	-0.0883646
24	0x3cce3e23	0.025176113
25	0x3e0031b8	0.12518966
26	0xbaa2d914	-0.0012424313
27	0x3cfd859b	0.030947497
28	0xbd91fc32	-0.071281806
29	0xbded05e1	-0.11573387
30	0xbd623c8d	-0.055233527
31	0x3c7f0299	0.015564584
32	0xbcc50da7	-0.024054362
33	0xbd0fe2b6	-0.035128318
34	0xbe36ef51	-0.1786473
35	0xbda46b88	-0.080283225
36	0x3ca3ff5f	0.020019231
37	0xbc80d600	-0.015727043
38	0xbd5afe9d	-0.053465474
39	0xbcb30189	-0.021851318
40	0xbc1db38f	-0.00962533
41	0xbd30138e	-0.0429874
42	0x3c0e32a7	0.008679069
43	0x3a9a1401	0.0011755229
44	0xbd8f3378	-0.06992239
45	0xbdcbe69b	-0.09956094
46	0x3dcf0453	0.10108247
47	0x3e0bb076	0.13641533
48	0x3c85ab2e	0.016316976
49	0x3d8a9aa4	0.067677766
50	0x3b1c292b	0.002382825
51	0x3d409944	0.047021165
52	0xbd6812fa	-0.056658722
53	0x3df1351d	0.11777709
54	0xbd56d033	-0.052444648
55	0xbd263ab5	-0.04058333
56	0xb92db3da	-0.00016565566
57	0xbd070ef9	-0.032973263
58	0x3d9242d5	0.071416534
59	0x3b861c6c	0.0040927436
60	0x3d0dbea7	0.03460565
61	0x3d9f0c16	0.07765977
62	0xbce3a602	-0.02778912
63	0xbd383e78	-0.04498145
64	0x3c5c71c9	0.013454863
65	0x3cc00472	0.02343962
66	0xbd2ef001	-0.042709354
67	0xbd119cee	-0.03555005
68	0xbd729e40	-0.05923295
69	0xbda711c8	-0.081576884
70	0x3da0e619	0.07856388
71	0xbd235a37	-0.039880957
72	0xbbc8110b	-0.0061055473
73	0x3b251f30	0.002519559
74	0x3d8e4ba9	0.06948025
75	0xbd0ee1dd	-0.03488337
76	0xbd5dbe5e	-0.054136626
77	0xbd23a81b	-0.03995524
78	0xbc15cfa4	-0.009143744
79	0xbd3ed2d2	-0.046587773
80	0x3d8bda66	0.068287656
81	0x3bf61997	0.0075103748
82	0xbdafe2bf	-0.0858817
83	0xbb542273	-0.0032369166
84	0xbd43dd1c	-0.04781829
85	0xbc8ae798	-0.016956136
86	0x3d51f184	0.051255718
87	0x3e2dca2e	0.16971657
88	0x3d8d51ae	0.06900345
89	0x3dbb9930	0.091600776
90	0xbcb2e992	-0.02183989
91	0x3e4405d0	0.19142842
92	0xbd452428	-0.048130184
93	0x3dd436e3	0.10362031
94	0x3dec8f13	0.11550727
95	0xbcc7ef1c	-0.024406008
96	0xbdba204e	-0.09088193
97	0x3d22dd5c	0.039761886
98	0xbc5d454d	-0.013505292
99	0xbd980ff3	-0.07424917
100	0x3e1f0b25	0.15531595
101	0x3d84f5a7	0.06492167
102	0xbd14d3f4	-0.036334947
103	0xbd476573	-0.048680734
104	0xbd02ca98	-0.03193149
105	0x3e4475ff	0.19185637
106	0xbe260707	-0.16213618
107	0x3ca84db6	0.020544868
108	0x3b175640	0.002309218
109	0x3e434093	0.19067602
110	0xbc3bd355	-0.01146396
111	0xbdd2ebd2	-0.102988854
112	0xbd08ddc9	-0.033414636
113	0xbd05f9d2	-0.03270895
114	0xbb91afd7	-0.0044460106
115	0x3ced3e91	0.028960498
116	0xbcc6b2c7	-0.02425517
117	0xbdff5bcb	-0.1246868
118	0xbcfae67e	-0.030627485
119	0x3d40e68b	0.047094863
120	0x3d097a68	0.033564
121	0xbcd9ab58	-0.02657096
122	0xbd4b6bbf	-0.0496633
123	0x3d3abd7f	0.045590874
124	0xbceefe09	-0.029173868
125	0x3bcb6c17	0.0062079537
126	0xbbf9d149	-0.0076238257
127	0x390dc901	0.00013521688
128	0xbd60dba7	-0.054896977
129	0x3c59120e	0.0132489335
130	0xbd4f5d9e	-0.05062639
131	0xbdc21c04	-0.09478
132	0xbd9527eb	-0.072830044
133	0x3d8b92ba	0.06815095
134	0xbd282ec2	-0.041060217
135	0x3e39ed9c	0.18157047
136	0xbc595240	-0.013264239
137	0x3d4e3efb	0.05035303
138	0xbd0deb20	-0.03464806
139	0x3d7ea1ea	0.062166132
140	0x3d4a2696	0.049353205
141	0xbc2dea9c	-0.010615017
142	0x3dc5d725	0.09660176
143	0x3d8ff3e2	0.07028939
144	0xbdb9df6e	-0.09075819
145	0xbcbd8b62	-0.023137752
146	0xbc9d457a	-0.019198168
147	0xbd87efb9	-0.0663752
148	0x3c97498e	0.01846769
149	0xbcf27443	-0.029596454
150	0x3e3c5053	0.18390016
151	0x3c807296	0.015679639
152	0x3d9eda85	0.07756523
153	0xbda2ae65	-0.07943419
154	0x3dffb186	0.12485032
155	0xbd4092e1	-0.047015075
156	0x3d1e9ee2	0.03872574
157	0xbd9a937b	-0.07547661
158	0x3dcf3bf9	0.10118861
159	0xbc139d98	-0.009009741
160	0x3d9c8ed2	0.07644428
161	0x3d1a6181	0.037690643
162	0x3c929bf7	0.017896635
163	0x3d74870f	0.059699114
164	0xbc12211a	-0.008919025
165	0x3d7bfcbd	0.061520327
166	0x3d614758	0.05499968
167	0xbc8b0537	-0.01697026
168	0x3cdba599	0.026812362
169	0xbc2ae29b	-0.0104300035
170	0xbe08511c	-0.13312191
171	0x3caac9db	0.020848205
172	0x3d1f5056	0.038894974
173	0x3dff461f	0.124645464
174	0x3cf74cc0	0.030187964
175	0x3e1176f2	0.1420553
176	0x3bd7468f	0.0065696905
177	0xbd861c50	-0.06548369
178	0xbd8848b5	-0.06654493
179	0x3d8c8ddd	0.06862996
180	0x3daa37d6	0.08311431
181	0xbd2180df	-0.03942954
182	0xbdbce14e	-0.09222661
183	0xbd0efb86	-0.03490784
184	0x3d21354d	0.039357472
185	0x3d0fb891	0.035088126
186	0xbcf33694	-0.02968911
187	0xbe1f2cb0	-0.1554439
188	0xbd0f9734	-0.035056308
189	0x3cf26934	0.02959118
190	0xbc0a767f	-0.008451103
191	0x3d8ae757	0.06782406
192	0x3c670a64	0.014101598
193	0x3c050cad	0.008120698
194	0x3caaaeee	0.020835366
195	0x3baacd2d	0.005212447
196	0xbcc68a8b	-0.024235984
197	0x3c4e5303	0.012593034
198	0xbc077b71	-0.008269177
199	0xbc43a0c7	-0.011940188
200	0xbd509b8b	-0.050929587
201	0x3d618f09	0.05506805
202	0x3d5ee540	0.05441785
203	0x3c499c15	0.012305279
204	0x3d6a55ae	0.057210617
205	0xbc316d3b	-0.010829265
206	0xbc0a123c	-0.008427199
207	0xbd88fb20	-0.06688523
208	0x3c107776	0.008817544
209	0x3c54a5ff	0.01297903
210	0xbe08745e	-0.1332564
211	0xbc79213e	-0.015205679
212	0x3daa30b4	0.08310071
213	0xbe309fe8	-0.172485
214	0xbcf913f6	-0.030405026
215	0xbda17a04	-0.07884601
216	0xbd3bab39	-0.045817588
217	0xbd43c933	-0.0477993
218	0x3c95e7e8	0.018299058
219	0x3b0fc314	0.0021936344
220	0xbd695c9f	-0.056973096
221	0xbc876cf1	-0.01653144
222	0xbd22225a	-0.03958354
223	0xbc2ac915	-0.010423918
224	0x3d507eea	0.050902285
225	0x3a93a6c1	0.0011264906
226	0x3d516308	0.051119834
227	0xbdac75cd	-0.08420906
228	0x3d9c810e	0.07641803
229	0xbd13638a	-0.0359836
230	0x3c7240d6	0.014785966
231	0xbce63393	-0.028100764
232	0x3d9b2dc6	0.0757709
233	0x3d6ea108	0.05825904
234	0x3c98779c	0.018611722
235	0x3cabd4e8	0.020975545
236	0xbc2560ad	-0.01009385
237	0x3ddd13e1	0.10794807
238	0xbcf86190	-0.030319959
239	0xbd2ada2e	-0.04171198
240	0xbc285832	-0.010274934
241	0xbcbb004e	-0.022827294
242	0xbd92aaef	-0.07161509
243	0xbc569632	-0.013097333
244	0xbd67fe35	-0.056638915
245	0x3d8b9147	0.06814819
246	0x3ba1117f	0.004915416
247	0xbc459243	-0.012058797
248	0xbdc0c9e0	-0.094135046
249	0x3db02ac2	0.086019054
250	0xbd970457	-0.07373875
251	0x3da16d46	0.078821704
252	0x3d61b004	0.055099502
253	0xbd7c959d	-0.06166612
254	0x3d767434	0.060169414
255	0xbc53f7d8	-0.0129375085

network_body.linear_encoder.seq_layers.2.bias f4 [256]
0	0x3af77317	0.0018878904
1	0xb952cca2	-0.00020103392
2	0xbb55e8e4	-0.0032640034
3	0x3a5d6cfe	0.0008446722
4	0xbb01e022	-0.0019817431
5	0x3aba3f1e	0.0014209484
6	0xb9b16ed1	-0.00033842635
7	0xbb09a0e3	-0.0021000437
8	0xba86bead	-0.0010280214
9	0xb95d057e	-0.00021078248
10	0xbb194337	-0.002338601
11	0xb808670b	-3.2520893e-05
12	0x3b3c4381	0.002872676
13	0xba18212d	-0.00058032834
14	0xbb458450	-0.003013868
15	0x3a02a53c	0.0004983728
16	0x3b36e5aa	0.0027907887
17	0xb9e5cd1c	-0.00043831102
18	0xbb4bdaa7	-0.0031105669
19	0xbbae59a6	-0.0053207455
20	0xb9057328	-0.00012726767
21	0xb9a43fb6	-0.00031327986
22	0xbb8b4db0	-0.0042512044
23	0xba195b21	-0.0005850066
24	0xbab0f57c	-0.0013500894
25	0x3a3cc72c	0.000720131
26	0x39913c06	0.00027701276
27	0xb9dd16b6	-0.00042169326
28	0xb998f1c9	-0.00029171843
29	0x39f75fcc	0.00047182885
30	0x3b0ca3c4	0.0021459917
31	0x3b6d5878	0.0036216062
32	0xba21fdc9	-0.00061794795
33	0x3a108dcf	0.0005514295
34	0xbb5849c0	-0.0033002943
35	0x3b47287a	0.0030389116
36	0x3b3dadd8	0.002894273
37	0xb9335ee2	-0.00017106117
38	0xbade93d5	-0.0016981313
39	0x39291266	0.0001612395
40	0xbac5e7dd	-0.0015099008
41	0xba442f82	-0.0007483886
42	0xb9959c92	-0.0002853615
43	0xba88e351	-0.0010443722
44	0xbb3dad41	-0.0028942379
45	0x3b6d41fc	0.003620266
46	0xbb1e8950	-0.0024190731
47	0x39fdf51a	0.00048438535
48	0xb985204e	-0.00025391806
49	0xbab48e8d	-0.0013775394
50	0x3a645356	0.0008709928
51	0xbb8cc338	-0.004295733
52	0xb98faa3e	-0.00027401926
53	0xb920fd58	-0.00015353167
54	0xb72e36f8	-1.0384007e-05
55	0x3b3e17d4	0.0029005902
56	0x3b06cbbb	0.002056821
57	0xb93aeb3b	-0.00017825972
58	0x3a5c1b8b	0.0008396438
59	0xbaa65dd8	-0.0012692763
60	0x3a83ae72	0.0010046496
61	0xba8fec46	-0.0010980449
62	0x3b85e860	0.004086539
63	0xbb40abc8	-0.0029399265
64	0xba4b700c	-0.0007760532
65	0xb980e43c	-0.0002458411
66	0x3b350854	0.0027623372
67	0xbb9b623f	-0.0047419365
68	0xb9d8162a	-0.00041215244
69	0xb9ccf43a	-0.00039091875
70	0xbae44bf0	-0.0017417651
71	0xbb72ca88	-0.0037046988
72	0x3ab1c439	0.0013562507
73	0x3b61c398	0.0034448858
74	0x3b88e412	0.0041775787
75	0xbabd86dd	-0.0014459748
76	0x3b96ade4	0.004598366
77	0xb8c49f04	-9.375627e-05
78	0xbb87e4e6	-0.00414716
79	0xba14358d	-0.00056537316
80	0xbb31b65f	-0.0027116758
81	0x3a0d0835	0.0005379946
82	0xba9ffcdd	-0.0012206096
83	0x393ec6ac	0.00018193823
84	0xba379a29	-0.00070038676
85	0x3805e78b	3.1925312e-05
86	0xbaa9f774	-0.0012967424
87	0xb9b69126	-0.0003482189
88	0x39753a60	0.00023386767
89	0x3b376a6a	0.0027987012
90	0x3bce2873	0.006291443
91	0xba795b01	-0.0009512157
92	0x3922d42d	0.00015528566
93	0xbb8838ef	-0.0041571776
94	0x37b7976a	2.1885808e-05
95	0xbbb7ce32	-0.005609297
96	0xb9330738	-0.0001707346
97	0xba3e21b2	-0.0007252946
98	0x39c56121	0.00037647135
99	0xbb7d2b60	-0.003863059
100	0xb82964cf	-4.0386625e-05
101	0xb97fe762	-0.00024404892
102	0xbb7b8e54	-0.0038384395
103	0xba3c636d	-0.00071864465
104	0xb9af6206	-0.00033451634
105	0xb99a1054	-0.00029385334
106	0xbb907437	-0.004408385
107	0xba5be80e	-0.0008388766
108	0xba6d557b	-0.000905357
109	0xba0fc6ff	-0.000548467
110	0xbb123cfb	-0.002231418
111	0xbb593d85	-0.003314824
112	0xba0056de	-0.0004895757
113	0x3bf7f8ac	0.007567486
114	0xb9e61d92	-0.0004389105
115	0xba9c6054	-0.0011930563
116	0xbb491a3b	-0.00306858
117	0xba9b7b84	-0.0011862372
118	0xbad56244	-0.0016279896
119	0x3b1cc59a	0.002392149
120	0xb9ec81f4	-0.0004511025
121	0xba63e0bc	-0.0008692851
122	0xb98cd6b4	-0.00026862847
123	0xba2c4910	-0.00065721665
124	0xb9d74e67	-0.0004106641
125	0x3b7f9d63	0.0039003722
126	0xba487156	-0.0007646283
127	0xbbe2a9c7	-0.0069172117
128	0x3aa3dd88	0.0012501935
129	0xba7e9cb6	-0.0009712683
130	0xba130aee	-0.00056092336
131	0xba353b80	-0.0006913468
132	0x38ee16f0	0.00011352997
133	0x3a0e38a8	0.00054253126
134	0x38cb1d0f	9.685207e-05
135	0xba161111	-0.0005724589
136	0xba0a9601	-0.00052866346
137	0xba4ef59f	-0.0007894877
138	0xba11ff31	-0.00055693375
139	0xb9c74333	-0.00038006305
140	0xbb3cdc71	-0.0028817917
141	0xb9087a7c	-0.000130156
142	0xba4d4a63	-0.0007831214
143	0xba119219	-0.0005553081
144	0xba537ba6	-0.0008067436
145	0x398a578a	0.00026386633
146	0xbb127027	-0.002234468
147	0xba22d521	-0.0006211568
148	0xb9951ba8	-0.000284401
149	0x3a9e1e16	0.001206341
150	0xbaa53a1e	-0.0012605821
151	0xba15b62e	-0.0005711046
152	0xba45824a	-0.0007534368
153	0xbace561a	-0.0015742213
154	0xbb1e047b	-0.0024111557
155	0xbbe99d6d	-0.0071293623
156	0x39bdd9d8	0.00036211195
157	0x3adfc96a	0.0017073576
158	0x3bbe8190	0.005813785
159	0x3b2bdfba	0.002622588
160	0x370c7ed8	8.374183e-06
161	0xbb5f812d	-0.0034104094
162	0x39afb779	0.000335153
163	0x386b136c	5.6046454e-05
164	0x3a3ab620	0.00071224757
165	0xba125cb1	-0.000558327
166	0x37a71a90	1.992032e-05
167	0xb99eefd9	-0.0003031481
168	0xb84fcdb9	-4.954424e-05
169	0x3b474b2c	0.0030409796
170	0xb9ff5fbc	-0.00048708718
171	0x3a9aa9be	0.0011799855
172	0xbb89ab14	-0.0042013023
173	0xbab7326c	-0.0013976819
174	0x3aef1a33	0.0018242061
175	0xb3a91a80	-7.874496e-08
176	0x3be3291b	0.0069323904
177	0x39c48587	0.0003748352
178	0xb9f59912	-0.00046844088
179	0x3a6f2e4b	0.00091240247
180	0x3a87b4ce	0.0010353567
181	0xbb5ee8cc	-0.003401327
182	0xb934e5a3	-0.00017251684
183	0x39b5ca5f	0.00034673788
184	0xba90eef5	-0.0011057543
185	0xb99d29c0	-0.0002997648
186	0xbb62c227	-0.0034600587
187	0xbb4dd51d	-0.0031407543
188	0x3ad03248	0.0015884126
189	0xbac37a1f	-0.0014913714
190	0x38e5efc0	0.00010964228
191	0x3b8dc904	0.0043269414
192	0xbb1bed64	-0.002379262
193	0xb9c2296e	-0.0003703343
194	0xb9debb67	-0.00042482765
195	0xb98713e2	-0.0002576402
196	0xb784ea6e	-1.5844791e-05
197	0xbb396abf	-0.0028292385
198	0xbb2f0374	-0.002670494
199	0xba4d1550	-0.0007823305
200	0x38dcb27c	0.00010523663
201	0xb8ec5eea	-0.00011271036
202	0x3a936e3a	0.001124806
203	0xb9a6b314	-0.0003179541
204	0xb97e1e01	-0.00024234505
205	0xb903a5b6	-0.00012554866
206	0xba9aae4f	-0.0011801216
207	0x39afb010	0.00033509778
208	0xb984287e	-0.0002520717
209	0xba89c6a3	-0.0010511469
210	0xbb96103d	-0.0045795725
211	0x3a007404	0.00049001
212	0x3b75971c	0.0037474101
213	0x3892f826	7.008044e-05
214	0x3b177442	0.0023110067
215	0x3b5fb83a	0.0034136907
216	0xb88edd6f	-6.812333e-05
217	0xbb30d274	-0.0026980909
218	0xb981516d	-0.00024665464
219	0x3adbee77	0.0016779442
220	0xbba2c734	-0.0049675945
221	0xb90fb9fb	-0.00013706826
222	0xba0af65b	-0.0005300992
223	0x394cf388	0.00019545679
224	0x3b0509ec	0.0020300103
225	0xb8a9651e	-8.0773825e-05
226	0xbb926970	-0.0044681355
227	0xba851872	-0.001015438
228	0x3aabaa0e	0.0013096945
229	0xba70b3fe	-0.00091820944
230	0xbab0a024	-0.001347546
231	0xba874a6e	-0.0010321864
232	0x38db59c3	0.00010459453
233	0xb9637f5b	-0.0002169585
234	0xbb073b49	-0.0020634702
235	0xba2586f5	-0.00063143607
236	0xbb3e854a	-0.0029071146
237	0xb8ba5b90	-8.886226e-05
238	0xb9195790	-0.00014623837
239	0xbb1afe99	-0.0023650287
240	0x3b84b5ef	0.0040500085
241	0xba3c35c5	-0.0007179643
242	0x3b17dd2c	0.00231726
243	0xbba08998	-0.004899215
244	0xb9ba8a7d	-0.00035579866
245	0x3a6da764	0.00090657757
246	0xb9edea6c	-0.0004537882
247	0xbbb20f3c	-0.005433945
248	0x3b2b1c04	0.0026109228
249	0xb90cca5f	-0.0001342683
250	0xb96d1e52	-0.00022613376
251	0xb96cf5f5	-0.0002259834
252	0xbb48c86a	-0.0030637034
253	0x3b85b3e9	0.004080285
254	0x3bd493ef	0.0064873616
255	0x3a32ac70	0.00068158563

action_model._continuous_distribution.log_sigma f4 [1, 5]
0	0xbb68a121	-0.003549643
1	0xbb71adc9	-0.0036877266
2	0x3b7383ba	0.0037157373
3	0xbc1efaf2	-0.009703385
4	0xbbcf3b7a	-0.006324229

action_model._continuous_distribution.mu.weight f4 [5, 256]
0	0xbc6f35ed	-0.014600259
1	0x3ca46033	0.020065403
2	0x3bf730a3	0.0075436397
3	0xbc197f60	-0.0093687475
4	0xbb64dc3c	-0.003492131
5	0x3c93b915	0.01803259
6	0x3ca0003f	0.019531367
7	0xbad626bf	-0.0016338452
8	0xbca32285	-0.019913921
9	0x3bacf02d	0.0052776546
10	0x3c750eca	0.014957139
11	0x3cb6cfef	0.022315947
12	0xbc6743cb	-0.014115284
13	0xbc009d1b	-0.007849957
14	0xbc938326	-0.018006872
15	0xbc4a1794	-0.012334723
16	0xbb414bdd	-0.002949468
17	0x3c5df5d5	0.01354738
18	0xbb4fa942	-0.003168658
19	0x3b2fa848	0.0026803184
20	0x3c110ff3	0.0088539
21	0x3c2486eb	0.010041933
22	0xbb857417	-0.004072677
23	0x3bf9ae44	0.007619651
24	0xbc727666	-0.014798736
25	0x3c12d7a5	0.0089625465
26	0x3bfbfd41	0.0076901023
27	0xbc56908f	-0.013095989
28	0xbb804aac	-0.0039151516
29	0xbc762a8b	-0.0150247915
30	0xbcc2898e	-0.023747232
31	0x3c3ef3f0	0.011654839
32	0xbc497326	-0.01229552
33	0xbbc49e59	-0.006000322
34	0xbcb1da16	-0.021710437
35	0x3bd358fe	0.0064498177
36	0x3b1f1314	0.0024272846
37	0xbb1495be	-0.002267226
38	0xbbd67919	-0.0065451977
39	0x3cedea72	0.029042456
40	0x3bfb6d80	0.0076729655
41	0xbb4d7640	-0.0031351
42	0xbcc82edd	-0.024436409
43	0xbc2f311b	-0.01069286
44	0x3c7a7229	0.015286007
45	0xbb27fb87	-0.00256321
46	0x3b114ede	0.0022172253
47	0xbb9be800	-0.004757881
48	0xbc4a95a3	-0.012364778
49	0xbb3658f5	-0.0027824019
50	0x3d0975cb	0.0335596
51	0x3bd26753	0.0064210086
52	0x3c856b06	0.016286384
53	0xbc3a1793	-0.01135816
54	0x3b2ccaf1	0.002636608
55	0xbb780069	-0.0037842041
56	0xbb58f48c	-0.0033104746
57	0xb9afac17	-0.00033506818
58	0x3d09775b	0.033561092
59	0xbb88dc33	-0.0041766404
60	0x3c7c06b5	0.015382458
61	0xbc0f1cdb	-0.008734907
62	0x3ae19be6	0.0017212599
63	0xbbc33b13	-0.00595797
64	0xbc6fc7b2	-0.014635013
65	0x3a3dceb4	0.0007240579
66	0x3ba951a6	0.005167204
67	0xbbdd3378	-0.0067505203
68	0xbc5f2f36	-0.013622096
69	0x3c96da7c	0.018414728
70	0xbb8a901e	-0.004228606
71	0xbc940b3e	-0.018071767
72	0x3b7adbe8	0.0038278047
73	0x3c9731ed	0.018456424
74	0xba2d0d0f	-0.0006601372
75	0x3c24581e	0.010030774
76	0x3a99a980	0.0011723489
77	0xbbb36074	-0.0054741446
78	0x3c3ae0db	0.011406149
79	0x3c63bea9	0.013900437
80	0xbc30aa6f	-0.010782822
81	0x3b20519e	0.002446271
82	0xbc8189a8	-0.01581271
83	0x3ba14b0f	0.0049222778
84	0x3afc835a	0.001926522
85	0x3afbecd7	0.0019220364
86	0xbba9433e	-0.0051654866
87	0x39969c10	0.00028726505
88	0xbb1a0ec3	-0.0023507334
89	0xbc58521d	-0.013203171
90	0xbd0b045b	-0.0339397
91	0xbc2cc9f7	-0.010546199
92	0x3a412b31	0.0007368802
93	0xbceec42f	-0.029146282
94	0x3bd6925a	0.006548208
95	0xbba8846e	-0.00514274
96	0x3b6d5a2d	0.003621708
97	0xbba8ccdc	-0.0051513743
98	0xbc5776e6	-0.013150906
99	0xbc026d41	-0.0079606185
100	0x3cd91df2	0.026503537
101	0x3cf9d571	0.030497285
102	0xbbc19024	-0.0059070755
103	0xbc1dc7bd	-0.009630141
104	0x3cba8a65	0.02277107
105	0x3b1538e4	0.0022769505
106	0xbb56d31b	-0.0032779637
107	0xbc4cd3f6	-0.012501707
108	0xbca88903	-0.020573145
109	0xbc06b1aa	-0.008221069
110	0xbbb5ba97	-0.005545925
111	0x3a28467d	0.0006419195
112	0xbc50d16c	-0.012745243
113	0xbbb92c62	-0.005651043
114	0x3b4a946c	0.003091122
115	0xbcbf9beb	-0.023389777
116	0x3c9fda54	0.019513287
117	0xbc571904	-0.013128523
118	0x39bdbc07	0.0003618898
119	0xbc612215	-0.013741036
120	0x3bf5ac98	0.0074973814
121	0xbc10dff7	-0.00884246
122	0xbc36f074	-0.011165727
123	0xbbbd2fac	-0.005773505
124	0xbcbdd6a9	-0.023173647
125	0x3b8a1a3d	0.0042145536
126	0xbbe091cd	-0.0068533183
127	0xbb783dc9	-0.0037878624
128	0xbceedd5c	-0.029158287
129	0xbc9e675d	-0.019336397
130	0xbaf661aa	-0.0018797417
131	0xbbf209f6	-0.0073864413
132	0x3b9104ff	0.0044256444
133	0xbc25cb72	-0.010119306
134	0xbc059ad6	-0.008154592
135	0x39c24836	0.00037056365
136	0xbb0061ac	-0.0019589467
137	0xb9ddf24f	-0.0004233294
138	0xbb39e85e	-0.0028367261
139	0xbbec717f	-0.007215678
140	0xbb882b86	-0.004155579
141	0xbb518bf3	-0.0031974285
142	0xbc492533	-0.012276935
143	0x3c3148df	0.0108205965
144	0xbc9c8aed	-0.019109214
145	0xbc27de97	-0.010245941
146	0xbcb33e33	-0.021880245
147	0xbc529f04	-0.012855295
148	0xbb61834b	-0.0034410532
149	0x3bfb99cd	0.0076782466
150	0x3c04504b	0.008075784
151	0xbb42c933	-0.0029721975
152	0x3b37bffa	0.002803801
153	0xbd25eb7c	-0.04050778
154	0xbc8b3415	-0.016992608
155	0xbc334c7e	-0.01094353
156	0x3b7ee4a2	0.00388936
157	0x3a70bcda	0.00091834145
158	0xbc00210a	-0.007820377
159	0x3c49bac5	0.012312596
160	0x3c33d872	0.010976898
161	0x3b3aa6a4	0.0028480673
162	0xbb2e9093	-0.0026636466
163	0x3c111790	0.008855715
164	0x3c46d0d8	0.012134753
165	0xbb87e050	-0.004146613
166	0x3c83f1d1	0.016106518
167	0xbbab5503	-0.00522864
168	0x3b9becba	0.0047584446
169	0x3b05cb64	0.002041542
170	0x3bc3eeef	0.005979411
171	0x3c4be59c	0.01244488
172	0x3a7445e0	0.00093182735
173	0x3a6a8b70	0.00089471694
174	0x3ad5886b	0.0016291266
175	0x3bb2c0a0	0.0054550916
176	0xbc79d0d8	-0.015247546
177	0xbb1eb582	-0.0024217074
178	0xbc287001	-0.01028061
179	0x3b7be09f	0.0038433445
180	0xbd06e97f	-0.032937523
181	0xbc6a942c	-0.0143175535
182	0x3bdedad2	0.0068009878
183	0x3cb0210a	0.02150013
184	0xbca1a5ff	-0.019732473
185	0xbc9f6de7	-0.019461585
186	0xbc8ec487	-0.017427696
187	0x3b0d7ee9	0.0021590537
188	0x3bb21783	0.0054349317
189	0x3bfc7fb5	0.0077056536
190	0x3b8d2ec2	0.0043085525
191	0x3a9503f8	0.0011368981
192	0xbc162c8d	-0.009165895
193	0xba6ebf26	-0.0009107463
194	0xbbd641d9	-0.0065386114
195	0x3bb47865	0.005507516
196	0x3c2a28b7	0.010385684
197	0x3b1ecf28	0.0024232361
198	0x3c1da9e4	0.009623025
199	0xbb94ef6c	-0.004545143
200	0x3c16e726	0.0092103835
201	0xbbe00105	-0.006836059
202	0xbbc14daa	-0.005899151
203	0x3b7d27bd	0.0038628422
204	0x3953d75f	0.0002020276
205	0xbc1ce1a0	-0.009575278
206	0xbbf0ce21	-0.007348791
207	0xbadc6f6c	-0.0016817874
208	0x3d0a5b21	0.033778314
209	0x3a1b50c6	0.0005924817
210	0x3c61ddd3	0.013785797
211	0x3c03b27f	0.008038162
212	0x3c88f71a	0.01671939
213	0x3bf83940	0.007575184
214	0xbb9e92ce	-0.004839278
215	0xb8a112cc	-7.6805794e-05
216	0x3bc9a739	0.0061539677
217	0x3bd03d65	0.006354975
218	0xbacb77b3	-0.0015523344
219	0x3b802f49	0.003911887
220	0x3d02e078	0.03195235
221	0x3c7d4ab5	0.015459706
222	0x3b5ac118	0.0033379253
223	0x3c30a0a1	0.010780484
224	0xbb5f6e59	-0.0034092872
225	0x3bcbecf7	0.006223317
226	0xbc1fa687	-0.009744293
227	0xba4464c8	-0.0007491824
228	0x3b9e5d5d	0.004832907
229	0xbc82b720	-0.015956461
230	0x3c1945ea	0.009355048
231	0xbcf4393e	-0.029812451
232	0x3c0dd44f	0.008656575
233	0x3cc95b2c	0.024579607
234	0xba391e25	-0.0007061682
235	0xbc3e1803	-0.0116024045
236	0x3b19ff04	0.0023497948
237	0x3c1d366a	0.009595493
238	0x3ca155e7	0.019694282
239	0xbc21490f	-0.009844079
240	0x3c1829a3	0.009287271
241	0x3ac3c343	0.0014935512
242	0xbc99dc61	-0.018781843
243	0xbab5f36a	-0.0013881747
244	0x3bff3527	0.0077883187
245	0x3c9102c7	0.01770152
246	0xbb922eb7	-0.0044611352
247	0x3c48183d	0.01221281
248	0xbc44b463	-0.012005898
249	0x3c00ac36	0.007853558
250	0xbb5cc908	-0.003368916
251	0x3c7de857	0.015497289
252	0x3b8ed097	0.004358362
253	0xbc2a3caf	-0.010390445
254	0xbb3ecbb1	-0.0029113109
255	0x3baf7cd2	0.005355456

action_model._continuous_distribution.mu.bias f4 [5]
0	0x395fdf17	0.00021350045
1	0x3a009e11	0.0004906366
2	0xba0d906e	-0.0005400245
3	0x397a9e4c	0.00023900828
4	0x38b5bd0e	8.665967e-05
