Assets/ML-Agents/Neural Networks/Animal.onnx (onnx, 296297 bytes, 7 tensors)

network_body.linear_encoder.seq_layers.0.weight f4 [256, 24]
0	0xbe0eeb4f	-0.1395695
1	0x3dd985e1	0.106212385
2	0xbe8f7741	-0.2802067
3	0x3e2d6b85	0.16935547
4	0xbc5c0ff8	-0.013431542
5	0x3d817a4b	0.06322154
6	0xbe2add9e	-0.16686103
7	0x3daf3e07	0.08556753
8	0x3f04da6c	0.51895785
9	0xbdf55aeb	-0.11980232
10	0xbbcd5f59	-0.00626747
11	0x3dbaa959	0.09114332
12	0xbc057cff	-0.008147477
13	0x3dfc2905	0.12312511
14	0xbd744336	-0.05963441
15	0x3df04a57	0.11732929
16	0x3e0cc4d5	0.1374696
17	0x3dc5fa13	0.096668385
18	0xbc8a0056	-0.016845863
19	0x3d5e6f22	0.054305203
20	0xbe1f4c61	-0.1555648
21	0xbe39d83f	-0.18148898
22	0x3e702e0b	0.23455064
23	0x3e9fa926	0.31183738
24	0x3ecc1a1d	0.39863673
25	0xbd932e15	-0.07186524
26	0x3b9dda81	0.0048173075
27	0x3edbedc4	0.42954838
28	0xbe27afba	-0.16375628
29	0x3eaae27d	0.33375922
30	0x3e88f5f6	0.26750153
31	0xbd5cf942	-0.05394865
32	0xbd7873a4	-0.06065716
33	0xbe3dcd84	-0.18535429
34	0x3da59220	0.08084512
35	0xbe0e3d82	-0.13890651
36	0xbe4eda5e	-0.20200488
37	0xbea32cb7	-0.31870052
38	0x3d0df03a	0.034652926
39	0xbeae0837	-0.33990642
40	0x3d050843	0.032478582
41	0xbeba163c	-0.36345088
42	0xbeba4d58	-0.36387134
43	0xbc737e9c	-0.014861729
44	0xbf0072d7	-0.5017523
45	0x3ec26be4	0.3797294
46	0x3e4aaefe	0.19793317
47	0xbe09ca58	-0.13456094
48	0xbd894aa9	-0.067036934
49	0xbcfc6a50	-0.030812413
50	0x3d090468	0.033451468
51	0xbe74ee3c	-0.23919004
52	0x3e90b50a	0.28263122
53	0xbde69fe0	-0.112609625
54	0x3e4d6c61	0.20060875
55	0xbd2a1e6d	-0.041532923
56	0x3e64ccae	0.22343704
57	0xbd0fedb1	-0.03513879
58	0x3eb7645a	0.3581875
59	0xbe16bf8f	-0.14721511
60	0xbe59ab62	-0.21256784
61	0xbe1bf044	-0.15228373
62	0xbeb83e27	-0.35984918
63	0x3eff7e10	0.49900866
64	0xbd8a8172	-0.06762971
65	0xbd7c20a8	-0.06155458
66	0x3ca2011c	0.01977592
67	0x3e410571	0.18849732
68	0xbbd5890f	-0.006516583
69	0x3e48ff8b	0.19628732
70	0x3e479709	0.19491209
71	0x3ebf6031	0.37378076
72	0x3d0fd330	0.035113513
73	0x3dbb229f	0.09137463
74	0x3e0fe9e3	0.14054064
75	0x3df5b657	0.11997669
76	0x3dd44234	0.1036419
77	0xbea4bce9	-0.32175377
78	0xbd4d422c	-0.050111935
79	0xbd84ba35	-0.06480829
80	0xbd0571c4	-0.0325792
81	0xbd8e2e42	-0.06942417
82	0xbedfc553	-0.43705234
83	0x3dc09b6d	0.09404645
84	0x3e2434ed	0.16035815
85	0x3e940115	0.28907076
86	0xbddc69f8	-0.107623994
87	0x3cf6a5cd	0.030108357
88	0x3e532060	0.20617819
89	0xbe9eb906	-0.31000537
90	0x3dc0151e	0.09379028
91	0xbe37d8f5	-0.17953856
92	0xbc6589c5	-0.014009898
93	0xbe3ac479	-0.18239011
94	0xbd22bad2	-0.039728947
95	0x3e56837a	0.20948592
96	0x3e2ffbeb	0.17185943
97	0x3ce41082	0.027839903
98	0x3e0e2c3b	0.1388406
99	0x3d5a71b3	0.05333109
100	0xbe8535d6	-0.26017636
101	0xbea4fd88	-0.3222468
102	0xbbe61cbf	-0.00702247
103	0x3c005469	0.007832625
104	0x3db2c625	0.08729199
105	0xbef02c41	-0.46908763
106	0x3de24041	0.11047412
107	0xbd39afbb	-0.045333605
108	0x3ef9bc6e	0.48776573
109	0x3b89ed0d	0.004209167
110	0x3e045dd3	0.12926416
111	0x3d6e4fac	0.05818145
112	0xbd9e4bfb	-0.07729336
113	0x3e2b7989	0.1674558
114	0x3e327e67	0.17431031
115	0xbe32076f	-0.17385648
116	0x3dfee510	0.12446034
117	0xbd93f176	-0.072237894
118	0xbe699fde	-0.2281489
119	0x3d89d6bc	0.067304105
120	0x3e350a92	0.17679814
121	0xbe2fd42d	-0.17170782
122	0x3db184ad	0.08667884
123	0x3dab9cf2	0.08379544
124	0xbead786b	-0.33880934
125	0x3d59b5b0	0.053151786
126	0x3e4074b0	0.18794513
127	0xbe97bbd6	-0.29635495
128	0x3e443dd4	0.1916421
129	0x3e0f1782	0.13973811
130	0xbce36723	-0.02775914
131	0xbe0bf902	-0.13669208
132	0xbc029de0	-0.007972211
133	0x3e21663d	0.15761657
134	0x3ea873a2	0.3290072
135	0xbd06cd5b	-0.032910686
136	0x3eaaa7ea	0.33331233
137	0x3c903f58	0.01760833
138	0xbe67c21a	-0.22632638
139	0xbec5c375	-0.38625684
140	0xbdcf2e5b	-0.101162635
141	0xbd99c024	-0.07507351
142	0x3d3096c4	0.04311253
143	0xbcd17668	-0.025569156
144	0x3e689035	0.2271126
145	0x3d05a362	0.032626517
146	0xbd2198a5	-0.039452214
147	0x3dddd314	0.108312756
148	0x3e360553	0.17775469
149	0x3ebec1d9	0.3725727
150	0xbea5a1f8	-0.32350135
151	0xbc134a6c	-0.0089899115
152	0x3da1bd39	0.078974195
153	0xbe10fb2f	-0.14158319
154	0x3cea1154	0.028572716
155	0xbe97404d	-0.29541245
156	0xbe5eded4	-0.2176469
157	0xbea90482	-0.33011252
158	0xbed40b6c	-0.41414964
159	0xbd95855a	-0.073008254
160	0x3e1c9965	0.1529289
161	0xbf02b7ec	-0.5106189
162	0xbe6fe31f	-0.23426484
163	0x3e144c5c	0.14482254
164	0xbe41da7d	-0.18931003
165	0xbeb9eb8d	-0.36312523
166	0xbed5c115	-0.41748872
167	0x3d9a627b	0.07538315
168	0x3d1ccbe6	0.03828039
169	0x3d461833	0.048362922
170	0xbe5430e0	-0.2072177
171	0x3e40059c	0.1875214
172	0xbdd06456	-0.101753876
173	0x3bf81492	0.0075708115
174	0x3d84973f	0.064741604
175	0x3ee62408	0.44949365
176	0xbc6f70f8	-0.014614336
177	0xbe14dbf8	-0.14537036
178	0xbddba5c4	-0.10724977
179	0x3d1335b5	0.03593989
180	0x3e27d090	0.16388154
181	0x3e8a317a	0.26990873
182	0xbdfc9dcc	-0.12334785
183	0xbe2fc2b3	-0.17164116
184	0xbdad5a55	-0.08464495
185	0x3bdcbeca	0.006736611
186	0x3ef8e87b	0.4861487
187	0x3e4efcc4	0.2021361
188	0xbe3c204b	-0.18371694
189	0xba71a18b	-0.0009217492
190	0x3d9d7831	0.0768894
191	0xbd341c70	-0.043972433
192	0xbe37238a	-0.17884651
193	0xbefa7b35	-0.48922125
194	0x3f015bef	0.50530905
195	0x3e043c10	0.12913537
196	0x3d685167	0.056718256
197	0xbe07398f	-0.1320555
198	0x3e024eca	0.12725368
199	0xbf0c6702	-0.5484468
200	0x3e698a06	0.22806558
201	0x3d8d6b3f	0.06905221
202	0xbd53246d	-0.05154841
203	0xbd81be0d	-0.063350774
204	0xbe93fd00	-0.2890396
205	0x3dc7a97e	0.09749125
206	0xbe2d435b	-0.16920225
207	0xbe85bfeb	-0.26122984
208	0x3d94734d	0.072485544
209	0x3dc6582a	0.09684785
210	0x3e17ebd0	0.14836049
211	0x3eda7435	0.42666784
212	0xbd5f6dea	-0.05454818
213	0x3dd10870	0.102066875
214	0xbda42600	-0.080150604
215	0xbd8a0611	-0.06739438
216	0xbdf235f7	-0.11826699
217	0x3e9ff2b4	0.31239855
218	0xbc4a54ba	-0.012349302
219	0x3ccc8fd9	0.024970936
220	0x3bfb8595	0.0076758363
221	0xbd79dbaa	-0.061000504
222	0x3c36dd5f	0.011161177
223	0x3c5756fe	0.013143299
224	0xbd884171	-0.06653107
225	0x3e0755e9	0.13216366
226	0xbe1128d3	-0.1417573
227	0xbdc38a8d	-0.09547911
228	0x3d01f61f	0.03172886
229	0xbe1ab4f8	-0.15108097
230	0xbe320287	-0.17383777
231	0x3e6cafc7	0.23113929
232	0x3e839d11	0.2570577
233	0xbe99c34e	-0.30031818
234	0x3e856dc7	0.26060316
235	0x3ed83665	0.42229
236	0xbe9843fa	-0.29739362
237	0x3db4f76a	0.08836253
238	0x3e27e400	0.16395569
239	0x3ec9f627	0.39445612
240	0xbacbe497	-0.0015555796
241	0xbe2c65f2	-0.16835764
242	0x3e257223	0.16156821
243	0x3e809933	0.25116882
244	0x3e142c40	0.14470005
245	0x3d250f59	0.04029784
246	0x3d4731b9	0.048631404
247	0x3e3e83ab	0.18604915
248	0x3e9258fa	0.2858351
249	0xbcec8a6b	-0.028874597
250	0xbce80552	-0.02832285
251	0x3dd054cd	0.101724245
252	0xbebb6862	-0.36603075
253	0xbdc16914	-0.0944387
254	0x3e9852c8	0.29750657
255	0x3e0c061a	0.13674203

network_body.linear_encoder.seq_layers.0.bias f4 [256]
0	0x3bd54035	0.006507898
1	0x3c02e8c5	0.007990067
2	0x3b3f99aa	0.0029235878
3	0xbc62093f	-0.01379615
4	0x3c8dd8a7	0.017315222
5	0x3c5e5e06	0.013572222
6	0xbb03646a	-0.0020048865
7	0x3cc685b0	0.024233669
8	0xbabb4791	-0.0014288296
9	0x3b2b214a	0.002611237
10	0x3b6d2d72	0.0036190418
11	0x3bedc859	0.0072565493
12	0xbb33c00f	-0.0027427708
13	0xbc0e54eb	-0.008687238
14	0x3bcc259b	0.006230069
15	0x3cd21a22	0.025647227
16	0x3b99a8f3	0.00468933
17	0x3c20d4d9	0.009816372
18	0xbbf8b1b6	-0.007589544
19	0x3baf1167	0.0053426507
20	0x3cb1f706	0.021724235
21	0x3c74d57b	0.014943476
22	0x3b0b1a19	0.0021225272
23	0x3cb8895b	0.022526434
24	0x3c68945c	0.014195528
25	0xbbd55c1a	-0.0065112235
26	0xbc257318	-0.010098241
27	0x3c44d518	0.012013696
28	0x3c4991ed	0.012302858
29	0x3c4111ea	0.011784056
30	0xbc116741	-0.008874715
31	0x3cb9a9d9	0.022663997
32	0xbbdc555b	-0.0067240424
33	0x3cb503dc	0.022096567
34	0xbb3db731	-0.0028948302
35	0x3c9173a7	0.017755343
36	0x3b5fab5c	0.0034129238
37	0xbc1dd755	-0.009633859
38	0x3c169a85	0.009192114
39	0x3c29baf7	0.010359517
40	0x3cc3f30b	0.023919603
41	0x3c0f876f	0.008760317
42	0x3c919436	0.017770868
43	0xb823e0c2	-3.907155e-05
44	0x3bf1ef40	0.007383257
45	0x3c4fc1ff	0.01268053
46	0xbc12f6a0	-0.008969933
47	0x3c35ace4	0.011088584
48	0xbb6ea875	-0.0036416326
49	0x3b7f8e75	0.0038994823
50	0x3bf72bb6	0.0075430525
51	0x3c8a0346	0.016847264
52	0x3cb01b15	0.021497289
53	0xbc212d8a	-0.0098375175
54	0x3c830006	0.015991222
55	0x3c694549	0.01423771
56	0x3ba3aae9	0.0049947393
57	0xbbc4f8f5	-0.0060111233
58	0x3b1c347a	0.002383499
59	0xbbab852f	-0.0052343826
60	0x3c311513	0.010808247
61	0x3c6c9d30	0.014441773
62	0x3c8a4181	0.016876938
63	0xbc615416	-0.013752958
64	0x3aff0ecc	0.0019459366
65	0x3c1a83da	0.00943085
66	0x3cc1803e	0.023620721
67	0xbcb32a68	-0.021870807
68	0x3ca5e752	0.020251904
69	0x3a03ad92	0.00050231174
70	0x3ca7a267	0.020463182
71	0x3b564c90	0.0032699443
72	0xba95c2fa	-0.0011425905
73	0xbb100138	-0.0021973383
74	0x3b4b79f1	0.0031048025
75	0x3b2971e1	0.002585523
76	0x3c785cf7	0.015158883
77	0x3b6c3df8	0.0036047678
78	0x3cb2d76f	0.021831242
79	0x3bcabeb6	0.0061872853
80	0xbbeb0875	-0.007172639
81	0x3c8418ef	0.01612517
82	0x3c044821	0.0080738375
83	0x3bd92333	0.0066265105
84	0x3c01e46e	0.007927997
85	0x3ca8c39d	0.020601088
86	0x3c06a287	0.0082174605
87	0x3c9eb315	0.019372502
88	0x3c02a27f	0.007973312
89	0xbc38cf0f	-0.011279835
90	0x3ca97443	0.02068532
91	0x3c860247	0.016358508
92	0x3cbdbbff	0.023160933
93	0x3c451b96	0.012030503
94	0x3c456c08	0.012049682
95	0x3bc2c965	0.0059444183
96	0x3c445cfe	0.011985062
97	0x3bcaaef3	0.0061854064
98	0xbb640b3b	-0.0034796733
99	0xbc9c326a	-0.019067008
100	0xbb2cfe84	-0.002639682
101	0x3ce4439e	0.027864274
102	0x3c4258ae	0.011861963
103	0xbaac2e5e	-0.0013136377
104	0x3c305cbc	0.010764297
105	0x3b9a7142	0.0047132084
106	0x3bbcb160	0.0057584494
107	0x3c375ba6	0.011191284
108	0xba1d6da2	-0.0006005411
109	0x3c45886c	0.012056451
110	0x3bc3e5a6	0.005978304
111	0xbad64db3	-0.001635006
112	0xbc5bcbdc	-0.013415303
113	0x3c8351ca	0.016030211
114	0x3b9769dd	0.004620774
115	0x3c373161	0.011181206
116	0x3ca2b026	0.019859385
117	0x3bfdd628	0.0077464767
118	0x3cfd2f71	0.03090641
119	0x3ad78f5b	0.0016445922
120	0x3c624b4b	0.013811897
121	0x3c824dc4	0.015906222
122	0x3c85a4c0	0.01631391
123	0xbb421b13	-0.0029618188
124	0x3be56c29	0.007001419
125	0x3c907b76	0.017636996
126	0xbbbb53a8	-0.0057167597
127	0xbc1eff14	-0.00970437
128	0x3c1dad4c	0.009623837
129	0x3b202746	0.0024437471
130	0xbb15518b	-0.00227842
131	0x3c3beca8	0.011469997
132	0x3cbe8a33	0.023259258
133	0x3bc14fc1	0.0058994
134	0x3c910ade	0.017705377
135	0x3c505b7c	0.012717124
136	0x3c6b6a5a	0.014368618
137	0x3c3a7df2	0.011382567
138	0xbc9134a5	-0.017725298
139	0x3c455373	0.012043822
140	0x39ff7d4c	0.00048730744
141	0xba87b2bb	-0.0010352948
142	0x3aef97ac	0.0018279455
143	0xbb569e75	-0.0032748256
144	0x3cb38677	0.021914704
145	0x3bd490c5	0.0064869844
146	0x3ced615d	0.02897709
147	0xbcab52a6	-0.020913433
148	0x3ad55379	0.0016275487
149	0x3d08c1f1	0.033388082
150	0xbc25bf10	-0.010116354
151	0x3ce2be6a	0.027678687
152	0x3cd620a6	0.026138615
153	0x3c15ca4a	0.009142468
154	0x3b215bc4	0.0024621347
155	0xbae9fc16	-0.0017851617
156	0x3bcfafc0	0.0063380897
157	0x3ce02999	0.027363585
158	0x3abac494	0.0014249259
159	0x39e0d1cc	0.0004288092
160	0x3cec1507	0.02881862
161	0xbc83c6fb	-0.016086092
162	0x3c952885	0.018207798
163	0xbb0e30b8	-0.002169652
164	0xbc0adf72	-0.008476125
165	0x3cdc7f9d	0.02691632
166	0xbb0ab6a7	-0.0021165998
167	0x3c8417d4	0.016124643
168	0x3a93a4cd	0.0011264324
169	0x3bc0e2e7	0.005886424
170	0x3cd5b827	0.026088787
171	0x3c1aa6dd	0.009439197
172	0x3c960614	0.018313445
173	0x3cc4c699	0.02402048
174	0x3cfd3f1e	0.030913886
175	0x3b1be0ea	0.0023785182
176	0xbc98f36c	-0.01867076
177	0x3c153b5d	0.009108392
178	0x3b9f3e6d	0.0048597367
179	0x3c2c980a	0.010534296
180	0x3bb50031	0.0055237045
181	0x3b943446	0.004522833
182	0x3c0eb46d	0.008710009
183	0x3cc7fced	0.024412597
184	0xbbf4f35a	-0.007475299
185	0x3bd9e033	0.006649041
186	0x3cdf814f	0.027283339
187	0xbac9e9ef	-0.0015404801
188	0x3c2eb1b7	0.010662488
189	0x3cbc62db	0.022996357
190	0x3b6de75b	0.0036301229
191	0x3c1f2c24	0.009715114
192	0x3a021c5f	0.0004963334
193	0x3c2776a5	0.010221158
194	0xbc1a19e4	-0.009405587
195	0x3cb4b5eb	0.022059401
196	0xbb8a07b9	-0.0042123464
197	0x3c76fd3f	0.015075027
198	0x3b0faeb8	0.002192421
199	0x3b99ad0b	0.004689818
200	0x3b082c0c	0.0020778207
201	0x3c3d6952	0.011560755
202	0x3d194b8f	0.037425574
203	0x3a8e1455	0.00108398
204	0xbbc8f440	-0.0061326325
205	0x3ccb56f7	0.024821742
206	0x3b61e2a3	0.0034467361
207	0x3c1e8ac4	0.009676639
208	0x3bb04808	0.0053796805
209	0x3c908a2a	0.017644007
210	0xbb620b53	-0.0034491613
211	0x3b82e4f9	0.003994581
212	0xbc6e2d5e	-0.014537184
213	0x3bda817e	0.0066682687
214	0x3a87966d	0.0010344513
215	0xbc635623	-0.013875517
216	0x3c322176	0.0108722355
217	0xbc924143	-0.017853385
218	0x3c7c45e7	0.015397525
219	0x3aa43f92	0.0012531152
220	0x3c81b1b4	0.015831806
221	0x3acb9798	0.0015532849
222	0x3c85ff90	0.016357213
223	0x3ce43855	0.027858892
224	0x3b9c893f	0.004777103
225	0xbb967bad	-0.00459238
226	0x3c78b3d8	0.015179597
227	0x39a034d2	0.00030556932
228	0x3c3e99ab	0.011633317
229	0x3c83b6f6	0.016078454
230	0xbbd810f1	-0.0065938164
231	0x3bce1f2b	0.0062903366
232	0x3b89e179	0.0042077866
233	0x3c499c80	0.012305379
234	0xbb072518	-0.0020621475
235	0x3c81e6d9	0.015857147
236	0x3bfd12e4	0.007723199
237	0x3c27f4c4	0.010251228
238	0x38a95784	8.074849e-05
239	0x3b5eb189	0.003398033
240	0xbb5806e6	-0.0032963096
241	0xba773349	-0.00094299443
242	0x3d17cb99	0.0370594
243	0x3d1733a5	0.036914486
244	0xbc258bdc	-0.010104146
245	0x3c939dd8	0.018019602
246	0x3b02c44c	0.0019953428
247	0x3c0cf371	0.008602963
248	0x3a901e82	0.001099542
249	0x3c5ced48	0.013484307
250	0x3c8a5aee	0.016889062
251	0xbc615451	-0.013753013
252	0xbcd1e355	-0.025621096
253	0x3b157539	0.0022805466
254	0x3ba72bdb	0.0051016635
255	0x3ab74900	0.0013983548

network_body.linear_encoder.seq_layers.2.weight f4 [256, 256]
0	0xbcc36e25	-0.023856232
1	0xbdb80b9b	-0.089865886
2	0x3bc57ad9	0.0060266075
3	0x3b626ce8	0.0034549776
4	0x3c3c032b	0.011475365
5	0xbd83a8b0	-0.06428659
6	0x3d4541f5	0.048158605
7	0xbe19153e	-0.1494951
8	0xbdb72bf5	-0.08943931
9	0xbdd59e4a	-0.10430582
10	0x3ddb6639	0.10712857
11	0xbd7b4d8d	-0.061353255
12	0xbc74dd23	-0.014945301
13	0x3ba066d2	0.0048950696
14	0x3df72073	0.12066736
15	0x3d40b4a7	0.047047284
16	0x3cc7a971	0.024372788
17	0xbd107bb2	-0.035274215
18	0x3dc3858c	0.095469564
19	0xbe06f6de	-0.1318011
20	0xbd25decf	-0.04049569
21	0xbc21c79a	-0.009874249
22	0x3ca4c826	0.02011497
23	0xbd8c0cd2	-0.06838383
24	0xbccc8286	-0.024964582
25	0x3c966596	0.018358987
26	0x3d18f12a	0.037339367
27	0x3d5f813b	0.054566603
28	0x3bcba1f3	0.006214374
29	0x3ba3f485	0.0050035142
30	0xbc27085f	-0.010194867
31	0xbc772baf	-0.015086099
32	0xbd626cfd	-0.05527972
33	0xbc4d912c	-0.012546819
34	0xbd010643	-0.031500112
35	0x3dcd0841	0.1001134
36	0x3db59319	0.08865947
37	0xbd42ccc5	-0.047558565
38	0xbd447524	-0.047963277
39	0x3abe3e28	0.0014514374
40	0x3d14fda6	0.03637471
41	0xbbcfc510	-0.0063406304
42	0xbe05325a	-0.13007489
43	0x3d04a699	0.032385442
44	0x3c9ac9d5	0.01889507
45	0x3c7774db	0.015103544
46	0xbd040468	-0.032230765
47	0x3d652384	0.055942073
48	0xbd6bc0cb	-0.05755691
49	0x3c0a0eb8	0.008426361
50	0xbd935f0f	-0.07195865
51	0x3d37c555	0.044865925
52	0x3dd7b16f	0.1053189
53	0x3c86f603	0.01647473
54	0x3d364a39	0.044504378
55	0xbd980bff	-0.07424163
56	0xbcb34e3d	-0.021887893
57	0x3ce64d94	0.028113164
58	0xbd4a2982	-0.04935599
59	0x3db81dce	0.0899006
60	0xbb1172de	-0.002219371
61	0xbcc6bf1e	-0.024261054
62	0xbe10fbba	-0.14158526
63	0xbce9cf83	-0.028541332
64	0xbd3f99d1	-0.04677755
65	0xbdb09a46	-0.08623175
66	0xbd01622d	-0.03158777
67	0xbd88f550	-0.06687415
68	0x3db43d28	0.08800727
69	0xbc6c5bdc	-0.014426198
70	0x3d06f363	0.032946955
71	0x3ce54acd	0.02798977
72	0xbcb78f1c	-0.022407107
73	0xbd63b550	-0.055592835
74	0x3d9afc0e	0.07567607
75	0xbe1dcba6	-0.15409717
76	0x3cd7d339	0.026345836
77	0x3dc8d3b6	0.09806006
78	0x3c7cd275	0.015431036
79	0xbd812b7a	-0.063071206
80	0x3c1caed6	0.0095631685
81	0x3e03bf73	0.12866001
82	0x3d047a35	0.03234311
83	0xbe1a66a5	-0.15078218
84	0xbc15ae72	-0.009135829
85	0x3d9d63c6	0.07685046
86	0xbdc7984c	-0.09745845
87	0x3d3038da	0.043022968
88	0xbd8cc29e	-0.06873058
89	0xbd2243d9	-0.039615486
90	0x3cfb4224	0.030671187
91	0xbd44dee3	-0.048064124
92	0x396f7d58	0.0002283951
93	0xbdbc7b2d	-0.092031814
94	0x3a592ee3	0.000828488
95	0x3cc32077	0.023819191
96	0x3cc9d05d	0.024635488
97	0x3d04bc84	0.032406345
98	0x3befc1ea	0.0073168175
99	0xbd136d7d	-0.035993088
100	0x3d31eaaa	0.043436684
101	0xbcc50e92	-0.0240548
102	0xbb479b36	-0.0030457503
103	0x3db646ee	0.089002475
104	0xbd813a15	-0.063099064
105	0x3d13bea0	0.036070466
106	0xbd5df768	-0.054191023
107	0xbd2c44c9	-0.042057786
108	0xbc041f6e	-0.008064134
109	0x3a9702de	0.001152124
110	0x3d6a03e7	0.057132628
111	0x3dabdc94	0.08391681
112	0x3d980329	0.07422478
113	0x3e0d0fb7	0.13775526
114	0x3dc2c2d9	0.095098205
115	0xbb5e2b8e	-0.0033900472
116	0xbd56e623	-0.05246557
117	0x3df35d36	0.11883013
118	0x3c7de937	0.015497497
119	0x3d910e82	0.07082845
120	0xbc7336fa	-0.01484465
121	0x3c709235	0.014683296
122	0x3ddf2e65	0.10897521
123	0xbe03277a	-0.12808028
124	0xbcdc8e67	-0.026923371
125	0xbd41698d	-0.0472198
126	0xbd38d825	-0.045128006
127	0x3d351b8d	0.044215728
128	0xbb943222	-0.004522578
129	0x3d81e184	0.06341842
130	0x3d9a121e	0.07522987
131	0x3dad8bb6	0.08473913
132	0xbe142db8	-0.14470565
133	0x3d873de7	0.06603604
134	0x3ddbc474	0.1073083
135	0xbda192c8	-0.078893244
136	0xbd2da848	-0.042396814
137	0x3d85179d	0.064986445
138	0xbc896563	-0.016771978
139	0xbe1f8870	-0.1557939
140	0xbd7edf11	-0.06222445
141	0x3987bb95	0.00025888966
142	0xbd6752dc	-0.056475505
143	0x3dbe476a	0.09290965
144	0xbaa0b17a	-0.0012259923
145	0x3d9a3271	0.07529152
146	0xbcf3be3c	-0.029753797
147	0xbc31241a	-0.01081183
148	0x3a697cfb	0.0008906868
149	0x3dc58e2a	0.09646256
150	0xbc891d18	-0.016737506
151	0xbdfd63ec	-0.12372574
152	0x3d11c8f3	0.03559203
153	0xbdcdfc18	-0.10057849
154	0x3d404af6	0.04694649
155	0x3be12663	0.006871031
156	0xbd1e9fd2	-0.038726635
157	0xbc014093	-0.007888931
158	0x3cde026f	0.02710077
159	0x3cc78f07	0.024360193
160	0x3ddc03d8	0.10742921
161	0xbd9a230a	-0.075262144
162	0x3defda7a	0.11711593
163	0xbd39fd98	-0.04540786
164	0xbb086ef4	-0.0020818086
165	0x3c1e19e1	0.009649725
166	0x3d51049f	0.051029798
167	0x3d515cce	0.051113896
168	0xbd7fe018	-0.06246957
169	0xbd58ea6a	-0.05295793
170	0x3d8c1f71	0.068419345
171	0xba5c6997	-0.0008408068
172	0x3dae7d0e	0.08519946
173	0xbdd2f3fe	-0.10300444
174	0xbd7979bd	-0.060907114
175	0x3d717f64	0.05895938
176	0xbd8bb2c4	-0.06821206
177	0x3be5dcea	0.0070148604
178	0x3c12933f	0.008946239
179	0x3d795aae	0.060877495
180	0xbda0efe6	-0.07858257
181	0xbdaa925a	-0.083286956
182	0xbcb087b8	-0.02154909
183	0x3d64e3bd	0.05588125
184	0x3cac9ce5	0.021070907
185	0x3d92c78d	0.071669675
186	0x3d156535	0.03647347
187	0x3ca5dd85	0.02024723
188	0x3dbbbbc2	0.09166671
189	0xbd0d2280	-0.03445673
190	0xbdbdeea6	-0.09274034
191	0x3cfd6002	0.03092957
192	0x3c9ba7f0	0.019000977
193	0x3c12e925	0.008966719
194	0x3e0cb1e0	0.13739729
195	0xbd89c821	-0.06727625
196	0xbce6d73b	-0.028178802
197	0xbdbbb279	-0.091649
198	0x3cae4929	0.02127512
199	0xbdb4b3d2	-0.088233605
200	0xbd0825f1	-0.03323931
201	0xbc83e3ed	-0.016099894
202	0x3d122436	0.035679065
203	0x3df37c52	0.118889466
204	0x3bbd8da2	0.005784706
205	0xbc5364ae	-0.012902422
206	0x3bbf95c0	0.005846709
207	0x3bc7eec8	0.006101463
208	0xbdcb560a	-0.0992852
209	0xbc86035b	-0.016359022
210	0x3dd6c525	0.10486821
211	0x3dce4e58	0.10073537
212	0xbda4423b	-0.08020445
213	0xbc3d5b85	-0.0115574645
214	0xbcd0b610	-0.02547744
215	0x3da8333a	0.08212896
216	0x3d19e162	0.037568457
217	0xbc15f230	-0.00915198
218	0x3d4c481c	0.049873456
219	0xbc3c0360	-0.011475414
220	0x3bbce664	0.0057647694
221	0xbcf8f73c	-0.030391328
222	0x3dba82e4	0.09106997
223	0x3ca522b6	0.020158153
224	0x3c93ca93	0.01804093
225	0x3d43050b	0.04761223
226	0x3c1ca684	0.009561185
227	0xbcef09ad	-0.029179418
228	0x3c307741	0.01077062
229	0x3d38ef2c	0.045149967
230	0x3bda1613	0.0066554635
231	0x3dff6e22	0.12472178
232	0x3e4e40be	0.20141885
233	0xbde265a0	-0.1105454
234	0xbd24d0e8	-0.04023829
235	0xbd924df5	-0.071437754
236	0x3dc35e65	0.09539489
237	0x3dcbcefd	0.09951589
238	0x3b6842e1	0.0035440254
239	0xbd55ffcb	-0.052245896
240	0x3daac617	0.08338564
241	0xbd73c80c	-0.05951695
242	0xbd0c23bf	-0.034213778
243	0xbd000ff5	-0.031265218
244	0xbe010050	-0.12597775
245	0xbcf64e6c	-0.030066691
246	0xbc286528	-0.010278024
247	0x3d494816	0.049141012
248	0x3d7e6c5e	0.062115066
249	0xbd644fef	-0.055740293
250	0x3d9da6d1	0.07697833
251	0xbc2bad7e	-0.0104783755
252	0xbdb61b17	-0.08891886
253	0x3daa1ae7	0.083059125
254	0x3db123f8	0.086494386
255	0xbd91c526	-0.07117681

network_body.linear_encoder.seq_layers.2.bias f4 [256]
0	0x3c291759	0.010320508
1	0x3c8a512d	0.01688441
2	0x3bc1b6ab	0.0059116683
3	0x3bc709e9	0.0060741794
4	0x3c4c73d4	0.012478787
5	0xbb442436	-0.002992881
6	0xbc2efbb7	-0.010680131
7	0x3abe0f0b	0.0014500333
8	0x3c215ab0	0.009848282
9	0x3ba1b68f	0.0049350928
10	0x3c18d8d9	0.009329044
11	0x3bef4b2e	0.0073026633
12	0x3b33591d	0.0027366348
13	0x3c5d0ed2	0.013492303
14	0x3a44d4f5	0.000750854
15	0x3adaaf0d	0.0016684249
16	0x3c41ea06	0.011835581
17	0xbac5d74a	-0.0015094068
18	0x3c142544	0.009042088
19	0x3b35d5cc	0.002774584
20	0x3cacde9b	0.02110224
21	0x3beabeae	0.007163844
22	0x3c57c4c0	0.013169467
23	0x3bac2c3e	0.0052542975
24	0x3baa80f1	0.0052033593
25	0x3c182248	0.009285517
26	0x3c29d603	0.010365966
27	0x3a92a090	0.0011186767
28	0x3bc8eeeb	0.006131997
29	0x3b9de6c9	0.0048187715
30	0x3a11b0f2	0.0005557678
31	0x3a99195c	0.0011680531
32	0xbb99f388	-0.0046982206
33	0xb9f7704e	-0.00047195185
34	0xbabe0a7a	-0.0014498972
35	0xbbd0bac9	-0.006369923
36	0xbb1cfe50	-0.0023955293
37	0x3b68ed81	0.0035541954
38	0x3b89cf85	0.0042056465
39	0x3c5c9335	0.013462831
40	0xbada6aed	-0.0016663946
41	0x3c8a98ca	0.016918559
42	0x38e01b16	0.000106861975
43	0xbac1c529	-0.001478349
44	0xbb7d4ab6	-0.0038649268
45	0x3c90515a	0.017616916
46	0xbaf26a0d	-0.001849474
47	0x3bf78e0d	0.0075547756
48	0x3bd7408b	0.0065689734
49	0x3cb6d915	0.02232031
50	0x3c06af62	0.008220525
51	0x3ca98ae0	0.020696104
52	0xbbdb7035	-0.0066967257
53	0x3b31dbc3	0.0027139045
54	0x3c5c7143	0.013454738
55	0x384ba880	4.85559e-05
56	0x3c120386	0.008911973
57	0x3b8dcedd	0.0043276385
58	0x3bbe5052	0.005807915
59	0x3c254ede	0.010089604
60	0x3ca74001	0.020416262
61	0xbb0b1146	-0.0021220013
62	0xbbe30893	-0.0069285124
63	0x3c2b3381	0.010449291
64	0x3c603509	0.01368452
65	0x3bc10a23	0.005891101
66	0x3a848c84	0.0010112678
67	0x3b4e1e37	0.0031451115
68	0x3c341e24	0.010993514
69	0xbb0e4c2a	-0.0021712878
70	0xbbdefb3b	-0.0068048513
71	0x3c546769	0.012964108
72	0x3c56eada	0.013117516
73	0x3c5bf559	0.013425195
74	0x3c1fa4f1	0.009743915
75	0x3c4c4bcc	0.012469243
76	0x3c6e10c0	0.014530361
77	0x3b117040	0.002219215
78	0x3a895f0c	0.0010480597
79	0x3badfc25	0.005309599
80	0x3ba67025	0.0050792866
81	0xb8b54624	-8.643817e-05
82	0x3c13eaf0	0.009028181
83	0x3c9e0712	0.01929048
84	0xbaf7ae6c	-0.0018896586
85	0x3c2c4bde	0.010516135
86	0x3ba09daa	0.0049016075
87	0x3c47b5a0	0.012189299
88	0xbae2b30f	-0.0017295795
89	0x391a6749	0.00014725061
90	0x3bb9abbd	0.0056662248
91	0x3c1114d4	0.0088550635
92	0x3cc11f7a	0.02357458
93	0x3bc3f80e	0.005980498
94	0x3bb2a666	0.005451965
95	0x3afd07e6	0.0019304722
96	0x3c4e4df7	0.01259183
97	0xbab4fae3	-0.001380768
98	0x3c4d2840	0.012521803
99	0x3b2b21a0	0.0026112571
100	0x3c0228eb	0.007944326
101	0x3bf7e20d	0.007564789
102	0x3b97451c	0.004616393
103	0x3c364008	0.011123665
104	0xbb1a63dc	-0.0023558056
105	0x3b367e2f	0.0027846207
106	0xbc0b432c	-0.008499902
107	0x3c57190d	0.013128531
108	0x3bed1cbe	0.0072360924
109	0xbbb65bc5	-0.005565139
110	0x3b8a1ec8	0.004215095
111	0xbbe698e4	-0.007037269
112	0x3c99a67e	0.018756147
113	0x3bc1d581	0.005915344
114	0x3b8f510f	0.0043736766
115	0x3cc844bd	0.02444684
116	0x3bab0f32	0.0052203173
117	0x3b5a3634	0.0033296468
118	0x3bbd99c6	0.0057861535
119	0x3b2f99c2	0.0026794528
120	0x3c09e4d3	0.008416372
121	0x3bea620d	0.007152802
122	0x3c424863	0.011858079
123	0x3be2172f	0.0068997364
124	0x3b9557a7	0.004557568
125	0x3c079161	0.008274407
126	0x3ba1d916	0.0049392087
127	0x3c64fe82	0.013976695
128	0x3c37fcb7	0.0112296855
129	0x3b6993b7	0.0035641023
130	0x3ad4fc91	0.0016249587
131	0xbb1cfed8	-0.002395561
132	0x3c17fcd8	0.009276591
133	0x3b8cc517	0.004295956
134	0x3c5f3e1e	0.01362565
135	0x3c2f6989	0.010706314
136	0x3c081da0	0.008307844
137	0x3c11a5c0	0.008889616
138	0x3b840a33	0.004029536
139	0x3bb5d20e	0.005548722
140	0x3c7186d2	0.014741616
141	0x3bde4e5a	0.0067842426
142	0x3c54d8b6	0.012991121
143	0x3bd75987	0.006571952
144	0x3c30d759	0.01079353
145	0x3c5fd3a9	0.013661304
146	0x3a75a8f5	0.0009371185
147	0x3c949c3b	0.018140903
148	0x3b8aee54	0.0042398367
149	0x3b6ebf03	0.003642977
150	0x3cb1aee2	0.021689836
151	0x3c6ba8cd	0.014383507
152	0x3c529607	0.012853152
153	0x3c79c6f6	0.01524519
154	0x3bc8e1b7	0.006130423
155	0xbbce0f9c	-0.006288482
156	0x3ba29eeb	0.004962792
157	0x3bf83e6a	0.0075757997
158	0xbbe2000e	-0.006896979
159	0xbaf21c13	-0.0018471502
160	0x3b1e60e2	0.0024166633
161	0x3bd6cc22	0.0065550962
162	0xb90a7c53	-0.0001320702
163	0x3a907f9e	0.0011024361
164	0xbb7ec6c3	-0.0038875795
165	0x3b9deca9	0.004819472
166	0x3c278f23	0.010226998
167	0xba68998b	-0.00088729773
168	0x3cbf875c	0.023379974
169	0x3a21aad5	0.00061671186
170	0x3c909139	0.017647373
171	0x3c951f93	0.018203532
172	0x3c1bad2e	0.0095017385
173	0x3c555890	0.013021603
174	0xbbf091f3	-0.0073416173
175	0x3bcf6683	0.006329359
176	0xbb26572b	-0.0025381546
177	0x3c6209b7	0.0137962615
178	0x3c89b886	0.01681162
179	0x3c22a111	0.009926097
180	0x3cb1800b	0.021667501
181	0x3b7ddbf3	0.0038735836
182	0x3b093e9d	0.0020941861
183	0xbbc04030	-0.0058670267
184	0x3b47ba91	0.0030476192
185	0x3c89d452	0.016824875
186	0x3b6d7bb4	0.0036237063
187	0x3a3d85b7	0.0007229703
188	0x3b68ddcc	0.0035532592
189	0x3b8f5730	0.004374407
190	0x3a972eac	0.0011534295
191	0x3b88046a	0.004150917
192	0x3b741f27	0.0037250014
193	0xba1cdacb	-0.00059835304
194	0x3c66e98e	0.01409377
195	0x3c8f420b	0.017487546
196	0xbb06c755	-0.0020565588
197	0xbb988343	-0.0046543195
198	0x3ac3b25e	0.0014930477
199	0x3c45071b	0.01202562
200	0x3bc42680	0.005986035
201	0x3bc3fca2	0.005981044
202	0x3c7f8553	0.015595752
203	0xba30318e	-0.00067212514
204	0xba1158d1	-0.0005544546
205	0x3c099368	0.008396961
206	0x3c05f4b2	0.008176016
207	0x3c99d735	0.018779377
208	0x3c4a1d71	0.012336121
209	0x3c3b5b2a	0.011435309
210	0x3bca43cb	0.0061726323
211	0x3c5d7d59	0.013518655
212	0x3b7a5485	0.003819735
213	0xbb73dcda	-0.0037210495
214	0xbbc01aef	-0.0058625857
215	0x3c47dba6	0.012198364
216	0x3c0873cd	0.00832839
217	0x3c4d6a1a	0.012537504
218	0x38c8c572	9.57352e-05
219	0xbaf60af4	-0.0018771575
220	0x3c5ff27b	0.013668652
221	0xbb8777d7	-0.004134159
222	0x3bf70dba	0.007539478
223	0x3b55f8c4	0.0032649497
224	0xbb3736db	-0.002795628
225	0x3c665297	0.014057777
226	0x3a5ad5e3	0.00083479116
227	0x3bc9457a	0.0061423155
228	0x3b6f20b8	0.0036488008
229	0x3c161e76	0.009162536
230	0x3c8e71e4	0.017388292
231	0x3be60096	0.007019113
232	0x3ba37486	0.004988256
233	0x3b28a50f	0.0025733148
234	0x3c682ec1	0.014171303
235	0xba28c0b1	-0.00064374047
236	0x3bd23424	0.006414907
237	0x3cadd2ef	0.021218745
238	0x3bc4f366	0.0060104607
239	0x3c34b8f3	0.011030423
240	0xba46e364	-0.00075869844
241	0xbbfadcfe	-0.007655739
242	0x3c24d651	0.010060863
243	0x38efd35a	0.000114357754
244	0x3c2cd060	0.010547727
245	0x3bebad89	0.007192318
246	0x3bbbb953	0.0057288795
247	0xbc029a87	-0.0079714125
248	0x3c0e1be5	0.008673643
249	0xbb1ec91f	-0.0024228764
250	0x3ae0a201	0.0017138125
251	0x38cfe30d	9.912821e-05
252	0x3bd5621c	0.0065119397
253	0xb980d0c4	-0.00024569605
254	0x3b3ea691	0.002909098
255	0x3c28abe9	0.010294893

action_model._continuous_distribution.log_sigma f4 [1, 5]
0	0xbb61d7f3	-0.003446099
1	0x3ccf3496	0.02529363
2	0x3ae200df	0.0017242691
3	0x3b89bff3	0.0042037903
4	0x3c14250a	0.009042034

action_model._continuous_distribution.mu.weight f4 [5, 256]
0	0xbbd398a4	-0.006457405
1	0x3d832d27	0.064050965
2	0xbd3a6c60	-0.04551351
3	0xbd12b86b	-0.035820406
4	0x3d4ac29b	0.049501996
5	0xbc8fc23b	-0.017548671
6	0xbb7ff252	-0.0039054346
7	0xbc163d37	-0.009169868
8	0xbd10225f	-0.03518903
9	0xbcaef143	-0.021355277
10	0x3d35bb14	0.044367865
11	0xbd82ffe0	-0.063964605
12	0xbd23d91c	-0.040001974
13	0x3d2b3800	0.041801453
14	0xbba03634	-0.004889274
15	0xbd3e69d9	-0.046487663
16	0xbd3def3f	-0.04637074
17	0xbd2449df	-0.04010951
18	0xbd3e2354	-0.04642041
19	0xbc1f5a0c	-0.009726059
20	0x3c350931	0.011049555
21	0x3d5f6d77	0.054547753
22	0x3cef35d1	0.029200466
23	0xbd365035	-0.044510085
24	0x3d16e530	0.036839664
25	0x3c7ebc61	0.015547843
26	0xbc5de6b3	-0.0135437725
27	0xbcb4d47f	-0.022073982
28	0x3d19c527	0.037541535
29	0x3c2ff7f7	0.010740272
30	0x3be9efb4	0.0071391705
31	0xbbd318ae	-0.006442151
32	0x3c91abc1	0.017782094
33	0x3ba943e5	0.0051655644
34	0xbc56e151	-0.013115243
35	0xbd08be8e	-0.033384852
36	0xbd283848	-0.0410693
37	0x3d11fdb2	0.035642333
38	0x3d02b4ce	0.03191071
39	0x3c487818	0.012235664
40	0x3c7b5f79	0.015342587
41	0x3d15c773	0.036567163
42	0xbc8291be	-0.015938636
43	0xbcfb4014	-0.030670203
44	0x3bf8da4e	0.0075943833
45	0x3cdc1874	0.026867129
46	0x3c61de87	0.013785965
47	0xbd3614cd	-0.04445343
48	0x3cb3e311	0.02195886
49	0xbca04e06	-0.019568454
50	0x3cc70859	0.024295973
51	0xbb9e9408	-0.004839424
52	0xbc516723	-0.012780937
53	0x3c7f6249	0.015587398
54	0x3cad0534	0.021120645
55	0x3c9526cd	0.018206978
56	0xbacde78e	-0.0015709267
57	0x3d04e30e	0.0324431
58	0x3d1f50b1	0.038895313
59	0x3b83c257	0.00402097
60	0x3d9c4442	0.07630207
61	0xbd1cd0ce	-0.03828507
62	0x3bf134e1	0.00736104
63	0xbcf13445	-0.02944387
64	0xbc24c40b	-0.010056506
65	0x3d12802e	0.035766773
66	0xbc2dcec0	-0.010608375
67	0x3c7d8efc	0.015475985
68	0xbb90ac75	-0.0044150897
69	0x3ce838a5	0.028347323
70	0xbcaec10a	-0.021332283
71	0xbab4978a	-0.0013778072
72	0x3b001f3a	0.0019549862
73	0x3d539811	0.051658694
74	0x3d012a1a	0.03153429
75	0x3cbda093	0.023147857
76	0x3c50401b	0.012710596
77	0xbcf0c4af	-0.029390661
78	0x3c980bf5	0.018560389
79	0xbc16c92f	-0.009203239
80	0x3cc7896c	0.02435752
81	0xbce3bd47	-0.027800215
82	0xbbd62e1b	-0.006536258
83	0xbb9099fb	-0.004412887
84	0xbcb46d97	-0.022024913
85	0xbca1196e	-0.019665446
86	0x3ca87424	0.020563193
87	0x3d457cf3	0.048214864
88	0xbcd55bf2	-0.02604482
89	0x3bd920cf	0.0066262255
90	0xbd1b6f58	-0.037947983
91	0x3d003f7f	0.031310555
92	0xbb4b005a	-0.0030975551
93	0x3bb8208e	0.005619115
94	0x3cabde01	0.020979883
95	0xbd6fbd21	-0.058529977
96	0x3cb4100c	0.021980308
97	0xbd347171	-0.0440535
98	0x3d0e1a38	0.034692973
99	0xbcf553e8	-0.029947236
100	0x3cb432e6	0.021996927
101	0x3c0b14f0	0.008488879
102	0x3cefc6a4	0.029269524
103	0xbc695391	-0.014241115
104	0xbc439b01	-0.011938811
105	0xbcfce039	-0.030868636
106	0xbbf13351	-0.0073608537
107	0x3d0ca2b8	0.03433487
108	0x3d167ea0	0.036741853
109	0x3c8411bb	0.016121736
110	0xbd406783	-0.046973716
111	0xbb9be566	-0.004757571
112	0x3cf3d11c	0.029762797
113	0x3d0ea0f6	0.034821473
114	0xbca55fef	-0.020187346
115	0x3d68627c	0.056734547
116	0xbd38e718	-0.045142263
117	0x3cab7438	0.02092944
118	0x3cdb3e79	0.026763188
119	0x3c775b1c	0.015097406
120	0x3ce0e7e7	0.02745433
121	0x3cfdfd9b	0.031004718
122	0x3c5619d7	0.013067684
123	0x3c3db8e0	0.011579722
124	0xb8d9be25	-0.000103827835
125	0x3bc921b1	0.0061380495
126	0x3c4d41f5	0.012527932
127	0x3d61700e	0.055038504
128	0x3cb8da0e	0.022564914
129	0xbd0b29dd	-0.03397547
130	0xbbc5245c	-0.0060162973
131	0xbcaf1954	-0.021374382
132	0x3c984abf	0.01859033
133	0xbb618201	-0.0034409764
134	0x3d06b350	0.03288585
135	0x3a5ee7be	0.000850316
136	0x3c8a3201	0.016869547
137	0x3d2caa58	0.04215464
138	0x3c2d5190	0.010578528
139	0x3ce99012	0.02851108
140	0x3d12908e	0.03578239
141	0x3c5fe226	0.013664758
142	0x3d7caf37	0.061690535
143	0x3cf0ef31	0.02941093
144	0xbd7a3116	-0.06108197
145	0x3d3948d0	0.045235455
146	0xbd1f375c	-0.038871154
147	0x3d025343	0.031817686
148	0xbd2f461b	-0.042791467
149	0xbce56216	-0.028000873
150	0x3c62b98d	0.013838184
151	0x3b7ce774	0.0038590105
152	0xbbde9ffa	-0.006793973
153	0x3d72bdb5	0.05926295
154	0xbd6da302	-0.058016784
155	0x3a72a29d	0.00092557986
156	0x3d0c09ca	0.034189023
157	0x3cb602e4	0.022218175
158	0x3b0cfc4c	0.0021512685
159	0xbc67d841	-0.01415068
160	0xbc0aa9af	-0.008463307
161	0x3c8271c9	0.015923398
162	0x3d1407ad	0.036140133
163	0xbd0a9b9e	-0.033839814
164	0xbcc309fc	-0.023808472
165	0x3b46a52f	0.003031086
166	0xbd9468d5	-0.072465576
167	0xbca6020f	-0.020264653
168	0xbca144a3	-0.019686049
169	0xbc6bbc97	-0.014388225
170	0x3c9655b8	0.01835142
171	0x3d29f010	0.041488707
172	0x3ce87ae1	0.028378906
173	0xbd0d7e96	-0.03454455
174	0xbc3bc552	-0.011460619
175	0xbc1d6f08	-0.009608991
176	0xbc8f078d	-0.017459655
177	0x3d0a1503	0.033711445
178	0x39155406	0.00014241048
179	0xbd6cdf31	-0.05783004
180	0x3d2ba8ee	0.04190915
181	0xbca53bc4	-0.0201701
182	0xbc909e58	-0.01765363
183	0xbb04323e	-0.0020171548
184	0x3d044a7d	0.0322976
185	0x3d6a8f50	0.05726558
186	0x3cdafd35	0.026732067
187	0xbd05fe08	-0.032712966
188	0xbc14931f	-0.0090682795
189	0x3c99336f	0.018701283
190	0xba485520	-0.0007642079
191	0xbd21a565	-0.039464373
192	0x3b2c049f	0.0026247872
193	0x3cb2ce57	0.021826906
194	0x3ca2e7bc	0.01988589
195	0x3d4098e5	0.04702081
196	0xbbf6a4c6	-0.0075269667
197	0xbc2642d5	-0.01014777
198	0xbc2144d5	-0.009843071
199	0xbd77bf2f	-0.06048506
200	0x3c0bb825	0.00852779
201	0xbd1153b7	-0.035480227
202	0xbc4e406f	-0.012588604
203	0x3c478656	0.012178024
204	0xbca40e46	-0.020026337
205	0x3c6129aa	0.013742844
206	0xbc95935a	-0.01825874
207	0x3d55747a	0.052113034
208	0xbd46ad5a	-0.048505165
209	0xbca79f73	-0.020461773
210	0xbd64a785	-0.05582382
211	0xbc6054c9	-0.013692089
212	0xbbd29420	-0.0064263493
213	0xbd14241c	-0.03616725
214	0xbd3168c2	-0.043312795
215	0x3d3a93aa	0.04555098
216	0x3d4cbe9f	0.049986478
217	0x3c9be408	0.019029632
218	0x3c576c74	0.013148416
219	0x3c16b9ad	0.009199542
220	0x3d63a1e8	0.055574328
221	0xbca2a4df	-0.019854007
222	0x3d052bae	0.03251236
223	0xbd317071	-0.043320123
224	0xbca08d3c	-0.019598596
225	0x3d2f3f7c	0.042785153
226	0xbc9c76f2	-0.019099686
227	0xbd179e24	-0.03701605
228	0xbd0e8f6e	-0.034804754
229	0x3c8a7648	0.016902104
230	0x3d3c2536	0.045933925
231	0xbc3ea709	-0.011636504
232	0x3ab2e4d4	0.0013648518
233	0xbc2b7417	-0.01046469
234	0x3d30f3b6	0.04320117
235	0xbd129fc5	-0.0357969
236	0xbcd9594c	-0.026531838
237	0x3d0e0a64	0.034677878
238	0xbcc80851	-0.024418028
239	0x3ba8b794	0.0051488373
240	0xbd297a5a	-0.04137645
241	0xbceca262	-0.028886024
242	0x3cc4bd32	0.024015997
243	0xbd0fae9f	-0.03507864
244	0xbb3057d4	-0.0026907818
245	0xbd7e6b3d	-0.06211399
246	0x3ce3b3bd	0.027795667
247	0xbc5d87b5	-0.013521125
248	0xbd8f269e	-0.069897875
249	0xbd0c51d5	-0.03425773
250	0x3d027fee	0.031860285
251	0x3cc999da	0.024609495
252	0x3c699290	0.014256135
253	0xbb4283e7	-0.002968067
254	0xbba2cf08	-0.0049685277
255	0xbd5d38e1	-0.054009322

action_model._continuous_distribution.mu.bias f4 [5]
0	0x3b5e7b66	0.0033948063
1	0xba6658b5	-0.0008787022
2	0x3bc2e300	0.0059474707
3	0xb9b9e768	-0.0003545836
4	0xbb73f108	-0.0037222523
