Assets/ML-Agents/Neural Networks/Hummingbird.onnx (onnx, 319001 bytes, 7 tensors)

network_body.linear_encoder.seq_layers.0.weight f4 [256, 46]
0	0x3e49cedb	0.19707815
1	0x3ddcfa0e	0.10789882
2	0xbdc10446	-0.09424643
3	0x3ded58bd	0.11589191
4	0xbe1525ad	-0.14565153
5	0x3e28edc6	0.16496953
6	0xbd684694	-0.056707934
7	0xbbb2df7f	-0.0054587717
8	0x3ea00046	0.3125021
9	0xbe516c1a	-0.20451394
10	0x3d227911	0.03966624
11	0xbd10f726	-0.03539195
12	0xbe700672	-0.23439959
13	0xbe8ab333	-0.27089843
14	0x3d41cef6	0.047316514
15	0xbe4c118a	-0.19928566
16	0x3d23c101	0.039978985
17	0x3e4c6a6e	0.19962475
18	0xbe3a08c7	-0.18167411
19	0x3e58db50	0.21177411
20	0x3d25b2f6	0.040453874
21	0x3e08e064	0.13366848
22	0xbd71ccb5	-0.059033114
23	0xbc1b8b3c	-0.009493645
24	0x3eb64639	0.3560045
25	0xbdba2311	-0.0908872
26	0x3e96799f	0.29389665
27	0xbd99bb1f	-0.07506394
28	0xbd67cde7	-0.05659285
29	0xbdafd5f3	-0.085857294
30	0x3b1cfd80	0.0023954809
31	0xbe0dc087	-0.13842975
32	0x3e36426c	0.17798775
33	0xbd03b090	-0.032150805
34	0xbd9ac057	-0.07556217
35	0xbe177b24	-0.14793068
36	0x3ebaf766	0.36516875
37	0xbc38d9fd	-0.011282441
38	0xbde570c9	-0.11203153
39	0x3e5187dc	0.20461982
40	0x3a2df693	0.00066361687
41	0xbd87578b	-0.06608494
42	0x3e0f3245	0.1398402
43	0xbda730b2	-0.08163585
44	0xbe6e1ad9	-0.23252429
45	0xbd4f8e37	-0.050672736
46	0x3d451fa9	0.048125897
47	0x3ebc5e44	0.3679067
48	0xbd048992	-0.03235776
49	0xbe1dcd37	-0.15410315
50	0x3e024ceb	0.12724654
51	0x3cdd4617	0.02701096
52	0xbdd26c46	-0.10274558
53	0xbe60435d	-0.21900697
54	0x3dbe592b	0.09294351
55	0xbc940258	-0.018067524
56	0xbe8d61d0	-0.27613688
57	0xbc9065df	-0.0176267
58	0xbe18eac6	-0.14933309
59	0x3e1ae058	0.15124643
60	0xbbb82a33	-0.005620265
61	0xbe9b80c4	-0.30371678
62	0x3e4fcea9	0.20293678
63	0x3e247431	0.16059949
64	0x3dc2127f	0.09476184
65	0x3d563114	0.0522929
66	0x3dff1f43	0.124571346
67	0x3dac45ec	0.08411774
68	0xbebb12fb	-0.36537918
69	0xbe79aefb	-0.24383156
70	0xbdbf06d9	-0.09327478
71	0xbd9d8547	-0.07691436
72	0xbe26372a	-0.16231981
73	0xbdde2bb7	-0.10848182
74	0x3d6be5bc	0.05759214
75	0xbc0ec21f	-0.008713274
76	0xbc8c50d4	-0.017128386
77	0xbeb35b5f	-0.35030648
78	0xbe17d82f	-0.14828561
79	0xbe7113dc	-0.23542732
80	0xbea9addc	-0.33140457
81	0xbd3ca305	-0.046053905
82	0xbd4b324f	-0.049608525
83	0xbe9968f9	-0.299629
84	0xbdca1275	-0.09866802
85	0xbbba81c0	-0.005691737
86	0xbe9b2738	-0.3030336
87	0xbcefc493	-0.029268539
88	0xbe825d2e	-0.25461715
89	0xbe808ea3	-0.25108823
90	0xbc6ecea8	-0.014575638
91	0x3e7d0353	0.247083
92	0x3e136584	0.14394194
93	0xbe31cbfb	-0.17362969
94	0x3db67ef2	0.08910932
95	0x3e853c8c	0.26022756
96	0xbe10527b	-0.14093964
97	0xbd93de2c	-0.0722011
98	0xbd4d7897	-0.05016383
99	0xbdab2923	-0.083574556
100	0xbdd5945d	-0.10428689
101	0xbd9c3c14	-0.076286465
102	0x3e019b22	0.12656835
103	0xbe3a02c0	-0.18165112
104	0x3d89109d	0.06692622
105	0x3d871df7	0.06597512
106	0x3cb1ce1a	0.021704722
107	0x3e198d5f	0.14995335
108	0x3d46c212	0.048524924
109	0xbd9ecb7d	-0.07753656
110	0xbd14f440	-0.036365747
111	0x3dd2c81b	0.10292073
112	0xbda2d70b	-0.079511724
113	0xbda57c28	-0.080803216
114	0xbdce2b91	-0.100669034
115	0x3dd3b6df	0.10337614
116	0xbe253dc1	-0.16136838
117	0x3d629bdd	0.055324424
118	0x3e7633c7	0.24043189
119	0x3d3a1e11	0.04543883
120	0x3d4e9984	0.050439373
121	0xbcde8318	-0.02716212
122	0x3cc23218	0.023705527
123	0x3d63bbe7	0.05559912
124	0x3d957086	0.07296853
125	0x3ddb3501	0.10703469
126	0x3dc49bf7	0.096000604
127	0x3df6498d	0.120257474
128	0xbe086cf6	-0.13322815
129	0xbe029ccd	-0.12755127
130	0xbc0b2c00	-0.008494377
131	0xbe8151c9	-0.2525771
132	0x3d884f34	0.06655732
133	0xbc912585	-0.017718086
134	0x3e1e2e6f	0.154474
135	0x3e4ad325	0.19807108
136	0x3d19f321	0.03758538
137	0xbe34d4e3	-0.17659335
138	0x3cc46bdc	0.023977213
139	0x3e844615	0.25834718
140	0x3d64aae8	0.05582705
141	0xbd3397c3	-0.043845903
142	0xbd6098d9	-0.054833267
143	0x3cdd4a7a	0.027013052
144	0xbe413504	-0.1886788
145	0xbe088f75	-0.13335975
146	0xbdb3f11d	-0.08786223
147	0x3e7515a3	0.23934035
148	0xbe388b32	-0.18021849
149	0xbd783d38	-0.060605258
150	0xbe1239b9	-0.14279832
151	0xbd505e26	-0.050871037
152	0x3e14aeb9	0.14519776
153	0xbd65dafc	-0.056117043
154	0xbde0a9e5	-0.10969905
155	0x3dcdbaca	0.10045393
156	0x3d34c161	0.044129733
157	0xbe66372f	-0.22481988
158	0xbd2b8d20	-0.041882634
159	0xbeaf091d	-0.3418664
160	0xbe70c78d	-0.23513623
161	0xbd4c1595	-0.04982527
162	0x3da545a7	0.08069926
163	0x3c8c72f2	0.017144654
164	0x3e879762	0.26482683
165	0xbe30f247	-0.17279921
166	0xbd6c6566	-0.05771389
167	0xbdb565e6	-0.08857326
168	0xbd92c355	-0.07166163
169	0xbde86488	-0.113473
170	0x3e2ecc7f	0.17070197
171	0x3e8ee786	0.27911013
172	0x3d957626	0.07297926
173	0xbde10eff	-0.109891884
174	0xbecfcf84	-0.4058801
175	0x3e5da39e	0.21644446
176	0xbe42a3e3	-0.1900783
177	0xbcc071e6	-0.023491811
178	0xbe2e5dba	-0.17027941
179	0x3e2c6fc9	0.16839518
180	0xbe1a0a4e	-0.15042993
181	0x3d09fb3f	0.033686873
182	0x3de0b949	0.1097284
183	0x3e39e227	0.18152677
184	0xbdaf26a0	-0.08552289
185	0x3c85f185	0.016350517
186	0xbe4a109d	-0.197329
187	0x3e633d6f	0.22191404
188	0xbe04877d	-0.1294231
189	0xbde518f6	-0.111864015
190	0x3e8552a6	0.26039618
191	0xbd38118a	-0.0449386
192	0x3c858fba	0.016303886
193	0xbe81885e	-0.25299352
194	0xbe6223cc	-0.22083968
195	0x3e95ea99	0.29280546
196	0xbe1e1a46	-0.1543971
197	0xbe8c011b	-0.27344593
198	0xbe0ed430	-0.1394813
199	0xbe0bf0d7	-0.13666092
200	0x3bd66fbb	0.006544081
201	0x3c836a15	0.016041795
202	0x3e9134d1	0.28360608
203	0x3cbb2d3f	0.022848723
204	0xbe9a35ff	-0.3011932
205	0xbeaa3521	-0.3324366
206	0xbddcb307	-0.10776334
207	0x3def1cc3	0.11675408
208	0xbe2da45c	-0.1695723
209	0x3ebf146c	0.37320268
210	0x3cd6f3f5	0.026239375
211	0x3d016aa7	0.031595852
212	0x3dc26c11	0.09493268
213	0xbe9c41d0	-0.3051896
214	0x3e8d50f8	0.27600837
215	0x3e098ee9	0.13433422
216	0x3e68fad0	0.22751927
217	0xbdbcd8ce	-0.0922104
218	0x3e301428	0.17195189
219	0x3e5bdf8e	0.21471998
220	0xbd3a7e33	-0.04553051
221	0xbc959b07	-0.0182624
222	0xbe15f01c	-0.14642376
223	0xbda8b157	-0.0823695
224	0xbdb95357	-0.09049099
225	0xbb481892	-0.0030532223
226	0xbe61c0ef	-0.22046255
227	0x3d67f8b0	0.05663365
228	0xbe504717	-0.20339619
229	0x3e87923c	0.26478755
230	0xbde02799	-0.10945053
231	0xbcbb948b	-0.02289798
232	0xbdf48b84	-0.11940673
233	0xbcf843ca	-0.030305762
234	0x3d94afd8	0.07260102
235	0xbe2bba27	-0.1677023
236	0x3dbae1b1	0.091250785
237	0xbd719018	-0.05897531
238	0x3e35e9a6	0.17764911
239	0x3dfede48	0.124447405
240	0xbdd317ed	-0.10307298
241	0xbca868f2	-0.020557854
242	0x3d8ded39	0.06930012
243	0xbd540810	-0.0517655
244	0xbe915bb0	-0.28390265
245	0xbd581c42	-0.052761324
246	0x3dd518b8	0.10405105
247	0x3bf5d2a3	0.0075019165
248	0x3d854636	0.06507532
249	0xbded3064	-0.115814954
250	0xbc4063f9	-0.011742585
251	0x3d6ef124	0.05833544
252	0xbe565c96	-0.20933756
253	0xbe5c14ae	-0.21492264
254	0x3d8c4bf8	0.068504274
255	0xbe562a96	-0.20914683

network_body.linear_encoder.seq_layers.0.bias f4 [256]
0	0xbb64fec9	-0.0034941903
1	0x3d3b1309	0.04567245
2	0x3a4fd210	0.0007927725
3	0x3c8df5fd	0.01732921
4	0x3c38658b	0.0112546785
5	0xbace89b0	-0.0015757587
6	0xbc2a3242	-0.010387959
7	0x3d4c3479	0.04985473
8	0x3d4a1059	0.049331997
9	0x3cb46f61	0.022025766
10	0x3d2a5a99	0.041590307
11	0xbc0fa559	-0.008767449
12	0x3d69ebd9	0.057109687
13	0x3c1e867e	0.00967562
14	0x3d05d35d	0.032672275
15	0x3d2872c9	0.041125093
16	0x3d38974b	0.04506616
17	0x3cdee6c4	0.027209647
18	0x3bb225f0	0.0054366514
19	0x3c1a7253	0.009426671
20	0xbaca7f17	-0.0015449253
21	0xbbe5c932	-0.0070125097
22	0x3c2ea454	0.010659296
23	0x3cfbd9d3	0.030743515
24	0x3c77beb0	0.015121147
25	0xbc658d5f	-0.014010756
26	0x3c76e48c	0.015069138
27	0x3d7fac10	0.06241995
28	0x3c339cc1	0.010962666
29	0x3c493b00	0.012282133
30	0x3cc69c35	0.024244407
31	0x3c3b0ba4	0.01141635
32	0xbb16a280	-0.002298504
33	0x3ca0cce3	0.019628948
34	0x3d21a47b	0.0394635
35	0x3c679d4f	0.014136626
36	0xbc935015	-0.017982522
37	0x3d1d722c	0.03843896
38	0x3cbab746	0.02279247
39	0x3cc4578f	0.023967532
40	0xbc851334	-0.016244508
41	0x39c2954b	0.00037113795
42	0x3d38b1b8	0.04509136
43	0x3c2abdfd	0.010421273
44	0x3cbb8899	0.022892283
45	0x3b8561aa	0.0040704804
46	0x3cb8adf8	0.022543892
47	0x3c99fd4d	0.018797541
48	0x3c19aa33	0.009378958
49	0x3d1fd932	0.039025493
50	0x3b77fff1	0.0037841762
51	0x3a17ffd4	0.0005798314
52	0x3c030be3	0.0079984395
53	0x3c010357	0.007874331
54	0xbb933271	-0.004492097
55	0x3c252dc8	0.010081716
56	0x3bfae2ad	0.0076564164
57	0x3c25e2d2	0.010124879
58	0xbc51faf4	-0.01281618
59	0x3ab36031	0.0013685283
60	0x3d1337f6	0.03594204
61	0xbccafc7e	-0.0247786
62	0x3d12dc15	0.035854418
63	0x3c8da28e	0.017289426
64	0xba8010aa	-0.0009770591
65	0x3c972b7e	0.018453356
66	0x3d3c645d	0.04599415
67	0x3ccaaaf5	0.024739722
68	0x3cc63d85	0.024199257
69	0x3d27c2e5	0.04095735
70	0x3cca035e	0.024659809
71	0xbc68cf06	-0.0142095145
72	0x3c646204	0.013939384
73	0xbc1ceb1a	-0.009577537
74	0x3c31d691	0.010854379
75	0xbaa98d72	-0.0012935831
76	0x3cd0388f	0.025417594
77	0x3ca7754f	0.02044168
78	0x3c2d7761	0.010587544
79	0x3bad7ea9	0.00529464
80	0xbc938dc0	-0.018011928
81	0x3cace337	0.021104438
82	0xbbc7c65b	-0.006096644
83	0x3c54fc97	0.012999675
84	0x3c8b0c8c	0.016973756
85	0x3c838d24	0.016058512
86	0x3cfb3721	0.030665936
87	0x3c38bcec	0.011275511
88	0xbc4033de	-0.011731116
89	0xbac54765	-0.0015051184
90	0xb8f4130d	-0.00011638375
91	0x3c0fb4b0	0.008771107
92	0x3c5a66f7	0.013330213
93	0x3b74b2f6	0.0037338114
94	0xbbd527a1	-0.0065049683
95	0x3cd426cc	0.025897406
96	0x3d3bf587	0.04588845
97	0x3cb34e1c	0.021887831
98	0x3c038ab5	0.008028676
99	0x3acd676b	0.001567108
100	0x3c20900c	0.009799968
101	0x3c75daeb	0.015005807
102	0x3bdecda9	0.006799419
103	0x3c99068a	0.018679876
104	0x3bd82dba	0.006597248
105	0x3cfc58bd	0.030804032
106	0x3c26d851	0.01018341
107	0xbd10b527	-0.03532901
108	0x3b98ba48	0.0046608783
109	0x3d504844	0.050850168
110	0x3d026835	0.03183766
111	0x3c40b330	0.011761472
112	0x3d0290cf	0.03187638
113	0x3d5c462d	0.053777862
114	0x3c8380cd	0.016052628
115	0x3d3a78b3	0.045525264
116	0x3c23ca37	0.009996942
117	0x3cca4869	0.024692731
118	0xbb849e09	-0.0040471596
119	0x3cb71f80	0.022353888
120	0x3cb7d57b	0.022440663
121	0x3cdd2fa6	0.02700026
122	0x3ca8b5e9	0.020594554
123	0x3d41ce41	0.04731584
124	0xbc022c9b	-0.007945205
125	0xbb39d347	-0.002835469
126	0x3c9d312b	0.019188484
127	0x3c9bc0da	0.019012857
128	0x3d0437f9	0.032279942
129	0x3cb881d6	0.022522848
130	0x3bc81468	0.0061059482
131	0xbbbddd3c	-0.0057941955
132	0x3b92ec66	0.0044837473
133	0x3cd61a2f	0.026135532
134	0x3bbf0e8e	0.0058305925
135	0xbc33666d	-0.010949713
136	0x3d0d7976	0.034539662
137	0x3d4b799d	0.049676526
138	0x3c8bfe13	0.017088925
139	0x3ccf942d	0.02533921
140	0xbb0f34fc	-0.002185165
141	0x3c9a6433	0.018846607
142	0xbc11f230	-0.00890784
143	0x3c3ecb5b	0.011645163
144	0xb8bebeab	-9.095421e-05
145	0x3ce7b35b	0.028283766
146	0x3d1c5188	0.03816369
147	0x3c1fc3b8	0.009751253
148	0x3ca42aea	0.020039994
149	0xb9a0181f	-0.0003053555
150	0xbaafcd14	-0.0013412558
151	0x3ca01f58	0.019546196
152	0x3d8de433	0.06928291
153	0x3ca8c1f8	0.020600304
154	0x3c1c0ca1	0.009524495
155	0xbc33bbcf	-0.01097007
156	0xbbdc5bf1	-0.0067248275
157	0x3c9f4574	0.019442298
158	0x3cfdcb15	0.030980626
159	0x3d6d34ad	0.057911564
160	0x3c9535d6	0.018214148
161	0x3bdfb546	0.0068270294
162	0x3ac22e66	0.0014814853
163	0x39e6bde7	0.00044010507
164	0x3d3aee70	0.045637548
165	0x3c6454cc	0.013936233
166	0x3c482c37	0.012217573
167	0x3d9c35a6	0.0762742
168	0x3c9b9bb9	0.018995153
169	0x3bc9e7b6	0.0061616553
170	0x3cb1b810	0.021694213
171	0x3cac542f	0.021036236
172	0xbc5703b2	-0.01312344
173	0x3bbaab7b	0.0056967116
174	0x3d0bc7a0	0.034125924
175	0x3b57e156	0.0032940707
176	0xbc5656eb	-0.013082246
177	0x3d180015	0.037109453
178	0x3c16a4b0	0.009194538
179	0x3d102915	0.03519543
180	0x3ce13c52	0.027494583
181	0x3cb5b9cb	0.02218332
182	0x3d50a3ca	0.05093745
183	0x3d550ac6	0.052012227
184	0x3c292aa9	0.010325112
185	0x39bf0a3a	0.00036437978
186	0x3c40c8e9	0.011766651
187	0x3ce824ad	0.0283378
188	0x3d843bfd	0.06456754
189	0x3ca9bf78	0.020721182
190	0xb9a7a66e	-0.00031976722
191	0x3c319a06	0.010839945
192	0x3bcc11d0	0.0062277094
193	0x3cb2bff7	0.021820052
194	0x3d1b9ac2	0.037989385
195	0x3ceec057	0.02914445
196	0x3c0250c4	0.007953826
197	0x3d4fcdee	0.0507335
198	0x3cde176a	0.027110774
199	0x3c5a5598	0.013326071
200	0x3c9ac4ad	0.01889261
201	0x3c97765c	0.018489055
202	0x3c83216d	0.01600715
203	0xbbe77965	-0.007064032
204	0xbadf4a06	-0.001703561
205	0x3d6679c4	0.05626847
206	0x3d37977b	0.044822197
207	0x3c5acb19	0.013354086
208	0x3c8b6936	0.017017942
209	0x3d04ea90	0.03245026
210	0x3cf6fc2f	0.030149547
211	0xbc0d7741	-0.008634389
212	0xbbc443a1	-0.0059895073
213	0x3d5030c1	0.050827745
214	0x3c784434	0.01515298
215	0x3aebbb0e	0.0017984824
216	0x3b417a63	0.002952241
217	0x3ad24bb3	0.0016044289
218	0x3c68b9ec	0.0142044835
219	0x3d07c928	0.033150822
220	0x3c723570	0.014783248
221	0xbb1c4df6	-0.002385018
222	0xbc433f8a	-0.011917004
223	0x3c90fbe0	0.017698228
224	0x3d9ac0e3	0.075563215
225	0x3b5ef10e	0.0034018192
226	0xbbf4e938	-0.007474091
227	0xbcb51714	-0.022105731
228	0x3d4dc0f2	0.050232835
229	0x3cdfe039	0.027328597
230	0x3d368d7d	0.044568527
231	0xbb3a130f	-0.0028392707
232	0xbc42dd94	-0.011893649
233	0xbc086d63	-0.008326861
234	0x3c32f0ce	0.01092167
235	0xbbd2bd2f	-0.006431244
236	0x3b823445	0.003973516
237	0x3d3712df	0.04469573
238	0x3bf93cb6	0.0076061143
239	0x3c09a267	0.008400536
240	0x3d06865e	0.032842986
241	0x3d1a763a	0.037710406
242	0x3ca588a3	0.020206755
243	0x3bc1ab1f	0.005910292
244	0xbad449a6	-0.0016196265
245	0xbaee7d3d	-0.0018195283
246	0x3c1d35d9	0.009595358
247	0x3a576067	0.0008215964
248	0x3d073378	0.03300807
249	0x3c4a2be1	0.012339563
250	0x3d0533a5	0.032519955
251	0x3d3cd48c	0.046101138
252	0x3c253e5e	0.01008567
253	0x3cf30305	0.029664526
254	0x3b1839e0	0.0023227856
255	0x3d17675f	0.036963817

network_body.linear_encoder.seq_layers.2.weight f4 [256, 256]
0	0x3d304681	0.043035988
1	0x3da48816	0.08033769
2	0xbde09f7a	-0.10967918
3	0x3d455069	0.04817239
4	0xbdd46744	-0.10371259
5	0x3ddbf166	0.107394025
6	0xbd90756d	-0.07053647
7	0x3d81cf7d	0.063384034
8	0x3cc75b79	0.02433561
9	0x3d0cd8b2	0.034386344
10	0xbcb725d3	-0.022356903
11	0x3d08dec8	0.033415586
12	0xbe0b9e8b	-0.13634698
13	0xbbac1823	-0.0052519008
14	0xbc6656f2	-0.014058815
15	0xbd9b1e00	-0.075740814
16	0x3d9285c5	0.07154421
17	0xbb1adf08	-0.0023631472
18	0xbe152ce5	-0.14567907
19	0x3dfa2677	0.12214368
20	0xbc9a4b6d	-0.018834794
21	0x3dc4a622	0.09602
22	0x3dba7e3d	0.09106109
23	0x3d39f6bc	0.04540132
24	0xbcebdbc0	-0.028791308
25	0x3d41dc2a	0.047329105
26	0xbe805ce5	-0.25070873
27	0xbd755db4	-0.059903815
28	0xbc65bb35	-0.014021684
29	0x3c318f8c	0.010837447
30	0x3dc0e2e4	0.09418276
31	0xbd0d1f02	-0.0344534
32	0xbcd1306f	-0.02553579
33	0xbd4ee787	-0.05051377
34	0x3d6aa56f	0.057286676
35	0x3bf94a7e	0.007607757
36	0xbd855766	-0.065108106
37	0x3e29ec74	0.16594106
38	0xbe1ddfd9	-0.15417422
39	0x3d263557	0.040578213
40	0xbcedbf6c	-0.029021941
41	0xbda66992	-0.08125605
42	0x3bf1af22	0.007375614
43	0x3e1eafdb	0.15496771
44	0x3d492440	0.049106836
45	0x3c84de43	0.016219264
46	0xbd049bc9	-0.03237513
47	0x3d9ba207	0.07599264
48	0xbc96a44a	-0.018388886
49	0xbdac36c7	-0.084088854
50	0xbd10377d	-0.035209168
51	0xbd8cac69	-0.06868822
52	0x3dd1ee1f	0.10250496
53	0x3d8b9cc3	0.06817009
54	0xbc5e3fbc	-0.013565
55	0xbd011ff1	-0.031524602
56	0xbddf412f	-0.10901105
57	0xbd8ccc33	-0.068748854
58	0x3d93b238	0.07211727
59	0xbddbfe9e	-0.10741924
60	0x3d0f03e3	0.034915816
61	0x3cb153f1	0.021646472
62	0x3db02381	0.08600522
63	0xbc94d7b5	-0.018169263
64	0x3d18eb92	0.037334032
65	0x3dd01413	0.10160079
66	0x3df812fe	0.121129975
67	0x3e12a32c	0.14320058
68	0x3d35eca9	0.04441515
69	0x3d4d6152	0.05014164
70	0xbd3c4540	-0.04596448
71	0xbd50d72e	-0.05098646
72	0x3d865a8e	0.06560241
73	0x3cf4630e	0.02983239
74	0xbdb8090e	-0.08986102
75	0xbbe1250d	-0.006870872
76	0xbced65d8	-0.028979227
77	0x3e194616	0.14968142
78	0x3d3906cf	0.04517251
79	0xbc0eb303	-0.008709672
80	0xbc1237c2	-0.0089244265
81	0x3dc289b0	0.09498918
82	0x3cf232b4	0.029565193
83	0x3d2c9dac	0.042142555
84	0xbd87b3c1	-0.06626082
85	0xbbe1e94f	-0.0068942676
86	0x3da533b0	0.08066499
87	0x3c2cef88	0.010555156
88	0x3d095d5c	0.0335363
89	0xbd593fb0	-0.053039253
90	0x3c32904f	0.010898664
91	0x3bd862e6	0.0066035865
92	0x3e117251	0.14203764
93	0xbd259b77	-0.040431466
94	0xbdbc5e7a	-0.091977075
95	0x3c266612	0.010156171
96	0xbceb71bc	-0.028740756
97	0x3e286c80	0.1644764
98	0xbd52f449	-0.0515025
99	0xbc4fff3f	-0.012695133
100	0x3ddae259	0.10687704
101	0xbb54f287	-0.003249319
102	0xbdb11127	-0.0864585
103	0x3d621817	0.055198755
104	0x3d8fe337	0.0702576
105	0xbe05994c	-0.1304676
106	0xbd89d7d9	-0.06730623
107	0xbdf93aba	-0.12169404
108	0x3d654214	0.05597122
109	0x3da48c7f	0.0803461
110	0x3c392118	0.011299394
111	0x3e4f6f93	0.20257406
112	0x3e293226	0.16523036
113	0x3d350815	0.04419716
114	0xbd7f9ae7	-0.062403586
115	0xbe04aeed	-0.12957354
116	0x3dab97d3	0.083785675
117	0x3ccf562a	0.02530964
118	0xbd8a22cf	-0.067449205
119	0x3db9abb0	0.0906595
120	0x3d85ea4c	0.06538829
121	0x3e15ec82	0.14641002
122	0xbd0897b3	-0.033347797
123	0xbde257b3	-0.110518835
124	0xbd9d9a80	-0.07695484
125	0x3df2de8d	0.118588544
126	0x3cb39e99	0.021926211
127	0x3df7ccf4	0.120996386
128	0x3c92e30c	0.01793053
129	0x3e00d83e	0.1258249
130	0x3cebaf34	0.028770067
131	0x3e2e1b42	0.17002586
132	0xbca0a3aa	-0.019609291
133	0xbb8d3b30	-0.004310034
134	0x3d3a340d	0.045459796
135	0xbde42466	-0.11139755
136	0xbd8a447d	-0.06751344
137	0xbd8b7d37	-0.06810992
138	0x3d0a8d42	0.03382612
139	0xbcf519a7	-0.029919459
140	0xbcb2eb29	-0.021840649
141	0x3d2fd7ff	0.0429306
142	0x3e179be4	0.14805561
143	0x3cd74a5b	0.026280573
144	0xbd8f1f18	-0.069883525
145	0xbcac4afb	-0.021031847
146	0x3d93bf50	0.07214224
147	0xbce5e09f	-0.02806121
148	0x3cd1cb20	0.025609553
149	0xbd0ba64b	-0.034094136
150	0xbd8557ae	-0.06510864
151	0x3d93386d	0.07188497
152	0x3e087f9e	0.13329932
153	0xbe7f566b	-0.2493531
154	0x3b18d766	0.0023321747
155	0xbbd2e870	-0.0064364
156	0x3dc88483	0.097908996
157	0xbda41fa9	-0.08013851
158	0xbcb2dd1c	-0.021833949
159	0x3c526737	0.012841991
160	0x3cb68459	0.022279905
161	0xbc75ffe9	-0.015014627
162	0xbd8b3165	-0.06796531
163	0xbdf2b8d4	-0.118516594
164	0x3d0884c1	0.03332973
165	0xbd523e54	-0.051328972
166	0xbcabfb2f	-0.020993797
167	0xbd3ff5d1	-0.04686529
168	0xbc930e5f	-0.017951189
169	0x3cd69f34	0.02619896
170	0x3d0938eb	0.033501547
171	0x3da54f1a	0.08071728
172	0x3d95bd13	0.07311454
173	0xbd7af731	-0.061270896
174	0x3e008d4a	0.12553898
175	0x3e36a699	0.1783699
176	0xbd76bb1b	-0.06023703
177	0xbdc5493a	-0.096331075
178	0xbcf02ba4	-0.029317684
179	0x3df7a778	0.12092489
180	0xbcf7f284	-0.030267008
181	0xbc95d474	-0.018289782
182	0xbbe05ba5	-0.0068468624
183	0x3ca5ad81	0.020224335
184	0x3d2142d0	0.039370358
185	0x3cca2db9	0.024680005
186	0x3d840402	0.06446077
187	0x3d523606	0.051321052
188	0x3e352c90	0.1769278
189	0x3d16e8c4	0.036843076
190	0x3c389126	0.011265075
191	0x3c24f985	0.010069256
192	0x3da8202a	0.0820926
193	0xbd6535d6	-0.055959545
194	0x3dbdc92a	0.092668846
195	0x3d42826b	0.047487658
196	0xbdd5c7d2	-0.10438503
197	0x3ca2ab50	0.019857079
198	0xbe1c8324	-0.15284401
199	0xbd5f728a	-0.054552592
200	0x3d1f141e	0.038837545
201	0x3d9a50a0	0.07534909
202	0xbb73087c	-0.0037083915
203	0xbbd9d367	-0.0066475156
204	0x3d78e29e	0.060762994
205	0x3dc87452	0.09787811
206	0x3d7fd96e	0.062463216
207	0xbcb69c0f	-0.022291211
208	0x3cae4ac5	0.021275887
209	0xbd30a953	-0.04313023
210	0x3db8f5bf	0.09031247
211	0xbdd091fa	-0.10184093
212	0xbdc42c71	-0.09578789
213	0xbd8ca160	-0.06866717
214	0xbaad1051	-0.0013203715
215	0x3d03a6ae	0.03214138
216	0x3d3ac963	0.045602214
217	0x3de68efc	0.11257741
218	0x3e05e4d1	0.13075568
219	0xbcc37bd6	-0.02386276
220	0x3cc2ce49	0.023780005
221	0x3d8f6ba3	0.07002952
222	0xbcb26d94	-0.021780767
223	0x3d2ac822	0.041694768
224	0x3cb211d5	0.021737019
225	0xbd3952ee	-0.045245104
226	0xba8db0b7	-0.0010810111
227	0xbe43dcde	-0.19127223
228	0x3da43f62	0.08019902
229	0x3dcf05cd	0.10108528
230	0x3de6972f	0.11259305
231	0xbd5bd446	-0.053669237
232	0xbd01d182	-0.031693943
233	0xbce33939	-0.027737247
234	0x3d072510	0.03299433
235	0x3d345469	0.044025812
236	0xbcd28f5d	-0.025703127
237	0x3ddc3458	0.10752171
238	0x3cac827f	0.02105832
239	0x3e008e07	0.12554179
240	0xbc35b533	-0.011090565
241	0x3dae6fcf	0.085174195
242	0xbd9acfec	-0.07559189
243	0xbd1a09ac	-0.03760688
244	0xbd0d198b	-0.034448188
245	0xbd987304	-0.074438125
246	0x3accb5d8	0.0015618159
247	0x3cc66a60	0.024220645
248	0xbe353be0	-0.17698622
249	0xbe4b1d38	-0.19835365
250	0x3de163d8	0.11005372
251	0xbd5e86aa	-0.054327644
252	0x3cc01b7a	0.023450602
253	0x3d625fbc	0.05526708
254	0x3e53e0d6	0.20691237
255	0x3db760e6	0.08954029

network_body.linear_encoder.seq_layers.2.bias f4 [256]
0	0x3d0fef88	0.035140544
1	0x3c81ea65	0.015858838
2	0x3d1afea0	0.037840486
3	0xbc9c7803	-0.019100195
4	0x3bea735e	0.007154866
5	0xba722488	-0.0009237011
6	0xbb2a12e5	-0.0025951203
7	0xbbcc6e22	-0.006238715
8	0x3c30d8d8	0.010793887
9	0xbad50cec	-0.0016254461
10	0x3d0e8423	0.034793984
11	0xbca1d710	-0.01975587
12	0x3ce9cdff	0.02854061
13	0xbb880ea0	-0.004152134
14	0x3bb9bb4a	0.0056680785
15	0x3c6ec8df	0.014574259
16	0x3d0066d8	0.03134808
17	0xbb6d7a20	-0.0036236122
18	0x3bbeb88e	0.0058203405
19	0x3c88560e	0.016642597
20	0x3c7691ce	0.015049411
21	0x3b7049c4	0.0036665061
22	0xbb92700c	-0.0044689234
23	0xbc8462f7	-0.016160471
24	0xbc3f95ce	-0.011693431
25	0x3bbcbd86	0.0057598976
26	0x3c9ddf7f	0.01927161
27	0xbbda8adf	-0.0066693868
28	0x3c7c96f0	0.015416846
29	0xbb5cf19f	-0.0033713353
30	0xbbc29807	-0.005938533
31	0x3cbe7bf1	0.02325246
32	0x3b8b2c72	0.0042472417
33	0x3d146f9c	0.03623925
34	0xbc3c4264	-0.011490438
35	0x3d1c5c5f	0.03817403
36	0x3d0b5dde	0.034025066
37	0x3d32255e	0.043492667
38	0x3c863715	0.016383687
39	0x3bced653	0.0063121705
40	0xbc1aa48e	-0.009438647
41	0x3c1871d5	0.009304483
42	0xbc1d052b	-0.009583752
43	0xbab2296d	-0.0013592668
44	0x3b6160e0	0.0034390017
45	0x3c498b55	0.012301286
46	0x3c2f9d57	0.010718665
47	0x3c7e32cb	0.01551504
48	0x3cb24365	0.021760652
49	0x3cadefda	0.021232534
50	0x3d170240	0.03686738
51	0x3c122ba2	0.008921536
52	0x3a706bd3	0.00091713405
53	0xba2cdfda	-0.0006594636
54	0x3bdf54f3	0.0068155467
55	0x3c820760	0.015872657
56	0xbc4bb40b	-0.012433062
57	0x3ce7f512	0.0283151
58	0x3bd14934	0.0063869003
59	0x3caa8da3	0.02081949
60	0x3c451c7b	0.012030716
61	0x3d163361	0.036670092
62	0x3aba4b97	0.0014213201
63	0xbb627ee0	-0.0034560487
64	0x3bb7abad	0.005605182
65	0x3a8e694b	0.001086512
66	0x3d11a1bd	0.035554636
67	0x3c9b7fbf	0.018981813
68	0x3ac79b39	0.0015228755
69	0x3bc912fa	0.0061362954
70	0x3c1b74a9	0.009488263
71	0x3bc5d2e7	0.0060371044
72	0xbb6c6f84	-0.003607721
73	0x3d163f8e	0.036681704
74	0x3cf4d5ca	0.029887099
75	0x3ac48c19	0.0014995366
76	0xbbb5dadd	-0.005549772
77	0x3b2bed01	0.0026233795
78	0x3ca3da18	0.020001456
79	0x3c9e8fd1	0.019355686
80	0xbbd1b1e7	-0.0063993814
81	0x3b6a83dc	0.003578416
82	0x3c656e99	0.014003419
83	0x3cb116c8	0.021617308
84	0xbb0c77fb	-0.0021433819
85	0xb8df8ec5	-0.000106600615
86	0x3cda900b	0.026680013
87	0x3c90966e	0.017649855
88	0xb9ccc63e	-0.00039057614
89	0x3bd61a5f	0.0065339054
90	0x3cc58c03	0.024114614
91	0x3bfb0f22	0.007661716
92	0xbc78be6c	-0.015182119
93	0x3c7dc657	0.015489182
94	0x3c1ddec8	0.009635635
95	0xbb0e27f6	-0.00216913
96	0x3d0109b0	0.03150338
97	0x3cb8dd1f	0.022566376
98	0x3cd3701f	0.0258103
99	0x3c8f55f7	0.017497046
100	0x3c8cee25	0.0172034
101	0xbbf41042	-0.007448227
102	0x3c18da6e	0.009329421
103	0x3c0c7591	0.008572952
104	0x3d02fdde	0.031980388
105	0x3cbc7842	0.023006562
106	0xbb7d0d73	-0.0038612753
107	0xbc19141d	-0.009343174
108	0x3c8f6e98	0.01750879
109	0x3d045f35	0.03231736
110	0x3c72eed9	0.0148274535
111	0x3cb5e464	0.022203632
112	0x3c96b55a	0.018397022
113	0x3b3e3444	0.0029022852
114	0x3c45d3e3	0.0120744435
115	0x3cf0f84f	0.029415278
116	0xbc1304ef	-0.008973344
117	0x3c76c579	0.01506173
118	0x3c909b26	0.017652106
119	0xbbe3e107	-0.0069543156
120	0xbba50970	-0.0050365254
121	0x3c52b826	0.012861287
122	0x3acde05a	0.0015707121
123	0x3c656422	0.014000924
124	0x3d0e70f8	0.034775704
125	0x3a652399	0.0008740961
126	0xbbe9306b	-0.0071163676
127	0x3c923094	0.01784543
128	0xb9f73aa8	-0.00047155214
129	0x3ccbc788	0.024875417
130	0xbc08ae0d	-0.008342278
131	0x3caef4b9	0.021356927
132	0x3cafe065	0.021469304
133	0xbbb521fd	-0.0055277334
134	0x396b9b8b	0.0002246929
135	0xbc3e7b31	-0.011626051
136	0x3d040d34	0.032239154
137	0xb82bfe33	-4.100632e-05
138	0x3bc4d717	0.006007086
139	0x3adc6fb4	0.0016817958
140	0x3c93e04d	0.01805129
141	0x3c89398c	0.016751073
142	0x3ca6425c	0.020295314
143	0x3ce688c9	0.028141396
144	0x3caa0478	0.020754084
145	0x3cdb8595	0.026797095
146	0xbb09e284	-0.0021039555
147	0x3cf1e04a	0.029525895
148	0x3bc2331d	0.0059265033
149	0x3ae53337	0.0017486577
150	0x3c62673a	0.013818556
151	0xbba30acf	-0.0049756537
152	0x3ce3e02e	0.027816858
153	0x3bc92590	0.006138511
154	0x3cd05e3c	0.02543556
155	0xbc233cd4	-0.009963233
156	0x3c0c0c83	0.008547905
157	0x3bcd07f9	0.006257054
158	0x3b0359f5	0.0020042632
159	0xbbc08576	-0.005875285
160	0x3d3425c7	0.04398134
161	0xbb70c05b	-0.0036735747
162	0x3c077b89	0.008269199
163	0x3cfc5659	0.030802893
164	0x3c5bf68b	0.01342548
165	0x3c28bf8c	0.010299575
166	0xbc4ed158	-0.012623154
167	0xbbb5b6b7	-0.005545463
168	0x3d059e39	0.032621596
169	0x3bffcfe6	0.007806766
170	0x3c3689a4	0.0111412145
171	0x3ce11137	0.027474029
172	0x3a27122c	0.0006373252
173	0xbbd42ebf	-0.006475299
174	0x3cf25f88	0.029586568
175	0x3cb1b311	0.02169183
176	0x3c5444bb	0.01295584
177	0x3c75e606	0.015008455
178	0xbc8d309b	-0.017235091
179	0x3aaa1fcb	0.0012979446
180	0x3c45b293	0.012066501
181	0xbc3064d9	-0.010766231
182	0x3c5c79aa	0.013456741
183	0xbb8eb508	-0.0043550767
184	0x3c724872	0.01478778
185	0x3be64eee	0.007028452
186	0xbbf45e5a	-0.0074575366
187	0x3ccbfa96	0.024899762
188	0x3d1feddb	0.039045196
189	0xbc5e17f9	-0.01355552
190	0xbbe4fb48	-0.006987963
191	0x3cd6a5ae	0.02620205
192	0x3b9d6cdb	0.0048042363
193	0x3cace2f1	0.021104308
194	0xbb7bfd46	-0.0038450523
195	0x3d008b53	0.03138287
196	0x3cee7f5b	0.029113462
197	0xbacfaf0f	-0.0015845018
198	0x3c9c3e51	0.019072684
199	0x3bd3356f	0.0064455788
200	0xbc710605	-0.014710908
201	0x3c8bc624	0.017062254
202	0x3d4477a9	0.04796568
203	0x3cc66371	0.02421734
204	0xbb8db029	-0.0043239784
205	0x3b95ae80	0.004567921
206	0xbc8e2466	-0.01735134
207	0xbc224ff1	-0.009906755
208	0x3ced146d	0.028940404
209	0x3ce3a68f	0.027789382
210	0x3c9efd48	0.019407883
211	0x3a529be8	0.0008034096
212	0x3b9247e6	0.0044641374
213	0x3bedc541	0.0072561805
214	0xbbc639bc	-0.006049363
215	0x3c866ea9	0.016410189
216	0xbaaba0f5	-0.0013094234
217	0xbbf7c69f	-0.0075615193
218	0x3bbc744d	0.005751169
219	0xbc6009f0	-0.013674244
220	0x39c66b64	0.00037845515
221	0x3ca1c68f	0.019748
222	0x3c54ac2f	0.012980505
223	0x3d18eb85	0.037333984
224	0xbc8b7b20	-0.017026484
225	0x3c396d59	0.011317574
226	0xbb7cd7e1	-0.0038580822
227	0xbbae66e2	-0.005322323
228	0x3b0e831f	0.0021745635
229	0x3c846d6c	0.016165458
230	0x3c18d04c	0.009327006
231	0x3c4083f1	0.011750207
232	0xbbc4424d	-0.005989349
233	0x3c0b53ee	0.008503897
234	0x3cb2b676	0.02181552
235	0x3b77360a	0.0037721419
236	0x3cb21d2d	0.021742428
237	0xbb9f9551	-0.004870095
238	0xbc14c008	-0.009078987
239	0x3c148746	0.009065455
240	0x3d08fee5	0.03344621
241	0x3ccd5218	0.02506356
242	0x394bf92b	0.00019452411
243	0xbb6366a3	-0.0034698627
244	0x3d27aa0c	0.040933654
245	0xba31b9fe	-0.0006779729
246	0x3c5ffa90	0.013670579
247	0x3c5c86f2	0.013459908
248	0x3ba61d9e	0.0050694486
249	0x3ca57c3b	0.02020084
250	0x3b8d7bc2	0.0043177316
251	0x3c9393b9	0.018014776
252	0x3c527df6	0.012847414
253	0x3c705323	0.014668259
254	0xbbf99852	-0.007617035
255	0x3ae29532	0.0017286895

action_model._continuous_distribution.log_sigma f4 [1, 5]
0	0xbe2eabc1	-0.17057706
1	0xbe408f3a	-0.18804637
2	0xbe7e0200	-0.2480545
3	0xbdad5e8e	-0.084653005
4	0xbd0d584a	-0.034508027

action_model._continuous_distribution.mu.weight f4 [5, 256]
0	0xb813a970	-3.5205332e-05
1	0x3c828b48	0.015935555
2	0xbd8000f8	-0.06250185
3	0x3d2c3493	0.042042326
4	0xbd4374e1	-0.047718886
5	0xbcd675c3	-0.0261792
6	0x3d1843b6	0.03717395
7	0xbc9c05b5	-0.01904569
8	0x3cca803e	0.024719354
9	0xbbf742a5	-0.0075457864
10	0x3bb5ea5d	0.00555162
11	0xbd018950	-0.031625092
12	0xbc50f2f0	-0.012753233
13	0xbcfead4b	-0.031088492
14	0xbd264ae1	-0.040598754
15	0x3d942d2d	0.07235179
16	0xbb81d735	-0.0039624223
17	0x3cbffd02	0.023436073
18	0xbd6acccb	-0.057324212
19	0x3d2f371d	0.04277717
20	0x3d2be38c	0.041965052
21	0xbcd02579	-0.025408493
22	0xbd44aca4	-0.048016205
23	0x3ccc8440	0.024965405
24	0x3ca51882	0.020153288
25	0x3ca76166	0.020432185
26	0xbcb9ce50	-0.022681385
27	0x3cb26a62	0.021779243
28	0x3db0de6c	0.086361736
29	0xbbfa75f7	-0.007643457
30	0x3cb5769e	0.022151288
31	0xbd2af1ff	-0.04173469
32	0x3d476551	0.048680607
33	0x3cec535e	0.028848346
34	0x3d012ccb	0.03153686
35	0xbc1f4eb7	-0.009723357
36	0x3c90064a	0.017581124
37	0xbc692d1d	-0.014231947
38	0xbcac0312	-0.020997558
39	0xbd6dc455	-0.058048565
40	0xbccb5279	-0.0248196
41	0xbd4e7285	-0.050402183
42	0xbc06b633	-0.008222151
43	0xbd1d74d7	-0.038441505
44	0xbd840147	-0.06445556
45	0xbd0013ad	-0.031268764
46	0xbcea24ba	-0.028581966
47	0x3cc28940	0.023747087
48	0x3d2165e2	0.039403804
49	0xbcd903c2	-0.02649105
50	0xbc7504ff	-0.014954804
51	0x3d0b848f	0.034061965
52	0x3d94661a	0.07246037
53	0x3c4a0d1b	0.012332226
54	0xbd9ebc9a	-0.07750817
55	0x3ab8f491	0.0014110972
56	0x3cb733dd	0.022363598
57	0xbcbfc3bb	-0.023408761
58	0x3d53e7ac	0.05173461
59	0x3d977e8c	0.07397184
60	0x3d721584	0.05910255
61	0x3bc5ee3a	0.0060403617
62	0x3d643e05	0.05572321
63	0xbb4dcc18	-0.0031402167
64	0xbc56ee37	-0.013118318
65	0x3adf3f61	0.0017032438
66	0x3c8a25cd	0.016863728
67	0x3ce51131	0.027962299
68	0xbc9f5746	-0.019450795
69	0xbd51e76a	-0.051246084
70	0xbcd3ef94	-0.025871076
71	0x3c95a1c7	0.018265618
72	0x3b21d49b	0.0024693373
73	0x3c8a2bf4	0.016866662
74	0xbc1012da	-0.008793557
75	0x38a56cf6	7.888109e-05
76	0x3cc2e65b	0.023791483
77	0xbc89775a	-0.016780544
78	0x3d01d1d5	0.031694252
79	0xbd82095c	-0.063494414
80	0x3c8682b4	0.016419746
81	0xbcbc7d43	-0.023008948
82	0x3c0f8c6a	0.008761505
83	0x3d53b5bb	0.051686984
84	0xbd28e4cc	-0.041233823
85	0x3d2d9f84	0.042388454
86	0xbbbe8d41	-0.0058151786
87	0xbccc54e8	-0.02494283
88	0xbd39cd8e	-0.045362048
89	0x3cee7a65	0.029111097
90	0x3d96ff88	0.073729575
91	0xbc5a8834	-0.013338137
92	0x3c5dbf60	0.013534397
93	0xbc0981e5	-0.008392786
94	0xbc8e818a	-0.017395753
95	0xbd8dc378	-0.06922048
96	0xbcac5caf	-0.021040289
97	0x3abcdce7	0.0014409096
98	0xbc987685	-0.018611202
99	0x3cd8a92a	0.026447851
100	0xbd3906b4	-0.04517241
101	0xbcf661c2	-0.030075911
102	0xbb4e896c	-0.0031515015
103	0xbd7976d4	-0.06090434
104	0x3cb4172e	0.02198371
105	0x3d336036	0.043792926
106	0xbc57ad99	-0.0131639475
107	0x3c29cda0	0.010363966
108	0x3d037f70	0.032103956
109	0x3cfe4684	0.031039484
110	0xbd735093	-0.059403013
111	0xbb7f3f0e	-0.0038947496
112	0x3b284b74	0.002567974
113	0x3d41e857	0.047340717
114	0x3d6f8472	0.05847592
115	0xbd2819f7	-0.041040387
116	0xbca92b70	-0.020650595
117	0x3d100cbd	0.0351684
118	0xbd5f2c27	-0.054485466
119	0xbd6c51ff	-0.057695385
120	0x3bfc6f00	0.007703662
121	0x3a9c97a9	0.0011947054
122	0x3cd16211	0.025559457
123	0xbd32f8ec	-0.04369442
124	0x3ce99145	0.028511653
125	0x3c6b2917	0.014353058
126	0xbd15a5b6	-0.036534987
127	0xbca6ce69	-0.020362096
128	0x3d95ff9e	0.07324146
129	0xbcc2e216	-0.023789447
130	0xbba72aff	-0.005101561
131	0xbd754a2c	-0.05988519
132	0xbc8a0560	-0.016848266
133	0xbd412937	-0.047158446
134	0xbd0ecbfc	-0.034862503
135	0xbc369c0c	-0.011145603
136	0xbc781e63	-0.0151439635
137	0x3d3f978e	0.046775393
138	0xbcc94f9c	-0.024574094
139	0x3d386a31	0.045023147
140	0xbca428d0	-0.020038992
141	0xbd5b2c45	-0.053509016
142	0x3c2671db	0.010158981
143	0xbce0ce3a	-0.027442086
144	0xbb2f0a6c	-0.0026709093
145	0x3cf6107a	0.030037154
146	0x3cee5d83	0.029097324
147	0xbd0f6eca	-0.035017766
148	0xbd4aeb98	-0.049541086
149	0xbc58bdab	-0.013228814
150	0xbb98a511	-0.0046583493
151	0x3d947221	0.07248331
152	0xbc5b5fcf	-0.013389542
153	0x3c0c81b4	0.0085758455
154	0xbd37da95	-0.04488619
155	0x3cc18f0d	0.023627782
156	0x3d385c56	0.045009933
157	0x3cdb1c89	0.026747005
158	0x3d6becc0	0.05759883
159	0x3d0ca3c6	0.034335874
160	0x3d7e565b	0.062094074
161	0xbc6df1e7	-0.014523006
162	0xbd0bd07b	-0.03413437
163	0xbaf06b8f	-0.0018342602
164	0x3cfdb4e4	0.030970044
165	0xbce95194	-0.028481282
166	0xbcf567c6	-0.02995671
167	0x3c06ac0b	0.008219729
168	0x3b3fb767	0.0029253603
169	0x3cdf18a6	0.027233433
170	0xbce32185	-0.027725944
171	0xba958ada	-0.0011409179
172	0xbc0d0fe7	-0.008609748
173	0x3c333e0a	0.010940084
174	0xbbe5138e	-0.0069908565
175	0x3c1a37c1	0.009412707
176	0x3d2260d7	0.039643135
177	0x3d9c3119	0.07626552
178	0xbcbe6a4f	-0.023244051
179	0xbd36ac03	-0.044597637
180	0xbc959d7a	-0.018263567
181	0x3ce8822c	0.028382383
182	0xbb8c1932	-0.0042754645
183	0xbd4ad529	-0.04951969
184	0xbc90ae9d	-0.017661387
185	0x3d8f5b0a	0.06999786
186	0x3d1c76d9	0.03819928
187	0xbc0fab9d	-0.008768943
188	0x3c89c533	0.016817665
189	0x3cceee92	0.025260244
190	0x3be168b8	0.0068789385
191	0x3c2aec48	0.01043231
192	0x3bfaa894	0.0076494906
193	0xbbb7973d	-0.005602746
194	0xbbae77e4	-0.0053243507
195	0x3d037726	0.03209605
196	0x3c110fe8	0.00885389
197	0xbcd88994	-0.02643279
198	0x3d258f2c	0.040419742
199	0xbd434bf0	-0.04767984
200	0x3d0877b5	0.033317287
201	0x3d53211d	0.05154525
202	0x3bea7a7d	0.007155715
203	0x3d163e3f	0.036680456
204	0xbd44de76	-0.048063718
205	0xbd84114c	-0.064486116
206	0x3cdfd14a	0.027321476
207	0x3d8569db	0.06514331
208	0xbcc53647	-0.024073733
209	0xbb5e3c09	-0.0033910295
210	0xbd200a47	-0.0390723
211	0xbd3eb77b	-0.0465617
212	0xbd4cf600	-0.05003929
213	0x3d382c2b	0.044963997
214	0x3d32c858	0.043648094
215	0x3cd60dfb	0.026129713
216	0xbcf2b3a2	-0.029626671
217	0xbd16f4ae	-0.03685444
218	0xbccd3e06	-0.02505399
219	0x3bffa4b5	0.007801617
220	0xb93cbd29	-0.00017999545
221	0x3d1a8dc2	0.037732847
222	0xbd465649	-0.04842213
223	0x3c39446b	0.011307816
224	0x3988acaf	0.000260686
225	0x3d84e9fd	0.06489942
226	0x3d5cec75	0.05393644
227	0x3d4c33bc	0.049854025
228	0x3d116896	0.03550013
229	0xbc39437a	-0.011307592
230	0xbb044012	-0.002017979
231	0x3c5ca66d	0.013467413
232	0x3c6c549d	0.01442447
233	0xbd0bc5cb	-0.034124177
234	0xbd45c267	-0.0482811
235	0xbd8fc575	-0.07020084
236	0x3d741361	0.059588794
237	0x3c86cf46	0.016456258
238	0x3d7d924a	0.06190709
239	0xbd60de4a	-0.05489949
240	0x3ca52e23	0.020163601
241	0xbb227423	-0.002478846
242	0xbd195feb	-0.03744499
243	0xbc9de8e1	-0.019276084
244	0x3acef360	0.0015789084
245	0xbd7ac589	-0.06122354
246	0x3c89caa0	0.016820252
247	0x3d043590	0.032277644
248	0x3d7b6635	0.06137677
249	0xbc4a5b5e	-0.012350885
250	0x3d9a500f	0.07534801
251	0xbd8dfc37	-0.06932872
252	0x3d348e14	0.04408081
253	0xbd0b6fed	-0.034042288
254	0xbcc5ddbc	-0.024153583
255	0xbcbde5ce	-0.023180868

action_model._continuous_distribution.mu.bias f4 [5]
0	0xbb346682	-0.002752692
1	0x3ccb6c07	0.024831785
2	0xba8c6d01	-0.0010713638
3	0x3c51a0d6	0.012794694
4	0xba07f30c	-0.0005186058
