Assets/ML-Agents/Neural Networks/TimHummingbird.onnx (onnx, 343577 bytes, 7 tensors)

network_body.linear_encoder.seq_layers.0.weight f4 [256, 70]
-0.17980208 -0.087304875 0.055167772 -0.33815286 -0.18652965 0.03916092 0.04335191 0.0039358996
0.12973304 -0.27862963 0.059276577 -0.08225346 -0.018412694 -0.027210658 -0.11785854 -0.057608556
0.033590294 0.11448387 0.12435075 0.03736148 -0.12009452 0.060838267 -0.15827619 -0.08023782
-0.06619252 -0.089856245 0.13947208 0.056869984 0.07413281 -0.07152559 0.013622998 0.07986427
-0.053997047 -0.103048444 0.036301035 -0.070599884 0.16010591 0.17072974 -0.0383762 0.03114513
0.0355488 -0.10851704 -0.022507867 -0.10455245 0.019026741 0.059014723 -0.11073048 0.25674483
0.19775683 -0.13162063 0.079915546 0.07293089 0.014457914 0.16736732 0.11015004 -0.2653127
-0.11061648 0.057203673 0.020969428 0.0033567273 0.0034177685 0.062443092 -0.07860883 -0.049888223
-0.16898453 0.07118019 0.19054227 0.13314539 0.14944066 0.076623164 -0.12009373 -0.21957467
-0.024341807 -0.037732817 0.17364867 -0.05669634 0.058191434 0.12542677 0.06929521 -0.27155527
0.05926553 0.06369048 0.18118985 0.006405073 0.027077623 0.010877685 -0.0065573943 0.03514392
0.12222098 -0.15795274 0.12336198 0.13617516 -0.21507618 -0.0057918183 -0.053576887 -0.05409898
-0.023595756 -0.06410636 -0.023755502 -0.0911114 -0.053630106 0.26484454 -0.08947751 -0.17036404
-0.12014034 -0.111186825 0.014640269 -0.044094466 0.0071070697 0.07306171 -0.22711027 0.05812729
0.097046494 0.01143017 -0.0014316583 0.016166735 -0.18626991 -0.0035734281 -0.12510067 -0.15178521
-0.1615771 0.3046914 0.12710077 -0.020761399 -0.05218608 0.10581281 -0.15573876 0.37052158
-0.15591998 0.07952025 0.01328435 0.09597843 -0.25433418 0.026078539 -0.14226307 -0.16986576
0.18041547 -0.14691253 0.036513872 -0.06663408 -0.0018975699 -0.002354972 0.08824123 0.019701218
0.10776326 0.17243235 -0.12932752 0.043566316 0.2523454 -0.06908938 0.06586975 -0.10981637
-0.0026346357 -0.02012051 0.09794446 -0.07533169 0.0735014 0.12044477 0.13161986 0.047970716
-0.10349888 -0.123008765 -3.6884958e-06 -0.26135263 -0.22145467 -0.17217681 0.012154103 0.025961397
0.1147185 0.04323148 0.08399605 -0.033170212 0.102887645 0.052567657 -0.0566126 0.0677481
-0.18089257 0.19510418 -0.05588914 0.07576244 0.029422168 0.27590796 -0.3092991 -0.040357165
0.027319204 -0.23750623 -0.03192989 0.19974823 -0.016065245 -0.05938984 -0.008158903 0.0066452976
0.037633583 -0.0018457241 0.05059112 -0.013682395 -0.16625512 -0.03773769 0.1341521 0.06110445
0.1122802 0.016944142 -0.036853503 0.11169307 0.41440606 0.045785703 0.010065594 0.0025925955
0.14213829 -0.06915592 -0.020968838 -0.012278871 -0.040570192 -0.0011478458 -0.0373561 0.01926315
-0.044160213 -0.057525914 0.08023105 -0.011992188 0.17433505 -0.06836136 0.30783102 -0.14814724
0.07874388 -0.008931578 0.03674129 0.14226143 -0.09468698 0.08773773 -0.0048913634 -0.08668824
-0.103572555 0.041947495 0.12229527 0.026433378 -0.10108525 0.10460459 -0.033126775 -0.3945425
-0.021813858 -0.14440453 -0.115199655 0.045872025 0.010892887 0.06519383 -0.22439073 0.05391555
-0.032935858 0.19908641 0.057789035 0.14915141 0.13757458 -0.118701704 -0.003129563 0.06934678
00000000: 091e 38be e6cc b2bd 9af7 613d 5f22 adbe
00000010: a101 3fbe 3367 203d c691 313d b8f8 803b
00000020: bdd8 043e 8ba8 8ebe ffcb 723d 8174 a8bd
00000030: 38d6 96bc e3e8 debc d15f f1bd f3f6 6bbd
00000040: fa95 093d 8576 ea3d 9bab fe3d 5a08 193d
00000050: 1ef4 f5bd 8c31 793d 2713 22be ba53 a4bd
00000060: f28f 87bd 8d06 b8bd c5d1 0e3e 80f0 683d
00000070: f1d2 973d 027c 92bd ff32 5f3c e18f a33d
00000080: 022c 5dbd 100b d3bd 65b0 143d ac96 90bd
00000090: cef2 233e c7d3 2e3e 5d30 1dbd 1224 ff3c
000000a0: 9e9b 113d 2f3e debd 6b62 b8bc 981f d6bd
000000b0: f8dd 9b3c 6cb9 713d a9c6 e2bd 0f74 833e
000000c0: c480 4a3e 8fc7 06be c3aa a33d ca5c 953d
000000d0: e3e0 6c3c 5762 2b3e 5896 e13d 11d7 87be
000000e0: e58a e2bd 664e 6a3d 14c8 ab3c 8afc 5b3b
000000f0: a4fc 5f3b 54c4 7f3d abfd a0bd 9857 4cbd
00000100: 480a 2dbe ebc6 913d 831d 433e 4457 083e
00000110: f906 193e 9bec 9c3d b4f3 f5bd 2fd8 60be
00000120: 7868 c7bc ba8d 1abd f5d0 313e 6c3a 68bd
00000130: 245a 6e3d e06f 003e a6ea 8d3d 4b09 8bbe
00000140: 6ac0 723d 2870 823d d589 393e a6e1 d13b
00000150: e4d1 dd3c 5138 323c 69df d6bb 12f3 0f3d
00000160: fe4e fa3d 5dbe 21be 35a5 fc3d 8071 0b3e
00000170: ee3c 5cbe 4bc9 bdbb 7073 5bbd e496 5dbd
00000180: e34b c1bc 324a 83bd e69a c2bc 9d98 babd
00000190: 3eab 5bbd b499 873e fc3f b7bd e973 2ebe
000001a0: 230c f6bd ebb5 e3bd bddd 6f3c 669c 34bd
000001b0: 6ce2 e83b 61a1 953d 988f 68be e216 6e3d
000001c0: 50c0 c63d 9c45 3b3c 7ba6 bbba 1a70 843c
000001d0: 8abd 3ebe 2d30 6abb 641a 00be 956d 1bbe
000001e0: 7874 25be 8300 9c3e b426 023e cf13 aabc
000001f0: 12c1 55bd 63b4 d83d fb79 1fbe 01b5 bd3e
00000200: 7da9 1fbe 83db a23d 9aa6 593c 5790 c43d
00000210: 1738 82be a9a2 d53c 69ad 11be 4af1 2dbe
00000220: d5be 383e 3d70 16be 928f 153d 7377 88bd
00000230: e1b7 f8ba e055 1abb d1b7 b43d 7364 a13c
00000240: fcb2 dc3d 1b92 303e 6f6e 04be 9872 323d
00000250: 6b33 813e bc7e 8dbd b8e6 863d 68e7 e0bd
00000260: daa9 2cbb c5d3 a4bc 1b97 c83d 8047 9abd
00000270: e787 963d bfab f63d 5bc7 063e f17c 443d
00000280: 39f7 d3bd 05ec fbbd e087 77b6 03d0 85be
00000290: 03c5 62be 1e4f 30be 0122 473c ffac d43c
000002a0: 88f1 ea3d 7e13 313d 1f06 ac3d 7ddd 07bd
000002b0: c2b6 d23d 2f51 573d 9de2 67bd 84bf 8a3d
000002c0: e73b 39be 64c9 473e 03ec 64bd 5729 9b3d
000002d0: c206 f13c cf43 8d3e 745c 9ebe 8e4d 25bd
000002e0: 86cc df3c d534 73be ebc8 02bd cd8a 4c3e
000002f0: 439b 83bc c342 73bd ebac 05bc ccc0 d93b
00000300: ac25 1a3d 39ec f1ba a238 4f3d 202c 60bc
00000310: c83e 2abe d692 1abd 2b5f 093e a948 7a3d
00000320: 29f3 e53d 71ce 8a3c b3f3 16bd 56bf e43d
00000330: 082d d43e ca89 3b3d 29ea 243c 89e8 293b
00000340: b38c 113e 9ea1 8dbd d7c6 abbc 512d 49bc
00000350: ee2c 26bd 5073 96ba b602 19bd c1cd 9d3c
00000360: 57e1 34bd 4ba0 6bbd 2d50 a43d e27a 44bc
00000370: e384 323e 0a01 8cbd 079c 9d3e e9b3 17be
00000380: 7944 a13d c155 12bc 097e 163d fbac 113e
00000390: 3feb c1bd d7af b33d bb47 a0bb 9b89 b1bd
000003a0: d91d d4bd 23d1 2b3d f175 fa3d d08a d83c
000003b0: c905 cfbd ee3a d63d f1af 07bd 7901 cabe
000003c0: fab2 b2bc c8de 13be cced ebbd 4ee4 3b3d
000003d0: 1478 323c 5884 853d afc6 65be 8dd6 5c3d
000003e0: c0e7 06bd 4fdd 4b3e 32b4 6c3d 26bb 183e
000003f0: 5ae0 0c3e e119 f3bd 5b19 4dbb af05 8e3d

network_body.linear_encoder.seq_layers.0.bias f4 [256]
-0.010043861 0.008948233 0.0075150025 0.011138872 0.009590013 0.01564601 0.0012137342 0.014429376
0.0011681835 0.01554261 0.010962005 0.009827863 -0.0010639012 0.0272436 0.02309536 0.008004883
0.030169724 0.018098148 0.0025940922 0.007353423 0.019489171 0.036993586 0.014695675 -0.000258835
0.00992436 0.0047407337 -0.011970841 0.020600084 -0.0029727549 0.0044884025 0.026233066 0.009969777
0.010342664 -0.00054362655 0.006355143 0.017509088 0.020912837 0.014712851 0.007889807 0.03905655
0.015025264 0.0052450607 0.0060903043 0.014856177 0.014056118 0.009405797 -0.008052642 0.03308133
0.027122896 0.019951826 -0.0072561833 -0.0086666625 0.009335877 0.00961337 0.00673719 0.0010472515
0.006645445 0.030775733 0.010673585 0.016179737 0.012881242 0.02911743 0.017049523 0.024232637
-0.0036274113 0.0113283 0.01224056 0.014026677 0.0056186146 0.03316231 0.0102121 0.008316004
0.030318886 0.035413787 -0.0006845578 0.019013599 0.014324267 0.0046596946 0.032467235 0.0042275833
0.010687995 0.0075310473 -0.0007420172 0.024381349 0.014203268 0.011581021 0.005896048 0.0042399415
0.014350987 -0.0055021993 0.025270142 -0.0018697391 0.011494349 -0.002481294 0.02317016 0.007240231
0.0111566 0.012934507 0.025466383 0.003713885 0.022546357 -0.007243763 -0.0077363774 0.028170062
0.008564146 0.0011266113 0.027048288 0.013457905 0.030624794 0.005015647 0.0050613284 0.02460621
0.010017581 0.0057793227 -0.0005826788 -0.014902749 -0.0003294862 0.024847597 0.016613346 -0.00059188664
0.01642916 0.006939476 0.01758765 0.02145255 0.016442483 0.008533307 0.035626978 0.003658419
0.024712041 0.032632876 0.012995527 0.011779081 -0.007532628 0.010102149 0.0145839155 -0.015721321
0.010198372 0.025157183 0.015659276 0.016284509 0.044892903 0.03406663 0.047228288 0.004513827
0.00066084426 0.0035342763 -0.0055675227 0.026900154 0.021331215 -0.006085822 0.024672411 0.0050213467
-0.010460083 0.0007277169 -0.0072369236 0.019707166 0.0033845312 0.03145594 0.0329071 0.031033041
0.0038159622 -0.0034698346 0.030362355 0.008558254 0.022050876 0.0040030824 -0.0019556836 0.014676625
0.008913862 0.0032398223 0.024520388 0.003065602 0.03050701 0.0152392 0.033819787 0.018481635
0.0068837986 0.025318192 0.0071328236 0.0314273 -0.002572858 0.010478571 0.010501759 0.018284673
0.019644056 0.002421588 -0.01057086 0.019547313 0.02487297 0.010115961 -0.0026023847 0.013159388
0.0082202945 -0.0051022605 0.0029295902 0.017293887 0.0013477089 0.023017745 0.012461067 0.014870311
0.016073385 0.0084691 0.0047073 0.016516473 0.020688701 0.0072436 0.008045986 0.0040557636
0.010514053 0.039971367 0.0011555104 0.0062845484 0.011207979 -0.02183167 -0.007654841 0.06180723
0.0004984166 0.02603501 0.049934007 -0.0037426883 0.0026114008 0.0069063 -0.011003261 0.007645142
0.017944561 0.019453403 0.004179709 0.023056814 0.05795414 -0.00074377534 0.018005017 0.034497
0.014852327 0.033747107 0.007310204 0.016044157 0.016089752 0.029900799 0.019132853 -0.0022801603
0.024194362 0.0004700652 -0.0012207585 0.013481052 0.061236285 0.031897727 0.023641279 0.014438856
0.0075631924 0.035331827 -0.0010354387 0.015804173 0.053479344 0.017539581 0.01595083 0.032642912
00000000: 028f 24bc 9c9b 123c 6940 f63b d17f 363c
00000010: 6e1f 1d3c 102c 803c 2916 9f3a 3169 6c3c
00000020: bc1d 993a 6ea6 7e3c fb99 333c 0c05 213c
00000030: 9a72 8bba f82d df3c 7b32 bd3c ea26 033c
00000040: 7f26 f73c 9142 943c a501 2a3b fcf4 f03b
00000050: c1a7 9f3c 9686 173d 21c6 703c 3fb4 87b9
00000060: c899 223c 2858 9b3b 5921 44bc 82c1 a83c
00000070: 8dd2 42bb 7313 933b bae6 d63c 4758 233c
00000080: 4774 293c 2982 0eba ce3e d03b 386f 8f3c
00000090: 6651 ab3c 2b0e 713c 4044 013c c3f9 1f3d
000000a0: 862c 763c c2de ab3b 2d91 c73b 5367 733c
000000b0: a24b 663c c61a 1a3c 3bef 03bc 4a80 073d
000000c0: d630 de3c 0372 a33c 47c5 edbb 9efe 0dbc
000000d0: 82f5 183c 6581 1d3c a5c3 dc3b ee43 893a
000000e0: 08c2 d93b 641d fc3c 43e0 2e3c 5e8b 843c
000000f0: d80b 533c ad87 ee3c 71ab 8b3c 8683 c63c
00000100: ddb9 6dbb 569a 393c a18c 483c 26d0 653c
00000110: 5b1c b83b 34d5 073d a750 273c d93f 083c
00000120: 505f f83c 0c0e 113d e573 33ba 68c2 9b3c
00000130: 55b0 6a3c 5ab0 983b 5dfc 043d 8a87 8a3b
00000140: b31c 2f3c 01c7 f63b ee83 42ba 65bb c73c
00000150: d3b4 683c 53be 3d3c a333 c13b 35ef 8a3b
00000160: 6720 6b3c cb4b b4bb 5403 cf3c 0912 f5ba
00000170: cb52 3c3c 359d 22bb 59cf bd3c 763f ed3b
00000180: 2cca 363c 41eb 533c e09e d03c a764 733b
00000190: 23b3 b83c 175d edbb 7081 fdbb e7c4 e63c
000001a0: a250 0c3c cdaa 933a 5f94 dd3c 8b7e 5c3c
000001b0: d9e0 fa3c 4c5a a43b 80d9 a53b f692 c93c
000001c0: c820 243c 7960 bd3b eabe 18ba a92a 74bc
000001d0: e4be acb9 308d cb3c b618 883c d728 1bba
000001e0: 7296 863c 8b64 e33b fa13 903c 42bd af3c
000001f0: 63b2 863c 49cf 0b3c 98ed 113d 16c2 6f3b
00000200: e870 ca3c 0daa 053d 31eb 543c 0cfd 403c
00000210: 43d4 f6bb 7c83 253c 60f1 6e3c 00ca 80bc
00000220: 1317 273c 7016 ce3c e247 803c 1767 853c
00000230: 9fe1 373d 7389 0b3d 7372 413d bae8 933b
00000240: 823c 2d3a 519f 673b c46f b6bb b65d dc3c
00000250: cdbe ae3c 936b c7bb cc1d ca3c 1c8a a43b
00000260: c560 2bbc 41c4 3e3a b723 edbb ec70 a13c
00000270: 03cf 5d3b f2d7 003d 98c9 063d 0139 fe3c
00000280: 3915 7a3b 2a66 63bb 79ba f83c eb37 0c3c
00000290: 0aa4 b43c 4a2c 833b ed2a 00bb 3a76 703c
000002a0: 720b 123c 3353 543b fbde c83c 44e8 483b
000002b0: d6e9 f93c d6ad 793c 9e86 0a3d cc66 973c
000002c0: 7d91 e13b 1968 cf3c 76ba e93b eab9 003d
000002d0: 659d 28bb 50ae 2b3c 920f 2c3c bdc9 953c
000002e0: 92ec a03c 81b3 1e3b 6631 2dbc b021 a03c
000002f0: 66c2 cb3c 6abd 253c c58c 2abb 799a 573c
00000300: 6aae 063c dd30 a7bb 5efe 3f3b e9ab 8d3c
00000310: 9ba5 b03a b68f bc3c 8129 4c3c 9ba2 733c
00000320: 55ac 833c fbc1 0a3c b23f 9a3b 8e4d 873c
00000330: 5a7b a93c b95b ed3b 50d3 033c 36e6 843b
00000340: 2243 2c3c 04b9 233d 7f74 973a 9dee cd3b
00000350: aca1 373c 55d8 b2bc 76d5 fabb 9429 7d3d
00000360: 2ca8 023a 6047 d53c 9a87 4c3d e447 75bb
00000370: 0924 2b3b 3e4e e23b 0647 34bc 1984 fa3b
00000380: 7900 933c be5c 9f3c f1f5 883b a5e1 bc3c
00000390: 5261 6d3d ebf9 42ba 427f 933c ba4c 0d3d
000003a0: 2d57 733c 683a 0a3d 708a ef3b 096f 833c
000003b0: a8ce 833c 85f2 f43c 80bc 9c3c be6e 15bb
000003c0: 4133 c63c 1573 f639 dc01 a0ba a1df 5c3c
000003d0: e6d2 7a3d 31a7 023d 5bab c13c f490 6c3c
000003e0: a8d4 f73b 1bb8 103d 8fb7 87ba c177 813c
000003f0: 280d 5b3d 2baf 8f3c 51ab 823c 93b4 053d

network_body.linear_encoder.seq_layers.2.weight f4 [256, 256]
0.083117306 -0.09772038 0.04716692 0.069777146 0.06578857 -0.13441916 0.046315275 0.03397298
0.043707017 0.18490349 0.081225514 0.0020436102 -0.18491946 0.0644406 0.046709843 0.11393944
-0.11495503 0.05990809 0.042860366 0.052270655 0.0004271434 -0.04379569 -0.06268336 0.019890286
-0.21702619 -0.005763503 0.0015257272 -0.030008858 0.03267576 -0.015878968 -0.021770833 0.011056532
0.053390805 -0.011383012 -0.01957687 -0.12773177 0.079726264 0.018604634 0.044537175 0.017115396
0.032252192 0.033230003 -0.09556489 0.051788222 0.087617114 -0.023082264 0.0050475495 0.06183807
-0.0064092623 -0.15420741 0.0272229 0.055538923 0.0075335484 0.051106464 -0.0040219747 -0.06059506
-0.032701135 -0.04663175 0.086969845 0.043299854 0.08505354 0.071183205 -0.012777416 0.12115554
0.1014488 0.098532386 -0.047409985 -0.012702403 0.0077490252 -0.12554997 0.005304991 0.08538519
0.12710644 0.077793404 0.0011851594 -0.016321141 0.07419777 0.02879603 0.019113671 0.017936202
0.02475128 0.0443435 -0.028633436 -0.022662215 0.010687185 -0.025962908 0.0588571 0.04367195
0.17666924 0.098354325 -0.055696495 -0.038338583 0.12896727 -0.061414074 0.026383253 0.03577832
-0.010991144 0.09760737 -0.021201573 0.051223725 0.035528857 -0.039138827 0.043132167 -0.06445503
-0.06820992 0.028863579 -0.17436065 -0.13248433 -0.13685939 -0.1456191 0.0187751 0.04834647
0.1169991 0.14883958 -0.0036640505 -0.03852371 -0.13423511 -0.013324885 -0.056698672 -0.0668126
-0.047333308 -0.02172208 -0.025589384 0.07855404 -0.11021355 0.08507048 0.0016898308 0.025324268
0.107160605 0.036313508 0.111520015 0.07244118 -0.004959573 -0.032531276 0.015598461 -0.120685466
-0.038205396 0.051391203 -0.027346274 -0.046773616 -0.019420195 -0.0002699475 0.05294494 0.0543
-0.0025817757 0.04416408 0.025595775 0.044258557 -0.0054076347 -0.0033663963 0.08849918 -0.08486058
0.12080189 0.012488229 0.016385633 0.070354424 0.16029952 -0.11860294 0.077913426 -0.04234127
-0.059754424 0.05788746 -0.1128076 -0.16422169 0.2617123 0.0009151589 0.0042573344 0.06891529
0.052220173 -0.018522339 0.07143414 0.031723447 0.043096 -0.013779155 -0.121385776 0.08512969
0.0965791 -0.058409374 -0.008954587 0.008555146 -0.066152595 -0.00035131708 0.039586734 0.041841257
-0.05354766 -0.043559775 -0.11126577 -0.011292208 0.06597035 0.02805602 0.048331004 -0.014912658
0.0726405 0.10012493 0.026552835 -0.11215689 -0.1250225 -0.011436219 0.09607815 -0.02703815
-0.012417694 0.082533725 0.054598942 0.0019363378 0.03662867 0.19669543 0.14111838 0.10475646
-0.07022705 0.096316725 0.19939275 -0.031842705 0.12120521 -0.093769446 -0.10636864 0.018227546
-0.08367738 -0.007920609 0.09057177 -0.19943966 0.05732585 0.14158274 0.061090186 0.056505334
0.04779105 -0.073784314 -0.033872746 0.068783864 0.016555777 -0.06263766 -0.0487533 -0.08188499
0.021967027 -0.0035688654 0.06025197 -0.0083182035 0.041074242 -0.10500995 0.009129146 -0.053618535
-0.024034055 -0.06361923 -0.1704238 0.0047756233 0.030101132 0.044531714 0.007576687 -0.104339525
0.053224895 0.076874465 0.025461128 0.07393354 0.14013167 -0.049507976 -0.049787685 0.018661564
00000000: 6839 aa3d 9f21 c8bd 1a32 413d 52e7 8e3d
00000010: 28bc 863d 2da5 09be 16b5 3d3d 4027 0b3d
00000020: 2106 333d 5757 3d3e 9059 a63d 17ee 053b
00000030: 875b 3dbe 6ff9 833d d252 3f3d 1559 e93d
00000040: 8b6d ebbd 2f62 753d 5a8e 2f3d c119 563d
00000050: 37f2 df39 1c63 33bd 2260 80bd f4f0 a23c
00000060: 1d3c 5ebe c4db bcbb e9fa c73a 23d5 f5bc
00000070: 05d7 053d 9c14 82bc bf58 b2bc 7526 353c
00000080: 51b0 5a3d d07f 3abc ac5f a0bc 1ecc 02be
00000090: 8647 a33d bf68 983c 9d6c 363d 9635 8c3c
000000a0: e01a 043d 2f1c 083d 86b7 c3bd e31f 543d
000000b0: 9a70 b33d 0417 bdbc ea65 a53b eb49 7d3d
000000c0: ca04 d2bb 8ce8 1dbe 8f02 df3c c87c 633d
000000d0: fcdb f63b 0355 513d c5ca 83bb 8732 78bd
000000e0: a0f1 05bd ef00 3fbd 3f1d b23d 305b 313d
000000f0: 8d30 ae3d 80c8 913d 5e58 51bc 6520 f83d
00000100: 63c4 cf3d 59cb c93d f930 42bd bd1d 50bc
00000110: 89eb fd3b 2c90 00be 7dd5 ad3b 6ede ae3d
00000120: 3128 023e 2652 9f3d 5a57 9b3a eab3 85bc
00000130: 00f5 973d a7e5 eb3c 4694 9c3c f1ee 923c
00000140: 32c3 ca3c 88a1 353d ab90 eabc 1ca6 b9bc
00000150: 4e19 2f3c 2ab0 d4bc 2414 713d 5ce1 323d
00000160: c8e8 343e fe6d c93d 0222 64bd eb08 1dbd
00000170: ff0f 043e 538d 7bbd b121 d83c 4a8c 123d
00000180: 3314 34bc 5fe6 c73d ecae adbc f8cf 513d
00000190: b586 113d 0950 20bd 5bab 303d 0001 84bd
000001a0: a4b1 8bbd 5073 ec3c 998b 32be f9a9 07be
000001b0: de24 0cbe 2c1d 15be 3dce 993c f306 463d
000001c0: 399d ef3d 6769 183e 9120 70bb 0acb 1dbd
000001d0: ee74 09be 9e50 5abc de3c 68bd 0bd5 88bd
000001e0: 92e0 41bd 81f2 b1bc d4a0 d1bc f1e0 a03d
000001f0: a4b7 e1bd 6f39 ae3d 507d dd3a d774 cf3c
00000200: 0577 db3d 79bd 143d 9b64 e43d 0b5c 943d
00000210: ea83 a2bb 843f 05bd b090 7f3c f129 f7bd
00000220: 437d 1cbd 957f 523d 4b05 e0bc b195 3fbd
00000230: 1a17 9fbc bd87 8db9 cbdc 583d ad69 5e3d
00000240: 0233 29bb 65e5 343d 3bae d13c 7648 353d
00000250: 8732 b1bb c29e 5cbb 0f3f b53d 62cb adbd
00000260: fb66 f73d 6e9b 4c3c 2a3b 863c fb15 903d
00000270: 8f25 243e 19e6 f2bd 1391 9f3d 0a6e 2dbd
00000280: 0ec1 74bd 671b 6d3d ac07 e7bd bb29 28be
00000290: 28ff 853e 46e7 6f3a 1c81 8b3b 7623 8d3d
000002a0: d2e4 553d 29bc 97bc 104c 923d 72f0 013d
000002b0: 6e85 303d f7c1 61bc 1b99 f8bd 7a58 ae3d
000002c0: 43cb c53d ab3e 6fbd 43b6 12bc e22a 0c3c
000002d0: 037b 87bd fb30 b8b9 b325 223d bd61 2b3d
000002e0: cb54 5bbd bc6b 32bd 4fdf e3bd f402 39bc
000002f0: 761b 873d bdd5 e53c bbf6 453d 3954 74bc
00000300: 8bc4 943d 4d0e cd3d 5585 d93c 83b2 e5bd
00000310: e605 00be fb5e 3bbc 9fc4 c43d 1c7f ddbc
00000320: 9573 4bbc 7107 a93d 24a3 5f3d b7cc fd3a
00000330: f207 163d 876a 493e 5681 103e 8e8a d63d
00000340: 33d3 8fbd b441 c53d 9d2d 4c3e 7f6d 02bd
00000350: 703a f83d 320a c0bd cdd7 d9bd ef51 953c
00000360: 0c5f abbd 71c5 01bc b17d b93d e939 4cbe
00000370: 83ce 6a3d 11fb 103e b439 7a3d 2372 673d
00000380: 8cc0 433d 3b1c 97bd 26be 0abd 8ede 8c3d
00000390: fb9f 873c 2c48 80bd 8ab1 47bd 51b3 a7bd
000003a0: 32f4 b33c a0e3 69bb c5ca 763d 1349 08bc
000003b0: 773d 283d 750f d7bd 6a92 153c 1c9f 5bbd
000003c0: 11e3 c4bc cd4a 82bd 9483 2ebe d57c 9c3b
000003d0: a696 f63c e366 363d db45 f83b f6af d5bd
000003e0: 5902 5a3d 5c70 9d3d db93 d03c 786a 973d
000003f0: ad7e 0f3e e0c8 4abd 2cee 4bbd 23e0 983c

network_body.linear_encoder.seq_layers.2.bias f4 [256]
0.019982656 0.005850359 0.0012374441 0.0025545065 0.0014327281 0.01771738 0.010617317 0.009096099
0.0017134391 0.018490823 0.0052604913 0.007512129 0.0063074306 3.0367566e-05 0.005947678 0.030519811
0.004485733 0.011102122 0.008967275 0.015758302 -0.0035682945 0.0052362075 0.025175186 0.00880772
0.025269821 0.015154908 0.011525665 0.010018304 0.008728957 0.022117645 0.040273003 0.017635986
0.018502448 0.0015653538 0.016188998 0.016151685 0.009265712 0.019330628 0.0065690894 0.0054684067
0.018445041 0.017702926 0.0028120172 -0.0066948603 0.017884418 0.004601835 0.007499368 -0.0012382311
0.0009862685 0.018603338 0.013666101 0.009672736 0.03359397 0.005304326 0.007664936 0.0050014243
0.01894966 0.005768399 0.017529596 -0.0046329345 0.0027158726 0.022868382 -0.0003630609 0.0045190495
0.006942904 0.0014254649 0.027200889 0.0056587015 0.016630987 0.011369413 0.0027147233 0.014984477
0.0007872683 0.020355118 0.022759203 0.005762042 0.0019126555 0.007181847 0.0025733758 9.180724e-05
0.008534918 0.0092434175 -0.009288133 0.027025208 0.013279561 0.012270646 0.008315278 0.026753135
0.0034188195 0.0012111402 0.010763502 0.0021992654 -0.001985509 0.0058495062 0.025819032 0.014534364
0.0009452813 0.01472813 0.007269663 0.00062100554 -0.012775611 -0.0037507543 0.019892585 0.022976145
-0.0058637625 0.0016650619 0.015347899 -0.004687158 0.0021851477 0.013510708 -0.0012098274 0.013599564
0.01660699 -0.00071359053 0.012099015 0.0074324147 -0.002329594 0.009331056 0.005940427 0.042458825
0.01904261 0.021775967 -0.000857174 0.0063493 0.0034805378 0.0027520522 0.006655483 0.007894873
0.0072988835 -0.00033674584 0.0037887173 0.0019285864 0.029487008 0.011646395 -0.011808923 0.010326476
0.014890058 0.021057261 0.012275964 0.004796415 0.0052412488 0.018781772 -0.000533669 -0.004136399
0.019922283 -0.0033813133 -0.011164995 0.0058677313 0.02406574 0.013918921 0.016347205 0.02282674
0.0116880955 0.0015751445 0.023756301 0.028228661 0.0069689522 -0.0037108215 0.010997313 0.0051049343
-0.002675199 0.023892108 0.009659341 0.011020754 0.024205115 0.0003884293 0.014253264 -0.015216036
0.012744624 0.0056142565 -0.0022099104 -0.0072370274 0.013345261 0.016610395 0.025374971 -8.682963e-05
0.015371236 0.013512196 -0.006480847 0.0075402535 0.006548222 0.008327906 -0.0019879327 0.018512297
0.0034148511 -0.008239818 -0.0031781986 0.01777492 0.0095301485 0.010327736 0.010231959 0.014875303
0.0050682253 0.009401014 0.019075548 0.0009059845 0.011405349 0.032909337 0.0030724735 0.020022048
0.009564911 0.007412131 0.011639148 0.01485181 0.01533688 0.01575439 0.023353215 0.00033860072
-0.0051189866 0.011049574 0.0059911693 0.003263501 0.0022658547 0.011871877 0.006792245 0.008549151
0.016204929 0.011847159 0.01643832 0.013350186 0.001173172 0.0023581558 0.026188804 0.0021176094
0.016985042 0.01286127 0.0011279597 0.002525131 0.017940694 0.019243347 0.011802533 0.013098135
0.006853269 0.0052653523 0.0054542837 0.0031532368 0.01387259 0.016887877 0.0090587055 0.0077681514
0.0012978616 0.012554258 -0.0005431273 0.0030128064 0.008951914 0.00096721353 0.005407639 0.015537005
0.00858522 0.0047555016 0.027122628 0.038560744 0.014511155 0.015264238 0.012724508 0.0051555354
00000000: abb2 a33c 5eb4 bf3b bc31 a23a 8269 273b
00000010: 61ca bb3a 0a24 913c 41f4 2d3c ce07 153c
00000020: 7a95 e03a 117a 973c 3360 ac3b 4e28 f63b
00000030: 90ae ce3b dabd fe37 bde4 c23b af04 fa3c
00000040: 0efd 923b ade5 353c 7aeb 123c 8e17 813c
00000050: 0cda 69bb 7e94 ab3b 313c ce3c 414e 103c
00000060: a802 cf3c 4b4c 783c 25d6 3c3c d023 243c
00000070: e603 0f3c 1030 b53c 4ef5 243d 5879 903c
00000080: 7292 973c 8f2c cd3a ca9e 843c 8a50 843c
00000090: 37cf 173c 445b 9e3c 8441 d73b 5230 b33b
000000a0: 0e1a 973c ba05 913c d249 383b 8f60 dbbb
000000b0: 5882 923c fdca 963b 42bd f53b 244c a2ba
000000c0: ae45 813a 0766 983c c8e7 5f3c 657a 1e3c
000000d0: d599 093d e9cf ad3b 252a fb3b fde2 a33b
000000e0: 513c 9b3c d704 bd3b 3a9a 8f3c dfcf 97bb
000000f0: c8fc 313b 7956 bb3c 3659 beb9 8914 943b
00000100: 4d81 e33b aad6 ba3a 66d4 de3c a16c b93b
00000110: b53d 883c c646 3a3c 80e9 313b 7481 753c
00000120: ae60 4e3a c7bf a63c 8271 ba3c 83cf bc3b
00000130: 12b2 fa3a b355 eb3b 15a6 283b a388 c038
00000140: 0ad6 0b3c b471 173c 412d 18bc f863 dd3c
00000150: 8492 593c d20a 493c ce3c 083c 6429 db3c
00000160: 460e 603b 1fbf 9e3a 6659 303c 8d21 103b
00000170: 501f 02bb 37ad bf3b 6f82 d33c 8b21 6e3c
00000180: c1cc 773a 414e 713c 5a36 ee3b faca 223a
00000190: cc50 51bc 37cf 75bb c6f5 a23c 7838 bc3c
000001a0: ce24 c0bb 353e da3a c175 7b3c bb96 99bb
000001b0: b234 0f3b 045c 5d3c 1293 9eba b5d0 5e3c
000001c0: 620b 883c 4010 3bba f23a 463c 9d8b f33b
000001d0: 1aac 18bb 49e1 183c eaa7 c23b 4ee9 2d3d
000001e0: 3fff 9b3c 8363 b23c f9b3 60ba ca0d d03b
000001f0: bc19 643b c65b 343b 3d16 da3b 7f59 013c
00000200: 792b ef3b 438d b0b9 214c 783b 9fc8 fc3a
00000210: bd8e f13c 85d0 3e3c 377a 41bc 6130 293c
00000220: 6ef5 733c 4780 ac3c 2021 493c 3f2b 9d3b
00000230: c8be ab3b 3bdc 993c ece5 0bba a18a 87bb
00000240: 0e34 a33c 0699 5dbb 62ed 36bc 1946 c03b
00000250: 8425 c53c 300c 643c 93ea 853c 25ff ba3c
00000260: 6d7f 3f3c 1475 ce3a 939c c23c cb3f e73c
00000270: cf5b e43b 4131 73bb 132e 343c 4b47 a73b
00000280: 6452 2fbb 62b9 c33c 3642 1e3c 6590 343c
00000290: ce49 c63c 19a6 cb39 8686 693c ae4c 79bc
000002a0: d4ce 503c ccf7 b73b 25d4 10bb 9624 edbb
000002b0: 15a6 5a3c 8612 883c 2cdf cf3c 4d18 b6b8
000002c0: a3d7 7b3c 4262 5d3c 495d d4bb 3b14 f73b
000002d0: 7892 d63b c571 083c fa47 02bb 1aa7 973c
000002e0: b2cb 5f3b 4d00 07bc 5349 50bb b69c 913c
000002f0: 5724 1c3c aa35 293c f2a3 273c 8bb7 733c
00000300: 5b13 a63b b606 1a3c 5344 9c3c 977f 6d3a
00000310: 80dd 3a3c f1cb 063d 8d5b 493b 4705 a43c
00000320: 25b6 1c3c 76e1 f23b 20b2 3e3c 0255 733c
00000330: 8a47 7b3c 5a0f 813c 3e4f bf3c 3886 b139
00000340: 2cbd a7bb 4609 353c 9251 c43b 76e0 553b
00000350: bc7e 143b 4382 423c 7b91 de3b bd11 0c3c
00000360: 33c0 843c 961a 423c a8a9 863c bdba 5a3c
00000370: 1fc5 993a 4a8b 1a3b e789 d63c 97c7 0a3b
00000380: 3724 8b3c 14b8 523c 0cd8 933a ab7c 253b
00000390: 5df8 923c 39a4 9d3c 695f 413c 8f99 563c
000003a0: 6391 e03b fa88 ac3b d9b9 b23b 89a6 4e3b
000003b0: dc49 633c 7258 8a3c f76a 143c fa8b fe3b
000003c0: 021d aa3a 60b0 4d3c a860 0eba 8172 453b
000003d0: 0cab 123c 9a8c 7d3a 9032 b13b ec8e 7e3c
000003e0: 06a9 0c3c 0ad4 9b3b 4630 de3c dff1 1d3d
000003f0: 32c0 6d3c db16 7a3c 747a 503c c4ef a83b

action_model._continuous_distribution.log_sigma f4 [1, 5]
-0.14243922 -0.107783355 -0.13119343 -0.048119824 -0.02179439
00000000: 96db 11be 85bd dcbd 9257 06be 4b19 45bd
00000010: 268a b2bc

action_model._continuous_distribution.mu.weight f4 [5, 256]
0.01183023 0.047351114 -0.07497044 0.026785927 -0.0385299 0.0071225385 0.02812711 0.0007329239
-0.020102981 0.023855899 0.0018542048 0.009150622 -0.008337972 -0.016010031 -0.030045219 0.014437415
0.007183341 -0.009879507 -0.024099935 -0.033444826 0.00084155356 -0.09165636 0.0015493021 0.03557301
0.008778642 -0.024338193 0.031112771 -0.029059246 -0.034382835 0.013092941 -0.03513943 0.042148974
0.021915423 0.01816857 -0.014467759 0.0044290265 0.011138927 -0.024255471 -0.030971704 -0.03654726
0.05385402 0.03952128 0.051754367 -0.0037979041 0.028689696 -0.048440963 -0.023512598 -0.0066690035
-0.0116289705 0.022508295 -0.04249899 -0.02597318 0.0038307768 0.050932992 0.018689053 0.033010233
0.038650706 0.026925268 -0.0075389687 -0.056604207 -0.03730802 -0.046267007 -0.06876761 0.030794209
0.06874415 0.042143337 -0.036970343 0.050396796 0.04731629 0.011415957 -0.041116983 0.016156664
-0.015858814 -0.037435967 0.008580078 -0.025583155 -0.003786036 -0.07441875 0.039261356 -0.0118020335
-0.07764694 0.025510263 -0.0004898016 0.0048838826 -0.030916339 -0.006289111 0.009032562 0.004349893
-0.07876153 -0.040122513 -0.005228279 0.01114902 0.053632885 -0.033762727 -0.0006701489 0.010940852
-0.011421224 -0.032997232 -0.0577466 -0.0013605427 -0.029701153 -0.03993931 0.0073070973 -0.015598482
-0.035618924 0.01996733 -0.020914625 -0.027029553 -0.045017593 -0.0056825923 -0.06377035 -0.004172164
-0.053095914 -0.023461346 -0.0065636467 0.0012560245 -0.04179711 -0.008149363 0.057655714 -0.0034555304
-0.0056575267 -0.012607031 0.014331572 0.04981886 0.011060208 0.076304905 0.0013780821 -0.041859422
-0.010453946 -0.062473092 0.023179976 0.045374077 0.046325978 -0.08224098 -0.043516193 0.036287118
-0.00615944 0.05347737 0.03794753 -0.055779878 -0.032969534 0.032554746 0.016656412 0.0046839435
0.016905492 0.011771837 0.0016106354 0.061842594 -0.0038697661 -0.060590863 -0.084728524 -0.045923676
-0.067924835 -0.036973808 0.019238485 0.03659072 0.030516524 -0.05730414 -0.073990144 -0.05887796
0.018269675 -0.05094078 -0.081423774 -0.035299566 0.053716175 -0.035922293 -0.08645909 0.006298282
0.006976048 0.028147934 0.049912784 -0.038490668 0.020506565 -0.0094963 -0.0039198925 0.025465189
0.102735035 -0.043396495 -0.026878208 -0.049014248 -0.07336141 0.03904773 0.016735913 0.05596527
0.015009432 0.057892583 -0.023628699 -0.0014256941 0.033301238 0.013401467 -0.011092996 0.052518576
-0.0042112907 -0.08520817 0.0070377057 0.06395701 -0.044898387 -0.021342458 -0.017886983 0.006177517
-0.051179677 0.060537267 0.0487251 -0.037909552 -0.008096163 -0.022361774 0.06552567 0.046359926
0.030706229 0.012726667 -0.034575626 0.023596304 -0.03186499 -0.035154104 -0.020599827 -0.046601485
-0.00096030184 0.06440377 -0.013665862 0.006243136 -0.012069547 0.035041157 -0.016030632 0.05449526
-0.0060829334 0.09589702 -0.038887043 0.044663884 0.0048312307 -0.012811847 -0.025829455 -0.024067568
0.02327762 0.029656494 0.01791261 -0.0462842 -0.03187276 -0.03192792 0.04404614 0.01041229
0.030852227 0.04699238 -0.034122508 0.02215529 0.03608238 0.026410934 -0.013269428 -0.040277064
-0.028724696 0.016159402 0.024026038 -0.043143444 0.04207307 -0.020813925 0.03222292 0.05365087
00000000: 95d3 413c 3ef3 413d 1a8a 99bd 296e db3c
00000010: 87d1 1dbd 2f64 e93b d36a e63c b121 403a
00000020: 02af a4bc 726d c33c ca08 f33a 7eec 153c
00000030: fd9b 08bc 7827 83bc 6421 f6bc e88a 6c3c
00000040: 3b62 eb3b a8dd 21bc 3a6d c5bc 71fd 08bd
00000050: b49b 5c3a 54b6 bbbd f411 cb3a 01b5 113d
00000060: 4bd4 0f3c e460 c7bc 36e0 fe3c a80d eebc
00000070: 04d5 0cbd c683 563c 5dee 0fbd 67a4 2c3d
00000080: f987 b33c 41d6 943c 2e0a 6dbc 5e21 913b
00000090: 0c80 363c 69b3 c6bc 5fb8 fdbc 94b2 15bd
000000a0: 0896 5c3d 11e1 213d 63fc 533d 42e6 78bb
000000b0: a706 eb3c 086a 46bd 7e9d c0bc a887 dabb
000000c0: 7087 3ebc 5163 b83c 6c13 2ebd b5c5 d4bc
000000d0: c50d 7b3b 1d9f 503d c919 993c bd35 073d
000000e0: 3450 1e3d 6192 dc3c 7409 f7bb d0d9 67bd
000000f0: 4bd0 18bd 7982 3dbd 08d6 8cbd 2344 fc3c
00000100: bcc9 8c3d 7e9e 2c3d 376e 17bd df6c 4e3d
00000110: bace 413d fe09 3b3c 486a 28bd fb5a 843c
00000120: 58ea 81bc 7556 19bd 7593 0c3c c493 d1bc
00000130: 251f 78bb dc68 98bd 84d0 203d 515d 41bc
00000140: 5c05 9fbd e6fa d03c 0766 00ba fa08 a03b
00000150: 4344 fdbc e314 cebb 50fd 133c 8c89 8e3b
00000160: ba4d a1bd 8157 24bd fc51 abbb 61aa 363c
00000170: 28ae 5b3d c94a 0abd eeac 2fba 4241 333c
00000180: 1620 3bbc 1b28 07bd b387 6cbd 3d54 b2ba
00000190: d54f f3bc 6797 23bd 6070 ef3b c790 7fbc
000001a0: 26e5 11bd 8792 a33c 2655 abbc 156d ddbc
000001b0: 5e64 38bd 0a35 babb 079a 82bd a6b6 88bb
000001c0: 1a7b 59bd 0232 c0bc dc13 d7bb 30a1 a43a
000001d0: 7233 2bbd e884 05bc 6628 6c3d 2e76 62bb
000001e0: c662 b9bb b88d 4ebc f8ce 6a3c dc0e 4c3d
000001f0: e035 353c bf45 9c3d c3a0 b43a c974 2bbd
00000200: 0747 2bbc c9e3 7fbd efe3 bd3c 2bda 393d
00000210: 4fc0 3d3d f56d a8bd 093e 32bd cda1 143d
00000220: 21d5 c9bb 160b 5b3d df6e 1b3d 7179 64bd
00000230: 100b 07bd 2058 053d 0773 883c c47b 993b
00000240: 637d 8a3c aade 403c f51b d33a a94e 7d3d
00000250: e79b 7dbb 202e 78bd 2686 adbd 771a 3cbd
00000260: 2d1c 8bbd d971 17bd 079a 9d3c 27e0 153d
00000270: cafd f93c bfb7 6abd 2588 97bd 042a 71bd
00000280: 49aa 953c 48a7 50bd 82c1 a6bd 4796 10bd
00000290: 7e05 5c3d 4123 13bd 7711 b1bd d261 ce3b
000002a0: 5597 e43b 7f96 e63c 5971 4c3d 64a8 1dbd
000002b0: 62fd a73c 5e96 1bbc 7172 80bb 5f9c d03c
000002c0: bf66 d23d 86c0 31bd b02f dcbc 2ac3 48bd
000002d0: 823e 96bd 83f0 1f3d c119 893c d73b 653d
000002e0: 1fea 753c c620 6d3d f990 c1bc 5bde baba
000002f0: e166 083d d491 5b3c 66bf 35bc b81d 573d
00000300: defe 89bb 9f81 aebd 8e9c e63b e5fb 823d
00000310: 5fe7 37bd 61d6 aebc b987 92bc c56c ca3b
00000320: c8a1 51bd edf5 773d f893 473d 0c47 1bbd
00000330: c5a5 04bc 0a30 b7bc 5332 863d e8e3 3d3d
00000340: a18b fb3c 8383 503c 2c9f 0dbd 094d c13c
00000350: dd84 02bd c0fd 0fbd f8c0 a8bc 33e1 3ebd
00000360: c4bc 7bba 20e6 833d c8e6 5fbc 3893 cc3b
00000370: 59bf 45bc 5187 0f3d ac52 83bc 6c36 5f3d
00000380: 5853 c7bb a865 c43d 0548 1fbd 7af1 363d
00000390: 4d4f 9e3b c8e8 51bc 4b98 d3bc 5929 c5bc
000003a0: b5b0 be3c 2df2 f23c 77bd 923c 8094 3dbd
000003b0: 038d 02bd dac6 02bd ba69 343d 4f98 2a3c
000003c0: cfbd fc3c 157b 403d 0bc4 0bbd 037f b53c
000003d0: 1ecb 133d be5b d83c 0468 59bc 90f9 24bd
000003e0: 0e50 ebbc b960 843c 41d2 c43c 2eb7 30bd
000003f0: d054 2c3d f781 aabc 2efc 033d 04c1 5b3d

action_model._continuous_distribution.mu.bias f4 [5]
0.0023187483 0.009995295 -0.0042906883 0.008427979 -0.0005803204
00000000: 24f6 173b 4ec3 233c e798 8cbb 8215 0a3c
00000010: a520 18ba
