MLConfig/results/lion/Animal/Animal-766416.onnx (onnx, 296297 bytes, 7 tensors)

network_body.linear_encoder.seq_layers.0.weight f4 [256, 24]
-0.14080228 0.10505993 -0.2817823 0.16840494 -0.016004862 0.061531384 -0.16779481 0.08491873
0.51752615 -0.12122538 -0.007755869 0.089557424 -0.010658233 0.1212605 -0.05961954 0.11708399
0.13671088 0.09584504 -0.016916547 0.055128586 -0.15572625 -0.18210267 0.2344786 0.3123281
0.39864397 -0.07194373 0.003447471 0.4293605 -0.16486952 0.3330372 0.26555732 -0.05497912
-0.06079378 -0.18535276 0.07941211 -0.14056624 -0.2027292 -0.3186355 0.035617713 -0.33991304
0.03229224 -0.3640652 -0.36297494 -0.014425228 -0.5021066 0.37920034 0.19811907 -0.13461255
-0.067051426 -0.030405628 0.033974767 -0.23800202 0.28272343 -0.11218291 0.20146301 -0.040436305
0.22405417 -0.03432795 0.35786408 -0.14722246 -0.21334048 -0.15171058 -0.36053377 0.4990856
-0.06774667 -0.061686445 0.019320978 0.18852153 -0.005924068 0.19623488 0.19488035 0.37422666
0.034449443 0.09115951 0.14142385 0.12078862 0.103686646 -0.32182196 -0.048241135 -0.063285485
-0.033056207 -0.069711484 -0.43633926 0.09522974 0.1594605 0.28877717 -0.10755429 0.030220926
0.20632322 -0.3101869 0.09336327 -0.17963502 -0.013548017 -0.1823799 -0.039688505 0.2094507
0.17300363 0.028304644 0.13901101 0.052853536 -0.2588591 -0.32144865 -0.007270361 0.0072820815
0.08823957 -0.46889493 0.11099234 -0.044891313 0.48859748 0.004293426 0.12969463 0.05797866
-0.077429056 0.16756116 0.17509471 -0.17363483 0.12437454 -0.07243112 -0.22833732 0.06731585
0.1764394 -0.17135718 0.08789985 0.08561672 -0.33979335 0.052966878 0.18964803 -0.29421186
0.19100103 0.13923533 -0.027939616 -0.13588843 -0.010007856 0.15673389 0.32886198 -0.03298115
0.3329073 0.016861659 -0.22662483 -0.38592356 -0.10152019 -0.07537374 0.043237023 -0.025310932
0.2265151 0.032114174 -0.04033503 0.1079309 0.17724258 0.3721068 -0.323609 -0.008855275
0.07897609 -0.14102384 0.028340964 -0.2960127 -0.21764241 -0.32939377 -0.41411498 -0.07307558
0.15287313 -0.5105102 -0.23426084 0.14538182 -0.18924427 -0.36399406 -0.41758 0.07588976
0.03820616 0.047542933 -0.20822777 0.18553425 -0.10054968 0.007457584 0.06500958 0.4486439
-0.014756848 -0.14566246 -0.106296636 0.03598966 0.16549623 0.27059752 -0.12368369 -0.17135186
-0.084239356 0.0064430027 0.48672548 0.20195888 -0.18400724 -0.0008035772 0.07630589 -0.043202717
-0.17965761 -0.4901386 0.50407606 0.12762187 0.058106557 -0.13161616 0.12774096 -0.54870296
0.22880217 0.06966298 -0.050659496 -0.06285805 -0.28768504 0.09895472 -0.16896762 -0.26118737
0.07276152 0.097061135 0.14793052 0.42634717 -0.054754544 0.10208337 -0.08059192 -0.06714424
-0.11799887 0.31236008 -0.01288906 0.024663962 0.008425429 -0.060893156 0.011541798 0.013272995
-0.0663514 0.1326027 -0.14079465 -0.095115244 0.03231304 -0.15022002 -0.17380708 0.23159014
0.25762132 -0.3009459 0.26129854 0.4219902 -0.29791853 0.088400446 0.16352652 0.39480278
-0.0015787124 -0.1681789 0.16085048 0.251565 0.14401203 0.040063832 0.047704592 0.18593009
0.2859359 -0.028407985 -0.02943645 0.10057897 -0.36720344 -0.09412765 0.2975149 0.13701949
00000000: 792e 10be a929 d73d c545 90be 5872 2c3e
00000010: a11c 83bc 5508 7c3d 67d2 2bbe dfe9 ad3d
00000020: 987c 043f 0345 f8bd f224 febb e269 b73d
00000030: df9f 2ebc 6d57 f83d 9e33 74bd bbc9 ef3d
00000040: f0fd 0b3e 684a c43d 9294 8abc 83ce 613d
00000050: b476 1fbe 1f79 3abe 281b 703e 78e9 9f3e
00000060: 101b cc3e 3c57 93bd f7ee 613b 24d5 db3e
00000070: 8ed3 28be da83 aa3e 21f7 873e c931 61bd
00000080: e602 79bd 1dcd 3dbe d1a2 a23d 99f0 0fbe
00000090: 3e98 4fbe 3124 a3be e1e3 113d 1509 aebe
000000a0: de44 043d c166 babe dad7 b9be cb57 6cbc
000000b0: 0f8a 00bf 8c26 c23e badf 4a3e dfd7 09be
000000c0: 4252 89bd 3915 f9bc 2029 0b3d cdb6 73be
000000d0: 20c1 903e 27c0 e5bd 524c 4e3e 8aa0 25bd
000000e0: 756e 653e 779b 0cbd f639 b73e 7cc1 16be
000000f0: ed75 5abe 055a 1bbe e297 b8be 2688 ff3e
00000100: c4be 8abd edaa 7cbd 0747 9e3c ca0b 413e
00000110: af1e c2bb ccf1 483e b78e 473e a39a bf3e
00000120: dc1a 0d3d d6b1 ba3d 6ad1 103e 0660 f73d
00000130: aa59 d43d d9c5 a4be 7f98 45bd d29b 81bd
00000140: f265 07bd e5c4 8ebd dc67 dfbe cf07 c33d
00000150: 9d49 233e 9ada 933e 6c45 dcbd e091 f73c
00000160: 6546 533e d1d0 9ebe 3e35 bf3d 3ef2 37be
00000170: 80f8 5dbc ccc1 3abe 6a90 22bd 3f7a 563e
00000180: dd27 313e 24df e73c e758 0e3e f37c 583d
00000190: 2e89 84be eb94 a4be 353c eebb 879e ee3b
000001a0: f3b6 b43d ff12 f0be f44f e33d f4df 37bd
000001b0: 7329 fa3e deaf 8c3b abce 043e 087b 6d3d
000001c0: 2093 9ebd 2795 2b3e 074c 333e 54cd 31be
000001d0: 14b8 fe3d c456 94bd 42d1 69be e4dc 893d
000001e0: 88ac 343e 4278 2fbe d604 b43d d257 af3d
000001f0: 65f9 adbe ccf3 583d 1833 423e f0a2 96be
00000200: c695 433e b593 0e3e 9fe1 e4bc 5626 0bbe
00000210: fef7 23bc d97e 203e 9960 a83e 3e17 07bd
00000220: d372 aa3e 7621 8a3c 5710 68be c697 c5be
00000230: d1e9 cfbd 8c5d 9abd 4e19 313d df58 cfbc
00000240: 93f3 673e 278a 033d 5836 25bd e00a dd3d
00000250: 147f 353e c884 be3e 14b0 a5be b715 11bc
00000260: 37be a13d 8e68 10be 4f2b e83c fa8e 97be
00000270: a7dd 5ebe 4da6 a8be e106 d4be a6a8 95bd
00000280: c68a 1c3e ccb0 02bf 13e2 6fbe f9de 143e
00000290: 40c9 41be 6e5d babe 0ccd d5be 176c 9b3d
000002a0: 107e 1c3d 61bc 423d a939 55be b1fc 3d3e
000002b0: feec cdbd c05e f43b be23 853d a7b4 e53e
000002c0: b5c6 71bc 8a28 15be 0db2 d9bd e569 133d
000002d0: d877 293e c28b 8a3e e04d fdbd dd76 2fbe
000002e0: af85 acbd d31f d33b 1534 f93e 4fce 4e3e
000002f0: 656c 3cbe 27a7 52ba 4346 9c3d 55f5 30bd
00000300: 2af8 37be 72f3 fabe 210b 013f 4faf 023e
00000310: 2401 6e3d 63c6 06be 87ce 023e cc77 0cbf
00000320: 1e4b 6a3e 77ab 8e3d 5580 4fbd b9bb 80bd
00000330: 744b 93be c6a8 ca3d d905 2dbe 5aba 85be
00000340: fe03 953d fdc7 c63d 197b 173e 2d4a da3e
00000350: 4d46 60bd 1611 d13d 600d a5bd eb82 89bd
00000360: 64a9 f1bd a9ed 9f3e a32c 53bc 140c ca3c
00000370: d00a 0a3c 1a6b 79bd cf19 3d3c fa76 593c
00000380: 3ee3 87bd 01c9 073e 792c 10be c8cb c2bd
00000390: ae5a 043d 47d3 19be 7cfa 31be f725 6d3e
000003a0: f1e6 833e 9515 9abe ecc8 853e 190f d83e
000003b0: c788 98be 4b0b b53d 7f73 273e 9723 ca3e
000003c0: ccec ceba 1737 2cbe fdb5 243e 21cd 803e
000003d0: e477 133e f919 243d e465 433d 7564 3e3e
000003e0: 3166 923e ddb7 e8bc b624 f1bc 59fc cd3d
000003f0: 1702 bcbe ffc5 c0bd df53 983e d64e 0c3e

network_body.linear_encoder.seq_layers.0.bias f4 [256]
0.0036472387 0.0066710673 0.0014645896 -0.014364708 0.01932159 0.011358664 -0.0029378196 0.025385415
0.00010623636 0.0029560833 0.0022766478 0.0076550627 -0.0045545697 -0.01064844 0.006687564 0.026130224
0.0038131052 0.010449802 -0.010380923 0.0054778233 0.020843104 0.013959511 0.0025400382 0.024863817
0.014923571 -0.0061162976 -0.010256891 0.013442664 0.008936172 0.012712041 -0.008449697 0.022240086
-0.0058724848 0.022058 -0.0028471667 0.016482808 0.002930532 -0.009351303 0.008782386 0.011535356
0.024752498 0.006907442 0.01936685 0.0011766972 0.0072114603 0.0106720785 -0.009824319 0.012626728
-0.0025965946 0.004591389 0.005903417 0.015457209 0.02422225 -0.012651374 0.017672308 0.01531191
0.0054861507 -0.0071262526 0.0035588345 -0.0072184694 0.011018365 0.01433719 0.020273548 -0.017074374
0.0047445046 0.0079272315 0.025973786 -0.020281741 0.021175878 0.0012276293 0.021960659 0.0032443404
0.0010542454 -0.0025953841 0.0016533354 0.0028876397 0.013142406 0.0026783457 0.023464616 0.0063407095
-0.0062973183 0.017990556 0.008016117 0.005892771 0.008976459 0.023372255 0.009285402 0.02005461
0.0065291305 -0.010805704 0.02176401 0.016781481 0.023019936 0.011701916 0.012794766 0.0037968985
0.011353819 0.0027735913 -0.0064082295 -0.020982537 -0.0034616461 0.029563777 0.014494544 -0.0011205722
0.013084028 0.002973495 0.0052302955 0.011419923 -0.0016298591 0.011839318 0.0044076657 -0.0021033834
-0.01398617 0.016862268 0.0029388047 0.009919184 0.02248915 0.008166317 0.030546388 0.001193301
0.014730208 0.01801653 0.017845891 -0.0045285868 0.0061830087 0.017906066 -0.007028321 -0.010892383
0.009019512 0.0027342043 -0.002925867 0.009845802 0.024680302 0.005263159 0.016639892 0.01488714
0.015368277 0.01067061 -0.01760778 0.011777267 0.00038388616 -0.0012635603 0.0023070872 -0.002160213
0.02399434 0.0047934167 0.031630576 -0.021522682 0.0021468622 0.03389369 -0.008256203 0.028701356
0.025226796 0.009896356 0.0013608497 -0.0044151815 0.007186381 0.028562577 -0.00022498298 0.0015905028
0.027243052 -0.01377612 0.019851899 -0.0033330887 -0.010149378 0.026812175 -0.002236598 0.014384894
0.00014152535 0.005435799 0.027818736 0.00947245 0.019943565 0.02482512 0.03351075 0.0035049117
-0.020760179 0.009160505 0.003236571 0.011745395 0.0033733675 0.001321546 0.006309326 0.025555942
-0.008904021 0.0054663997 0.026701069 -0.003019718 0.011105857 0.022300677 0.005027228 0.008402277
0.0004852192 0.0129646 -0.008549207 0.020524725 -0.004060328 0.016503694 0.0015302288 0.0033854495
0.0003963496 0.009485168 0.03981933 -0.00077179447 -0.007883465 0.026191108 0.0026047458 0.010814966
0.00398288 0.018324522 -0.005595275 0.002569854 -0.0146256015 0.00523917 0.0016643892 -0.014783686
0.009719545 -0.019545041 0.017315047 0.002012215 0.015621937 0.00020293618 0.01745723 0.028095601
0.0074496823 -0.0059799235 0.01771747 0.00045826807 0.014138317 0.018104132 -0.0058593554 0.0046986267
0.0029514064 0.011669039 -0.0018845582 0.017547252 0.0061516026 0.011463435 0.0009607416 0.002167464
-0.0024023424 0.0010115977 0.03813143 0.03899889 -0.0108851725 0.015662698 0.0035605738 0.009316752
0.000550205 0.012949041 0.016761487 -0.014014288 -0.027770754 0.0020585537 0.0035535076 0.00074565527
00000000: 8306 6f3b f898 da3b 79f7 bf3a f459 6bbc
00000010: 5048 9e3c b119 3a3c 6f88 40bb 13f5 cf3c
00000020: 36cb de38 d9ba 413b d033 153b 52d7 fa3b
00000030: 803e 95bb cb76 2ebc 5a23 db3b 0d0f d63c
00000040: 4ae5 793b a535 2b3c bf14 2abc 507f b33b
00000050: 28bf aa3c 6fb6 643c c576 263b 34af cb3c
00000060: fe81 743c 396b c8bb 850c 28bc 9f3e 5c3c
00000070: 0669 123c 2a46 503c 9970 0abc d730 b63c
00000080: f96d c0bb fbb2 b43c 8897 3abb f406 873c
00000090: 2b0e 403b 3536 19bc ffe3 0f3c cafe 3c3c
000000a0: c0c5 ca3c d357 e23b 3aa7 9e3c 683b 9a3a
000000b0: 1d4e ec3b f1d9 2e3c 2ef6 20bc 56e0 4e3c
000000c0: a12b 2abb 5d73 963b 7371 c13b 3c40 7d3c
000000d0: bd6d c63c b547 4fbc 84c5 903c cede 7a3c
000000e0: 2bc5 b33b 5783 e9bb 563b 693b e988 ecbb
000000f0: 5f86 343c 89e6 6a3c b614 a63c 8fdf 8bbc
00000100: ca77 9b3b 38e1 013c fac6 d43c e525 a6bc
00000110: 0979 ad3c 67e8 a03a d7e6 b33c 009f 543b
00000120: 9b2e 8a3a 5217 2abb bbb4 d83a 8e3e 3d3b
00000130: 3f53 573c 2f87 2f3b de38 c03c bac5 cf3b
00000140: bc59 cebb ee60 933c 0856 033c 2518 c13b
00000150: ff11 133c 2c77 bf3c cc21 183c 9149 a43c
00000160: 51f2 d53b 680a 31bc 704a b23c 5179 893c
00000170: 4e94 bc3c 65b9 3f3c 23a1 513c 63d5 783b
00000180: 5e05 3a3c 24c5 353b 20fc d1bb 92e3 abbc
00000190: c9dc 62bb bc2f f23c 867a 6d3c 2ae0 92ba
000001a0: 645e 563c f8de 423b e662 ab3b a11a 3b3c
000001b0: ffa0 d5ba b3f9 413c 2e6e 903b ebd8 09bb
000001c0: 4026 65bc bd22 8a3c f698 403b 1384 223c
000001d0: 2a3b b83c 04cc 053c 6b3c fa3c 8a68 9c3a
000001e0: f856 713c 6797 933c 8c31 923c 8a64 94bb
000001f0: d69a ca3b beaf 923c d44d e6bb f775 32bc
00000200: 93c6 133c 5630 333b e7bf 3fbb 4950 213c
00000210: 582e ca3c 9476 ac3b 6250 883c 31e9 733c
00000220: 3acb 7b3c c8d3 2e3c 313e 90bc 70f5 403c
00000230: 5444 c939 0c9e a5ba 8032 173b 5c92 0dbb
00000240: c78f c43c 1812 9d3b 108f 013d 5650 b0bc
00000250: 5fb2 0c3b 1cd4 0a3d 0645 07bc 1b1f eb3c
00000260: 6da8 ce3c 5324 223c 8a5e b23a 3aad 90bb
00000270: bc7b eb3b 11fc e93c 69e9 6bb9 6b78 d03a
00000280: d22c df3c 3cb5 61bc 73a0 a23c f36f 5abb
00000290: 9449 26bc 35a5 db3c e393 12bb 9eae 6b3c
000002a0: 6c66 1439 c91e b23b 1ee4 e33c 5632 1b3c
000002b0: b060 a33c 0d5e cb3c 9142 093d a9b2 653b
000002c0: 4011 aabc f115 163c a71c 543b c26f 403c
000002d0: b713 5d3b ba37 ad3a 76be ce3b b25a d13c
000002e0: 2ce2 11bc 7c1f b33b 33bc da3c 76e6 45bb
000002f0: 57f5 353c e9af b63c 72bb a43b b4a9 093c
00000300: 0565 fe39 7969 543c f911 0cbc 7823 a83c
00000310: 800c 85bb c132 873c f591 c83a 6bde 5d3b
00000320: 25cd cf39 ae67 1b3c 9819 233d 4052 4aba
00000330: a629 01bc bc8e d63c 62b4 2a3b 4131 313c
00000340: d282 823b 4f1d 963c 9258 b7bb ff6a 283b
00000350: 38a0 6fbc 58ad ab3b a227 da3a 4637 72bc
00000360: ba3e 1f3c ec1c a0bc 49d8 8d3c 5edf 033b
00000370: 27f3 7f3c 44cb 5439 7702 8f3c bf28 e63c
00000380: 771c f43b 3cf3 c3bb 3a24 913c b343 f039
00000390: 66a4 673c 1e4f 943c d6ff bfbb f0f6 993b
000003a0: 626c 413b 7f2f 3f3c 4803 f7ba 41bf 8f3c
000003b0: 6293 c93b 22d1 3b3c 47da 7b3a 030c 0e3b
000003c0: 9e70 1dbb 9697 843a b42f 1c3d 4dbd 1f3d
000003d0: b957 32bc 0f4f 803c 8458 693b 4aa5 183c
000003e0: a23b 103a 3728 543c 634f 893c 2f9c 65bc
000003f0: 7e7f e3bc cde8 063b f7e1 683b 1478 433a

network_body.linear_encoder.seq_layers.2.weight f4 [256, 256]
-0.023955159 -0.08986298 0.0049462323 0.004368043 0.010970905 -0.06381822 0.049722787 -0.15053564
-0.08844346 -0.102830805 0.106074944 -0.058683068 -0.0155713 0.0047181216 0.119257554 0.047783893
0.023704685 -0.035114318 0.09471457 -0.13367471 -0.04202624 -0.010176586 0.018575585 -0.06876063
-0.023656249 0.018874092 0.0379685 0.055349845 0.0055034184 0.003210502 -0.008306918 -0.015136667
-0.05532907 -0.013043667 -0.03282805 0.10077261 0.08684497 -0.0470926 -0.049060185 0.0036200725
0.037483152 -0.00714983 -0.13036689 0.03199578 0.018998241 0.016303834 -0.03387643 0.05746526
-0.05991473 0.008253608 -0.07110732 0.04491046 0.10649291 0.018110638 0.044137087 -0.0749342
-0.022515416 0.026158981 -0.04858349 0.09077277 -0.0040788664 -0.023497202 -0.14068505 -0.026876206
-0.046111576 -0.087758206 -0.03113226 -0.067880124 0.08675396 -0.014730249 0.033585716 0.025694499
-0.021480694 -0.056842323 0.07504739 -0.15559806 0.026840253 0.09570803 0.01397936 -0.06461129
0.009162844 0.12895492 0.033433706 -0.15177846 -0.009997248 0.07792869 -0.09602203 0.043209657
-0.06907794 -0.038243 0.02946012 -0.048887208 -0.00039976597 -0.09362566 0.00081071525 0.02457551
0.0254503 0.034871414 0.008049123 -0.038197823 0.04176391 -0.022568092 -0.0016399559 0.088844635
-0.06252799 0.035808556 -0.05528671 -0.041919716 -0.009995717 0.00016470208 0.055747736 0.08233957
0.07369108 0.13639228 0.09387087 -0.0014651527 -0.053604055 0.117593884 0.017450297 0.0692965
-0.015942223 0.013186022 0.10929055 -0.12941915 -0.027529912 -0.049465746 -0.04450599 0.044589464
-0.004754339 0.06160461 0.07628809 0.084907435 -0.14375946 0.06374679 0.10632552 -0.07912465
-0.042958677 0.0654269 -0.015010603 -0.15617491 -0.06137138 0.0018290576 -0.05511465 0.0925387
0.00040809193 0.073254675 -0.02753166 -0.009063922 8.1827304e-05 0.09717401 -0.016155142 -0.12507935
0.035163954 -0.09939128 0.046726104 0.007485787 -0.038864665 -0.0065759723 0.02574915 0.023989039
0.10809671 -0.07362187 0.11588257 -0.04259797 -0.0036273806 0.008695549 0.050341487 0.051822916
-0.06091563 -0.052183438 0.06906073 -0.0026345623 0.08511444 -0.10454411 -0.060298342 0.058270175
-0.06818236 0.005912436 0.007568703 0.06185449 -0.07916118 -0.08104722 -0.020552237 0.053855695
0.021225499 0.06965814 0.036586106 0.02048517 0.09156731 -0.03414393 -0.09234491 0.032896664
0.017861312 0.011690242 0.1370034 -0.06633488 -0.028811956 -0.09242408 0.021956025 -0.09111602
-0.03267613 -0.015891278 0.035040073 0.11720366 0.0030658063 -0.01105509 0.007239028 0.006254707
-0.100086205 -0.016238604 0.10629597 0.099129856 -0.079189025 -0.011522272 -0.023844434 0.08097875
0.036140613 -0.008210406 0.052109946 -0.009381381 0.0034152437 -0.03092604 0.09127091 0.019394906
0.01930518 0.046589054 0.00869744 -0.031541612 0.009156884 0.04384724 0.007684717 0.12423171
0.20194685 -0.109238714 -0.038986646 -0.072810456 0.09447719 0.09701429 0.0019755848 -0.053652357
0.0830134 -0.06085171 -0.034988526 -0.029891618 -0.12582639 -0.030035982 -0.008718309 0.047653973
0.061180454 -0.057189357 0.07539102 -0.01095848 -0.08800044 0.08264399 0.08518402 -0.07078597
00000000: 9c3d c4bc 150a b8bd 0114 a23b cd21 8f3b
00000010: 50bf 333c 20b3 82bd 1faa 4b3d 0426 1abe
00000020: d821 b5bd f598 d2bd d23d d93d a85d 70bd
00000030: c41e 7fbc 799a 9a3b 4e3d f43d 0bb9 433d
00000040: 5430 c23c 08d4 0fbd b6f9 c13d 06e2 08be
00000050: b523 2cbd b2bb 26bc d32b 983c 60d2 8cbd
00000060: c0ca c1bc d79d 9a3c dc84 1b3d 85b6 623d
00000070: 0556 b43b 4967 523b bd19 08bc c8ff 77bc
00000080: bca0 62bd 1bb5 55bc b576 06bd df61 ce3d
00000090: c7db b13d 2ce4 40bd 55f3 48bd bd3e 6d3b
000000a0: ef87 193d 1f49 eabb e67e 05be 020e 033d
000000b0: 33a2 9b3c 9e8f 853c 03c2 0abd b160 6b3d
000000c0: 2669 75bd 243a 073c b7a0 91bd 08f4 373d
000000d0: f418 da3d c35c 943c 17c9 343d 1a77 99bd
000000e0: 4072 b8bc 5c4b d63c 7bff 46bd 13e7 b93d
000000f0: 03a8 85bb 347d c0bc be0f 10be 7d2b dcbc
00000100: 7edf 3cbd 93ba b3bd 1509 ffbc bc04 8bbd
00000110: 0fac b13d 2457 71bc 2d91 093d 457d d23c
00000120: 48f8 afbc 7fd3 68bd 72b2 993d 1955 1fbe
00000130: 17e0 db3c 9202 c43d b009 653c ed52 84bd
00000140: c11f 163c c20c 043e c8f1 083d d06b 1bbe
00000150: 7fcb 23bc 1499 9f3d 33a7 c4bd 9cfc 303d
00000160: bc78 8dbd b1a4 1cbd 5956 f13c f43d 48bd
00000170: ae97 d1b9 cfbe bfbd 2e86 543a 9452 c93c
00000180: 267d d03c 54d5 0e3d 78e0 033c 5275 1cbd
00000190: a210 2b3d b8e0 b8bc caf3 d6ba 2df4 b53d
000001a0: ad0e 80bd feab 123d 5174 62bd 02b4 2bbd
000001b0: 13c5 23bc e1b3 2c39 bd57 643d a6a1 a83d
000001c0: 59eb 963d 6baa 0b3e 5f3f c03d 5e0a c0ba
000001d0: ed8f 5bbd 10d5 f03d edf3 8e3c 53eb 8d3d
000001e0: 4499 82bc 2f0a 583c b9d3 df3d 7486 04be
000001f0: 6986 e1bc 989c 4abd ea4b 36bd 71a3 363d
00000200: 49ca 9bbb 1e55 7c3d ee3c 9c3d f3e3 ad3d
00000210: ae35 13be ad8d 823d 32c1 d93d 1b0c a2bd
00000220: 70f5 2fbd 8afe 853d 08ef 75bc 51ec 1fbe
00000230: 8e60 7bbd fdbc ef3a e6bf 61bd ee84 bd3d
00000240: 2cf5 d539 8c06 963d 138a e1bc d880 14bc
00000250: b39a ab38 2b03 c73d ca57 84bc cd14 00be
00000260: 1408 103d a88d cbbd df63 3f3d 554b f53b
00000270: 8e30 1fbd 417b d7bb e2ef d23c a984 c43c
00000280: cf61 dd3d 10c7 96bd d753 ed3d 367b 2ebd
00000290: 59b9 6dbb c777 0e3c e032 4e3d 4444 543d
000002a0: ab82 79bd 4dbe 55bd b66f 8d3d 9fa8 2cbb
000002b0: 7b50 ae3d 391b d6bd 65fb 76bd b5ac 6e3d
000002c0: 31a3 8bbd 1cbd c13b e202 f83b 225b 7d3d
000002d0: 421f a2bd 16fc a5bd 2a5d a8bc ca97 5c3d
000002e0: 19e1 ad3c eda8 8e3d 50db 153d 84d0 a73c
000002f0: a487 bb3d 81da 0bbd 541f bdbd a7be 063d
00000300: e351 923c 6e88 3f3c 9f4a 0c3e 95da 87bd
00000310: 0d07 ecbc d648 bdbd 1fdd b33c 099b babd
00000320: 68d7 05bd 6d2e 82bc 2e86 0f3d 7908 f03d
00000330: b2eb 483b 6920 35bc 5e35 ed3b 49f4 cc3b
00000340: fff9 ccbd d206 85bc b4b1 d93d 9804 cb3d
00000350: db2d a2bd e9c7 3cbc 6755 c3bc 30d8 a53d
00000360: 2e08 143d f084 06bc 3d71 553d 5db4 19bc
00000370: 48d2 5f3b 9b58 fdbc 3eec ba3d 11e2 9e3c
00000380: e625 9e3c 2ad4 3e3d b57f 0e3c c731 01bd
00000390: c106 163c 2a99 333d 14d0 fb3b 326d fe3d
000003a0: 28cb 4e3e 8cb8 dfbd 76b0 1fbd a61d 95bd
000003b0: 427d c13d 6eaf c63d d078 013b 93c2 5bbd
000003c0: ee02 aa3d a53f 79bd 2150 0fbd 44df f4bc
000003d0: a2d8 00be 050e f6bc 3dd7 0ebc d030 433d
000003e0: 5b98 7a3d 633f 6abd 9b66 9a3d 328b 33bc
000003f0: 9339 b4bd 4141 a93d f674 ae3d 3cf8 90bd

network_body.linear_encoder.seq_layers.2.bias f4 [256]
0.008187665 0.01901773 0.0038752314 0.005511002 0.013794064 -0.0043984684 -0.010701438 0.0012618441
0.008219141 0.0036511007 0.011955884 0.0055121644 0.0015950898 0.01522338 -0.0004042292 -0.00031827562
0.010212637 -0.0041297553 0.007205768 0.002591818 0.02089898 0.008895385 0.013514054 0.0046109064
0.0060199187 0.008557152 0.008768992 -0.00047018158 0.00790177 0.0053137355 0.001001711 0.0014346968
-0.0035796654 -0.0009179698 -0.0022038368 -0.007471424 -0.0031903104 0.004627202 0.005362283 0.013209839
-0.00047893697 0.017781572 -0.0002398603 -0.0032569116 -0.0028794794 0.018061282 -0.0006440531 0.005531201
0.0075873137 0.021500684 0.009271959 0.020044215 -0.006766681 0.0030677498 0.01402378 0.0014773386
0.009214819 0.00574237 0.0076321876 0.009593154 0.022134857 -0.0037854835 -0.006720085 0.009287737
0.012914329 0.0074776937 0.0002674038 0.0060543558 0.011345455 -0.0009364505 -0.0077680564 0.01211981
0.012951859 0.015169793 0.010584945 0.012920363 0.014827202 0.0003937604 0.0018360474 0.0045840098
0.0048814407 -0.0019195442 0.008158497 0.018697882 -0.0031346625 0.009767163 0.0056668264 0.01366844
-0.0037230551 -9.7695665e-05 0.0037640035 0.0115239145 0.02322167 0.006107662 0.0072040646 -1.2048884e-05
0.013429825 -0.0022024878 0.013300726 0.0014812909 0.00811287 0.007187407 0.0060507953 0.010622335
-0.0031644297 0.0013555733 -0.008642972 0.014219764 0.008652995 -0.00435479 0.0026989311 -0.00667594
0.020322485 0.00783223 0.003247264 0.026008917 0.003823779 0.0038234561 0.0074259783 0.0033349367
0.00962233 0.008146464 0.011863334 0.006372625 0.0038443021 0.00827365 0.00560879 0.015755858
0.011598442 0.0029384203 0.0012846316 -0.0033412236 0.010630851 0.0027626054 0.01439529 0.010367709
0.008354381 0.010780485 0.0044846344 0.0064865933 0.016218297 0.007154577 0.014571788 0.006798986
0.009132965 0.014474678 -0.0005438129 0.019552482 0.0025288744 0.00037453035 0.022044914 0.014194701
0.011039759 0.016416976 0.004909747 -0.005579351 0.006851687 0.0084277885 -0.006813223 -0.002029828
0.0013835164 0.006304677 0.0017824179 -0.00011949245 -0.0049209655 0.004316088 0.008450516 -0.0008230042
0.022730784 -0.00056041166 0.017772835 0.019134913 0.011500345 0.011621741 -0.0077082436 0.006350132
-0.0040775933 0.015236543 0.01649748 0.008790932 0.023046024 0.0033076638 0.00054055813 -0.006199407
0.0045609833 0.018119847 0.005748688 -0.00047312866 0.0019070749 0.0050527314 0.0005701391 0.0015863352
0.0037443906 0.0007466267 0.014102334 0.01939776 -0.0029181968 -0.0069557973 0.0007263053 0.010735932
0.0060859714 0.004890406 0.014962512 -0.0011460511 -0.0030709114 0.00855149 0.006217387 0.02119204
0.011307289 0.010428068 0.0046628877 0.012640139 0.0024975878 -0.0049197925 -0.0078767035 0.013619032
0.009683553 0.014050292 0.0020223863 -0.0011846808 0.014662088 -0.005020366 0.008593515 0.0014619551
-0.0044809696 0.016476788 0.0004020596 0.0038209115 0.0013702417 0.010703776 0.018865876 0.0060398825
0.004545334 0.0011443783 0.01628651 -0.001614553 0.0052778344 0.022213746 0.004344365 0.010993828
-0.0018952986 -0.009489345 0.011179521 -0.0016785611 0.010332269 0.005790337 0.007140723 -0.009225525
0.0075778686 -0.0041061435 0.0028279698 0.0015763958 0.0073140217 0.0007098551 0.0008042476 0.008748549
00000000: 8e25 063c 12cb 9b3c 98f7 7d3b a395 b43b
00000010: 7f00 623c 0721 90bb 1655 2fbc 7664 a53a
00000020: 93a9 063c 4e47 6f3b 9de2 433c 639f b43b
00000030: 5512 d13a 7c6b 793c baee d3b9 3bde a6b9
00000040: e752 273c e652 87bb 5d1e ec3b 7edb 293b
00000050: 5634 ab3c f3bd 113c 0d6a 5d3c 1617 973b
00000060: bd42 c53b 4c33 0c3c d1ab 0f3c b482 f6b9
00000070: 6d76 013c d81e ae3b d84b 833a 700c bc3a
00000080: d298 6abb e9a3 70ba 3f6e 10bb d9d2 f4bb
00000090: 8714 51bb c99f 973b 17b6 af3b 156e 583c
000000a0: d519 fbb9 a9aa 913c 0283 7bb9 e971 55bb
000000b0: a6b5 3cbb 41f5 933c acd5 28ba 143f b53b
000000c0: 009f f83b 3422 b03c 6ae9 173c c433 a43c
000000d0: 09bb ddbb 4d0c 493b ffc3 653c 42a3 c13a
000000e0: c1f9 163c 7e2a bc3b 6e17 fa3b 9b2c 1d3c
000000f0: 2954 b53c e015 78bb 2934 dcbb 982b 183c
00000100: 9f96 533c 7107 f53b 5532 8c39 9e63 c63b
00000110: 4ae2 393c 217c 75ba 2e8b febb 2b92 463c
00000120: 0934 543c b98a 783c 7a6c 2d3c eeaf 533c
00000130: cbed 723c a071 ce39 87a7 f03a 7635 963b
00000140: 7ef4 9f3b 3799 fbba 37ab 053c 4d2c 993c
00000150: e96e 4dbb 7306 203c c9b0 b93b 98f1 5f3c
00000160: 80fe 73bb f6e1 ccb8 80ad 763b cdce 3c3c
00000170: 5f3b be3c c822 c83b 1310 ec3b 9025 4ab7
00000180: c508 5c3c 9d57 10bb 4aeb 593c e027 c23a
00000190: d8eb 043c 5784 eb3b c045 c63b 4d09 2e3c
000001a0: 5262 4fbb 7ead b13a 419b 0dbc 03fa 683c
000001b0: 4bc5 0d3c a0b2 8ebb 8de0 303b d8c1 dabb
000001c0: 577b a63c c152 003c 0dd0 543b a710 d53c
000001d0: 5e98 7a3b f392 7a3b 9f55 f33b f48e 5a3b
000001e0: faa6 1d3c bf78 053c 6e5e 423c 74d1 d03b
000001f0: b0f0 7b3b 348e 073c f1c9 b73b 6e12 813c
00000200: 6407 3e3c 8392 403b 1561 a83a 6ef8 5abb
00000210: 052d 2e3c d40c 353b 39da 6b3c 53dd 293c
00000220: d0e0 083c a2a0 303c d7f3 923b 7d8d d43b
00000230: 3cdc 843c f170 ea3b 82be 6e3c 07ca de3b
00000240: 6ea2 153c 3327 6d3c aa8e 0eba 872c a03c
00000250: 79bb 253b 9d5c c439 8997 b43c e490 683c
00000260: 1be0 343c e57c 863c f1e1 a03b fdd2 b6bb
00000270: 1e84 e03b b514 0a3c 7541 dfbb dd06 05bb
00000280: 1b57 b53a 7797 ce3b 05a0 e93a 0598 fab8
00000290: 0d40 a1bb f86d 8d3b 0874 0a3c e0be 57ba
000002a0: e935 ba3c 97e8 12ba 5698 913c d2c0 9c3c
000002b0: f16b 3c3c 1d69 3e3c 6f95 fcbb c514 d03b
000002c0: 559d 85bb b1a2 793c b925 873c d707 103c
000002d0: 04cb bc3c 64c5 583b 3eb4 0d3a 6524 cbbb
000002e0: 4d74 953b 1370 943c 7d5f bc3b 410e f8b9
000002f0: d1f6 f93a 6291 a53b 6375 153a 94ec cf3a
00000300: 7364 753b 45b9 433a 7a0d 673c 0de8 9e3c
00000310: 383f 3fbb 75ed e3bb 8665 3e3a c3e5 2f3c
00000320: d46c c73b b33f a03b 5325 753c 1837 96ba
00000330: 5841 49bb 8c1b 0c3c 39bb cb3b ee9a ad3c
00000340: 3542 393c 7dda 2a3c 23cb 983b 9618 4f3c
00000350: 92ae 233b 3636 a1bb 4a0d 01bc 5c22 5f3c
00000360: c4a7 1e3c 3233 663c 038a 043b 4b47 9bba
00000370: 4139 703c e281 a4bb d0cb 0c3c 139f bf3a
00000380: 19d5 92bb 54fa 863c 87cb d239 4268 7a3b
00000390: af99 b33a e45e 2f3c 9c8c 9a3c 35ea c53b
000003a0: 06f1 943b f7fe 953a 496b 853c 699f d3ba
000003b0: aff1 ac3b 9af9 b53c 2d5b 8e3b 751f 343c
000003c0: ab6b f8ba 3379 1bbc 4f2a 373c 2a03 dcba
000003d0: ad48 293c debc bd3b bafc e93b a826 17bc
000003e0: c54f f83b d48c 86bb 7655 393b 119f ce3a
000003f0: 76aa ef3b 9215 3a3a 25d4 523a 1356 0f3c

action_model._continuous_distribution.log_sigma f4 [1, 5]
-0.003896225 0.025190862 0.0026301905 0.008123494 0.01602222
00000000: cf57 7fbb 115d ce3c 465f 2c3b 6718 053c
00000010: 0841 833c

action_model._continuous_distribution.mu.weight f4 [5, 256]
-0.0068199025 0.06550267 -0.045967735 -0.03520641 0.050319623 -0.017241176 -0.0040706587 -0.0085808085
-0.03621677 -0.022449668 0.04512064 -0.06461661 -0.040867 0.04191556 -0.004650807 -0.046848428
-0.04704599 -0.039331533 -0.046578553 -0.008880584 0.010372598 0.055234067 0.02893966 -0.046100736
0.03653792 0.014667155 -0.013913756 -0.021862451 0.037725862 0.011607768 0.007033051 -0.007155333
0.018618798 0.005954349 -0.013239576 -0.03400035 -0.042103086 0.035809975 0.0333919 0.010773421
0.01557645 0.036361344 -0.015584097 -0.031404473 0.0067629507 0.026969617 0.012769003 -0.044747446
0.020424128 -0.020004855 0.024664957 -0.0056371354 -0.013934737 0.0155383125 0.020710772 0.01965499
-0.0005085783 0.032973688 0.038822938 0.0041061984 0.077096865 -0.037715048 0.007062508 -0.030264987
-0.009338512 0.036709875 -0.0113902055 0.015918037 -0.00448443 0.028988231 -0.021865714 -0.0014733563
0.0014573666 0.052888025 0.031611152 0.023712477 0.013537143 -0.030037537 0.019356232 -0.012064036
0.023360055 -0.028295638 -0.0059847306 -0.0047570914 -0.023130031 -0.020466965 0.02033805 0.049303435
-0.027102767 0.00655851 -0.038383454 0.03314489 -0.00411037 0.0055207135 0.022790162 -0.058982152
0.020454424 -0.04315704 0.036335472 -0.029929971 0.022169372 0.009040802 0.02975328 -0.013340462
-0.011208615 -0.030899497 -0.0074935863 0.034076408 0.03750854 0.016608736 -0.04665693 -0.0041288887
0.029952591 0.03495889 -0.021960447 0.056434177 -0.045651954 0.020900397 0.028193008 0.015382464
0.027871205 0.031304836 0.014149777 0.0115275895 0.00042998954 0.005094852 0.011786494 0.05649467
0.02294697 -0.03472729 -0.0079405205 -0.022297895 0.019154377 -0.003727591 0.033398636 0.0011459126
0.016411988 0.042322557 0.011091394 0.028457003 0.036396734 0.014103595 0.06342918 0.029643666
-0.061274543 0.04611256 -0.039740972 0.032782074 -0.043314237 -0.027707722 0.013256656 0.004944069
-0.0063383835 0.05914798 -0.058504194 0.001627239 0.035304997 0.023023274 0.0027826424 -0.014562028
-0.0068740877 0.016439358 0.036682162 -0.0348536 -0.023905192 0.0015303808 -0.07276705 -0.020449035
-0.02015141 -0.014104673 0.017396668 0.041533146 0.028326701 -0.03593528 -0.010169478 -0.009109799
-0.01807621 0.034425147 -0.0005513471 -0.058933668 0.042833775 -0.01958435 -0.017503258 -0.0018137901
0.033329654 0.057597727 0.027232809 -0.032690156 -0.008585569 0.019417243 -0.0006593607 -0.038180742
0.0033322154 0.022547904 0.019008465 0.04762414 -0.0075387545 -0.009782348 -0.009441885 -0.06083602
0.008980458 -0.03641577 -0.013040676 0.011769768 -0.02005551 0.013303294 -0.018343644 0.052547075
-0.048591096 -0.020408675 -0.05651348 -0.014182274 -0.006097042 -0.038326167 -0.042866204 0.04561907
0.050758533 0.018891444 0.014327422 0.009498394 0.05593419 -0.01983099 0.033067953 -0.043484163
-0.020123621 0.044741195 -0.01956287 -0.03648898 -0.03545507 0.01767992 0.045909908 -0.012482936
0.0005416613 -0.010960474 0.04403182 -0.036323767 -0.027281348 0.034568347 -0.026154995 0.004495183
-0.04126154 -0.02900886 0.024719544 -0.033908557 -0.004383844 -0.06231314 0.027071841 -0.013911351
-0.07037858 -0.034822635 0.03225632 0.025096513 0.013529969 -0.001701581 -0.005243414 -0.054673348
00000000: 7d79 dfbb 4426 863d aa48 3cbd 9934 10bd
00000010: f31b 4e3d 5e3d 8dbc 2963 85bb 8596 0cbc
00000020: 0958 14bd 5ee8 b7bc 6cd0 383d b755 84bd
00000030: 2864 27bd a6af 2b3d cc65 98bb 23e4 3fbd
00000040: 4cb3 40bd 1a1a 21bd 27c9 3ebd de7f 11bc
00000050: d4f1 293c 1e3d 623d de12 ed3c 20d4 3cbd
00000060: c9a8 153d 824e 703c 86f6 63bc e218 b3bc
00000070: 6f86 1a3d 822e 3e3c 8275 e63b 4977 eabb
00000080: 7386 983c b31c c33b ceea 58bc f343 0bbd
00000090: 4974 2cbd 7bad 123d f2c5 083d 0183 303c
000000a0: 5e34 7f3c a2ef 143d 7154 7fbc faa1 00bd
000000b0: be9b dd3b 63ef dc3c 1535 513c 1949 37bd
000000c0: 8050 a73c 39e1 a3bc 2a0e ca3c b8b7 b8bb
000000d0: 864e 64bc 6894 7e3c a3a9 a93c 8003 a13c
000000e0: 1d52 05ba 6b0f 073d cd04 1f3d 4a8d 863b
000000f0: f6e4 9d3d 187b 1abd 9c6c e73b 47ee f7bc
00000100: 8f00 19bc 185d 163d fc9d 3abc 8b66 823c
00000110: 20f2 92bb ba78 ed3c ba1f b3bc a21d c1ba
00000120: 1c05 bf3a 1da1 583d b27a 013d ab40 c23c
00000130: e5ca 5d3c 4811 f6bc f690 9e3c 3ca8 45bc
00000140: 965d bf3c 41cc e7bc 8f1b c4bb 60e1 9bbb
00000150: 317b bdbc 56aa a7bc fb9b a63c 66f2 493d
00000160: 9f06 debc c5e8 d63b f837 1dbd f0c2 073d
00000170: 48b0 86bb 1ae7 b43b 6fb2 ba3c 4597 71bd
00000180: 0990 a73c 70c5 30bd 81d4 143d b32f f5bc
00000190: 8b9c b53c df1f 143c 27bd f33c f491 5abc
000001a0: 57a4 37bc f120 fdbc c28c f5bb b493 0b3d
000001b0: 8ea2 193d 0b0f 883c 561b 3fbd a14b 87bb
000001c0: 235f f53c 0e31 0f3d 65e6 b3bc 8627 673d
000001d0: 8bfd 3abd 4f37 ab3c 06f5 e63c bb06 7c3c
000001e0: 2752 e43c 8039 003d 77d4 673c 37de 3c3c
000001f0: 3870 e139 b7f2 a63b 241c 413c f566 673d
00000200: 49fb bb3c 343e 0ebd f518 02bc 13aa b6bc
00000210: a4e9 9c3c 994a 74bb 02cd 083d 7232 963a
00000220: 6f72 863c 6b5a 2d3d aeb8 353c a91e e93c
00000230: be14 153d c412 673c 28e7 813d 46d7 f23c
00000240: 04fb 7abd 86e0 3c3d 6ec7 22bd 7f46 063d
00000250: 456a 31bd 4efb e2bc 7232 593c db01 a23b
00000260: 37b2 cfbb 2745 723d 18a2 6fbd 1549 d53a
00000270: f99b 103d 4e9b bc3c fe5c 363b 9395 6ebc
00000280: 0740 e1bb d5ab 863c 0940 163d a6c2 0ebd
00000290: d2d4 c3bc 0f97 c83a e406 95bd bc84 a7bc
000002a0: 9214 a5bc 4917 67bc 7583 8e3c a91e 2a3d
000002b0: 660d e83c df30 13bd e29d 26bc 4441 15bc
000002c0: 8f14 94bc 6201 0d3d 4788 10ba 6e64 71bd
000002d0: 7872 2f3d 5c6f a0bc fe62 8fbc b2bc edba
000002e0: ad84 083d 98eb 6b3d 5717 df3c 1de6 05bd
000002f0: 7daa 0cbc e910 9f3c f3d8 2cba 6963 1cbd
00000300: 4c61 5a3b 62b6 b83c a4b7 9b3c 8811 433d
00000310: a807 f7bb 2446 20bc 23b2 1abc 312f 79bd
00000320: c522 133c b428 15bd 8fa8 55bc fcd5 403c
00000330: 744b a4bc 0ff6 593c 6945 96bc 9a3b 573d
00000340: 7507 47bd 1830 a7bc ae7a 67bd c55c 68bc
00000350: b2c9 c7bb e6fb 1cbd 7994 2fbd 10db 3a3d
00000360: 2ee8 4f3d 3bc2 9a3c 90bd 6a3c 279f 1b3c
00000370: 401b 653d 9a74 a2bc 4372 073d 731c 32bd
00000380: 4bda a4bc 8b42 373d 5042 a0bc 7875 15bd
00000390: 5639 11bd 7bd5 903c 070c 3c3d 3a85 4cbc
000003a0: 46fe 0d3a 8f93 33bc b65a 343d 3bc8 14bd
000003b0: 227d dfbc 8a97 0d3d 0043 d6bc 544c 933b
000003c0: dc01 29bd fda3 edbc a480 ca3c b3e3 0abd
000003d0: 59a6 8fbb 103c 7fbd c4c5 dd3c 6fec 63bc
000003e0: a522 90bd 2ea2 0ebd 341f 043d 3497 cd3c
000003f0: ceac 5d3c 9507 dfba f2d0 abbb 29f1 5fbd

action_model._continuous_distribution.mu.bias f4 [5]
0.0053584296 -0.0010551255 0.0057916744 0.0002685066 -0.0031928616
00000000: c495 af3b 234c 8aba 16c8 bd3b 59c6 8c39
00000010: 543f 51bb
