MLConfig/results/lion/Animal/Animal-499920.onnx (onnx, 296297 bytes, 7 tensors)

network_body.linear_encoder.seq_layers.0.weight f4 [256, 24]
00000000: 9100 0ebe 249c d43d 133e 8fbe 3d81 2b3e
00000010: c457 48bc 0efb 843d 43bd 2dbe ca77 a83d
00000020: 5a90 033f 8927 fdbd efe9 adbb ab89 b53d
00000030: a3e1 99bb c3e6 fd3d 2e84 7bbd c495 f33d
00000040: 063d 1b3e 1dd9 c23d f694 b7bc 4418 523d
00000050: 8aec 23be fae0 36be ab59 7a3e c504 a33e
00000060: 6e1a ce3e 297e 8fbd 573c 103c 0182 dd3e
00000070: 9e9b 26be 1246 ac3e cceb 893e 6885 57bd
00000080: af42 85bd 05b9 3fbe 0d2e af3d 8dc7 0bbe
00000090: 0eb4 4fbe 353b a2be ee5e 0a3d d96c b0be
000000a0: 3fe0 093d e237 b4be e69c babe db68 f5bc
000000b0: 71ee f8be a6a2 c93e 82b3 583e 9d77 09be
000000c0: 9f9a 79bd b8da debc c0a4 133d 3d98 72be
000000d0: 7865 913e 50c0 e3bd 9274 4e3e 3ab6 29bd
000000e0: 54d8 683e 4e4a 02bd d19c b63e 50aa 17be
000000f0: 739b 57be 54e1 19be bb59 babe 4d8e fe3e
00000100: dd65 a9bd 7fb8 88bd f1bb c43c b35d 3d3e
00000110: ac82 0bba 9e36 4d3e e442 463e 124f be3e
00000120: f267 173d 643f bf3d f3f1 0c3e 6050 f33d
00000130: 03ad d93d 2916 a4be e8c7 49bd f732 84bd
00000140: 9318 e1bc 12a9 87bd cc4f e2be 4a28 bd3d
00000150: d90f 293e 29c4 953e 7e82 ccbd 3db6 043d
00000160: fd96 4b3e 64f1 a4be f6c7 bd3d f6f8 3fbe
00000170: 13f1 c0bb e3c1 31be e55d 45bd f697 5b3e
00000180: 1582 273e 7b54 ad3c a2ee 083e ae66 403d
00000190: 13c7 84be f1ed a4be 063e 25bc 649e a63b
000001a0: 5ef0 ad3d 88c1 f0be c4f6 dd3d 73e9 4abd
000001b0: 6c47 fb3e d1e8 cf3b 440d fe3d 6403 6e3d
000001c0: af5c 73bd 87d4 383e 2698 2f3e 28ff 32be
000001d0: 01ed f23d 40ca 92bd 9861 66be 85b6 853d
000001e0: e61c 383e f903 31be d316 a93d c818 a33d
000001f0: aa19 adbe 19cc 563d 24a9 413e cbb1 97be
00000200: 769b 453e a8cf 0e3e b8ab debc c243 0cbe
00000210: 222f 0abc 36a8 1f3e b251 a53e 5895 17bd
00000220: 2357 a33e 8876 9f3b ebc8 69be 5daf c5be
00000230: c1ef bbbd dbfa 97bd 0e2a 303d a38d fcbc
00000240: 41f5 673e 900e fd3c 94f0 27bd 7173 db3d
00000250: e160 303e ac19 bc3e c637 a8be 968b 60bc
00000260: 175b 903d 604e 19be bf99 c93c 94af 98be
00000270: 3be8 62be c9b5 a9be cff6 d1be 19b9 91bd
00000280: c142 113e 6bf3 01bf aba3 6bbe c449 063e
00000290: 066f 33be 5c42 b2be ddad d6be d18b 953d
000002a0: 77d5 003d 3b2f 433d fb40 51be c097 443e
000002b0: 945f dabd 073e 743b cced 7d3d 9af3 e53e
000002c0: 1eaf 56bc b63c 14be 797a e8bd f206 0a3d
000002d0: 8875 293e 4d01 8b3e 2317 d9bd 6675 27be
000002e0: 04ae b1bd 6661 b13b 694a f73e a62c 513e
000002f0: 2a56 3abe 702d 20bb 50ef 923d 4883 47bd
00000300: 8c94 36be 2de2 f5be dc45 033f cd17 0d3e
00000310: 0e16 643d 4625 08be fc00 013e 5a04 0cbf
00000320: 73bc 6f3e 232f 9a3d 5004 65bd 6255 7ebd
00000330: b018 91be c222 d73d efb1 22be e479 81be
00000340: b7df 8f3d 9c4a cf3d 9881 1a3e fd5a d73e
00000350: 237c 31bd 0e31 e13d fc27 afbd 4a3b 6bbd
00000360: 3c04 fcbd 0967 9f3e f643 2fbc 0256 e53c
00000370: 85c1 133b ba54 85bd 1a2c ff3b fbd0 3b3c
00000380: 570c 88bd cb2b 073e 985e 15be 6b38 c6bd
00000390: 8eec 033d 8327 19be b1ca 1cbe a446 703e
000003a0: 124b 813e 52f6 98be 0b6a 853e 3c83 d53e
000003b0: 7b4e 93be 030e c23d b006 263e 8479 ca3e
000003c0: e4cc 533b a99d 2abe deb1 263e 02f1 803e
000003d0: 49ea 113e c0fb 233d dff2 443d 5b32 3c3e
000003e0: 1c2a 933e 5cd4 d8bc ca75 d5bc a518 cf3d
000003f0: 397c bbbe 8082 bbbd a254 983e a31f 083e
-0.13867404 0.10381344 -0.27977046 0.16748519 -0.012227956 0.064931974 -0.16966729 0.08225973
0.5139214 -0.12361056 -0.005307428 0.08864149 -0.0046960874 0.1239753 -0.061405353 0.118938
0.15159997 0.09514067 -0.022409897 0.051292673 -0.16008201 -0.17859259 0.24448268 0.31839576
0.4025454 -0.07006485 0.008803449 0.43263248 -0.16270301 0.3364721 0.2693771 -0.05261746
-0.065068595 -0.18722923 0.08553705 -0.13650341 -0.20283529 -0.31685796 0.03378194 -0.34458044
0.033661123 -0.35198885 -0.3644783 -0.029957226 -0.48619416 0.39381903 0.21162227 -0.13424535
-0.060938474 -0.027203903 0.03604579 -0.23690887 0.28397727 -0.11120665 0.20161656 -0.04143355
0.22738773 -0.031809144 0.35666516 -0.14811063 -0.21055393 -0.15027362 -0.36396584 0.49717942
-0.08271382 -0.06675815 0.024015399 0.18492775 -0.0005321901 0.20040366 0.19361454 0.371697
0.036964364 0.09338263 0.13764171 0.11880565 0.106287025 -0.32048157 -0.04926291 -0.06455033
-0.027477538 -0.066240445 -0.44201505 0.092362 0.16509952 0.2925122 -0.09985827 0.03240036
0.19881816 -0.32215416 0.09266655 -0.18747315 -0.0058881133 -0.17359118 -0.048185248 0.21444687
0.16358216 0.021158447 0.13372281 0.046972923 -0.25933132 -0.32212785 -0.010085588 0.0050847996
0.08493112 -0.47022653 0.108380824 -0.04953904 0.49077928 0.0063448926 0.12404874 0.058108702
-0.05941456 0.18049823 0.17147884 -0.17480147 0.11861611 -0.071674824 -0.22498167 0.065289535
0.17979774 -0.17286672 0.082563065 0.07963711 -0.33808643 0.052440736 0.18912178 -0.29627833
0.19297585 0.13946402 -0.027181491 -0.13697723 -0.008434089 0.15591511 0.3228889 -0.03700766
0.31902418 0.004866425 -0.2283055 -0.38610354 -0.09176589 -0.07420894 0.043008856 -0.030829256
0.2265215 0.030890733 -0.041000918 0.10715378 0.17224456 0.36738336 -0.32855052 -0.013705155
0.07048624 -0.14971304 0.024609445 -0.29821455 -0.22158901 -0.33146504 -0.41008613 -0.07115383
0.14185621 -0.5076205 -0.23011653 0.13114077 -0.17522821 -0.34816253 -0.41929522 0.073020585
0.031453576 0.047652464 -0.20434944 0.19198513 -0.10662761 0.0037268416 0.06199436 0.44912416
-0.013103275 -0.14476284 -0.11351485 0.03369803 0.16548741 0.2714943 -0.10600116 -0.16353378
-0.08675769 0.005413222 0.48298958 0.20427188 -0.18196931 -0.0024441145 0.071745515 -0.048709184
-0.17830104 -0.4802412 0.5127847 0.1377861 0.055685095 -0.13295469 0.12598032 -0.5469414
0.23411731 0.07528522 -0.055912316 -0.062093146 -0.28339148 0.105046764 -0.15888189 -0.25288308
0.07025092 0.101216525 0.15088499 0.42061606 -0.043331277 0.109956846 -0.08552548 -0.05742959
-0.12305495 0.31133297 -0.0106973555 0.027995113 0.0022545767 -0.06510301 0.0077872397 0.011463399
-0.06642979 0.132003 -0.14586866 -0.096787296 0.032208018 -0.14956479 -0.15311696 0.23464447
0.25252587 -0.29875427 0.26057467 0.41701686 -0.28770813 0.09475329 0.16213489 0.39545834
0.003231817 -0.16661705 0.16278788 0.25183874 0.14249529 0.04003501 0.048083182 0.18378584
0.28743064 -0.026468448 -0.026057143 0.101121224 -0.36618212 -0.0915575 0.2975207 0.13293318

network_body.linear_encoder.seq_layers.0.bias f4 [256]
00000000: cad1 313b 7410 143c 705b 4b3b f3b5 00bc
00000010: 8e9f 823c 6785 233c 283c fa39 e23c d43c
00000020: f479 9b3b 5f8e a23b 1472 753b b727 313c
00000030: cfc1 95bb 1afb f1bb 8e9c 833b 0224 ad3c
00000040: fd8d 763b c095 003c ffb4 29bc 78d8 763b
00000050: b411 9e3c 47ed 093c e944 a53b 3434 a63c
00000060: f3af 623c 27f2 ccbb e443 aebb 9bfd 4a3c
00000070: 7cdb cc3b cd8b 3f3c 0881 a2bb 021e be3c
00000080: 0955 edba e9ad 863c 1dc0 f8ba 008f 833c
00000090: 318c 48ba ffdb 19bc be3f 103c 2ba3 873c
000000a0: 439f af3c 2a13 853b c937 723c 2bd9 de3a
000000b0: ddcb ae3b de5c 443c 99f9 f7bb 10b2 453c
000000c0: 8e36 41bb 7c20 f73a b5e1 933b feaf 453c
000000d0: 25e8 bb3c e67e 8dbc f8b7 8e3c 37ef 523c
000000e0: 5051 be3b 50e6 cabb 7e27 153b 59ca 0bbc
000000f0: 0989 103c 6534 3d3c 1450 bc3c 6fe9 5dbc
00000100: 7b71 e53b 8c54 cc3b 2054 bf3c 24ab 9fbc
00000110: 2436 b63c cf1f 603b a143 9c3c cf25 9e3b
00000120: 15c0 66ba d063 75bb 3877 aa3a c986 f73a
00000130: fea4 443c 2963 753a 369a c83c a055 1a3c
00000140: cc6c 26bb c839 883c bf44 0d3c 5dcc 043c
00000150: f65d 9f3b ea32 b73c 12e3 063c 851e 9c3c
00000160: 4a43 403b 9e1b fcbb ed3a 983c dae0 313c
00000170: ab6d 943c 73a7 583c 6f02 273c 847f 7e3b
00000180: c84e 243c 3a4a 303b 8c90 beba f6ea 9ebc
00000190: 4af7 76bb f4b2 d83c 5233 e13b 7638 af39
000001a0: fb9a 483c ae5e 9b3b f7d4 033c b772 af3b
000001b0: 68ee 7bb7 84fb c63b 8f67 7a3b 4eb2 56ba
000001c0: a91b 13bc fd28 5d3c aaaf e33a 0347 f73b
000001d0: e995 a23c ad99 103c b74b db3c a6c7 623b
000001e0: 60ce 733c 21e3 543c db9c 913c 30f6 98bb
000001f0: 3016 f53b 9d49 883c 2b80 afbb 7c6b 16bc
00000200: e39d 223c 0b5a 103b d9d9 56bb d150 193c
00000210: 17e2 b53c f425 5a3b d296 3f3c a08d 633c
00000220: dc96 6f3c daef a13b 791f 38bc 646c 443c
00000230: d4f0 1b3b 5b1a d9bb e873 963b b086 c53a
00000240: 2499 b63c 822f 903b 9334 013d a5be 45bc
00000250: e31e 6b3b f237 d13c 7200 87bb 9a38 c53c
00000260: 6d28 8c3c 0ce1 823c ca71 fd3a 7c47 21bb
00000270: c3b9 883b 798d f23c 73db 9c3a 6e8a ad3b
00000280: 2e59 ba3c c5a2 69bc bd5a 9d3c 9ff4 26bb
00000290: b69a 21bc 41c5 e63c c78d 87bb 71df 853c
000002a0: c3af 7f3b f308 353c 712b c03c 4dba 233c
000002b0: 5afb a73c f0ea c43c b75e fc3c 8c01 363b
000002c0: ee8e a2bc 5f4a 2a3c 62c5 4e3b 7b2a 513c
000002d0: 6a50 2b3b f8ec 713b a37f 453c fa9b dd3c
000002e0: c298 0abc 588b 843b 25f3 b43c de22 85bb
000002f0: dbbc 2c3c a957 b83c 0720 4e3b 02de 293c
00000300: 5302 ca3a 19f3 093c 6817 cfbb fafb 743c
00000310: 0cc9 80ba 5786 773c 9a79 163b 83fc db3a
00000320: dfb0 803b d866 203c 005a 0d3d 2ea4 b33a
00000330: 8412 f4bb 6d2d c83c 8409 003c d8dd 743c
00000340: 6b34 903b 7214 9a3c 5774 c6bb 05d0 1c3b
00000350: 3240 d8bb 0f31 db3b 6f10 37bb 1f09 3fbc
00000360: 9449 dd3b b052 8dbc ac7a 6a3c ad8e d83b
00000370: e3c2 353c 4fe0 933b f0e9 5e3c 5edf c23c
00000380: 44e5 c53b 3a06 2fbb ea08 2e3c 808d 983a
00000390: 14f3 0f3c 51de 423c 1c22 73bb 8e2a 433b
000003a0: b5f2 cd3b 29d0 e73b e605 c83a 3df8 813c
000003b0: 2e9a d83b 62fc 2a3c 8e12 223b fcf8 c33a
000003c0: 8165 603a ee95 a8ba af98 1e3d 93ef 0c3d
000003d0: 6b14 23bc a870 433c 27cf 313b 106f f63b
000003e0: 95b7 2dbb 2561 303c 2aa2 643c 4218 12bc
000003f0: bd2e aabc b207 0339 682a 8a3b d6d5 443b
0.00271331 0.009037126 0.0031029843 -0.00785588 0.015945222 0.009980536 0.00047728536 0.025907937
0.0047447626 0.0049608196 0.003745203 0.010812691 -0.004570223 -0.00738467 0.0040164655 0.021135334
0.0037621253 0.007848203 -0.010358094 0.0037665647 0.01929555 0.008418388 0.005043615 0.020288564
0.013835895 -0.0062544527 -0.005318152 0.012389566 0.0062517505 0.011691046 -0.0049592294 0.023207668
-0.0018107007 0.016440349 -0.0018978153 0.016059399 -0.00076502847 -0.00939083 0.00880426 0.016557297
0.021438247 0.0040611224 0.014783808 0.0017001977 0.005334361 0.011985032 -0.007567596 0.012066379
-0.002948198 0.0018854286 0.0045129904 0.012065886 0.022937844 -0.017272424 0.017421708 0.012874416
0.005808033 -0.006192006 0.0022759135 -0.00853213 0.008821734 0.011548136 0.022987403 -0.013544424
0.0070020533 0.0062356647 0.023355544 -0.019490786 0.022242613 0.0034198647 0.019075217 0.0048262845
-0.0008802426 -0.0037443526 0.0013005501 0.0018884774 0.012002228 0.00093607843 0.024487596 0.009419829
-0.0025394438 0.016629115 0.008622347 0.008105365 0.004863496 0.022363145 0.008232849 0.019057522
0.0029336982 -0.007693722 0.018582786 0.010856831 0.0181187 0.013223517 0.010193451 0.003883333
0.010028549 0.0026899711 -0.0014538928 -0.019399147 -0.0037684017 0.026452519 0.006872573 0.00033420668
0.0122439815 0.0047415113 0.00804638 0.0053542512 -1.5016274e-05 0.0060724635 0.0038208698 -0.00081900216
-0.008978763 0.013498542 0.0017371078 0.007546307 0.019846873 0.008825702 0.026769502 0.0034603863
0.014880747 0.012993605 0.01777499 -0.0046680197 0.0074794516 0.016636664 -0.005355855 -0.0091809
0.009925338 0.0022026326 -0.0032783656 0.009357647 0.022202535 0.0033286782 0.011693673 0.0138887465
0.01462337 0.0049419226 -0.011237972 0.011988733 0.0023794668 -0.0066254563 0.004591454 0.0015070047
0.02228982 0.0044001946 0.03154428 -0.012069379 0.0035876564 0.025539372 -0.004119926 0.024074841
0.01710912 0.015976451 0.001933628 -0.0024609258 0.004172535 0.029608475 0.0011967256 0.005296043
0.022747602 -0.014259999 0.019208306 -0.0025475395 -0.009863546 0.02817023 -0.004136774 0.016341897
0.0039014674 0.011049497 0.023458214 0.009993148 0.020505596 0.024037808 0.030806882 0.0027771918
-0.019843545 0.010393708 0.0031550755 0.012766476 0.002614046 0.0036914926 0.012054357 0.027051914
-0.008459272 0.0040449314 0.022088597 -0.0040629944 0.0105430735 0.022502737 0.0031452195 0.010367872
0.001541207 0.008419775 -0.006319929 0.014952654 -0.0009825542 0.015107713 0.0022960664 0.0016783628
0.0039273347 0.009790145 0.03450966 0.0013705546 -0.0074484963 0.024435723 0.007814769 0.01494547
0.00440078 0.018808577 -0.0060563493 0.00239277 -0.0065994496 0.006689198 -0.002793338 -0.0116598895
0.006753156 -0.017251343 0.014311474 0.006608805 0.011093828 0.0045128237 0.01360558 0.02378815
0.0060392935 -0.0026706592 0.010622242 0.001163885 0.008785982 0.011893825 -0.0037099188 0.0029780003
0.0062850364 0.007074375 0.0015260547 0.01586544 0.0066101765 0.010436149 0.0024730298 0.0014951522
0.0008560047 -0.0012862065 0.03871983 0.034408163 -0.0099535985 0.011928715 0.002713153 0.007520564
-0.0026507128 0.010765349 0.013954679 -0.008916916 -0.02077424 0.00012496 0.004216481 0.0030034683

network_body.linear_encoder.seq_layers.2.weight f4 [256, 256]
00000000: 1a05 8dbc 1782 c1bd 0e79 fb3b 4d79 203b
00000010: 9fec 19bb 140f 5ebd 03b3 273d b5f2 1bbe
00000020: d41d 9fbd e6c1 d4bd 0f9c d13d 688c 50bd
00000030: 44be a5bb f9d4 033c c9ac fc3d 017a f23c
00000040: 79ea b63c eb89 20bd 0a85 c73d 1333 07be
00000050: fbd0 f5bc 6304 2fbb 174e 963c dacc 95bd
00000060: a9fc a0bc bc54 013d 52b4 ef3c 9593 5a3d
00000070: abec 53bb 6b84 4b3c cea4 9cbc af86 8bbc
00000080: d1c1 4bbd b6e8 e8bc 3c47 1cbd 94e4 d33d
00000090: d3ae b63d 1c7b 2dbd 8ebd 4abd 9b5a bfbb
000000a0: 54c0 0b3d fda9 25bc bafc fcbd 3b3a 423d
000000b0: 0275 963c 829a 683c 07ff 05bd 0862 783d
000000c0: 8240 81bd 70fd 3bba db4b 6abd 64e0 0c3d
000000d0: 906f e33d d021 d63c ce16 383d c8ee abbd
000000e0: 61a3 fbbc 0cd6 053d 1c04 49bd 9059 b93d
000000f0: 93e6 c6ba 59cc e8bc 10f9 10be 434a a7bc
00000100: 5c08 49bd 6b5e a0bd 1983 47bd 5a3f 92bd
00000110: 4df6 ab3d 212f 19bc a60f d43c ee71 ba3c
00000120: 77e3 92bc 4d25 65bd f205 8a3d 1ada 1fbe
00000130: 335a f73c f6af d93d d4cc 3f3c 61d4 80bd
00000140: 7b48 8a3c 4029 f33d 3392 d43c d837 1ebe
00000150: d014 373b 812b a53d 1af3 c2bd 64a4 253d
00000160: 951f 8bbd b35f f6bc 7b7a 173d 6b69 29bd
00000170: b64a b2ba 8248 adbd f58d 3fbb 7ff8 103d
00000180: 79c0 3b3c a077 1d3d 9251 863c 5817 18bd
00000190: de9c 2d3d 362e c6bc e6eb 25bb 8095 ae3d
000001a0: 5599 82bd 0bca ea3c 51f7 41bd 96d3 59bd
000001b0: f52d 59bc 2091 df3a cd6f 643d d79a a93d
000001c0: 65f2 903d f66a 083e 994f d43d 634f a23b
000001d0: 2a7c 37bd 3ea7 e23d 15dc 613c 9c33 853d
000001e0: 5893 d6bc 8a34 d73c a731 df3d 598c f7bd
000001f0: d899 69bc 0525 53bd 693e 43bd cd11 163d
00000200: c474 1dbc e43a 733d dfbd b93d 839c a83d
00000210: 57e3 18be be1d 993d 269f c83d 26e8 83bd
00000220: 97f5 26bd 3c36 743d b11c 74bc d5d5 21be
00000230: a494 91bd 7bf3 ef39 1b11 90bd d1ff a93d
00000240: ac71 94bb a96d 893d d28b b0bc a1e4 11bc
00000250: 6724 763b acd8 bf3d 25fc 6dbc a96b ffbd
00000260: ce4a ed3c b0f6 d1bd 6f1e 2b3d cf71 673b
00000270: c8a1 15bd 4363 47bc cce3 713c 8aa0 283c
00000280: 0a14 c23d 1871 86bd 882d f93d bad1 07bd
00000290: a338 e8bb eadd 853b 3e75 6d3d c2d8 423d
000002a0: be20 79bd eed2 73bd dcf4 833d ed97 c3ba
000002b0: fd66 ab3d 56c4 bdbd e4f5 51bd 5327 6d3d
000002c0: 9564 41bd 55d7 97bb ea6b cc3b c76f 673d
000002d0: 00ab 84bd fde1 a0bd 7a26 86bc ff8f 4b3d
000002e0: 97ed 5f3c 89d1 8e3d 4efb e03c 6378 4eba
000002f0: 5d1f b73d d2b2 23bd 4822 bcbd 72e7 213d
00000300: e8c5 883c 5515 a63c 0830 103e c78f 84bd
00000310: a38e c0bc 5e37 bdbd a3f0 ac3c 6522 acbd
00000320: 3f6d 25bd 236b 7ebc a3bf 0b3d ba82 ec3d
00000330: e2ac 27bb 80ae 90bc ce69 243c f218 03bc
00000340: 1d2b bebd 0f09 c2bc b796 d63d b281 c53d
00000350: 5420 a0bd b089 54bc 19d6 fabc fc3a a23d
00000360: dd30 133d e7bc 58bc 34e4 553d ae69 88bb
00000370: 361e f83b 34c9 31bd 5679 a43d f673 b33c
00000380: dfdf d63c 0f7b 513d c333 553c 3eff 0bbd
00000390: 5f53 7b3c 5e68 2c3d 9a70 653c 92ad da3d
000003a0: 9014 3f3e e872 fabd ae46 11bd 62f8 99bd
000003b0: 5bf7 ba3d ea4e d83d 1c65 b03b 1f3b 76bd
000003c0: 54dd 983d 0dda 87bd 9a6b 07bd f0be d1bc
000003d0: 2f9e fbbd 6b52 c2bc 6fac b3bb ac19 413d
000003e0: ddef 773d 5784 81bd d2dc b03d ca5a 87bc
000003f0: 5e8c aebd dfe5 ad3d c66f a23d a339 8bbd
-0.017214347 -0.09448641 0.007674343 0.0024486363 -0.0023486984 -0.0542136 0.040942203 -0.15229304
-0.07769361 -0.10388546 0.10234844 -0.05091515 -0.005058082 0.008046382 0.12337644 0.029599192
0.022328602 -0.03919403 0.09742172 -0.13203077 -0.030006876 -0.0026705496 0.018347783 -0.07314463
-0.019651728 0.03157495 0.029260788 0.0533634 -0.003233711 0.012421708 -0.019121554 -0.017031996
-0.049745385 -0.028431278 -0.038153872 0.10346332 0.08920064 -0.042353734 -0.04949718 -0.0058396584
0.034118965 -0.010111329 -0.12352891 0.047418814 0.01836634 0.014196994 -0.032713916 0.060640365
-0.06311132 -0.0007171249 -0.057201248 0.034393683 0.11105263 0.02613917 0.044943623 -0.08395153
-0.030717554 0.032674834 -0.049076185 0.09050286 -0.0015174918 -0.028417753 -0.1415751 -0.020421153
-0.049080238 -0.07830509 -0.04870901 -0.071409896 0.083965875 -0.009349615 0.025886368 0.022759404
-0.01793073 -0.055943776 0.06739415 -0.15610543 0.030194378 0.10629265 0.01170655 -0.06290508
0.016880265 0.11873102 0.02594862 -0.1545099 0.002793599 0.08064938 -0.09519024 0.04043998
-0.06793133 -0.03007493 0.03698204 -0.0413603 -0.0013602588 -0.084610954 -0.00292289 0.035393234
0.011459463 0.03844416 0.016396318 -0.037131637 0.04238593 -0.024191957 -0.0025317608 0.085246086
-0.06376902 0.028660795 -0.047355 -0.0531803 -0.013255586 0.00170568 0.055770684 0.082814865
0.07077483 0.13322052 0.103667445 0.0049533113 -0.044796146 0.11067055 0.013785382 0.06503984
-0.026193306 0.02627017 0.10898142 -0.12087316 -0.014257871 -0.051548976 -0.04766694 0.03663807
-0.009610359 0.059382334 0.09069418 0.08232977 -0.14930473 0.07476376 0.0979598 -0.06440763
-0.040761556 0.059622034 -0.014899419 -0.15804227 -0.07108429 0.0004576704 -0.070345126 0.08300746
-0.0045301523 0.06710369 -0.021551047 -0.008904607 0.0037558319 0.09367499 -0.014525448 -0.124717064
0.028966334 -0.1025213 0.04177707 0.0035315638 -0.03653124 -0.012169662 0.014763784 0.010292182
0.094764784 -0.0656454 0.121668875 -0.033158995 -0.0070868297 0.004085292 0.05797314 0.047569998
-0.06082224 -0.05952733 0.064431876 -0.0014922597 0.08369253 -0.09265964 -0.05125989 0.05789883
-0.047215063 -0.004633824 0.0062384503 0.056503084 -0.06477928 -0.07855604 -0.016375769 0.049697872
0.013667486 0.069735594 0.027463581 -0.00078762154 0.08941529 -0.03996546 -0.09186226 0.039527364
0.016695932 0.020273844 0.14080822 -0.06472736 -0.023505514 -0.09239076 0.021110838 -0.08404998
-0.04038739 -0.015528473 0.034118306 0.115483716 -0.0025585224 -0.017661333 0.010034991 -0.008001553
-0.09285567 -0.02368596 0.10477965 0.09643878 -0.07818666 -0.01297228 -0.030619668 0.079214066
0.03593527 -0.013228632 0.052219585 -0.0041629886 0.007571961 -0.043404773 0.080309555 0.02190588
0.026229797 0.05114275 0.013012829 -0.034178965 0.015339701 0.04209172 0.014003897 0.10677637
0.18660188 -0.12228948 -0.035467796 -0.075180784 0.091292106 0.10561927 0.005383147 -0.060114976
0.0746409 -0.06633387 -0.0330616 -0.025603741 -0.122860305 -0.02372094 -0.005483202 0.047143623
0.060531486 -0.0632407 0.08635868 -0.016522784 -0.08522867 0.0849111 0.07931475 -0.06798103

network_body.linear_encoder.seq_layers.2.bias f4 [256]
00000000: 3cde 123b e849 833c b98f 993b 12e7 d53b
00000010: a89e 5a3c 5b1e b8ba 61d6 bcbb 46ae 643b
00000020: 3548 e83b b383 bf3a 0555 393c 7b03 9d3b
00000030: 4a0e a43b 53af 543c 2b3b b03a ac7e 41bb
00000040: 30d9 103c ca48 34bb fa62 bb3b 43bd b73a
00000050: 64b5 813c 95ea fd3b c997 473c fd0e 033c
00000060: 9097 463b ca70 f739 5e17 e23b 70aa 29ba
00000070: 31cf 1e3c 0994 d03b f590 61ba 7dd9 843b
00000080: 8cd0 16ba 6873 0eba 2fed c13a 0f8d f5bb
00000090: d27c 76b9 3a69 743b a280 a73b a830 d53b
000000a0: f02f 8d3b db45 203c 74f4 4f3b 7493 61bb
000000b0: 8e1f 583a 27e4 843c 7df7 4d3b d886 b93b
000000c0: a3cf 063c d4fd a53c 4aac 583b 58c2 7f3c
000000d0: f0aa bc39 702c 0dba ab05 f03b 1711 b13a
000000e0: c046 393c 9d0a e83b 69bd 1b3c 4e90 b43b
000000f0: 07fd 993c bad8 80bb 5a74 f7ba 96f8 ec3b
00000100: 37ae 223c cddb d33b 029d 083b 4f3c 593c
00000110: 9d31 533c 7dad b33a 6f7a a9bb 9425 b33b
00000120: be67 123c 53e8 6f3c 58d8 453c 69e0 4c3c
00000130: 8f29 823c 90a8 7f3a 0eaf 803b 58e8 183b
00000140: 603f 603a 5493 53bb 48cc 1c3c 974d 9d3c
00000150: 3432 fdba 8369 163c 48f7 b33b 4381 423c
00000160: dc55 65bb 5b3b 30bb 6b49 573b ffa7 323c
00000170: 650e 9a3c dcf7 2fb9 c4e5 0e3c eb53 ad39
00000180: dc71 313c ba7e 273a 762c 3c3c 72f6 633b
00000190: efb3 133c eaf2 3b3c 0e2f e93b aa19 373c
000001a0: 0130 3bbb c32d 673b ae3a c6bb 6ec1 fa3b
000001b0: 5aef 073c b52e 8dba 08c9 073b 3f70 533a
000001c0: 126b 7c3c 5231 ed3b fd20 553b 7f4c c93c
000001d0: 60ec 863b bdfd f839 2f83 223c 4fe5 9a3b
000001e0: 28bc 293c 2cff 073c 0559 543c 9720 b73b
000001f0: 7af0 f93b d761 bb3b 48fd ba3b 759d 633c
00000200: 9dcf 433c ae50 9a3b d1fb 543b 7803 ba3a
00000210: 76ea b83b 4be4 6f3a f917 203c f7d5 023c
00000220: d0ac 003c 647f 4e3c 7527 a53b 1f1e ff3b
00000230: 661e 933c 54ca 083b aacf 4b3c 3bc5 ef3b
00000240: 8ccd 103c a858 493c d59a a53a 4f5a 9c3c
00000250: c73c 7e3b 3efb e33a 9ed9 793c 0ee0 183c
00000260: a1ed 483c 5f80 543c 76c9 093c 3640 aa38
00000270: bf7c 943b 27ca 123c e8a6 ccba 3b2c a93a
00000280: eca1 2abb 2490 003c 93fe a93b b643 3ab8
00000290: e90a f3b9 c883 2fba 114f 183c ae9d a13b
000002a0: 467f c43c 6042 4b3b 8cf0 7c3c e503 663c
000002b0: 2524 183c 2f71 033c 07d4 f1bb 52a1 003c
000002c0: 58ff a9bb 2166 7a3c 5a3a 643c 5bfb 073c
000002d0: e3dd b53c 1837 ab3b eccb a9b9 56ea 1ebb
000002e0: 6533 fc3a 8735 8f3c 3679 163c c6b4 4b3b
000002f0: 0cbf 03bb e50f f03b dafc 913a 8c2b 5aba
00000300: 5a25 5e3b eacc 923b 73a5 023c a18d 8b3c
00000310: 775f dbbb 4a71 3bbb 55c4 fc3a d9d6 2d3c
00000320: 3ca4 f93b 0ac3 833b 1161 7b3c e350 63ba
00000330: 2218 80bb b0fa 963b ced9 d13b cdbd 913c
00000340: 00d9 363c d84f 023c a08c 333b 6c22 5c3c
00000350: 928b 823b d269 c7ba 97a4 c6bb c549 4e3c
00000360: 6ce2 223c 9b33 1c3c 3e93 2f3b 018a e43a
00000370: 476b 693c 131a 40b9 a4fb 163c 8914 553b
00000380: 1a3e 69bb 8a98 5f3c 8c8a 953b f276 3a3b
00000390: 0b02 89b9 afcc d13b b940 793c 4141 873b
000003a0: c73a c9ba 9902 823a 5ce6 803c 26c9 343a
000003b0: a029 253c b75c 833c 23ac d93a e159 273c
000003c0: e1c1 c53a 7b04 cfbb d3ff f43b 1da6 323b
000003d0: cbbd 063c 03a5 a63b 138f 673b 18d5 9bbb
000003e0: 8e37 1b3c 99b2 b0bb 88bb 903b ff8e 3c3a
000003f0: f3e4 fe3b 40eb 6f3b 582f 9b3a 1865 ac3b
0.0022410294 0.016026452 0.0046863225 0.00652779 0.013343491 -0.0014047133 -0.0057628606 0.0034893914
0.007088686 0.0014611393 0.011311774 0.0047916747 0.005006586 0.012981254 0.0013445368 -0.0029524965
0.008840844 -0.0027509206 0.005718586 0.0014018196 0.015833564 0.0077489116 0.0121821845 0.007999179
0.003030274 0.00047195546 0.0068997582 -0.00064722355 0.009692953 0.0063653034 -0.0008604669 0.004054247
-0.0005753122 -0.0005434067 0.0014795418 -0.007493622 -0.00023506887 0.0037294165 0.00511177 0.0065060444
0.004308693 0.00978228 0.0031731399 -0.0034420164 0.0008244448 0.016222073 0.0031428032 0.0056618266
0.008228215 0.020262636 0.0033061677 0.0156103 0.00035985513 -0.0005385345 0.0073248944 0.0013509121
0.011308372 0.0070813433 0.009505608 0.0055103665 0.01879741 -0.003932086 -0.001887928 0.007231782
0.009929231 0.0064654113 0.0020845537 0.013259008 0.012890247 0.001370832 -0.005172066 0.005467126
0.008935867 0.014642793 0.012075506 0.012504675 0.015888957 0.0009752596 0.003927118 0.0023331847
0.00085543655 -0.003228386 0.009570189 0.019202037 -0.001931733 0.009180429 0.0054921247 0.011871639
-0.0034993803 -0.0026890847 0.0032850157 0.010904311 0.018805692 -0.00016781635 0.008721773 0.00033059655
0.010830369 0.0006389428 0.01148521 0.0034784344 0.0090150675 0.011471489 0.007116205 0.011175552
-0.0028562548 0.003527508 -0.0060494756 0.007652453 0.008296812 -0.0010771366 0.002071919 0.0008065737
0.015406387 0.0072385455 0.0032520883 0.024572609 0.0041175336 0.00047491296 0.009918972 0.0047270427
0.010359801 0.008300584 0.012960677 0.005588602 0.007627544 0.0057184505 0.005706463 0.013892521
0.011951354 0.004709325 0.0032498727 0.0014191708 0.0056431843 0.0009151145 0.0097713405 0.0079855835
0.007853702 0.0126036145 0.005040104 0.007785573 0.017958831 0.002087255 0.012439648 0.007317213
0.008838069 0.012289204 0.0012634645 0.019086031 0.003879355 0.0017393602 0.015249638 0.009330763
0.012263686 0.012970059 0.008409848 8.118192e-05 0.0045314725 0.00895933 -0.0015613707 0.0012906858
-0.0026036454 0.007846866 0.0051878183 -4.4408916e-05 -0.000463567 -0.0006695357 0.009296195 0.004932127
0.02398647 0.0031014904 0.01543821 0.0140390145 0.009285961 0.008022591 -0.007380012 0.007850962
-0.00518791 0.0152831385 0.013929928 0.008299674 0.02220053 0.0052250735 -0.00032386126 -0.0024248562
0.0019241391 0.017481579 0.009184172 0.003108309 -0.0020102886 0.0073261135 0.0011137978 -0.0008322529
0.0033896775 0.004479994 0.0079740165 0.017035307 -0.00669473 -0.002860146 0.0019284586 0.010610306
0.007618455 0.004021053 0.015342967 -0.0008671416 -0.003909127 0.004607521 0.006404138 0.0177907
0.011160135 0.007953607 0.0027397051 0.013435941 0.0039839232 -0.0015214032 -0.006062101 0.01259083
0.0099416785 0.009533788 0.0026790644 0.0017436148 0.014246768 -0.0001832026 0.009215269 0.003251346
-0.0035589994 0.013647208 0.004563635 0.0028452245 -0.00026132198 0.006402574 0.015213185 0.004127652
-0.00153526 0.0009918987 0.015734844 0.00068964285 0.010080725 0.01603542 0.0016607087 0.0102143
0.0015087688 -0.006317673 0.0074767857 0.0027259656 0.008223961 0.005085589 0.0035333082 -0.0047556274
0.0094736945 -0.0053923842 0.0044168867 0.0007192939 0.0077787577 0.0036608726 0.0011839671 0.0052610748

action_model._continuous_distribution.log_sigma f4 [1, 5]
00000000: c5ee 09bc df76 5a3c f49e 133b b57b 0e3c
00000010: 459f 5b3b
-0.0084187435 0.013334005 0.0022525163 0.008696486 0.003351168

action_model._continuous_distribution.mu.weight f4 [5, 256]
00000000: a468 a8bb 4b4c 6b3d cc09 19bd 2d8e fdbc
00000010: 412d 3c3d 6a02 7ebc 6eff 64bb dd05 22bc
00000020: d095 0cbd f12d abbc 04d8 183d 455a 66bd
00000030: d4ba 1dbd 5612 1a3d fd48 f6b9 6ba7 2dbd
00000040: 7926 37bd aad3 1ebd d0e6 2fbd 2461 1abc
00000050: a361 f23b 0f24 4b3d a176 d33c f5eb 31bd
00000060: ff50 183d 8c8a 413c 0ae8 5abc 8243 a9bc
00000070: d6b4 083d fb6d 5e3c 92d7 9a3b 39e2 dbb9
00000080: 0ba0 993c 929e ab3b c3d6 94bc f2ce ccbc
00000090: 7b45 20bd 1944 fd3c 1b73 e53c 8d32 393c
000000a0: 3e5d 4d3c 1499 e73c 431d 2abc f51e e2bc
000000b0: 9cf0 093b 1df9 c63c ff1c 603c 072b 21bd
000000c0: 88c5 8c3c 5f49 aebc 634e ba3c c84e f3bb
000000d0: 775f 7abc c2b5 703c 70b0 6f3c 9d84 b23c
000000e0: 8e70 ec3a 91d1 053d 66b0 0d3d ebf5 5f3a
000000f0: fa40 963d 8818 0cbd 8d2f da3b 1453 f5bc
00000100: 15c4 41bc 97f2 023d 7e6b 1bbc 3512 803c
00000110: f5b5 2d3b cc47 e83c 2e30 79bc 12ad 9bbb
00000120: 5bc5 24bb 03cf 4d3d 222d f93c 4000 a63c
00000130: 832c 7c3c 9c58 b5bc 6c8d 9e3c cad3 9abc
00000140: b930 b33c be5c debc 0717 92bb 92a6 cbba
00000150: 24df a0bc ea90 c1bc 1b0d a83c 99a3 273d
00000160: 8289 d4bc 5c08 e23b 3bfb 03bd da47 c03c
00000170: e910 ccbb 2cfc d13b 9ff6 b43c 5f98 60bd
00000180: cc3a 9c3c 9de4 27bd ad0d 123d f134 cfbc
00000190: 3ac0 9e3c 394f a93b 5084 d53c 7510 57bc
000001a0: 9823 fbbb 27d5 eabc e2d5 99bb 28ee 003d
000001b0: 7c64 033d b6ef 8a3c 4073 22bd b091 dab8
000001c0: d27c ea3c b6a8 0a3d 7bcf 93bc 9d17 523d
000001d0: 71ac 1dbd 2822 b23c d956 e33c 56c2 a93c
000001e0: 6315 bd3c bbc2 e43c ffd8 383c 39b2 013c
000001f0: 223d b3bb ef97 9b3b 3702 0a3c e0d5 683d
00000200: 1816 a93c 10aa 11bd 386d 26bc b688 b3bc
00000210: e540 a03c efc6 48ba 838c fb3c 5a73 0bbb
00000220: 1a33 843c 593b 113d b378 4c3c 3ac2 c33c
00000230: ee2c 223d f8d5 403c 1d2b 6e3d cf4e e13c
00000240: 56ec 69bd 4a67 0d3d 9069 17bd 90cd 043d
00000250: 586d 19bd fc94 e6bc 7deb 253c 45cb 5b3a
00000260: f2dd c0bb 3278 6b3d 051d 7cbd 9f4c 123b
00000270: 0432 f63c 8695 ba3c 8e19 443b 752d 6bbc
00000280: b217 8bbb b5ea 5d3c ad96 1a3d 19ac 08bd
00000290: df30 a5bc d223 b539 8ee7 8cbd 7ff5 88bc
000002a0: 5a22 aabc 952e 39bc d3fa 5c3c e5b8 243d
000002b0: 82a6 ab3c 9c90 07bd 1baa 54bb 6f2d 37bb
000002c0: a491 69bc 61f0 053d 2ae8 17bb 6f22 63bd
000002d0: d089 2e3d 5eea 77bc 7279 1fbc 6d68 74bb
000002e0: 5e6d db3c a6bd 763d 34c4 f63c 8fb2 ebbc
000002f0: cd94 d2bb cb78 7f3c 0611 233c 567e 07bd
00000300: 5eac eb3a 5964 cd3c 106b 863c cc85 283d
00000310: d11c 8cbb c359 b1bb 4e2a 6ebb 6366 76bd
00000320: eaf3 733c 9777 12bd 6611 87bc 936a 303c
00000330: 0f54 90bc 8898 493c eb8f 87bc a06e 383d
00000340: a7ea 28bd c251 babc b816 51bd bc11 81bc
00000350: e7a1 c1bb 7e2e 01bd 4cc0 19bd 8f83 1b3d
00000360: f76e 4e3d 80ad 913c 77e8 323c a292 dd3b
00000370: 91a3 503d ee8e a8bc 1425 003d 183b 19bd
00000380: f386 92bc fe32 1d3d a89a 9dbc 675c f1bc
00000390: aa48 00bd 5851 6c3c 45c7 153d cdd1 45bc
000003a0: 685b aebb 71b4 f8bb 5c7b 2b3d 81e9 03bd
000003b0: 25ba e8bc e71d 083d f868 a6bc 0955 b03a
000003c0: c563 16bd d647 e2bc 2fa2 c43c dac0 00bd
000003d0: ac91 9dbb ee34 76bd 8631 b23c f891 58bc
000003e0: 4999 8abd bf22 04bd 1e9b f43c 2856 c93c
000003f0: d335 2e3c 57cd a1ba ae3d c0bb 6ce6 59bd
-0.0051394273 0.057445806 -0.03736286 -0.030951584 0.045941595 -0.015503505 -0.0034942287 -0.009889093
-0.03432256 -0.02089593 0.037315384 -0.05623843 -0.03850825 0.037615143 -0.00046975157 -0.04239599
-0.044714425 -0.038776077 -0.04294473 -0.009422574 0.007396893 0.049594935 0.025813403 -0.043437917
0.03718662 0.011812817 -0.0133609865 -0.020662073 0.033375584 0.013576026 0.004725405 -0.00041939484
0.018753072 0.005237409 -0.018168813 -0.025001023 -0.03912876 0.03091626 0.028008988 0.011303556
0.012534438 0.028271236 -0.010382953 -0.027602652 0.0021047955 0.024288708 0.013678788 -0.039347675
0.017184034 -0.02127522 0.022742456 -0.007425163 -0.01528155 0.014691772 0.014629468 0.02179175
0.0018038915 0.03267056 0.034592055 0.00085434195 0.07336612 -0.034203082 0.0066585005 -0.029946841
-0.011826535 0.031969633 -0.009486077 0.015633682 0.002650616 0.028354548 -0.015209241 -0.004750856
-0.0025142047 0.05024625 0.030417029 0.020263791 0.015391472 -0.022136979 0.019354545 -0.018899817
0.021873819 -0.027143832 -0.0044583115 -0.0015537313 -0.019637652 -0.02362867 0.020514062 0.040927503
-0.025944475 0.006897969 -0.032222014 0.023471761 -0.006227602 0.006408235 0.022090254 -0.054832812
0.019071005 -0.040989507 0.035657573 -0.0252938 0.01937877 0.005166915 0.026064068 -0.013126482
-0.007664155 -0.028666092 -0.0046946863 0.031477123 0.03207825 0.016960006 -0.039660692 -0.000104221865
0.028623972 0.0338523 -0.01804327 0.05129205 -0.03849453 0.021744803 0.027751373 0.02072255
0.023081487 0.027924886 0.011282205 0.007916027 -0.005469934 0.0047483365 0.00842338 0.056844592
0.020640418 -0.035562575 -0.010157876 -0.021915775 0.019562194 -0.0007659038 0.03070665 -0.0021278472
0.016137648 0.03545699 0.012479949 0.023896325 0.03959363 0.011769764 0.058146585 0.0275034
-0.057110153 0.034522332 -0.036965907 0.032422602 -0.037457794 -0.028147213 0.010126946 0.00083844765
-0.005885833 0.057487674 -0.061551113 0.0022323502 0.030053146 0.022776376 0.0029922458 -0.0143540995
-0.004244768 0.013544728 0.037741352 -0.03336725 -0.020164905 0.00034549698 -0.06880103 -0.016718624
-0.020768333 -0.01130261 0.0134875355 0.04021539 0.02095342 -0.033096895 -0.0032450024 -0.0027950665
-0.014255915 0.032699946 -0.0023179152 -0.05545276 0.042611897 -0.015131561 -0.009733545 -0.0037293688
0.026785549 0.060239457 0.030122854 -0.028771667 -0.00642643 0.015592764 0.009952789 -0.033079468
0.0017980447 0.025072264 0.016408473 0.041143224 -0.004275896 -0.0054123118 -0.0036341134 -0.060156237
0.014889697 -0.03575858 -0.016487788 0.010767597 -0.017618207 0.012304433 -0.016548118 0.045027375
-0.041239407 -0.022744063 -0.051047057 -0.015755527 -0.005909193 -0.03153848 -0.037536904 0.03796726
0.050398793 0.017782927 0.010919682 0.0067618648 0.05093724 -0.020575967 0.03128536 -0.03740987
-0.017886614 0.038378708 -0.019238785 -0.029463006 -0.031319298 0.014423691 0.03656699 -0.012073946
-0.005320955 -0.0075898697 0.04186569 -0.03220511 -0.028409073 0.033231642 -0.020313725 0.0013453077
-0.03671624 -0.027622145 0.024003116 -0.031433918 -0.004808625 -0.06010907 0.02175213 -0.013218395
-0.06767518 -0.0322597 0.029859122 0.024577215 0.01063295 -0.0012344521 -0.005866728 -0.053198263

action_model._continuous_distribution.mu.bias f4 [5]
00000000: 9d47 553b fe77 95b8 308f 873b dfea 953b
00000010: 39d4 973a
0.0032543906 -7.127224e-05 0.0041369423 0.004575118 0.0011583633
