MLConfig/results/lion2/Animal/Animal-10752.pt (torch, 592463 bytes, 12 tensors)

network_body.linear_encoder.seq_layers.0.weight f4 [256, 24]
000000 35 ec 8a be 0b 46 5a be f8 4b 9d be 4e a0 4a 3e
       -0.27133337 -0.21315782 -0.30722022 0.19787714
000010 9d 81 bf be 9b de 99 3d 82 47 ac 3e 69 ea 27 3d
       -0.37403575 0.07513162 0.33648306 0.040995035
000020 35 d2 a3 3d 3a c5 e0 be aa f8 ff bd 30 49 a5 3d
       0.07999078 -0.43900472 -0.12498601 0.080706
000030 97 b8 de 3d ce 61 b8 3d db 5f 1e bd db 07 92 3d
       0.108750515 0.0900303 -0.038665634 0.071304046
000040 7f a9 0a bd 53 e7 dd 3e 1d d7 94 bd b7 8d 3c be
       -0.03385305 0.4334055 -0.07267592 -0.18413435
000050 22 55 bf 3c 0d 00 90 3e 4e 33 1c bd ed a8 62 be
       0.023356024 0.2812504 -0.038134865 -0.22134753
000060 90 e4 4f be 00 ff 6e 3e 28 e7 9c bc 97 03 bc bd
       -0.20302033 0.23339462 -0.019153193 -0.09180372
000070 ae 65 34 bd 99 60 43 bd 7b a3 48 be 73 6d 97 3e
       -0.04404228 -0.047699545 -0.19593613 0.2957569
000080 2c fb 40 3c c5 57 84 be 6e f6 f6 bd 6c 9d f0 bc
       0.011778634 -0.25848213 -0.120587215 -0.02937194
000090 58 11 9b 3e d3 b4 0c 3d 02 7b 9b bc 59 08 c3 3d
       0.3028667 0.034352135 -0.018979553 0.095230766
0000a0 10 26 a1 be 87 d0 33 be 05 1d 82 3e b0 54 bc bc
       -0.31474352 -0.17560016 0.25412765 -0.0229896
0000b0 20 3f 96 3e c5 47 28 3e 9c fe 98 3d 71 99 15 be
       0.29345036 0.16433628 0.07470438 -0.14609315
0000c0 ae 56 86 3e 66 bc f4 3d 71 47 e2 be 35 ce 0d 3e
       0.26238006 0.11949997 -0.4419513 0.13848193
0000d0 a8 ba 62 be b3 c3 56 3e dc e7 79 3a 24 eb 86 3e
       -0.22141516 0.20973091 0.0009533146 0.26351273
0000e0 2b 3c 0f be ad d1 34 be 19 b8 97 3d 19 6d b1 bd
       -0.13987796 -0.1765811 0.07408161 -0.08663387
0000f0 b9 f6 92 3d ce 55 75 bd 7c 52 4d 3d ed fe 8a be
       0.07175965 -0.059896283 0.05012749 -0.27147618
000100 f6 21 0d bf d2 8c 8a be fc ad 1c 3e f6 64 26 3d
       -0.55129945 -0.27060562 0.15300745 0.040623628
000110 f4 b6 a0 3e 70 07 fb 3c 67 4c 4e bd 2d dd bd 3e
       0.31389582 0.030643195 -0.05036583 0.37082806
000120 6e e2 03 3e 93 26 98 3e 7c 39 8f be 35 75 94 3e
       0.12879345 0.2971693 -0.27973545 0.28995672
000130 7c ad 7b be 1b 58 ac be a0 6f 2d 3e eb 70 0d be
       -0.24577898 -0.3366097 0.16937113 -0.13812606
000140 b7 16 9e 3d c8 0f 17 3e e6 b2 77 be 04 21 5c bd
       0.07719176 0.14752114 -0.24189338 -0.053742424
000150 69 16 da bd 0f dc 3b 3e 3f ad c7 be c6 48 23 be
       -0.10648806 0.18345664 -0.38999364 -0.1594573
000160 b9 20 ad bc 86 5d d6 3d 7d 6c 65 be 68 34 e5 3e
       -0.021133767 0.10467057 -0.22404666 0.44766545
000170 e2 97 41 3e 88 f8 da bd f4 09 97 3c 79 b9 37 bd
       0.18905595 -0.10691935 0.018437363 -0.044854615
000180 64 a3 30 be 4c 25 92 bd 20 a4 06 3e 4f 69 f2 bd
       -0.17249829 -0.0713602 0.13148546 -0.11836492
000190 e4 e0 87 3d 6e e7 53 3b 24 e2 cf 3a b4 eb a5 3e
       0.06634691 0.0032333988 0.0015860242 0.3240639
0001a0 70 b7 48 be 7f 2a 98 bd c9 04 4a 3d 0f 55 0d be
       -0.19601226 -0.074299805 0.04932097 -0.13801979
0001b0 1c ab 89 be 91 ab ae bd ea 7c b9 be 13 b5 73 3e
       -0.2688836 -0.085288174 -0.36228114 0.23799543
0001c0 e3 84 f5 3e aa 3c 84 3d 83 67 78 3e a3 07 7a bc
       0.47952947 0.06456883 0.24258237 -0.01526061
0001d0 52 c4 b3 3d 26 d0 b9 bc 6e 64 2f be 10 96 0b be
       0.087776795 -0.02268226 -0.17128155 -0.13631463
0001e0 94 8f 94 bd 01 dd eb be c3 f8 8b bb be 3a 8b be
       -0.07253948 -0.4606705 -0.004271598 -0.27193254
0001f0 9e c0 0d 3e 55 d0 92 be 96 cb 63 3e d4 b3 c9 3e
       0.13843009 -0.2867457 0.2224563 0.3939501
000200 65 40 ef 3d 90 b5 0d bf 51 88 fd bc 81 1e 96 3e
       0.11682204 -0.5535517 -0.03094879 0.29320148
000210 78 b2 cb be 4e 7c 54 3e 07 05 ae 3e 1e 16 68 3e
       -0.39784598 0.20750543 0.3398821 0.22664687
000220 75 9f 72 bc d0 b0 c0 3d 66 ff ed 3c 56 9f 96 be
       -0.014808525 0.09408724 0.029052448 -0.2941844
000230 72 43 ac 3e cc 3a a6 be db 4c f6 3d 33 94 bb be
       0.33645207 -0.32466733 0.12026378 -0.36636505
000240 ea 8e 3e 3e 5f 44 fc 3e 2a 0e ff bd b7 ae 5c 3e
       0.18609205 0.49270913 -0.124538735 0.21551023
000250 dc a7 66 be dc 78 3b bb 5d 74 86 3d 3f 90 08 be
       -0.22524971 -0.0028605973 0.06565163 -0.13336276
000260 11 f3 70 bd 34 41 4a be f3 dd b2 3e 51 85 77 be
       -0.058825556 -0.19751436 0.3493496 -0.2417195
000270 6d 44 a4 be aa 1b 57 3b 44 af 00 bc b7 f4 1a be
       -0.32083455 0.0032822886 -0.007854287 -0.15132414
000280 b6 11 b6 bd 58 c4 94 3e ee 8d 25 3e 03 f5 3b 3d
       -0.08890097 0.29056048 0.16167423 0.04588796
000290 ca a0 03 3e 8a aa ed be c8 4f 8a be a5 63 2f 3e
       0.12854305 -0.46419173 -0.27013993 0.17127855
0002a0 77 cb 53 3e a7 cd 23 bd d6 37 00 3e 76 b0 4c be
       0.20683084 -0.039991047 0.125213 -0.1998919
0002b0 fc 6a 59 bd d9 d4 18 3c 4c fd 55 3d 3e 6e a5 3e
       -0.053080544 0.009328091 0.052243516 0.3231067
0002c0 f0 76 7a bc 37 6e 49 3c aa 18 c5 bd 81 a7 cc 3e
       -0.015287146 0.012294344 -0.09623845 0.39971545
0002d0 bb 97 ae bd 44 30 b8 be c5 38 a3 be 88 ec f1 3d
       -0.08525034 -0.35974324 -0.3187925 0.11812693
0002e0 17 9d 0a 3d 41 c2 72 3e e4 95 06 3d c4 3e c9 bd
       0.03384122 0.23706914 0.03285779 -0.09826425
0002f0 30 2c c1 3d b9 4a d1 3e 78 18 ee 3c 9d 01 6e 3e
       0.09432256 0.4087732 0.029064402 0.23242803
000300 d7 c2 cf 3d d4 1e 5d 3e b8 ef f2 3d 2b ea 55 be
       0.101445846 0.21593791 0.11862129 -0.20890109
000310 be ed 8a be 87 7f 88 be c0 e5 cd be b1 13 6b be
       -0.27134508 -0.26659796 -0.40214348 -0.2295673
000320 e9 47 1e be 39 cd 78 be c8 f7 52 3e 02 7a c3 3d
       -0.15457119 -0.24297036 0.20602334 0.095447555
000330 85 6d a5 3e ca ef 69 3c fb c9 0b be b3 f0 43 3d
       0.3231012 0.014278362 -0.13651268 0.04783697
000340 45 50 fe 3e 60 48 86 bd 71 7e 4f be bd a4 49 bc
       0.49670616 -0.06556773 -0.20263077 -0.012307343
000350 69 20 fb 3c 5b 6f 67 3c 51 66 c5 3e 00 da c5 3d
       0.030655103 0.01412567 0.38554624 0.09660721
000360 7a 65 31 3e 91 14 9c be 47 a7 80 be 04 4e 15 3d
       0.17323866 -0.3048444 -0.25127622 0.036451355
000370 a1 64 dd 3e f7 24 0c be d6 6e 94 be 05 38 8f bd
       0.43240836 -0.13685976 -0.2899081 -0.06993107
000380 1c 9b 08 be 1e a9 0c 3e da 12 08 3d 8f 6d c3 bd
       -0.1334042 0.13736388 0.033221103 -0.09542381
000390 f5 62 05 be 87 1e f0 be 2e e7 4a bd f1 c0 1b bc
       -0.1302603 -0.4689829 -0.049536876 -0.00950645
0003a0 65 fa a2 3e 06 27 86 bd 33 99 90 bd 02 10 17 3e
       0.3183166 -0.06550412 -0.070604704 0.147522
0003b0 b2 d5 05 bd ca ee a7 bd 02 0e 2e be 21 42 bd 3d
       -0.0326745 -0.08199842 -0.16997531 0.09241129
0003c0 9f c5 c8 3e 13 b3 8f 3c 66 5f 45 3e 90 99 b2 3e
       0.39213273 0.017541444 0.19274673 0.34882784
0003d0 08 39 5c 3e eb 2f 31 be de 32 ca bd 31 78 02 bd
       0.2150613 -0.17303436 -0.098729834 -0.031852905
0003e0 16 0d bc 3d 9f 5f 0f 3e 07 2e ce 3e 88 f7 83 bd
       0.091821834 0.1400132 0.4026949 -0.06443697
0003f0 9d c6 62 be 63 74 f0 3d 14 ad c0 3e db a0 bb bd
       -0.22146077 0.11740949 0.37632048 -0.0916154

network_body.linear_encoder.seq_layers.0.bias f4 [256]
000000 00 00 00 00 00 00 00 00 00 00 00 00 00 00 00 00
       0.0 0.0 0.0 0.0
000010 00 00 00 00 00 00 00 00 00 00 00 00 00 00 00 00
       0.0 0.0 0.0 0.0
000020 00 00 00 00 00 00 00 00 00 00 00 00 00 00 00 00
       0.0 0.0 0.0 0.0
000030 00 00 00 00 00 00 00 00 00 00 00 00 00 00 00 00
       0.0 0.0 0.0 0.0
000040 00 00 00 00 00 00 00 00 00 00 00 00 00 00 00 00
       0.0 0.0 0.0 0.0
000050 00 00 00 00 00 00 00 00 00 00 00 00 00 00 00 00
       0.0 0.0 0.0 0.0
000060 00 00 00 00 00 00 00 00 00 00 00 00 00 00 00 00
       0.0 0.0 0.0 0.0
000070 00 00 00 00 00 00 00 00 00 00 00 00 00 00 00 00
       0.0 0.0 0.0 0.0
000080 00 00 00 00 00 00 00 00 00 00 00 00 00 00 00 00
       0.0 0.0 0.0 0.0
000090 00 00 00 00 00 00 00 00 00 00 00 00 00 00 00 00
       0.0 0.0 0.0 0.0
0000a0 00 00 00 00 00 00 00 00 00 00 00 00 00 00 00 00
       0.0 0.0 0.0 0.0
0000b0 00 00 00 00 00 00 00 00 00 00 00 00 00 00 00 00
       0.0 0.0 0.0 0.0
0000c0 00 00 00 00 00 00 00 00 00 00 00 00 00 00 00 00
       0.0 0.0 0.0 0.0
0000d0 00 00 00 00 00 00 00 00 00 00 00 00 00 00 00 00
       0.0 0.0 0.0 0.0
0000e0 00 00 00 00 00 00 00 00 00 00 00 00 00 00 00 00
       0.0 0.0 0.0 0.0
0000f0 00 00 00 00 00 00 00 00 00 00 00 00 00 00 00 00
       0.0 0.0 0.0 0.0
000100 00 00 00 00 00 00 00 00 00 00 00 00 00 00 00 00
       0.0 0.0 0.0 0.0
000110 00 00 00 00 00 00 00 00 00 00 00 00 00 00 00 00
       0.0 0.0 0.0 0.0
000120 00 00 00 00 00 00 00 00 00 00 00 00 00 00 00 00
       0.0 0.0 0.0 0.0
000130 00 00 00 00 00 00 00 00 00 00 00 00 00 00 00 00
       0.0 0.0 0.0 0.0
000140 00 00 00 00 00 00 00 00 00 00 00 00 00 00 00 00
       0.0 0.0 0.0 0.0
000150 00 00 00 00 00 00 00 00 00 00 00 00 00 00 00 00
       0.0 0.0 0.0 0.0
000160 00 00 00 00 00 00 00 00 00 00 00 00 00 00 00 00
       0.0 0.0 0.0 0.0
000170 00 00 00 00 00 00 00 00 00 00 00 00 00 00 00 00
       0.0 0.0 0.0 0.0
000180 00 00 00 00 00 00 00 00 00 00 00 00 00 00 00 00
       0.0 0.0 0.0 0.0
000190 00 00 00 00 00 00 00 00 00 00 00 00 00 00 00 00
       0.0 0.0 0.0 0.0
0001a0 00 00 00 00 00 00 00 00 00 00 00 00 00 00 00 00
       0.0 0.0 0.0 0.0
0001b0 00 00 00 00 00 00 00 00 00 00 00 00 00 00 00 00
       0.0 0.0 0.0 0.0
0001c0 00 00 00 00 00 00 00 00 00 00 00 00 00 00 00 00
       0.0 0.0 0.0 0.0
0001d0 00 00 00 00 00 00 00 00 00 00 00 00 00 00 00 00
       0.0 0.0 0.0 0.0
0001e0 00 00 00 00 00 00 00 00 00 00 00 00 00 00 00 00
       0.0 0.0 0.0 0.0
0001f0 00 00 00 00 00 00 00 00 00 00 00 00 00 00 00 00
       0.0 0.0 0.0 0.0
000200 00 00 00 00 00 00 00 00 00 00 00 00 00 00 00 00
       0.0 0.0 0.0 0.0
000210 00 00 00 00 00 00 00 00 00 00 00 00 00 00 00 00
       0.0 0.0 0.0 0.0
000220 00 00 00 00 00 00 00 00 00 00 00 00 00 00 00 00
       0.0 0.0 0.0 0.0
000230 00 00 00 00 00 00 00 00 00 00 00 00 00 00 00 00
       0.0 0.0 0.0 0.0
000240 00 00 00 00 00 00 00 00 00 00 00 00 00 00 00 00
       0.0 0.0 0.0 0.0
000250 00 00 00 00 00 00 00 00 00 00 00 00 00 00 00 00
       0.0 0.0 0.0 0.0
000260 00 00 00 00 00 00 00 00 00 00 00 00 00 00 00 00
       0.0 0.0 0.0 0.0
000270 00 00 00 00 00 00 00 00 00 00 00 00 00 00 00 00
       0.0 0.0 0.0 0.0
000280 00 00 00 00 00 00 00 00 00 00 00 00 00 00 00 00
       0.0 0.0 0.0 0.0
000290 00 00 00 00 00 00 00 00 00 00 00 00 00 00 00 00
       0.0 0.0 0.0 0.0
0002a0 00 00 00 00 00 00 00 00 00 00 00 00 00 00 00 00
       0.0 0.0 0.0 0.0
0002b0 00 00 00 00 00 00 00 00 00 00 00 00 00 00 00 00
       0.0 0.0 0.0 0.0
0002c0 00 00 00 00 00 00 00 00 00 00 00 00 00 00 00 00
       0.0 0.0 0.0 0.0
0002d0 00 00 00 00 00 00 00 00 00 00 00 00 00 00 00 00
       0.0 0.0 0.0 0.0
0002e0 00 00 00 00 00 00 00 00 00 00 00 00 00 00 00 00
       0.0 0.0 0.0 0.0
0002f0 00 00 00 00 00 00 00 00 00 00 00 00 00 00 00 00
       0.0 0.0 0.0 0.0
000300 00 00 00 00 00 00 00 00 00 00 00 00 00 00 00 00
       0.0 0.0 0.0 0.0
000310 00 00 00 00 00 00 00 00 00 00 00 00 00 00 00 00
       0.0 0.0 0.0 0.0
000320 00 00 00 00 00 00 00 00 00 00 00 00 00 00 00 00
       0.0 0.0 0.0 0.0
000330 00 00 00 00 00 00 00 00 00 00 00 00 00 00 00 00
       0.0 0.0 0.0 0.0
000340 00 00 00 00 00 00 00 00 00 00 00 00 00 00 00 00
       0.0 0.0 0.0 0.0
000350 00 00 00 00 00 00 00 00 00 00 00 00 00 00 00 00
       0.0 0.0 0.0 0.0
000360 00 00 00 00 00 00 00 00 00 00 00 00 00 00 00 00
       0.0 0.0 0.0 0.0
000370 00 00 00 00 00 00 00 00 00 00 00 00 00 00 00 00
       0.0 0.0 0.0 0.0
000380 00 00 00 00 00 00 00 00 00 00 00 00 00 00 00 00
       0.0 0.0 0.0 0.0
000390 00 00 00 00 00 00 00 00 00 00 00 00 00 00 00 00
       0.0 0.0 0.0 0.0
0003a0 00 00 00 00 00 00 00 00 00 00 00 00 00 00 00 00
       0.0 0.0 0.0 0.0
0003b0 00 00 00 00 00 00 00 00 00 00 00 00 00 00 00 00
       0.0 0.0 0.0 0.0
0003c0 00 00 00 00 00 00 00 00 00 00 00 00 00 00 00 00
       0.0 0.0 0.0 0.0
0003d0 00 00 00 00 00 00 00 00 00 00 00 00 00 00 00 00
       0.0 0.0 0.0 0.0
0003e0 00 00 00 00 00 00 00 00 00 00 00 00 00 00 00 00
       0.0 0.0 0.0 0.0
0003f0 00 00 00 00 00 00 00 00 00 00 00 00 00 00 00 00
       0.0 0.0 0.0 0.0

network_body.linear_encoder.seq_layers.2.weight f4 [256, 256]
000000 17 9a 35 3d 77 50 3d bc 17 e9 27 3d 1b 52 82 3c
       0.044336405 -0.011554829 0.040993776 0.015908292
000010 3a 3e 5b 3d 81 3a 5d 3b 7f cc 96 bd be f2 3b 3d
       0.05352614 0.0033756795 -0.07363223 0.045885794
000020 1e c3 0a bd e2 e1 17 3b 81 8d 3f bc b0 76 79 3d
       -0.033877485 0.0023175408 -0.011691452 0.060904205
000030 07 08 3a bd ac 79 7f bd 7c 2c f3 bc 39 c0 d9 3c
       -0.04541781 -0.062371895 -0.029684298 0.026580917
000040 e7 33 17 bd 86 64 56 bc cf e5 0c bd f5 32 fd 3a
       -0.036914732 -0.01308549 -0.03439885 0.0019317555
000050 17 be ab 3d dd 0c c1 3c 01 d2 11 3d 59 63 8b bc
       0.08385866 0.023565704 0.035600666 -0.017015146
000060 f3 5c 4d 3b 83 ea 5b 3c db 87 19 3d 78 4a 1c bd
       0.003133592 0.013422611 0.037483077 -0.038156956
000070 0f 0d a3 bd fc 3d 89 3d eb d3 66 3d 83 d3 38 bd
       -0.07961475 0.06701276 0.056354444 -0.04512359
000080 b3 0a e4 3d 87 23 b7 3d 82 77 ae bc 1f 1d e1 bc
       0.11134853 0.08942323 -0.02129722 -0.027479706
000090 f9 88 6a 3c 71 4d 35 3d e7 ac 76 3d 90 8e e3 bc
       0.014314883 0.044263307 0.060223486 -0.02777794
0000a0 ed 6e f8 bd f5 86 31 bd df e0 8d bd a7 df e5 bc
       -0.121305324 -0.043341596 -0.069276564 -0.028060747
0000b0 fb 3a 79 bd de 5c de 3b ca e1 83 bc b7 eb 2a 3d
       -0.060847264 0.006785973 -0.016098876 0.0417287
0000c0 a1 04 98 3c 10 2e e2 3c 32 55 d4 3c d4 1c b3 bc
       0.018556895 0.027609855 0.02591953 -0.021864332
0000d0 71 09 d7 bd 78 2a b6 3d 6c ab 9d bd d3 89 c2 3d
       -0.10499848 0.08894819 -0.07698712 0.09498944
0000e0 d7 f7 38 bd 8e 04 7d bd 09 bd b2 3d 1c da 0f bd
       -0.045158233 -0.06177192 0.08727462 -0.035120115
0000f0 e1 06 79 3d 06 9c 71 3d 4f 91 bd 3d 69 51 10 3b
       0.060797576 0.058986686 0.09256231 0.002202118
000100 41 04 8c bd 71 b3 83 bd 94 e8 01 bd 76 f4 00 bd
       -0.06836749 -0.0643071 -0.031715944 -0.031483136
000110 99 40 9b bd c8 58 8a bd 10 3a 5c 3c a4 75 12 3e
       -0.075806804 -0.06755215 0.013441578 0.14302689
000120 e6 a8 f4 bb 40 79 90 bd 8f c5 21 3d a4 a7 23 bd
       -0.0074664233 -0.070543766 0.039495047 -0.039954796
000130 85 6a bf bd 56 ed 07 bc ac 7d 0a 3d 04 a6 d0 3d
       -0.09346489 -0.008296331 0.033811256 0.10187915
000140 b5 64 a7 3c b3 60 82 3c 59 74 b0 3d 11 c3 8e bc
       0.020433763 0.01591525 0.086159416 -0.017427
000150 8d bd de bc d9 ae c8 bc 92 4d 93 3c 5e 8e b0 bd
       -0.027189994 -0.024497436 0.017981324 -0.086209044
000160 eb b9 b4 bd 07 bf 7b bd fb d3 28 3e e4 b0 95 bd
       -0.088245235 -0.061461475 0.16487114 -0.0730913
000170 f8 4f 4f bb 89 01 c6 bc 43 f1 0a 3d 5b 92 0a 3c
       -0.0031633358 -0.024170654 0.03392149 0.008457745
000180 9a 99 cc 3c 37 24 5f bc 85 24 e7 bc ee a7 f2 3c
       0.024975587 -0.013619474 -0.028215656 0.02962109
000190 bd f5 5b bd aa 8e dc bc b3 bc 05 bd 59 97 c1 3d
       -0.05370115 -0.026923496 -0.03265066 0.094526954
0001a0 58 c0 a1 3c 8b eb 23 bc 7c cd 5e 3d 86 3b ad bd
       0.019745037 -0.010004888 0.054395184 -0.08458619
0001b0 be 89 ba 3b 97 39 16 bd b2 cb 0f bc b5 f7 f6 bc
       0.0056926897 -0.036676016 -0.008776592 -0.030147413
0001c0 26 50 de 3d 57 85 9b 3c 58 04 94 3d d9 e3 37 ba
       0.10855131 0.01898448 0.07227391 -0.0007014848
0001d0 cd 24 02 3d bf 36 75 3c 86 d1 81 bd 3c cb 91 3c
       0.031773377 0.014966666 -0.063387915 0.017797105
0001e0 57 2f 9e 3d 4c cf 02 3d d1 b7 bd bc 28 66 90 3d
       0.07723873 0.031935975 -0.02315894 0.07050735
0001f0 2d 25 1b 3d fb 46 0a 3d fc 4e 1f bd 5a 7d 11 bd
       0.03787725 0.0337591 -0.038893685 -0.035519935
000200 59 e4 e0 bc ee 43 04 3b ed 19 3d bd 76 db 72 bc
       -0.027452635 0.002018209 -0.046167303 -0.014822831
000210 d0 9e 14 bb 51 4c af bc 11 2a 2c 3d f4 76 04 3c
       -0.0022677667 -0.021398695 0.042032305 0.008085001
000220 ef 83 4c bb 55 7d c4 3c eb 08 26 3d 93 91 5c 3d
       -0.0031206568 0.023985544 0.04053585 0.053849768
000230 e6 f8 bf 3b 44 c0 b2 3d 87 12 83 3c a3 bf e9 bc
       0.0058585284 0.08728078 0.016000045 -0.028533762
000240 8f f7 3f 3d 72 66 c6 3d 49 32 b0 3c 80 80 d8 3c
       0.04686695 0.09687509 0.021508353 0.026428461
000250 85 f0 8f 3c 39 0c b3 3c a9 7b 3c bc 6a e6 4b bd
       0.017570743 0.021856414 -0.011504092 -0.049780287
000260 92 d8 ea bd 4f 36 7f 3c 56 6b bd 3b 3e 07 ad 3c
       -0.11467089 0.015576913 0.0057806177 0.021121617
000270 cc 6c 3e 3c d7 69 ee bc 2a 2e 81 bd 80 24 9b bd
       0.011622619 -0.029103203 -0.06307633 -0.07575321
000280 f5 30 4c bd d8 87 a0 bd 6a 70 00 3e cd ca a4 bd
       -0.049851377 -0.0783841 0.12542883 -0.08046494
000290 20 59 89 bc 49 bc 69 3c 49 43 b6 3d 04 0d e3 bc
       -0.01676613 0.014266082 0.088995524 -0.027716167
0002a0 17 28 96 3d fb ed 9c 3d 63 0d 4d bd 09 d5 b6 bb
       0.07331865 0.07662579 -0.050061595 -0.005579595
0002b0 ee a0 8d 3d 87 a8 57 3c 2b ca 90 3c 8a 8a 8f 3d
       0.069154605 0.013162739 0.017674526 0.07008846
0002c0 22 4d 28 3c 77 1c 6d 3e c4 03 53 bd 43 e4 84 bd
       0.010272296 0.2315539 -0.051517263 -0.0648885
0002d0 3b 01 25 3c 32 12 9b 3d 25 e6 ab bc 66 e5 be 3d
       0.010071094 0.0757183 -0.020983765 0.09321098
0002e0 60 53 15 3e 1c 6a 50 bd a6 6c ef 3d d6 4e 7d bd
       0.14582586 -0.050882444 0.11690645 -0.061842762
0002f0 c1 79 4d bd 92 8a 19 bc 73 e8 e9 bb 41 d8 bd 3c
       -0.05016494 -0.009371417 -0.007138306 0.023174407
000300 db 32 10 3d 6e 81 c5 bd a4 81 63 3d 45 56 67 3c
       0.03520475 -0.096438274 0.055543557 0.014119689
000310 d0 47 48 3d f2 a2 75 3d 76 04 ea bd a8 3e d0 3a
       0.04889661 0.05996985 -0.11426632 0.0015887814
000320 a2 ed 49 bc 46 18 b9 bc d0 cd 16 bc b1 85 8a 3c
       -0.0123247225 -0.022594582 -0.009204343 0.016909452
000330 52 87 c9 bd 92 2a 08 bd d8 0e d5 bb 7c 1d 2c 3e
       -0.098402634 -0.033243723 -0.0065020137 0.16808122
000340 27 98 a1 3d b7 9a f2 3b b0 89 af bd a9 1e 60 bb
       0.07890349 0.0074036974 -0.08571184 -0.0034197962
000350 de 10 c9 bd 28 62 84 3d 2a db 53 bc b3 e1 48 3c
       -0.0981767 0.06464034 -0.012930671 0.012260842
000360 c0 0a 50 bd 04 58 e0 3d cc b2 e8 3c ef 46 ed bd
       -0.050791502 0.10954288 0.02840557 -0.11585795
000370 bc e4 ba bd 26 8d 16 bd 2e 7b 30 3e e5 3c 32 bd
       -0.09125659 -0.036755703 0.1723449 -0.043515105
000380 57 3a ad 3c af 2c a7 bd 57 ca 9c 3d 7a a9 2f 3d
       0.021145983 -0.081628196 0.07655781 0.042886235
000390 6e 98 41 3d a0 2d 46 3d 9e 45 b2 3d b3 87 51 bc
       0.04726451 0.048383355 0.08704685 -0.012788701
0003a0 e2 18 d5 3c 0b fc 29 3d 15 65 37 bd 23 d4 00 be
       0.026012842 0.041500133 -0.044774134 -0.12580924
0003b0 bc 1f d0 bc da 00 6c 3d 33 c9 65 3c 03 ab e4 b9
       -0.025405757 0.057618 0.01402502 -0.00043614962
0003c0 0b 46 95 3c f3 7c 34 3e 83 a7 6e bb 8f 65 71 bd
       0.018221876 0.1762579 -0.0036415763 -0.058934744
0003d0 e1 74 6f bc 83 96 61 3c bd c7 48 bd 6f 3a 57 bd
       -0.014615268 0.013768795 -0.04901861 -0.05254596
0003e0 84 18 29 bd bd 01 9f bd c7 06 f5 bd 34 1f d7 3b
       -0.041283146 -0.077640034 -0.11964183 0.006564999
0003f0 cc f8 a0 3d 26 0a 5f 3c 0f 60 06 3c ab 5a 5d bd
       0.07859954 0.013613259 0.008201613 -0.054041546

network_body.linear_encoder.seq_layers.2.bias f4 [256]
000000 00 00 00 00 00 00 00 00 00 00 00 00 00 00 00 00
       0.0 0.0 0.0 0.0
000010 00 00 00 00 00 00 00 00 00 00 00 00 00 00 00 00
       0.0 0.0 0.0 0.0
000020 00 00 00 00 00 00 00 00 00 00 00 00 00 00 00 00
       0.0 0.0 0.0 0.0
000030 00 00 00 00 00 00 00 00 00 00 00 00 00 00 00 00
       0.0 0.0 0.0 0.0
000040 00 00 00 00 00 00 00 00 00 00 00 00 00 00 00 00
       0.0 0.0 0.0 0.0
000050 00 00 00 00 00 00 00 00 00 00 00 00 00 00 00 00
       0.0 0.0 0.0 0.0
000060 00 00 00 00 00 00 00 00 00 00 00 00 00 00 00 00
       0.0 0.0 0.0 0.0
000070 00 00 00 00 00 00 00 00 00 00 00 00 00 00 00 00
       0.0 0.0 0.0 0.0
000080 00 00 00 00 00 00 00 00 00 00 00 00 00 00 00 00
       0.0 0.0 0.0 0.0
000090 00 00 00 00 00 00 00 00 00 00 00 00 00 00 00 00
       0.0 0.0 0.0 0.0
0000a0 00 00 00 00 00 00 00 00 00 00 00 00 00 00 00 00
       0.0 0.0 0.0 0.0
0000b0 00 00 00 00 00 00 00 00 00 00 00 00 00 00 00 00
       0.0 0.0 0.0 0.0
0000c0 00 00 00 00 00 00 00 00 00 00 00 00 00 00 00 00
       0.0 0.0 0.0 0.0
0000d0 00 00 00 00 00 00 00 00 00 00 00 00 00 00 00 00
       0.0 0.0 0.0 0.0
0000e0 00 00 00 00 00 00 00 00 00 00 00 00 00 00 00 00
       0.0 0.0 0.0 0.0
0000f0 00 00 00 00 00 00 00 00 00 00 00 00 00 00 00 00
       0.0 0.0 0.0 0.0
000100 00 00 00 00 00 00 00 00 00 00 00 00 00 00 00 00
       0.0 0.0 0.0 0.0
000110 00 00 00 00 00 00 00 00 00 00 00 00 00 00 00 00
       0.0 0.0 0.0 0.0
000120 00 00 00 00 00 00 00 00 00 00 00 00 00 00 00 00
       0.0 0.0 0.0 0.0
000130 00 00 00 00 00 00 00 00 00 00 00 00 00 00 00 00
       0.0 0.0 0.0 0.0
000140 00 00 00 00 00 00 00 00 00 00 00 00 00 00 00 00
       0.0 0.0 0.0 0.0
000150 00 00 00 00 00 00 00 00 00 00 00 00 00 00 00 00
       0.0 0.0 0.0 0.0
000160 00 00 00 00 00 00 00 00 00 00 00 00 00 00 00 00
       0.0 0.0 0.0 0.0
000170 00 00 00 00 00 00 00 00 00 00 00 00 00 00 00 00
       0.0 0.0 0.0 0.0
000180 00 00 00 00 00 00 00 00 00 00 00 00 00 00 00 00
       0.0 0.0 0.0 0.0
000190 00 00 00 00 00 00 00 00 00 00 00 00 00 00 00 00
       0.0 0.0 0.0 0.0
0001a0 00 00 00 00 00 00 00 00 00 00 00 00 00 00 00 00
       0.0 0.0 0.0 0.0
0001b0 00 00 00 00 00 00 00 00 00 00 00 00 00 00 00 00
       0.0 0.0 0.0 0.0
0001c0 00 00 00 00 00 00 00 00 00 00 00 00 00 00 00 00
       0.0 0.0 0.0 0.0
0001d0 00 00 00 00 00 00 00 00 00 00 00 00 00 00 00 00
       0.0 0.0 0.0 0.0
0001e0 00 00 00 00 00 00 00 00 00 00 00 00 00 00 00 00
       0.0 0.0 0.0 0.0
0001f0 00 00 00 00 00 00 00 00 00 00 00 00 00 00 00 00
       0.0 0.0 0.0 0.0
000200 00 00 00 00 00 00 00 00 00 00 00 00 00 00 00 00
       0.0 0.0 0.0 0.0
000210 00 00 00 00 00 00 00 00 00 00 00 00 00 00 00 00
       0.0 0.0 0.0 0.0
000220 00 00 00 00 00 00 00 00 00 00 00 00 00 00 00 00
       0.0 0.0 0.0 0.0
000230 00 00 00 00 00 00 00 00 00 00 00 00 00 00 00 00
       0.0 0.0 0.0 0.0
000240 00 00 00 00 00 00 00 00 00 00 00 00 00 00 00 00
       0.0 0.0 0.0 0.0
000250 00 00 00 00 00 00 00 00 00 00 00 00 00 00 00 00
       0.0 0.0 0.0 0.0
000260 00 00 00 00 00 00 00 00 00 00 00 00 00 00 00 00
       0.0 0.0 0.0 0.0
000270 00 00 00 00 00 00 00 00 00 00 00 00 00 00 00 00
       0.0 0.0 0.0 0.0
000280 00 00 00 00 00 00 00 00 00 00 00 00 00 00 00 00
       0.0 0.0 0.0 0.0
000290 00 00 00 00 00 00 00 00 00 00 00 00 00 00 00 00
       0.0 0.0 0.0 0.0
0002a0 00 00 00 00 00 00 00 00 00 00 00 00 00 00 00 00
       0.0 0.0 0.0 0.0
0002b0 00 00 00 00 00 00 00 00 00 00 00 00 00 00 00 00
       0.0 0.0 0.0 0.0
0002c0 00 00 00 00 00 00 00 00 00 00 00 00 00 00 00 00
       0.0 0.0 0.0 0.0
0002d0 00 00 00 00 00 00 00 00 00 00 00 00 00 00 00 00
       0.0 0.0 0.0 0.0
0002e0 00 00 00 00 00 00 00 00 00 00 00 00 00 00 00 00
       0.0 0.0 0.0 0.0
0002f0 00 00 00 00 00 00 00 00 00 00 00 00 00 00 00 00
       0.0 0.0 0.0 0.0
000300 00 00 00 00 00 00 00 00 00 00 00 00 00 00 00 00
       0.0 0.0 0.0 0.0
000310 00 00 00 00 00 00 00 00 00 00 00 00 00 00 00 00
       0.0 0.0 0.0 0.0
000320 00 00 00 00 00 00 00 00 00 00 00 00 00 00 00 00
       0.0 0.0 0.0 0.0
000330 00 00 00 00 00 00 00 00 00 00 00 00 00 00 00 00
       0.0 0.0 0.0 0.0
000340 00 00 00 00 00 00 00 00 00 00 00 00 00 00 00 00
       0.0 0.0 0.0 0.0
000350 00 00 00 00 00 00 00 00 00 00 00 00 00 00 00 00
       0.0 0.0 0.0 0.0
000360 00 00 00 00 00 00 00 00 00 00 00 00 00 00 00 00
       0.0 0.0 0.0 0.0
000370 00 00 00 00 00 00 00 00 00 00 00 00 00 00 00 00
       0.0 0.0 0.0 0.0
000380 00 00 00 00 00 00 00 00 00 00 00 00 00 00 00 00
       0.0 0.0 0.0 0.0
000390 00 00 00 00 00 00 00 00 00 00 00 00 00 00 00 00
       0.0 0.0 0.0 0.0
0003a0 00 00 00 00 00 00 00 00 00 00 00 00 00 00 00 00
       0.0 0.0 0.0 0.0
0003b0 00 00 00 00 00 00 00 00 00 00 00 00 00 00 00 00
       0.0 0.0 0.0 0.0
0003c0 00 00 00 00 00 00 00 00 00 00 00 00 00 00 00 00
       0.0 0.0 0.0 0.0
0003d0 00 00 00 00 00 00 00 00 00 00 00 00 00 00 00 00
       0.0 0.0 0.0 0.0
0003e0 00 00 00 00 00 00 00 00 00 00 00 00 00 00 00 00
       0.0 0.0 0.0 0.0
0003f0 00 00 00 00 00 00 00 00 00 00 00 00 00 00 00 00
       0.0 0.0 0.0 0.0

action_model._continuous_distribution.log_sigma f4 [1, 5]
000000 00 00 00 00 00 00 00 00 00 00 00 00 00 00 00 00
       0.0 0.0 0.0 0.0
000010 00 00 00 00
       0.0

action_model._continuous_distribution.mu.weight f4 [5, 256]
000000 6b fe 9c b9 eb 26 fc bb ab 32 5a bc ab 9c 0d bc
       -0.00029944195 -0.007695069 -0.013317744 -0.00864331
000010 b7 ba 4e 38 2f 24 1b 3c c5 26 db bb 03 9e fb 3b
       4.928812e-05 0.009469076 -0.0066879713 0.0076787486
000020 09 04 92 bb 9a 7b f3 bb c0 3a dc ba 89 bf 20 bc
       -0.0044560474 -0.007430506 -0.0016802177 -0.009811291
000030 d7 67 62 bc 2f 9f 3d 39 f3 6d 04 3c bd d6 06 bc
       -0.013818703 0.00018083745 0.008082855 -0.0082299085
000040 1b 27 cc 3a e5 6f ae 3a 2a c6 6e bc cf c4 1a 3b
       0.0015575619 0.0013308494 -0.014573613 0.0023615842
000050 bf a4 43 3b 85 ed e9 bb 0c 4b 32 bb d3 31 51 bc
       0.0029852835 -0.0071389102 -0.0027205376 -0.012768227
000060 9d 24 eb 3b 5e 06 88 bc 82 fe 7d 3b 69 37 95 bc
       0.0071759955 -0.016604599 0.0038756435 -0.018214898
000070 83 2f 9f 3c 73 9a fe bb 73 51 62 bc 6c 54 0f 3c
       0.019431835 -0.0077698766 -0.013813364 0.008748155
000080 af 44 89 bc 0d a3 68 3c 80 7f a8 bb 2f e0 a8 bb
       -0.016756384 0.014199031 -0.0051421523 -0.005153678
000090 8c 94 00 bc ad cd 67 bc bf 78 c5 3b 50 c8 2a 3c
       -0.007847916 -0.014148158 0.006026357 0.010423735
0000a0 87 43 ad bc 13 f0 f5 3c 6f 37 a3 bb 49 a7 8e bc
       -0.021150364 0.030021703 -0.0049809734 -0.017413752
0000b0 65 28 f0 bb 3f 86 33 bc 82 42 6d bb 05 01 67 39
       -0.007329034 -0.0109573 -0.0036202972 0.00022030257
0000c0 b7 9a f6 bb e7 96 91 bc bf 75 16 3c 1b 48 4d bc
       -0.0075257677 -0.017772151 0.009183346 -0.012529398
0000d0 07 30 68 3c a9 f5 c0 bb ca d0 47 3b 88 31 87 bb
       0.014171607 -0.00588866 0.0030489438 -0.0041257776
0000e0 93 60 81 bc b8 6b e8 ba d4 ee bd bc bd f6 0c 3c
       -0.01579312 -0.0017732298 -0.023185171 0.008603749
0000f0 26 d9 b1 ba cf e5 ad 3c 40 d0 5c bb 72 e7 84 bc
       -0.0013568744 0.021227745 -0.0033693463 -0.016223643
000100 c0 fd 5e bc 55 1e fb bb 15 f7 39 bb 33 df f9 bc
       -0.013610303 -0.007663528 -0.0028376032 -0.030501937
000110 f7 51 0d 3c e5 d5 9d bc be 78 a4 bc 78 8f 3f bc
       0.008625499 -0.019267032 -0.020077106 -0.01169192
000120 c7 a1 45 3b 2b 6d b8 bb 6f ee 7b 3c b8 e6 5a 3c
       0.0030156241 -0.005628248 0.015376671 0.013360672
000130 4e ff 20 bc 10 72 67 3b eb dd e1 3b 9e 52 b0 3c
       -0.009826494 0.003531579 0.0068929098 0.02152377
000140 ed 2c e9 3b 93 c9 32 3c ac ac 3d 3c 1f a5 9b bc
       0.0071159513 0.010912317 0.011576813 -0.018999634
000150 2d b4 2d bc 53 31 90 b9 b2 74 66 3c 96 16 3f 3c
       -0.010602039 -0.0002750257 0.014065908 0.0116631
000160 2b ca c1 3c c3 e5 70 bb b0 30 37 bb cb 89 9b 3c
       0.023655972 -0.0036758042 -0.0027952604 0.018986603
000170 d9 3c 03 3c c2 63 03 3c 0f c5 64 3a 5f 5d 5f bb
       0.008010113 0.00801939 0.0008726874 -0.0034082753
000180 9d 11 2b 3c 72 91 b6 bb e1 a9 11 ba ca 7a e9 bc
       0.010441211 -0.0055715377 -0.0005556625 -0.028500933
000190 a8 c5 5a bb 57 69 45 bc 1e da 9a b9 c0 32 06 3b
       -0.0033381972 -0.012049041 -0.0002953568 0.0020477027
0001a0 6f 41 b2 3c 21 a4 01 3c f8 2a 46 bc db fc 9c bb
       0.021759717 0.007912667 -0.0120952055 -0.004790885
0001b0 4d d7 3b bb e7 be 07 bc 96 51 a1 3c 07 6f e3 3c
       -0.0028662265 -0.008285261 0.019692224 0.027762903
0001c0 97 e9 e3 ba c9 26 c0 3b fb 9e d7 bb eb 7a 1d b9
       -0.0017388341 0.0058639986 -0.0065802312 -0.00015018477
0001d0 7e 81 c9 bb 4a 6e 36 3b 08 a1 e1 bc be d7 8b bc
       -0.00614947 0.0027836733 -0.027542606 -0.017070647
0001e0 02 db fc bb 27 f7 6e bc 4d ea db 3b af 80 a8 bc
       -0.0077165375 -0.014585293 0.0067112804 -0.020569174
0001f0 57 79 61 3b 97 c6 bd 38 e5 a4 58 bb 12 11 d3 bc
       0.00344046 9.0492125e-05 -0.003305727 -0.025764976
000200 23 48 46 39 d4 09 31 3c 23 a9 01 bb 72 4d a5 bb
       0.00018909624 0.010805566 -0.0019784651 -0.0050446326
000210 2f 17 58 3c 37 df 0c bc c3 08 e2 3c 4b 53 a2 bc
       0.013189121 -0.00859814 0.027592069 -0.019815108
000220 bb a2 42 bc 21 3e 4c 3c 42 47 97 3c 58 30 6d b9
       -0.011879618 0.012465985 0.018466596 -0.00022620091
000230 5d ea 65 ba be d7 92 3c 65 d2 ed 3b 13 e3 bb 3a
       -0.00087705796 0.01792514 0.007257747 0.0014334641
000240 3b 42 24 bc 44 05 3f 3b 3c b8 89 bb 6e cb 0e 3b
       -0.010025556 0.0029147426 -0.0042028707 0.0021788734
000250 b0 28 0f 3b ba bb 4c 3c 43 c0 d1 3b 6d 34 b8 3b
       0.002184432 0.012495929 0.006401093 0.005621484
000260 cb 12 f9 3b c2 9f 5e bc 4d 01 4d 3c 64 57 93 3c
       0.0076011172 -0.013587894 0.012512517 0.017986007
000270 07 c6 09 3c 05 4c 86 bc 4a 68 fc bb 31 69 05 3c
       0.00840903 -0.01639367 -0.007702862 0.008142755
000280 a3 07 83 3c e8 4e fe 3a 1f 9b 21 3a f3 71 91 3c
       0.015994852 0.0019402178 0.00061647774 0.01775453
000290 ab db 94 3b 6f a8 06 3c f2 88 59 bc 4d ed 33 3c
       0.004542788 0.008218869 -0.013277279 0.01098187
0002a0 b3 d7 96 3c 45 1e 52 bb 4f 8e d5 3b d0 b3 e0 bb
       0.0184134 -0.00320615 0.0065172086 -0.006857373
0002b0 45 38 ff 3b 36 cb 35 bc 20 4f f8 bb 2a 99 cc bb
       0.0077886903 -0.011095813 -0.007577792 -0.0062438445
0002c0 98 4d c6 3c e6 d1 b5 3c 39 1f 91 bc 7e 8a 31 3c
       0.024206921 0.022194814 -0.017715083 0.010836242
0002d0 ea a6 e1 3a d7 9f cf 3a 08 ea a0 bc db e8 d5 bb
       0.0017215882 0.0015840483 -0.019642845 -0.0065280027
0002e0 4f e5 d7 bb 5f 53 f6 3b fa 49 aa 3b 77 c4 24 ba
       -0.006588615 0.007517263 0.005196807 -0.0006285379
0002f0 7f 6a ae 3b 73 2a 72 bb 67 4b a6 3b 21 8e 3c bc
       0.005322754 -0.0036951571 0.0050749066 -0.011508496
000300 8c 5d 23 3b 3b 3a 31 3c cc 78 a5 ba 8f 09 71 3c
       0.0024927584 0.010817106 -0.0012624501 0.014711752
000310 19 a3 0b 3c ad 7f 78 3c ba bd 90 bc 4c e3 8f bb
       0.008522772 0.015167159 -0.017668594 -0.0043911096
000320 0f 0a 38 bc 6b 4c 53 ba 2e 09 32 3c ab 55 79 bc
       -0.011232867 -0.00080603984 0.010866446 -0.015218179
000330 3c 82 18 3c 50 46 2e 3a 17 a8 71 bc 1b b7 a1 3b
       0.009308394 0.00066480506 -0.014749548 0.004935158
000340 e7 74 ed 36 f1 91 30 3a 20 c4 dd 3c 91 4d 15 3c
       7.0767596e-06 0.0006735614 0.027071059 0.009112732
000350 28 91 0c 3c ab e1 97 bc d7 39 25 bc 6f 17 a1 3c
       0.00857953 -0.018540224 -0.010084591 0.019664494
000360 ff 5c ca 3b 29 c9 1e 3d 3b fa a9 3b 5d 5e 92 3b
       0.006175637 0.03876606 0.0051873005 0.0044668154
000370 52 7a f9 bb eb 1e 45 3b 47 dd 66 bc 8d 51 8a bc
       -0.0076134587 0.0030078243 -0.014090843 -0.01688459
000380 70 e2 f4 bc 4b 2a 5c bc 82 5b f0 ba 70 60 05 bb
       -0.02989313 -0.013437818 -0.0018337818 -0.002035167
000390 0a f0 91 3c 8a 3f 5c b9 85 da 52 3b d7 60 12 bc
       0.017814655 -0.00021004505 0.0032173705 -0.008934221
0003a0 b7 25 0f 38 45 cc ef 3c 78 47 f8 3a d2 7d 42 bc
       3.412898e-05 0.029272208 0.0018942198 -0.011870818
0003b0 a2 71 dc bc 65 d9 5e bc 10 e0 15 bc 2a ab 7a 3a
       -0.026909653 -0.013601636 -0.009147659 0.00095622486
0003c0 e3 31 71 bc 4f 72 d3 bb 1d ad a6 3a 30 1a 0c 3b
       -0.014721367 -0.0064528356 0.0012716387 0.0021377914
0003d0 12 13 db bc e3 22 a4 bc dd 42 ff bb 44 0c bb 3c
       -0.026742492 -0.020036167 -0.007789953 0.022832997
0003e0 1b 7f e8 3a 28 9e 64 3a 9b 10 bd bc 57 6c 08 3d
       0.0017738076 0.0008721077 -0.023079207 0.033306446
0003f0 50 1e ba bb a7 11 90 bc 1a 1f 50 bc e9 6b 9c 3a
       -0.005679883 -0.017586542 -0.012702728 0.0011934015

action_model._continuous_distribution.mu.bias f4 [5]
000000 00 00 00 00 00 00 00 00 00 00 00 00 00 00 00 00
       0.0 0.0 0.0 0.0
000010 00 00 00 00
       0.0

network_body.linear_encoder.seq_layers.0.weight f4 [256, 24]
000000 9f 8b 79 3e 7e 7a 64 3e d8 aa a1 3e 6d 01 a9 3d
       0.24369667 0.22312352 0.31575656 0.08252225
000010 22 5f 55 be c9 4d c4 3e c1 4d c3 3e a4 af 6e be
       -0.20837072 0.38340595 0.3814526 -0.23309189
000020 bd 14 c0 bd 79 83 f1 3e e8 9b 1b 3f fa f4 fe bc
       -0.093789555 0.47170618 0.6078477 -0.031122673
000030 fe f3 72 3e 71 85 7a 3d ca 2b 97 be 48 27 86 be
       0.23725888 0.061162416 -0.29525596 -0.26201844
000040 f1 1e 61 3d 65 80 47 3e 0c 2c cc bd 76 19 c7 3c
       0.05496115 0.19482572 -0.09969339 0.024304133
000050 c2 22 b3 3e ee 04 9e bd c0 5a ca 3e c9 e6 11 3e
       0.34987456 -0.07715784 0.39522362 0.14248194
000060 17 8b b5 3c 4e 59 95 3e 51 de 72 be 4a 30 1d 3d
       0.02216105 0.29169697 -0.2371762 0.03837613
000070 45 55 91 bd 2c fc 83 bc 99 15 2e be 2a 44 02 bf
       -0.07096342 -0.016111456 -0.17000426 -0.5088526
000080 6e f3 e0 bd 0a cb 7f bc f7 6f b7 3d 76 2a ea 3d
       -0.109839305 -0.015612373 0.089569025 0.1143388
000090 94 72 e2 3d bd b2 13 3f 2d 46 5c 3e ed d3 e8 3d
       0.1105701 0.5769461 0.21511145 0.11368547
0000a0 d6 f2 39 3c 91 d7 03 bd 9c d4 a7 3e 30 ac 75 3d
       0.0113494005 -0.032188002 0.32779396 0.059978664
0000b0 b6 9d 92 3e d4 45 0f be 3a cb 98 bd 82 77 20 be
       0.2863595 -0.13991481 -0.074606374 -0.15670589
0000c0 5f 91 c6 3d 0e d6 0f 3e 3a 70 c2 3e 71 ee ba 3d
       0.09695696 0.14046499 0.37976247 0.0912751
0000d0 f2 3c d3 3d b1 39 98 be ab 7b 26 3e 8e 4e 27 3e
       0.10314359 -0.29731515 0.16258113 0.1633856
0000e0 44 5e 0d be e9 0c 64 bb a5 04 21 3e 10 69 56 be
       -0.1380549 -0.0034797734 0.15724428 -0.20938516
0000f0 f6 23 4f be d9 bd 84 3e 26 d4 c9 3d 52 fe 50 be
       -0.20228562 0.25926092 0.09854917 -0.20409516
000100 50 17 cc bd 8a 4a 84 3d 41 73 9d 3e 58 c8 6e bd
       -0.09965384 0.0645953 0.30751994 -0.05829653
000110 16 a1 f8 bc 7e 8f 12 bf 32 5c 80 3d 5c 50 a3 3d
       -0.03035025 -0.572502 0.06267585 0.07974312
000120 1e 05 c6 3d a7 02 82 3e ef 89 21 3e a6 87 98 bb
       0.09668945 0.2539265 0.15775274 -0.0046548424
000130 fd 36 3c be 5c fd de bd 43 4e 05 3e e4 35 98 be
       -0.18380351 -0.10888168 0.13018136 -0.29728615
000140 d6 2c 04 3f 72 18 2f 3e 3d 16 cf be 25 de 19 3f
       0.51630914 0.17099169 -0.40446654 0.6010459
000150 ab 46 a9 3e 99 6a 2d 3e 66 cd ee 3e 10 f2 09 be
       0.33061728 0.16935195 0.46641082 -0.13471246
000160 15 fd 97 bc b6 5c 14 be c9 6b 49 be e2 77 b2 3d
       -0.018553296 -0.14488491 -0.19670023 0.08714272
000170 5c 83 56 3c 02 b9 8a 3d 73 97 8a be a2 23 01 be
       0.013092842 0.06773569 -0.27068672 -0.12611249
000180 af 6c 9a 3e 22 d1 ab 3d b3 83 e8 bd 1c 17 4d 3e
       0.30161044 0.08389498 -0.11353245 0.20028347
000190 96 88 1a 3d b4 cb 1c bf ac 13 5e 3e 2d a6 1d 3e
       0.037727915 -0.61248326 0.21687192 0.15395422
0001a0 2c 45 1d 3c 55 a3 df bd 03 25 83 bd 97 00 bb be
       0.009599011 -0.10919825 -0.06403544 -0.36523888
0001b0 a5 f2 88 3d 2e 5f 8c be 8d a1 96 bd 68 75 e1 bd
       0.06686906 -0.27416366 -0.07355032 -0.110087216
0001c0 06 ac 00 3f 72 f7 1b 3e 18 65 2a 3c 77 cd 1e 3e
       0.50262487 0.15231112 0.010400079 0.15508066
0001d0 0c 9c 2e 3d 73 b4 1f be 4d f7 22 3e 68 10 96 be
       0.042629287 -0.1559618 0.1591465 -0.29309392
0001e0 73 30 74 be 84 06 c6 3d cf 66 22 3e a4 9d 85 be
       -0.23846607 0.096692115 0.15859531 -0.26096833
0001f0 48 f2 79 3e e9 08 30 be 39 f1 4b 3d 04 f4 23 bd
       0.24408829 -0.17190899 0.049790595 -0.040027633
000200 5c 11 aa 3d d5 05 9a be 07 e4 a5 be 73 89 26 3d
       0.08304092 -0.30082574 -0.32400534 0.040658426
000210 8c 2b 29 bd f7 94 de bc eb 11 62 be 5d c2 5e 3e
       -0.041301295 -0.027170641 -0.22077148 0.21753831
000220 21 86 42 be f2 8d ac 3e 18 6a 04 3d 80 f9 d6 bd
       -0.18996479 0.33702046 0.03232774 -0.10496807
000230 70 14 12 3e b8 01 77 3e 27 ca 48 bd b5 bb f8 bd
       0.14265609 0.2412175 -0.049020912 -0.12145177
000240 ec d2 0a bf e6 50 51 be 10 c7 9c be 08 71 31 3e
       -0.5422809 -0.20441017 -0.30620623 0.17328274
000250 70 cf 1e 3e 55 6f 31 3e c3 54 66 3e 96 76 b2 3e
       0.15508819 0.17327626 0.22493272 0.348561
000260 b9 40 45 be 60 e2 4b 3c e7 6c 93 3e 63 58 3b be
       -0.19262971 0.012444109 0.28794023 -0.18295436
000270 59 ac ea be ae 24 30 3e c6 c6 a1 3d 71 8b 0f 3e
       -0.45834616 0.17201492 0.07899241 0.14018036
000280 a0 16 be be 0a f1 d0 3d 7d 52 e1 be e3 65 05 be
       -0.37126637 0.102022246 -0.44008246 -0.13027148
000290 17 f2 1c 3e f2 08 b4 bd 99 cd 8d be 55 64 74 bc
       0.15326725 -0.08790769 -0.2769592 -0.014916499
0002a0 20 9f 40 3d 6e e0 cf 3b f9 23 92 bd e4 d8 a4 bd
       0.047026753 0.006343893 -0.071357675 -0.08049181
0002b0 bb fe 43 bc 0c 7a 03 be 52 53 cc bd 28 d7 bf 3d
       -0.011962588 -0.12839526 -0.099768296 0.0936721
0002c0 f4 87 be bc f6 ae 00 bf 77 f9 6d be a3 92 3d 3b
       -0.023258187 -0.5026697 -0.23239695 0.0028926514
0002d0 3c 3a 8a 3d 4a 0a a7 3e 50 b8 f3 bd f2 00 9c 3d
       0.067493886 0.32625037 -0.11900389 0.07617368
0002e0 42 2e 5b be 94 fd 4c 3e 47 71 43 3e 14 77 49 bc
       -0.21404365 0.20018607 0.1908618 -0.012296457
0002f0 96 a4 8e 3d aa b3 46 3d 12 f6 d5 bd 1b 7e cf 3e
       0.06964986 0.048511185 -0.10447325 0.40525898
000300 3e 19 1e bd 9c 3b 77 3e 5a 01 14 be cb 0f 12 be
       -0.03859829 0.24143833 -0.1445364 -0.14263837
000310 98 63 59 3c e4 82 46 be 89 1d 4c 3e 5b 07 db bd
       0.013268374 -0.19385868 0.19933142 -0.10694762
000320 4c fc cd 3d 6c d4 37 bd b2 82 5e be 57 32 07 3f
       0.100578874 -0.044880316 -0.21729544 0.5281119
000330 83 48 8d be 8e c7 52 3e d3 ee c7 3e 3a 60 21 3e
       -0.27594385 0.20583937 0.39049396 0.15759364
000340 ef 8e b4 be e3 da 36 3e 8d be 5f bd 63 63 4d 3e
       -0.352653 0.17856936 -0.054625083 0.20057444
000350 3c f9 f7 3e c4 2e d6 3d 29 23 29 be 5f c2 86 3d
       0.48432338 0.104581386 -0.16517319 0.06580042
000360 f5 1b 54 be b4 6b 7e be 87 98 fc 3d c6 e4 3b bd
       -0.2071379 -0.24845773 0.1233378 -0.045872472
000370 84 2a 17 3e b3 b7 c8 bd b3 1f 7a be f2 47 5c 3d
       0.14762312 -0.09800663 -0.24426155 0.05377955
000380 68 96 65 3d bd 7d b0 3d 00 ca 24 bb 4e a1 7a be
       0.05605164 0.08617733 -0.0025144815 -0.24475595
000390 58 8b 27 bd 23 17 36 3e 96 5a 50 be 0e 50 52 be
       -0.040904373 0.17782263 -0.20347056 -0.20538351
0003a0 c6 b5 2d 3e 18 79 d1 3c 27 ec dd 3e 9e c8 f1 3e
       0.16963872 0.025570437 0.43344232 0.4722337
0003b0 24 19 bb 3e d4 01 84 3d 71 08 c7 bc 87 ea f6 3d
       0.36542618 0.06445661 -0.024296017 0.12056451
0003c0 39 b2 31 3d 05 ac 09 be ce 7f 8e 3e 4c 99 30 3d
       0.043382857 -0.13444526 0.27831882 0.043114945
0003d0 ef 83 34 3e 46 8d 96 bd 13 08 f5 3c 65 87 27 be
       0.17628454 -0.073511645 0.029911077 -0.16360243
0003e0 95 a8 74 3e f2 e1 0c be b5 d4 c1 3e 5f 0f 62 be
       0.23892434 -0.13758066 0.37857595 -0.22076176
0003f0 60 57 13 be 04 27 c5 3e 44 e4 f5 bd 96 67 41 3d
       -0.143888 0.3850633 -0.12006429 0.047217928

network_body.linear_encoder.seq_layers.0.bias f4 [256]
000000 00 00 00 00 00 00 00 00 00 00 00 00 00 00 00 00
       0.0 0.0 0.0 0.0
000010 00 00 00 00 00 00 00 00 00 00 00 00 00 00 00 00
       0.0 0.0 0.0 0.0
000020 00 00 00 00 00 00 00 00 00 00 00 00 00 00 00 00
       0.0 0.0 0.0 0.0
000030 00 00 00 00 00 00 00 00 00 00 00 00 00 00 00 00
       0.0 0.0 0.0 0.0
000040 00 00 00 00 00 00 00 00 00 00 00 00 00 00 00 00
       0.0 0.0 0.0 0.0
000050 00 00 00 00 00 00 00 00 00 00 00 00 00 00 00 00
       0.0 0.0 0.0 0.0
000060 00 00 00 00 00 00 00 00 00 00 00 00 00 00 00 00
       0.0 0.0 0.0 0.0
000070 00 00 00 00 00 00 00 00 00 00 00 00 00 00 00 00
       0.0 0.0 0.0 0.0
000080 00 00 00 00 00 00 00 00 00 00 00 00 00 00 00 00
       0.0 0.0 0.0 0.0
000090 00 00 00 00 00 00 00 00 00 00 00 00 00 00 00 00
       0.0 0.0 0.0 0.0
0000a0 00 00 00 00 00 00 00 00 00 00 00 00 00 00 00 00
       0.0 0.0 0.0 0.0
0000b0 00 00 00 00 00 00 00 00 00 00 00 00 00 00 00 00
       0.0 0.0 0.0 0.0
0000c0 00 00 00 00 00 00 00 00 00 00 00 00 00 00 00 00
       0.0 0.0 0.0 0.0
0000d0 00 00 00 00 00 00 00 00 00 00 00 00 00 00 00 00
       0.0 0.0 0.0 0.0
0000e0 00 00 00 00 00 00 00 00 00 00 00 00 00 00 00 00
       0.0 0.0 0.0 0.0
0000f0 00 00 00 00 00 00 00 00 00 00 00 00 00 00 00 00
       0.0 0.0 0.0 0.0
000100 00 00 00 00 00 00 00 00 00 00 00 00 00 00 00 00
       0.0 0.0 0.0 0.0
000110 00 00 00 00 00 00 00 00 00 00 00 00 00 00 00 00
       0.0 0.0 0.0 0.0
000120 00 00 00 00 00 00 00 00 00 00 00 00 00 00 00 00
       0.0 0.0 0.0 0.0
000130 00 00 00 00 00 00 00 00 00 00 00 00 00 00 00 00
       0.0 0.0 0.0 0.0
000140 00 00 00 00 00 00 00 00 00 00 00 00 00 00 00 00
       0.0 0.0 0.0 0.0
000150 00 00 00 00 00 00 00 00 00 00 00 00 00 00 00 00
       0.0 0.0 0.0 0.0
000160 00 00 00 00 00 00 00 00 00 00 00 00 00 00 00 00
       0.0 0.0 0.0 0.0
000170 00 00 00 00 00 00 00 00 00 00 00 00 00 00 00 00
       0.0 0.0 0.0 0.0
000180 00 00 00 00 00 00 00 00 00 00 00 00 00 00 00 00
       0.0 0.0 0.0 0.0
000190 00 00 00 00 00 00 00 00 00 00 00 00 00 00 00 00
       0.0 0.0 0.0 0.0
0001a0 00 00 00 00 00 00 00 00 00 00 00 00 00 00 00 00
       0.0 0.0 0.0 0.0
0001b0 00 00 00 00 00 00 00 00 00 00 00 00 00 00 00 00
       0.0 0.0 0.0 0.0
0001c0 00 00 00 00 00 00 00 00 00 00 00 00 00 00 00 00
       0.0 0.0 0.0 0.0
0001d0 00 00 00 00 00 00 00 00 00 00 00 00 00 00 00 00
       0.0 0.0 0.0 0.0
0001e0 00 00 00 00 00 00 00 00 00 00 00 00 00 00 00 00
       0.0 0.0 0.0 0.0
0001f0 00 00 00 00 00 00 00 00 00 00 00 00 00 00 00 00
       0.0 0.0 0.0 0.0
000200 00 00 00 00 00 00 00 00 00 00 00 00 00 00 00 00
       0.0 0.0 0.0 0.0
000210 00 00 00 00 00 00 00 00 00 00 00 00 00 00 00 00
       0.0 0.0 0.0 0.0
000220 00 00 00 00 00 00 00 00 00 00 00 00 00 00 00 00
       0.0 0.0 0.0 0.0
000230 00 00 00 00 00 00 00 00 00 00 00 00 00 00 00 00
       0.0 0.0 0.0 0.0
000240 00 00 00 00 00 00 00 00 00 00 00 00 00 00 00 00
       0.0 0.0 0.0 0.0
000250 00 00 00 00 00 00 00 00 00 00 00 00 00 00 00 00
       0.0 0.0 0.0 0.0
000260 00 00 00 00 00 00 00 00 00 00 00 00 00 00 00 00
       0.0 0.0 0.0 0.0
000270 00 00 00 00 00 00 00 00 00 00 00 00 00 00 00 00
       0.0 0.0 0.0 0.0
000280 00 00 00 00 00 00 00 00 00 00 00 00 00 00 00 00
       0.0 0.0 0.0 0.0
000290 00 00 00 00 00 00 00 00 00 00 00 00 00 00 00 00
       0.0 0.0 0.0 0.0
0002a0 00 00 00 00 00 00 00 00 00 00 00 00 00 00 00 00
       0.0 0.0 0.0 0.0
0002b0 00 00 00 00 00 00 00 00 00 00 00 00 00 00 00 00
       0.0 0.0 0.0 0.0
0002c0 00 00 00 00 00 00 00 00 00 00 00 00 00 00 00 00
       0.0 0.0 0.0 0.0
0002d0 00 00 00 00 00 00 00 00 00 00 00 00 00 00 00 00
       0.0 0.0 0.0 0.0
0002e0 00 00 00 00 00 00 00 00 00 00 00 00 00 00 00 00
       0.0 0.0 0.0 0.0
0002f0 00 00 00 00 00 00 00 00 00 00 00 00 00 00 00 00
       0.0 0.0 0.0 0.0
000300 00 00 00 00 00 00 00 00 00 00 00 00 00 00 00 00
       0.0 0.0 0.0 0.0
000310 00 00 00 00 00 00 00 00 00 00 00 00 00 00 00 00
       0.0 0.0 0.0 0.0
000320 00 00 00 00 00 00 00 00 00 00 00 00 00 00 00 00
       0.0 0.0 0.0 0.0
000330 00 00 00 00 00 00 00 00 00 00 00 00 00 00 00 00
       0.0 0.0 0.0 0.0
000340 00 00 00 00 00 00 00 00 00 00 00 00 00 00 00 00
       0.0 0.0 0.0 0.0
000350 00 00 00 00 00 00 00 00 00 00 00 00 00 00 00 00
       0.0 0.0 0.0 0.0
000360 00 00 00 00 00 00 00 00 00 00 00 00 00 00 00 00
       0.0 0.0 0.0 0.0
000370 00 00 00 00 00 00 00 00 00 00 00 00 00 00 00 00
       0.0 0.0 0.0 0.0
000380 00 00 00 00 00 00 00 00 00 00 00 00 00 00 00 00
       0.0 0.0 0.0 0.0
000390 00 00 00 00 00 00 00 00 00 00 00 00 00 00 00 00
       0.0 0.0 0.0 0.0
0003a0 00 00 00 00 00 00 00 00 00 00 00 00 00 00 00 00
       0.0 0.0 0.0 0.0
0003b0 00 00 00 00 00 00 00 00 00 00 00 00 00 00 00 00
       0.0 0.0 0.0 0.0
0003c0 00 00 00 00 00 00 00 00 00 00 00 00 00 00 00 00
       0.0 0.0 0.0 0.0
0003d0 00 00 00 00 00 00 00 00 00 00 00 00 00 00 00 00
       0.0 0.0 0.0 0.0
0003e0 00 00 00 00 00 00 00 00 00 00 00 00 00 00 00 00
       0.0 0.0 0.0 0.0
0003f0 00 00 00 00 00 00 00 00 00 00 00 00 00 00 00 00
       0.0 0.0 0.0 0.0
