MLConfig/results/badBerry/Animal/Animal-3999968.onnx (onnx, 296297 bytes, 7 tensors)

network_body.linear_encoder.seq_layers.0.weight f4 [256, 24]
000000 5a ec 3a 3e f8 a0 60 be 41 51 51 be c2 5f 90 3d
       0.18254223 -0.21936405 -0.20441152 0.07049514
000010 f0 cd b1 3e 94 31 7c 3c 75 92 b9 be fd 79 19 bc
       0.3472743 0.01539268 -0.3624455 -0.009367463
000020 82 f4 d4 3d 32 c0 4c 3e b5 ea 59 be d7 9b d3 bd
       0.10398199 0.19995192 -0.2128094 -0.103324585
000030 bb 71 0a bf e1 32 29 be b3 40 c0 3d 85 1b 9f 3e
       -0.5407979 -0.16523315 0.093873404 0.31075683
000040 23 58 98 3b 27 47 8c be e3 5d d0 be 17 b6 19 3e
       0.0046491786 -0.27398035 -0.4069663 0.15010868
000050 5e 4c 7f bc 52 8a 82 be 4a bd 25 be 69 c9 ba be
       -0.015582172 -0.25496155 -0.1618549 -0.3648179
000060 a9 b9 07 bf 65 dc 69 3d d7 0c f4 3d 93 2b 7f bd
       -0.5301767 0.05709495 0.119165115 -0.062297415
000070 c4 a9 ab 3d 45 0f 64 3e 00 00 a2 3e 73 39 62 3e
       0.083819896 0.2227145 0.31640625 0.22092228
000080 cc b1 7e 3e e9 07 99 be 72 74 e2 bd 7a 32 fb 3c
       0.24872512 -0.29888847 -0.110573664 0.030663718
000090 8a bf bc bd a3 66 48 be 1c f5 ad bd f1 80 b7 3e
       -0.09216221 -0.19570403 -0.084940165 0.35840562
0000a0 0d 3f d2 bd e5 98 ee be a1 6c fd bd 88 fe 85 bc
       -0.10265932 -0.46601024 -0.12374235 -0.016356722
0000b0 b3 2f a4 3e ed 57 89 3e 4c 19 fc bd c4 ad 45 3e
       0.32067642 0.26824895 -0.123095125 0.19304568
0000c0 4d 2b 92 3c f1 8d 91 be 61 27 85 be 04 73 8b be
       0.017842913 -0.28428605 -0.26006606 -0.27236187
0000d0 a2 0c cc 3d dc de 5c 3e 2e 27 36 bb b8 a9 05 3e
       0.09963347 0.21569389 -0.002779435 0.13053024
0000e0 27 48 13 bc 66 1b e2 3d 42 4f 8e be e1 db 58 3e
       -0.00898937 0.11040382 -0.27794844 0.21177627
0000f0 52 7a 26 bc c2 7b 83 3d 7a 10 9e 3d 2a 2e 67 3e
       -0.010160999 0.06420089 0.077179864 0.22576204
000100 f7 b3 39 3d de 14 07 3f e8 81 84 be 88 62 cf 3e
       0.045337643 0.52766216 -0.2588036 0.4050486
000110 bb ff 2b bb d7 5e 87 be 9e bb 9a bd 80 df d5 bd
       -0.0026244957 -0.26439545 -0.075553164 -0.1044302
000120 7c c5 89 be dd 93 d4 3d 64 0e 81 3e 04 3e 83 bc
       -0.2690848 0.10379765 0.25206292 -0.016020782
000130 ea d2 6a 3d 28 d1 cb 3d 3f ec 64 b9 88 5c 3b 3e
       0.05733005 0.09952003 -0.00021831783 0.18297017
000140 40 60 65 3e 36 26 ae bd e9 c9 03 3e 5d f1 b5 bd
       0.22399998 -0.08503382 0.12869991 -0.08883927
000150 dd 81 dd 3d 5a bd 90 3e 4c 81 d3 be 00 f0 f1 bd
       0.10815785 0.28269464 -0.41309583 -0.118133545
000160 8c 7d d1 3d 7a 5e d9 3d be 1b 91 3e af ff e7 3d
       0.10229024 0.10613723 0.28341478 0.11328065
000170 d1 cc 2a be c6 9b c9 bd 52 81 ee be a4 38 25 3e
       -0.16679694 -0.098441646 -0.4658304 0.16134888
000180 01 2d 7e be 06 a9 a0 3d 76 7e aa 3e 6e 3a 03 3e
       -0.24821855 0.07844739 0.33299607 0.12815258
000190 25 5a 38 be e5 b9 64 be 71 36 82 3e 24 05 bc 3e
       -0.18003137 -0.22336538 0.2543216 0.36722672
0001a0 69 bc b0 3d 87 38 05 3d fd 05 48 3e be 57 5a 3c
       0.086296864 0.03252461 0.19533534 0.013326583
0001b0 77 05 b7 3b 9f 0d 55 be 13 2e 15 be 0e 97 73 3d
       0.0055853683 -0.20805977 -0.14568357 0.05947023
0001c0 e5 f3 c9 3c c5 fa db be ed 67 08 3e 23 bf b5 3d
       0.02465243 -0.4296476 0.13320895 0.08874347
0001d0 69 48 bb be 99 06 86 bd 11 b7 87 be aa e4 ed 3d
       -0.36578682 -0.06544227 -0.26506856 0.1161588
0001e0 92 76 73 3e 91 bc c0 bd 1b 03 5e 3e 0d 4b 74 3e
       0.237757 -0.09410966 0.21680872 0.23856755
0001f0 28 e8 d9 be 52 00 0a be e9 31 ca bc 4f 04 98 bd
       -0.42559934 -0.13476685 -0.024682002 -0.07422697
000200 04 f6 8f bd 67 cd e9 3d 8e 4c 85 3d ca 30 f0 bd
       -0.07029346 0.114161305 0.06508742 -0.11728056
000210 80 2c 19 3d e3 80 3a 3e e1 6e 63 bc 7a f5 23 be
       0.037395954 0.18213229 -0.013881416 -0.1601161
000220 fe 69 9f bd bf f0 b8 3e bf 05 91 3e 2d 08 1e 3e
       -0.07783888 0.36121175 0.28324696 0.15432806
000230 87 a4 91 be c1 7a 8f 3e 8a c6 a6 bd e3 77 f8 bb
       -0.28445837 0.2802334 -0.08143337 -0.007582651
000240 34 7f 86 be 83 5d b5 3e 47 4d 43 be 07 b6 d1 bd
       -0.26268923 0.35422906 -0.19072448 -0.10239797
000250 ce e9 1c be f7 90 90 3e 1d 8c 3c be 99 4d d3 bc
       -0.15323564 0.282356 -0.18412824 -0.025793837
000260 95 74 4c be b5 78 da 3d 64 c0 8b 3e 1d 4a 0c be
       -0.19966348 0.10667554 0.2729522 -0.13700147
000270 dc 95 20 be 9c c2 46 bb 4b 3b 6d 3e ae e9 86 be
       -0.15682167 -0.0030328399 0.2316715 -0.26350158
000280 59 7b 8c bd 22 ff b8 bc 69 69 4c be 97 28 96 bd
       -0.06859464 -0.022582594 -0.19962086 -0.07331961
000290 78 a3 20 3e 7a 34 54 be 98 8f 15 3e f9 22 ac be
       0.15687358 -0.20723143 0.14605558 -0.33620432
0002a0 82 43 88 3d 57 0e 2d 3e af e4 d3 3d 94 97 7b be
       0.06653501 0.16900001 0.10346352 -0.24569541
0002b0 a4 ff 72 be ad bd c6 3e 7d 75 1a 3e 79 3c 59 3e
       -0.23730332 0.38816586 0.1508388 0.21214475
0002c0 e0 97 b4 3c 6d 09 7f 3e 2b 9a d7 be fe 4c 0a 3f
       0.022045076 0.2490594 -0.42109808 0.5402373
0002d0 43 c6 26 3e 17 6d a7 be 88 cd 11 bc af 02 a1 be
       0.16286568 -0.32700416 -0.0088991 -0.3144736
0002e0 ff 00 44 3e f8 77 dc 3e 56 dd 94 3d 0c c3 8b be
       0.19141005 0.4306028 0.07268779 -0.27297246
0002f0 40 28 db be 86 f8 3d be 1d c1 ed 3e 09 e8 bd be
       -0.42804146 -0.18551835 0.46436396 -0.3709109
000300 f5 da 5a 3e 06 7c 08 be 29 8e 0d be 7f 77 de 3d
       0.21372588 -0.13328561 -0.13823761 0.10862636
000310 c2 1f ca be 3d d3 2e 3c 64 43 86 3e 78 3e 06 bd
       -0.39477354 0.01067048 0.2622329 -0.03277442
000320 ac a0 8a 3e 19 ad c0 3e e8 02 29 3d 75 67 c6 3e
       0.27075708 0.37632063 0.041262537 0.38750806
000330 58 b1 1e bd 9e c2 b4 3d 2f 2d ee be c1 14 f3 bc
       -0.038743347 0.08826183 -0.46518847 -0.029672982
000340 99 b9 2b 3e db 53 8c be 1e 9d 20 3e 3e ec 97 3d
       0.16770019 -0.27407727 0.15684935 0.074181065
000350 fc cb 10 3c 9f 1d fd bd f0 88 19 bd 16 b6 10 3d
       0.008837696 -0.123591654 -0.03748411 0.0353299
000360 62 2b c5 bd 43 f5 00 be 03 a5 da bd 63 56 cc bd
       -0.09627415 -0.1259356 -0.10676005 -0.099774145
000370 cb eb bf 3e bc ba 8d 3e 8c 73 54 bd c1 43 ec be
       0.37484583 0.2768153 -0.051868007 -0.46145442
000380 67 f0 85 bb 46 e7 84 3d dc c6 59 3e e2 39 d7 3d
       -0.004087496 0.064894244 0.21267265 0.10509087
000390 2e cc 8d be af d8 5e be f9 97 77 3e 3e 2b e3 3d
       -0.2769484 -0.21762346 0.24179067 0.11092232
0003a0 bf 1a a8 3e 1a b8 b9 3d ac 66 06 bf b3 68 d1 bd
       0.32832906 0.09068318 -0.52500415 -0.10225048
0003b0 3c 73 7f 3d 14 81 13 3e bd 1b af bd a7 6c 2f 3d
       0.062365755 0.14404708 -0.085502125 0.04282823
0003c0 7c 9e 97 be ae 04 cc be fd 19 93 3c a2 6d 29 3e
       -0.296131 -0.3984732 0.017956728 0.16545728
0003d0 7d a0 dd be 52 ad ed bd 62 e4 77 3e 18 ca 51 3e
       -0.43286505 -0.11605324 0.24208215 0.20487249
0003e0 dc b8 da bc 76 ab dc be 14 c7 f8 3d ff 3c 3a bc
       -0.026699476 -0.43099564 0.12147346 -0.011367082
0003f0 0b bf 4a 3f 01 6c d8 bd 8c 09 c1 3b 98 ea a7 bb
       0.7919776 -0.10567475 0.0058910307 -0.0051244013

network_body.linear_encoder.seq_layers.0.bias f4 [256]
000000 01 e7 f4 3c 1a 7b aa 3b 43 1e 70 bb a3 f5 71 bb
       0.029895307 0.005202663 -0.003663913 -0.0036920093
000010 ae e7 9e 3c 45 8c da 3c f4 a4 23 bc a3 60 62 3d
       0.019397583 0.026678214 -0.009988058 0.05526794
000020 f6 66 26 bc e5 ba 0f 3d da b5 28 bc 5c 48 49 3d
       -0.010156384 0.035090346 -0.010297263 0.049141273
000030 a7 5c 73 3a 2b 9b 98 bd e2 ef 34 3d 6d a3 ec 3b
       0.00092835206 -0.07451471 0.044174083 0.0072216303
000040 54 c3 6a 3c e0 c1 83 3c 0e b0 c0 3c 7b 76 26 3c
       0.014328796 0.016083658 0.02352145 0.010160084
000050 4a 1e 9a 3c 0b 78 25 3c 05 3e 87 3c 3e c3 16 3d
       0.018813271 0.010099421 0.016509065 0.03680729
000060 71 bd a5 bb 8d 44 04 3d e1 42 73 bc 2f 4a 08 bd
       -0.0050579836 0.032291938 -0.014847488 -0.033273872
000070 64 a6 96 3b 4e ae 9c 3b 95 fa e1 3c 20 73 e3 3c
       0.004597472 0.004781521 0.027585307 0.027764857
000080 2d 03 dd 3c 75 76 4a b9 56 25 9e 3c 12 83 11 3d
       0.026979053 -0.0001930835 0.019304913 0.03552539
000090 a9 c0 93 3b cd 75 a4 3c 4f b0 f5 3c b6 1e eb 3c
       0.004509051 0.020075703 0.029991297 0.028701168
0000a0 e5 04 a0 3c 32 cb 2f 3d 76 04 8a 3c cc 67 f7 3c
       0.019533584 0.04291839 0.01684783 0.030200861
0000b0 0b da be 3c a9 50 56 3c d3 56 95 3c 41 62 7a 3b
       0.02329733 0.013080754 0.018229878 0.0038205537
0000c0 8f a4 65 bb e6 ea 48 3c 5b 87 d6 3c c2 95 8f 3c
       -0.0035040712 0.012263035 0.02618759 0.017527465
0000d0 6a 1b e7 ba 41 bf c4 3c be 9a f8 3c bc da 6b bb
       -0.0017632071 0.024016978 0.030347224 -0.003598853
0000e0 b9 4b 2a bd 46 36 00 3d 55 80 fa 3c d5 25 83 3c
       -0.04157612 0.03130176 0.030578772 0.01600925
0000f0 54 51 4d 3b 1e c5 73 3c 2d f9 d6 3b 49 49 a6 3c
       0.0031328993 0.014878539 0.006560466 0.020298617
000100 a9 66 64 3c 22 ef f3 bb 25 a4 89 3c 58 ac 8e 3c
       0.013940492 -0.0074442783 0.016801903 0.017416164
000110 14 f7 9a 3b 8d 6f 49 3d b4 25 fa 3c 5d 17 86 3c
       0.004729161 0.04917865 0.030535556 0.016368562
000120 b4 ff c0 3c 2a 42 e5 bb e4 44 f9 3c 87 e6 26 bc
       0.023559429 -0.0069964128 0.030428357 -0.010186798
000130 f8 57 a6 3c f4 31 59 bc f9 02 f0 bb be e9 02 bc
       0.020305619 -0.013256539 -0.007324573 -0.007990299
000140 e3 e3 3b 3c 17 49 3f 3c df a0 10 3c 0d 3f 8a bc
       0.011467907 0.011675141 0.008827417 -0.016875768
000150 18 f4 1d 3c 2f bb 8e 3c 18 ec 91 3c 36 98 ad 3c
       0.009640716 0.01742324 0.017812774 0.021190744
000160 0a a2 69 bb 60 f7 a6 3c fa c0 ab 3b ed 79 9c 3c
       -0.0035649561 0.02038163 0.0052415105 0.019101107
000170 3b cf df 3c 4e f0 4a 3d a7 ed 60 3c dc 66 e5 3a
       0.027320495 0.04954558 0.013728536 0.0017501968
000180 47 39 15 3d 8c 78 d3 3c e8 fc 4b 3c 1c 1e a4 3c
       0.036431577 0.025814317 0.012450434 0.020033889
000190 4b 9d f0 3c ee 8b 3e 3c 9c 13 e9 3b b7 32 38 3d
       0.029371878 0.0116300415 0.0071129333 0.04497024
0001a0 2d 90 72 3c 01 45 0e 3c 11 8b 8e 3c d8 38 c5 3c
       0.014804882 0.008683444 0.017400296 0.024074957
0001b0 5b 50 91 3c c7 06 64 3d 63 6e c5 bb dc b2 18 3d
       0.017738512 0.055670526 -0.006025122 0.03727995
0001c0 2d b8 e7 ba b2 0e c4 3c f6 79 3a 3c af c1 0a 3c
       -0.001767879 0.023932789 0.011381617 0.008469029
0001d0 06 62 3a 3c 44 b4 b1 3c 05 fb 3d 3c ce b9 f8 bb
       0.01137591 0.021692403 0.011595492 -0.007590509
0001e0 f4 ad 37 3d 81 83 cf 3c b3 bb 0d 3d 23 1d be 3c
       0.04484363 0.02533126 0.034602832 0.023207253
0001f0 8e 49 f9 bb 65 43 e3 3b 08 55 0a 3c be ba 84 3c
       -0.0076076454 0.0069355243 0.008443125 0.016202327
000200 be 91 03 3d 98 84 e8 3c a0 2b 93 ba 32 fc cc 3a
       0.032121412 0.028383538 -0.0011228211 0.0015639125
000210 49 7c 5c bc d3 16 40 3c 36 06 b8 3c cb 68 42 ba
       -0.013457366 0.011724192 0.0224639 -0.0007416128
000220 12 e1 04 3d a4 10 f4 3c 64 c8 1e 3d 31 71 74 3c
       0.032441206 0.029793091 0.038765326 0.014919565
000230 1b 02 cb 3c 49 78 4c 3c 9c f5 72 bc d6 52 55 3d
       0.024781277 0.01247985 -0.014829066 0.05208095
000240 ba 67 45 3c 1d 78 cc 3b 2c 0a 92 3c 3e 00 9b 3c
       0.012048656 0.0062399046 0.017827116 0.018921014
000250 2e 09 75 bb 25 5c 2b 3c b7 35 5f 3c 2f 83 ef 3c
       -0.0037389505 0.010458981 0.013623646 0.029237358
000260 b6 87 d5 3c b6 05 8a 3c 9a 68 67 bb e6 39 66 3b
       0.026065689 0.016848426 -0.003531015 0.0035129725
000270 50 23 8d 3b b9 74 9d 3c 74 98 70 3c 2b 36 26 3c
       0.004307188 0.019220697 0.014684785 0.010144751
000280 09 a7 30 bc 44 16 61 3d 41 73 65 3c 68 15 dc 3c
       -0.010782012 0.054952875 0.014004529 0.026865676
000290 1c a8 63 3c 2e dc 03 3d 0b 35 88 3c dd 83 be 3c
       0.013895061 0.0321924 0.016626855 0.023256237
0002a0 3f fb 7f 3c cf 24 ef 3c 8e cc 19 3d c6 6f 01 bc
       0.015623867 0.029192356 0.037548594 -0.007900184
0002b0 cd 7b 1d 3d 7b 3b e7 3c f5 cd b8 3b 14 f1 a4 3c
       0.038448144 0.028226605 0.0056397864 0.020134486
0002c0 55 b6 d0 3b 6b 02 13 3d 26 df 28 3d d1 b0 f9 3c
       0.006369392 0.035890978 0.041228436 0.03047982
0002d0 01 91 7a 3b 9c 27 42 bc 0e 5d 30 3a 13 26 a6 3b
       0.0038233402 -0.011850264 0.00067277334 0.005070457
0002e0 40 01 d0 3c 03 c8 12 3d 73 81 81 3c ab 7a c5 bb
       0.025391221 0.035835277 0.015808797 -0.006026586
0002f0 05 d2 c9 3c 14 2e aa 3c b0 27 3e 3d 8b 57 f0 ba
       0.024636278 0.020773925 0.046424568 -0.0018336637
000300 2f 2a 48 3c 75 69 97 3c 64 77 8a 3c 41 05 e9 3b
       0.012217089 0.018482903 0.016902633 0.007111222
000310 4f 35 05 3d fd 3a f1 3c cc 0d fc 3c c2 fb 10 3d
       0.032521542 0.029447073 0.030768298 0.035396345
000320 d3 51 f3 3c 05 0a 18 3d 9c c0 9e 3c c8 f9 ae 3c
       0.029702103 0.03711893 0.019378953 0.02135934
000330 c6 c2 0f bb 6e 58 cf bb 3d 0c 95 bc 1d 4d 0e 3d
       -0.0021936162 -0.0063276803 -0.018194312 0.03474151
000340 3e 54 69 3b 01 5f 64 3d e9 cc d5 3c 88 a7 d4 3c
       0.003560319 0.055754665 0.026098685 0.025958791
000350 15 0d 09 bc 16 e4 12 3d 71 df 78 3c 63 51 16 3d
       -0.008364935 0.03586205 0.015189991 0.03669871
000360 3a 4f ad 3c 55 ea 8f 3c 66 93 bc 3c 01 9b b6 3c
       0.021155942 0.017567793 0.023019504 0.022290708
000370 00 8a 98 3b cb d4 63 3c 8f 29 e9 3c c0 6b 9a 3c
       0.0046551228 0.013905714 0.0284622 0.018850207
000380 c1 66 a9 bc f0 fa d4 3c 48 74 82 3c ac 42 90 bb
       -0.02067888 0.025998563 0.015924588 -0.004402479
000390 ff 00 01 3d 7d 70 be 3c 45 cc 3d 3b 45 9f aa 3b
       0.03149509 0.023246998 0.0028960865 0.0052069747
0003a0 a8 8d 2b 3d 9f dc 9c 3b 7e 46 0b 3b 91 ae 0f bc
       0.04188314 0.0047870423 0.0021251733 -0.008769647
0003b0 85 e0 af 3c e3 98 ce 3c f5 42 c1 3c 6f 20 4c 3c
       0.021469364 0.025219386 0.023591498 0.012458905
0003c0 75 45 da 3c 3e dd cb 3b ff 31 a3 3c 81 9f d7 3b
       0.026644448 0.0062214425 0.019921301 0.0065802936
0003d0 dd a6 c2 3c 7c 8c d0 3b ca e4 8d 3c 0d 57 92 3c
       0.023761207 0.0063644033 0.01732101 0.017863775
0003e0 77 03 d9 3c b9 c8 ff ba 2a 8a bb 3a 05 60 24 3c
       0.02649091 -0.0019514776 0.0014308144 0.010032658
0003f0 39 65 f0 3c 87 dc a1 bc 2b 23 79 3c 28 38 30 3c
       0.029345142 -0.019758476 0.015206139 0.010755576

network_body.linear_encoder.seq_layers.2.weight f4 [256, 256]
000000 9b 06 5a bc 75 7f 07 3d f3 e8 30 3c 8d d5 60 3d
       -0.013307239 0.033080537 0.010797727 0.054891158
000010 8a e2 30 3d a7 02 fd 3c e2 f3 85 bc 3d d3 a9 3c
       0.043184794 0.030885054 -0.016351644 0.02073061
000020 a6 39 51 bd 23 af ed 3d 14 88 e7 3b b0 6b 17 bd
       -0.05108037 0.1160567 0.0070657823 -0.036967933
000030 0b d0 63 bc 2e 1a e6 3d d9 03 70 bd 37 fc cd bc
       -0.013904582 0.11235462 -0.05859742 -0.02514468
000040 79 45 ac 3d 31 9a 2f bc b7 ea 2a 3d 5d 05 3c 3c
       0.08411688 -0.010717914 0.041727748 0.011475888
000050 c5 dd ad 3c 48 05 91 bd 45 92 af 3c f1 17 9b 3c
       0.021223912 -0.070810854 0.021432051 0.018932315
000060 8c 34 ae bd 22 40 06 3e 21 a1 86 bc 79 d8 1c 3d
       -0.08506116 0.13110402 -0.016434254 0.038292382
000070 8c c0 e7 bc e1 c6 a0 3d 31 f5 c1 3d a6 94 03 3b
       -0.028290056 0.07850433 0.09470595 0.0020077615
000080 32 21 c0 bc 84 fa e8 3c 42 9f 3a 39 37 ac 31 3b
       -0.023453329 0.028439768 0.0001779767 0.0027110705
000090 2a 05 f7 3d 20 67 ec 3c cb 6e 1d bd df b7 f2 3d
       0.12061532 0.028857768 -0.03843574 0.11851477
0000a0 c1 21 11 be 41 80 87 bd ed ea 37 bc 5e aa 37 3d
       -0.14173032 -0.06616259 -0.011225444 0.04484021
0000b0 50 de 46 3d c4 a0 0c bd 9e ef ee 3d 0e ce 6c 3d
       0.048551857 -0.034333006 0.11666797 0.057813697
0000c0 dc 73 b8 3d 95 f5 80 bd ac 52 9f bd c5 b0 67 bd
       0.090064734 -0.06296841 -0.0777944 -0.056565065
0000d0 5c 1a cc bc 16 72 91 3d cd 28 c0 bd 74 9b 27 bd
       -0.024914913 0.07101838 -0.09382782 -0.040919736
0000e0 6a 2d 77 3d 11 f7 a5 3c c4 b3 6c 3d da 10 f4 bd
       0.060346045 0.020259412 0.057788625 -0.11917277
0000f0 d5 d7 f0 bc 5f 04 8c bd b5 de 04 3c 77 6b c2 bd
       -0.029399792 -0.06836771 0.008109738 -0.094931535
000100 49 d3 ff bd 07 f5 33 bd 36 d4 05 3d f3 56 50 bd
       -0.12491471 -0.04393485 0.032673083 -0.05086417
000110 6a b6 89 3c 35 67 be bb b6 3f b4 3d 8a 93 a5 bd
       0.016810615 -0.005810643 0.088012144 -0.080847815
000120 dc 09 99 bc 9e 76 1b 3d 45 7b 46 3d 74 da 35 3d
       -0.01868146 0.03795492 0.048457403 0.044397786
000130 11 53 4f bc 32 c1 b6 bd ba 95 23 bc 09 31 93 3d
       -0.012654082 -0.08923568 -0.009984428 0.07187087
000140 07 27 57 3c be db 7f bd b1 4b 6c 3d ba 45 c4 bc
       0.013131863 -0.06246542 0.057689372 -0.02395903
000150 15 14 b3 3b 96 c5 6d 3d 8a 8c f2 3c f2 04 f8 3d
       0.0054650404 0.05804976 0.02960803 0.12110318
000160 5e 8e f1 3c 71 a1 b6 3c a6 f2 30 be 5f 6c a1 bd
       0.029486831 0.022293778 -0.17280063 -0.07881998
000170 50 9e 09 bd 6f 58 cb bc 5c e1 56 3c 52 81 04 3d
       -0.033598244 -0.024822442 0.013115253 0.032349892
000180 cf de 52 bd 16 db cf 3c 49 a0 8e 3d fd ed 3e bd
       -0.051482018 0.025373023 0.06964166 -0.046613682
000190 fc 8f d5 bd 95 5e 98 3d e6 f9 26 bd 35 ec d0 3d
       -0.104278535 0.07439915 -0.040765665 0.10201303
0001a0 e4 0a 6d 3d bb d1 97 3c 67 0d ec bc 53 f4 25 3c
       0.057871714 0.018532624 -0.028814984 0.010129052
0001b0 d9 90 d3 3d 89 43 16 3e dd d3 b9 bb 5b 77 7e bd
       0.10330362 0.146742 -0.005671008 -0.062125545
0001c0 f1 9a 26 bd a0 63 24 3d 09 0a 9b bd 47 1c b5 bc
       -0.040675107 0.040134072 -0.075702734 -0.02210821
0001d0 c2 10 06 be 3d 38 9c bd fd 94 e2 3d 4d 6a 0b 3d
       -0.1309233 -0.07627914 0.110635735 0.034036923
0001e0 c0 b4 8d 3b b4 62 fe bb 5c 93 be 3d 07 3b 3e 3c
       0.0043245256 -0.007763231 0.0930545 0.011610753
0001f0 be 55 b4 3d 1e 54 53 bd 6e 97 7c 3d f8 2f dc bc
       0.088054165 -0.051593892 0.061667852 -0.026878342
000200 f5 4f 01 be f5 da 36 bd 84 d9 3c 3d f6 9a 53 bb
       -0.12628157 -0.044642407 0.046105877 -0.003228841
000210 d1 26 ae bd d5 b4 db bc 9b 29 12 3d c2 20 43 bc
       -0.085034974 -0.026819626 0.03568421 -0.011909666
000220 ab 2f 26 bd b9 cf c9 3d fe 0e 2d 3b 4e c0 e9 bd
       -0.040572803 0.09854073 0.002640664 -0.11413632
000230 58 5e 97 3d 88 76 be bd 4c d3 9a bd 60 c3 30 3c
       0.073910415 -0.09299952 -0.07559833 0.0107887685
000240 93 5a bc bd 01 ff ab bc 2f 0b 73 3d 3c 61 24 bd
       -0.09196963 -0.020995619 0.059336837 -0.040131792
000250 84 12 49 3b a6 f6 ef bd 65 30 d6 bd ee 71 c7 3d
       0.0030681202 -0.11716966 -0.10458449 0.09738527
000260 fb c8 58 bd bd df 59 bd 3a d6 97 bd e4 00 84 3d
       -0.052926045 -0.05319189 -0.07413907 0.064454824
000270 82 96 0a 3d fa 84 62 bd ba 35 59 3d 7c 92 e7 3c
       0.03383494 -0.055302598 0.053029753 0.028268091
000280 b1 b3 00 3d 92 a0 79 3d 0e 8c cf bd e9 2b b6 3b
       0.031421367 0.060944147 -0.10134135 0.0055594337
000290 75 69 bb bc 42 1c f1 3d 6e 2f 95 bb b6 3c 96 3d
       -0.022877434 0.11772968 -0.004552773 0.073357984
0002a0 c2 90 1a 3e fa c5 92 3b 27 a4 64 3d 2c 80 16 3d
       0.15094283 0.004479167 0.05582061 0.036743328
0002b0 93 4a d0 bd a2 f0 47 bd 89 f1 21 bb ac 20 a1 3c
       -0.10170474 -0.04881347 -0.0024710617 0.0196689
0002c0 84 77 0a 3c 36 04 e6 3c 4c 62 67 3d 0c 02 69 3d
       0.008451346 0.02807818 0.056490228 0.056886718
0002d0 a3 56 34 3b 46 39 5f bd df 5e ff bb d0 f9 4e 3c
       0.002751746 -0.05449798 -0.007793292 0.012632802
0002e0 57 71 88 3b 5c 85 a4 3d b7 26 b1 3d a5 db c2 3c
       0.004163902 0.08033249 0.086499624 0.023786375
0002f0 3f af 99 3d 42 f3 1d be ab 95 35 3b 15 28 a9 bd
       0.07504129 -0.15424827 0.0027707617 -0.08259598
000300 1b fa 8e bd 3b a0 91 3c 48 23 d5 bc b7 32 08 bd
       -0.069812976 0.0177766 -0.0260178 -0.03325149
000310 fe 4f 22 3c ac 71 19 bd e6 5f 9f bc f3 76 ce bb
       0.009906767 -0.03746192 -0.019454908 -0.006300801
000320 c6 d1 64 bd 87 06 c5 3b 80 49 9d 3d 6e eb 29 3c
       -0.055864118 0.006012741 0.07680035 0.010371072
000330 e0 e2 1f bc df f0 a5 3c c7 81 85 3d 21 17 15 be
       -0.009758681 0.020256458 0.06518894 -0.14559604
000340 dd b2 36 bc 5a 66 a4 bd fd 60 7e 3c c4 81 96 bc
       -0.011151043 -0.080273345 0.0155260535 -0.018372424
000350 e3 65 a7 3c 70 7a 0f 3d 43 02 9a 3d 6d ad d7 3d
       0.020434326 0.035028875 0.07519963 0.10531125
000360 8a fa b4 bc 1a ac 94 3c 08 26 2d 3d 7c 7b 8d 3b
       -0.022092123 0.01814847 0.042272598 0.004317699
000370 94 5d 23 bd 6f a6 c0 3d ad dc f0 3d ba 0e dc bd
       -0.039884165 0.09406745 0.117608406 -0.10744996
000380 c4 a8 8e bd c2 3a c9 3d ce 01 c9 bd 4e 10 4a 3c
       -0.06965783 0.0982566 -0.09814797 0.012332989
000390 20 1a aa 3d ec 04 ac 3c 9b 68 ae bd b5 ea 3e bc
       0.08305764 0.02099844 -0.08516046 -0.011652638
0003a0 22 74 50 3d 38 09 5a 3d 04 b0 5c bd 74 d8 99 bd
       0.050892003 0.053231448 -0.0538788 -0.07511988
0003b0 2c 68 a6 bb 3c aa dc 3d 4e d6 aa 3c 8d 6c 45 3d
       -0.005078336 0.10774657 0.020854142 0.048199225
0003c0 43 1d 50 3d 46 45 75 bc a2 91 ad bd e5 e2 5b bd
       0.050809156 -0.014970129 -0.08475043 -0.05368318
0003d0 fc 95 90 3c 7c 94 a4 3d 47 3e 87 bc 02 89 de bd
       0.017649643 0.08036134 -0.016509188 -0.10865976
0003e0 de ca 60 bd f0 74 24 be ce 31 08 3d 83 37 72 3d
       -0.05488097 -0.16060233 0.033250622 0.05913497
0003f0 14 d8 d4 3d 81 05 1e 3b 23 e2 bf bd 1c 80 00 3e
       0.10392776 0.0024112167 -0.09369304 0.1254887

network_body.linear_encoder.seq_layers.2.bias f4 [256]
000000 22 bb a6 3c 3f c2 86 3c 9a e5 ea bb 90 59 d1 3c
       0.020352904 0.016450046 -0.007168484 0.025555402
000010 f3 56 1c 3d cc c1 8a 3c 19 73 06 3c 91 29 7a 3c
       0.03816886 0.016938113 0.008206152 0.015268699
000020 33 64 cd bb 90 e1 90 b7 5c 86 bf 3c 18 6e 24 3c
       -0.006268048 -1.7271173e-05 0.023379497 0.010036014
000030 35 56 a0 bb f2 14 f0 3c 68 d1 56 b7 0f 40 49 bb
       -0.004893089 0.029306863 -1.280415e-05 -0.0030708348
000040 35 8e a1 3c a5 6c a3 3c f7 85 26 3b 7d 27 6f 3c
       0.01972113 0.019949267 0.002540944 0.014596817
000050 31 e7 0a bc 39 dc 62 3a 11 2e c8 3c 9b 6d 9c 3b
       -0.008477972 0.00086540316 0.024436029 0.004773808
000060 7a 01 fc 3c a3 d9 ec 3c ca be cd 3c c6 48 55 3c
       0.030762423 0.028912371 0.02511539 0.013017839
000070 03 02 5f 3c 76 68 98 3c e4 82 15 3c 41 e6 24 bb
       0.0136113195 0.018604498 0.009125445 -0.0025161656
000080 d5 4b 16 3c ce 77 4c bb 31 fe 92 3c 80 68 28 3c
       0.009173353 -0.003119934 0.017943474 0.010278821
000090 47 02 9a 3c a5 30 a2 3c e1 a3 c7 3a 84 0a d4 3b
       0.018799914 0.019798586 0.0015231335 0.00647098
0000a0 1b 24 80 3c 0b 7b 6c 3c 40 46 18 3d 1e 82 47 3a
       0.015642216 0.014433633 0.03717637 0.00076106365
0000b0 1e 2b 06 3d 1a c1 b0 3c 73 a2 9d 3c 77 9c 49 3c
       0.032755964 0.021576453 0.0192425 0.0123053705
0000c0 cc ee 2c 39 50 c4 e7 bb 90 bd 24 bb ea 91 8c 3c
       0.00016492157 -0.007072963 -0.0025137402 0.017159421
0000d0 07 72 07 3d af b6 00 3d a4 9e 79 3c 12 89 34 3b
       0.03306773 0.03142422 0.015235577 0.002754752
0000e0 4d 2d a2 3c a0 2e 07 3b ca cb 19 3b d4 b6 4a 3c
       0.019796992 0.0020627156 0.0023467415 0.012372691
0000f0 75 c9 e1 3a 2e 91 73 3b 33 5b b6 3c d4 25 14 3c
       0.0017226177 0.0037165391 0.022260284 0.009042222
000100 7b 44 33 3c 89 1d 88 3b 67 5d 87 b9 4e 38 2f 3b
       0.01094162 0.0041539115 -0.00025818797 0.002673644
000110 e6 5b 3e 3c 6f 4b a9 3c 1a 5f 9e 3c 0c 08 24 3c
       0.01161859 0.020665852 0.019332457 0.010011684
000120 4c e6 b1 3c 68 d9 06 3d 12 ab 2a 3c 00 31 86 bb
       0.02171626 0.03292218 0.010416763 -0.0040951967
000130 91 8f 0a 3d d2 bd d7 3b 07 6f 34 bc 15 c4 58 3b
       0.03382832 0.0065839076 -0.011012799 0.0033075858
000140 c4 b0 f9 3b 28 f0 05 3b e8 55 88 3b e9 54 24 3b
       0.007619949 0.0020437334 0.0041606314 0.0025075024
000150 5c 64 04 3c fe 52 90 3c 02 5b 9c 3c ac 00 b7 39
       0.008080568 0.017617699 0.019086365 0.0003490498
000160 4c dc c3 3c bd 20 57 3c 4e 54 4f 3c 4a 34 9c 3b
       0.023908757 0.013130364 0.012654377 0.0047669755
000170 60 54 6d 3b 8a b3 ff 3a 55 22 c0 3c 59 eb e0 3b
       0.0036213621 0.0019508463 0.02345387 0.006863993
000180 05 32 f2 3b 30 d1 19 3c e3 08 4f ba 85 e9 d5 3b
       0.0073912167 0.009388253 -0.00078977476 0.006528082
000190 76 23 86 3b e6 78 9a 3c bf 34 ab 3b b8 fa 7d 3b
       0.0040935827 0.018856477 0.0052247937 0.0038754176
0001a0 ab a1 6d 3c b4 c4 b9 3b 75 59 e1 3b 9c f8 e8 3c
       0.014503877 0.005669201 0.006877119 0.028438859
0001b0 e4 3c 2a 3c 84 6f 1e 3c e0 ff 80 3c 4d 67 0f 3c
       0.010390494 0.009670142 0.01574701 0.008752656
0001c0 84 8f c5 37 90 7b da 3c c3 60 5c 3c b8 7e a6 3c
       2.355106e-05 0.026670247 0.013450804 0.020324096
0001d0 4a 2e c7 3c 03 f3 e4 3c 33 ef d0 3c 24 4d 84 3c
       0.024314065 0.027947908 0.025504684 0.016150065
0001e0 3d cf 05 3c a4 77 c7 3c 51 82 12 3b 49 fe 09 3d
       0.008167085 0.024349041 0.0022355507 0.03368977
0001f0 fe 9d bf 3c 7b 77 a3 ba 55 19 da 3c c8 9b 81 3b
       0.023390766 -0.0012471521 0.026623407 0.003955338
000200 30 d3 f8 3b fe ed 14 3c 9a 09 39 3b 2e 2d 6d bc
       0.007593535 0.009089945 0.0028234483 -0.014476104
000210 91 ac 57 3c ab 08 f3 3a d9 0f 20 3c 80 61 a9 3c
       0.013163702 0.0018542012 0.009769403 0.020676374
000220 f0 e0 5c 3c 4f 19 e8 3c e7 4b 42 3b ba d3 51 3c
       0.013481364 0.02833238 0.0029647292 0.012806827
000230 90 a2 81 3c ff 76 0f 3c 25 ca 19 3c d1 e9 d8 3b
       0.015824586 0.008756398 0.009386574 0.00661967
000240 25 f2 bb 3a 84 c4 95 3c 91 91 1c 3c e2 03 14 bc
       0.0014339132 0.018282183 0.00955619 -0.009034129
000250 49 fc c0 3c 08 e9 8e 3b 9b 8d 91 3c e5 77 68 3c
       0.023557799 0.0043612756 0.017767718 0.014188741
000260 92 05 82 3c 79 07 0a ba b3 29 25 3c a2 ed 11 3c
       0.015871797 -0.0005265396 0.010080743 0.008906754
000270 bc 28 0c 3d 37 95 e3 3b 0e 01 9b 3c f6 1d 17 3d
       0.034218535 0.006945278 0.018921401 0.036893807
000280 cc 50 aa 3c b9 df f9 3c 22 56 0f 3c 6f dd 4d 3c
       0.02079048 0.030502187 0.008748563 0.012565001
000290 18 eb 75 3c e1 5d ad 3c 51 e9 e3 3b 17 ed da bb
       0.015009664 0.021162929 0.0069553037 -0.0066810953
0002a0 c7 9d c2 3c 9d 66 4a 3c f6 78 1e 3c 04 98 82 3c
       0.023756875 0.0123535665 0.009672394 0.015941627
0002b0 1c e9 73 3c 84 d1 ef 3c 3f e7 1e 3c 15 d8 64 3a
       0.014887121 0.02927471 0.009698688 0.00087297085
0002c0 20 c2 c0 3b 07 bf 48 3c 88 e5 7c 3c 6c 94 4c 3b
       0.0058825165 0.012252576 0.015435584 0.0031216396
0002d0 1a 5e 59 3c 84 d7 38 bb d4 38 9d 3a b7 22 6d 3c
       0.0132670645 -0.002820463 0.0011995086 0.014473609
0002e0 52 f9 f6 3b e3 0f f6 3b e4 c0 3a 3c ea 0b f8 3c
       0.0075370455 0.007509218 0.011398528 0.030279119
0002f0 34 8c aa 3b dd 19 09 3d 2a 0a 0d 3b c2 2d 84 3c
       0.005204702 0.03347193 0.002152095 0.0161351
000300 82 31 80 3c ec 2d b0 3c ce e7 a0 3c 4e 72 b9 3b
       0.015648607 0.021506272 0.019641783 0.005659378
000310 7d b0 fa 3c 09 5b 88 3c 61 9b 35 bb f7 d7 87 b8
       0.030601734 0.016644971 -0.0027711021 -6.477528e-05
000320 08 36 03 3b 14 5d be 3c 45 b4 8a 3c 8e da 87 3c
       0.0020021219 0.023237742 0.016931662 0.016583707
000330 d2 6c 03 3c ee 21 8a 3c 88 36 e7 3b 4b a1 40 3c
       0.00802155 0.016861882 0.007056061 0.011757205
000340 a6 38 eb 3c 37 e8 41 ba f2 95 c8 3c 1b f9 ad 3c
       0.028713536 -0.00073969684 0.024485562 0.021236947
000350 a2 21 e9 bb 97 70 ab 3b 71 1c c2 3c 3f 29 00 3c
       -0.007114605 0.0052319276 0.023695203 0.007822334
000360 2e 44 c8 3c 4c ff 35 3c 90 a9 a1 3c ca f3 39 3c
       0.024446573 0.011108231 0.019734174 0.011349628
000370 25 8d bc 3c e6 fe bb 3b 89 5e 86 3c c9 0f 92 3c
       0.023016522 0.0057371734 0.0164025 0.017829793
000380 d7 1e 70 3c c3 83 87 3c 91 24 81 3c 5d 38 83 3c
       0.01465579 0.016542321 0.015764507 0.016018087
000390 30 31 0b 3c ed 2f 1e 3c e4 87 ee 3c 20 13 24 b9
       0.008495614 0.009654981 0.029117532 -0.00015647383
0003a0 c5 f7 de 3c 9f 83 38 3b af a2 b1 3c 5e 50 c1 39
       0.027217755 0.0028154624 0.021684019 0.00036871707
0003b0 4f 36 5f 3c 88 a2 90 3b 1a 21 81 3c 03 ee d3 3a
       0.013623788 0.0044139065 0.015762854 0.0016168955
0003c0 b1 15 f4 bb 3a 32 fe 3a 08 bf 93 3c a9 f5 ad 3c
       -0.007448875 0.0019393631 0.018035427 0.021235304
0003d0 04 c3 11 3d 3d 9b 6e 3b 86 e0 98 3c ca f0 9e 3b
       0.035586372 0.0036408447 0.018661749 0.0048504816
0003e0 54 d5 90 3c 0a 86 d3 3c e3 18 08 3c 5f 22 ba 3c
       0.017679848 0.02582075 0.008306715 0.022721468
0003f0 55 54 0e 3c d8 7d 89 3c 45 6a 07 3c f3 4c 76 3c
       0.0086870985 0.01678364 0.008265083 0.015032995

action_model._continuous_distribution.log_sigma f4 [1, 5]
000000 3f 02 79 3c a5 65 4f bb dd 71 d9 3c 61 c1 43 3d
       0.015198289 -0.0031646278 0.026543552 0.047791842
000010 a3 88 5c bd
       -0.053841244

action_model._continuous_distribution.mu.weight f4 [5, 256]
000000 5e 54 0e bd ed 5f 33 3d 99 be ac bc d5 d1 a2 3d
       -0.034748428 0.043792654 -0.021086978 0.079501785
000010 c9 5d 81 bd 1e 8a 5d 3d 1f 5f be bc 60 dc 9d bd
       -0.06316716 0.054086797 -0.023238717 -0.07708049
000020 fc f3 c4 3c 36 12 8b 3d 2b 26 4c bd 0d 54 cf bc
       0.024042122 0.06790583 -0.049841087 -0.025308633
000030 8e 1b 03 bc 25 a4 8f bd c7 3c 41 bc f8 5a 0a bd
       -0.008002175 -0.0701373 -0.011794276 -0.03377816
000040 b0 e0 84 3a a5 94 2c bc e1 5e f9 3c 7c 76 6b bd
       0.0010137763 -0.0105334865 0.03044075 -0.057486042
000050 37 9a b6 bb 72 69 94 3c 1a ee a0 bd ef 6c ad bb
       -0.005572583 0.018116686 -0.07857914 -0.005292527
000060 d7 1f 2d 3d df a7 85 bb ea 09 c6 3c d8 9a f0 bc
       0.042266693 -0.0040788497 0.02417465 -0.02937071
000070 8f 72 ac 3c 2d 41 17 3c 78 4c e8 bc fc 23 34 bd
       0.02105072 0.009231848 -0.028356776 -0.04397963
000080 83 04 ea bc 49 6e a4 bc e0 be e6 3c 64 90 f1 3c
       -0.028566604 -0.02007212 0.028167188 0.029487796
000090 bb dc 5b 3d fc 4a b9 bd 60 32 14 bb 87 be 77 3d
       0.0536773 -0.09047505 -0.0022613034 0.060484435
0000a0 00 8d 10 bd b5 7c 13 bd b3 13 b5 bd 09 5a 16 3d
       -0.035290718 -0.0360076 -0.08841648 0.036706958
0000b0 2b 8f e9 3b 17 1c 7b 3d b4 e8 c2 3c 04 87 17 bb
       0.0071276627 0.061306085 0.023792602 -0.0023121247
0000c0 c6 17 83 3b 43 2f b6 3c ac 3c 12 3d 2c 91 47 bd
       0.0040006367 0.022239333 0.035702392 -0.04872243
0000d0 17 84 d4 3c b0 dd 95 3d 65 74 55 bd 87 de 7a bc
       0.025941892 0.07317674 -0.052112956 -0.015311844
0000e0 35 17 84 3c 25 8c e5 3c 9a e1 36 3d 96 4e 19 bd
       0.016124347 0.028020928 0.044648744 -0.03742846
0000f0 0b 7e 0e bd bf 77 22 3d 27 93 c2 3d 2c bd c1 bc
       -0.034788173 0.03966498 0.09500723 -0.023649774
000100 6f 4e 12 bd bb b9 4f 3d 13 6b bc bc 85 21 45 3d
       -0.03571933 0.050714236 -0.023000276 0.04812767
000110 91 2d 7a bb 8a bc 78 bc d8 a9 9f 3d 5a 44 15 3a
       -0.0038174132 -0.01518167 0.07796067 0.0005694084
000120 86 55 ae 3c 51 fc f9 3c d9 37 17 bd ce 9b cc bb
       0.021281015 0.030515822 -0.036918495 -0.0062441593
000130 34 4b af bc 67 37 90 bc 8c 55 a0 3a 3e 13 5c 3d
       -0.021398164 -0.017604543 0.0012232526 0.05372929
000140 15 27 d3 bb 08 c0 07 3d 9f 22 76 ba 22 76 c0 bb
       -0.006443868 0.03314212 -0.0009389314 -0.0058734575
000150 59 8d 79 3d f6 2e 90 3c 49 de 5d bc 11 c5 b5 bc
       0.060925815 0.017600518 -0.013541766 -0.022188695
000160 4a 6a 08 3c 1b a6 87 3d 3b 37 57 bd e4 75 e7 bb
       0.008326123 0.06623479 -0.052542906 -0.007063614
000170 77 e2 d5 bc ed c0 d6 3c 4e 67 82 bc 9d 41 08 bb
       -0.026108963 0.026215041 -0.0159184 -0.0020791062
000180 a2 6a 52 bc a4 1c f7 bc 06 a5 51 bd 40 e1 ed bb
       -0.012842806 -0.030165024 -0.05118277 -0.007259518
000190 a4 50 87 bc 65 b7 88 3d e8 2c 44 3b 8d 50 91 bb
       -0.016517945 0.06675605 0.0029933993 -0.004434651
0001a0 58 90 80 bd d9 96 f7 3c 23 f1 c9 3c f4 c5 52 3d
       -0.062775314 0.030223297 0.024651116 0.051458314
0001b0 75 4c 06 3d 66 1d af 3c 9d bd f0 bc 37 71 43 3c
       0.03278776 0.021376323 -0.02938729 0.011928848
0001c0 40 cc 5c ba 24 90 40 bc fa b1 f9 3c bb 70 fa 3c
       -0.00084227696 -0.011753116 0.030480374 0.030571332
0001d0 b2 37 80 bd a3 66 85 bd 0d e3 49 3d 9e 9f a4 bd
       -0.06260623 -0.06513717 0.049288798 -0.08038257
0001e0 09 1f 31 3d 26 ff 0e bd 5f a2 09 bd 93 81 a2 3d
       0.043242488 -0.034911297 -0.033602115 0.079348706
0001f0 2a a1 31 3b 1f 88 2e 3d 1f 04 c5 bd c7 af b9 bc
       0.0027104118 0.042610284 -0.09619927 -0.022666825
000200 13 be ec 3b 9c 57 28 3d 67 54 1b 3c 51 6d 00 3c
       0.007224807 0.041099176 0.009480572 0.007838563
000210 d3 3e 23 bc 9e b4 c4 3b 44 d6 b5 3d 89 bc 82 3d
       -0.009963709 0.0060029766 0.088787585 0.063836165
000220 8c 30 62 bd da e0 ac 3d 22 4f 40 bd 82 35 8b 3d
       -0.05522208 0.084413245 -0.046950467 0.06797315
000230 ae a2 df 3c 55 e1 91 3c 1d 1c 25 bd 71 f3 07 bd
       0.027299251 0.017807642 -0.040310014 -0.03319115
000240 31 fb 90 bc 68 b8 90 bd ff 09 14 bd 02 da db 3b
       -0.017697902 -0.07066423 -0.036142346 0.006709338
000250 a7 e6 13 bd 7f 8e 4f 3d 65 d4 26 bd ad d4 13 3c
       -0.03610864 0.050673004 -0.0407299 0.009022874
000260 17 aa ec 3b a9 46 21 3d b6 22 c6 bc ae 5a cd bc
       0.0072224247 0.039374027 -0.024186473 -0.025067654
000270 92 38 bb 3d f6 00 6d 3c 4a 02 b0 bd bb 4a 83 bd
       0.09141649 0.014465561 -0.085941866 -0.06410738
000280 df 1d 9b 3c e8 39 f8 3c d3 0e ef ba 2f a5 99 3d
       0.018935142 0.03030105 -0.0018238671 0.075022094
000290 f8 f5 f5 3c 0a 2b fb 3c ba d9 19 3d 68 9d 1d bc
       0.030024514 0.030660171 0.037561156 -0.009620048
0002a0 87 71 99 bd c2 42 91 3d 21 69 9f bc 50 07 c2 3d
       -0.07492357 0.07092811 -0.019459309 0.09474051
0002b0 81 52 93 3d 8c f6 45 bd fd 10 a2 bc 4f cd 52 3d
       0.07193471 -0.04833083 -0.019783491 0.05146533
0002c0 07 16 80 3c fa 8f e1 bc 2c 19 20 bd 02 53 c2 bc
       0.015635503 -0.027534474 -0.039086506 -0.023721222
0002d0 b2 ca 2d bd f5 1f 81 bb 86 41 2c 3d d7 b1 1c bc
       -0.042429633 -0.003940577 0.042054676 -0.009563885
0002e0 4e ba 36 bd 7a 71 d4 bc a0 31 24 bd 3a d6 4d bd
       -0.044611268 -0.025933016 -0.04008639 -0.05025313
0002f0 90 f7 ca bc b8 de c2 bc 34 b6 39 3d e3 ac 04 3b
       -0.02477625 -0.023787841 0.045339778 0.002024465
000300 5d 87 84 bc fa 82 91 3d 79 51 9d 3d 95 62 1b bc
       -0.016177827 0.0710506 0.07681555 -0.009483953
000310 6c 58 ab 3d 14 e5 12 3b 74 4f 55 bc 3b 28 99 bc
       0.083664745 0.0022414373 -0.013019431 -0.018695941
000320 be fa e7 3c ab 67 47 3d 5f 9e 7f 3c 8c 40 96 bd
       0.028317805 0.04868285 0.015601723 -0.0733653
000330 11 00 7b 3d 20 4e 91 3d a3 7d eb 3c 87 72 79 bc
       0.06127936 0.07094979 0.028746432 -0.015225059
000340 3c 8f ce bb 70 92 66 3c e3 69 9e bd a1 0d 74 bd
       -0.006303696 0.014072999 -0.0773504 -0.05958331
000350 6d 52 02 3b 2c 71 a9 3c 35 23 84 bb 98 46 7a bd
       0.0019885555 0.020683847 -0.0040325173 -0.06110248
000360 8a 01 87 bd d2 35 c0 bc e7 86 34 bd 75 9a 76 3d
       -0.065920904 -0.023463164 -0.044073965 0.060205895
000370 a3 9e 63 bd 50 6a 41 bc 61 0f 94 3d 8e 95 30 bd
       -0.05557121 -0.011805132 0.07229496 -0.043111376
000380 04 97 dd 3b b3 53 25 bd 63 3e f5 bc 8b 54 48 3d
       0.006762387 -0.040363025 -0.029936975 0.04890875
000390 cc 0d 23 3d d6 e1 d3 bc 80 38 3f 3c e0 67 fb 38
       0.03980808 -0.025864523 0.0116711855 0.00011987961
0003a0 8f 8d 97 bd 5d 25 a8 3d 44 ba 1c bd f8 3a ea 3c
       -0.07400047 0.082102515 -0.038263574 0.028592572
0003b0 bf 32 ad 3d 91 8c 77 3d c1 04 01 bd 20 26 a4 bc
       0.08456945 0.06043679 -0.031498674 -0.02003771
0003c0 61 75 88 3c 80 54 2e 3d 88 9c ee 3b cb 41 30 bd
       0.016657533 0.042561054 0.0072818436 -0.043031495
0003d0 63 f5 44 bc 25 63 f7 3c 9a de 21 3c f2 26 85 bc
       -0.012021395 0.030198643 0.0098797325 -0.016253922
0003e0 e3 b7 10 bd 28 22 58 3d 94 f8 62 bd bb ab 82 bd
       -0.035331618 0.05276695 -0.055412844 -0.06380411
0003f0 09 e4 93 3d 19 75 8e bd cd 77 ba 3c 87 06 cf bc
       0.07221229 -0.06955928 0.022762204 -0.025271667

action_model._continuous_distribution.mu.bias f4 [5]
000000 b4 ec b9 ba 7e c8 08 bb bb 80 80 bc 72 07 50 bc
       -0.0014184923 -0.0020871456 -0.015686383 -0.012697088
000010 af 33 88 3b
       0.004156552
