MLConfig/results/badBerry/Animal/Animal-4499896.onnx (onnx, 296297 bytes, 7 tensors)

network_body.linear_encoder.seq_layers.0.weight f4 [256, 24]
00000000: e561 3b3e f520 60be c487 4fbe e416 923d
00000010: d951 b13e 9f90 6e3c 2d5e b8be b012 ecbb
00000020: 2e53 d23d 9841 4c3e a01c 59be 4887 d2bd
00000030: 2c74 0abf b2bb 28be 5821 c93d f919 9f3e
00000040: 3b96 dc3b 8dbd 8cbe 4020 d0be 59e6 1b3e
00000050: 55db 81bc 7351 83be d642 26be 348d babe
00000060: 2fc8 07bf cf0e 6a3d 249a f13d 1824 81bd
00000070: 79d9 aa3d 7cbf 633e 7740 a23e 19d4 623e
00000080: b607 7e3e ab18 99be 6fc8 e2bd 0b7a fc3c
00000090: 0460 bcbd 4412 48be 2850 a7bd b8f6 b63e
000000a0: 93e0 cdbd 6a36 efbe 84aa fbbd 8b8b 97bc
000000b0: 611f a63e 8b5e 8a3e 2043 fcbd 6ef2 453e
000000c0: 9e38 aa3c 091e 90be 51c1 85be d2bf 8bbe
000000d0: 0d63 ca3d 6095 5c3e cf4d 92ba 6365 063e
000000e0: 80be 01bc 4abe e43d 79f4 8ebe 4e28 573e
000000f0: 85f7 29bc e40d 843d 8d18 a73d 2887 673e
00000100: d712 3c3d f239 073f 10ad 84be 4e6f d03e
00000110: 171d 2bbb 0907 88be 74ef 9bbd e2e9 d5bd
00000120: af17 8bbe 8a38 cf3d c295 813e 7b77 7dbc
00000130: c9a6 6d3d 4ed5 cb3d 7297 1c39 432d 3b3e
00000140: 32ea 643e 4058 afbd 0895 043e 6b19 b5bd
00000150: 337e dd3d 46b2 903e 91a2 d4be 504e f1bd
00000160: acda cb3d c317 dd3d 6988 913e 5527 e83d
00000170: 8f50 2dbe 1747 cabd c28f eebe 64dc 243e
00000180: 1746 7dbe 6a3e a23d 8665 aa3e edae 023e
00000190: b6a5 37be 99a9 63be 432f 813e 76af bb3e
000001a0: aa98 af3d b945 023d 71a8 493e 5ee0 793c
000001b0: cedb c83b dfed 54be 7083 18be 164d 723d
000001c0: 1386 d43c 2ba1 dbbe d829 093e 7616 b33d
000001d0: 5a30 bbbe 95fd 83bd 8bb9 87be d85a f03d
000001e0: 7785 713e 44e2 c4bd 6733 5f3e 19ee 743e
000001f0: 0c36 dabe 2725 0bbe 6c67 bcbc 7f3d 96bd
00000200: 9d1f 91bd 2b87 e83d 6325 873d a77d efbd
00000210: 9d3a 163d 95f6 393e e2e2 6ebc 7c6d 23be
00000220: d254 a3bd fe83 b93e 412b 913e 9779 1f3e
00000230: 5937 93be f4bb 8e3e 5041 a7bd fa41 0abc
00000240: 0197 83be 494f b83e 47f9 40be a904 cbbd
00000250: d8bd 1abe a9c3 913e bb80 38be 70da afbc
00000260: a3cc 4abe af0c df3d be1f 8c3e 6c8e 0bbe
00000270: fa7a 1fbe 6854 97ba 762c 703e bce7 85be
00000280: 7c92 8abd 425d b0bc 1b7f 4ebe c2d0 96bd
00000290: 100a 243e c783 53be e249 123e 9686 aabe
000002a0: 0627 893d cf63 2d3e c6f8 d53d b7e3 7abe
000002b0: 12a9 74be 9f05 c63e 8d4a 1c3e c345 5a3e
000002c0: 3b4d b83c 7c25 7f3e 4629 d7be 4a51 0a3f
000002d0: 1f9b 253e ca22 a8be 0368 f8bb eebc a0be
000002e0: be19 463e 1219 dd3e f312 953d 5d47 8abe
000002f0: 4f1f dcbe c797 40be f837 ee3e a35f bdbe
00000300: 1ed1 583e 33a1 0abe 2051 0dbe 24aa de3d
00000310: 6f3b cabe cdb8 293c af31 863e d966 06bd
00000320: f355 8a3e 3d43 c03e 66a8 303d 893f c73e
00000330: 9e02 1fbd b682 b43d bd9a efbe b683 edbc
00000340: a132 273e d7bb 8bbe da8a 213e f3ea 963d
00000350: 26ae de3b 4aea fcbd 52c1 1cbd 92b0 0f3d
00000360: 0f94 c1bd 68ce febd 1a47 dcbd 56f2 cdbd
00000370: 2766 bf3e af42 8d3e ba89 53bd 5012 ecbe
00000380: bb19 aabb 299e 833d dbe1 583e 1e62 d53d
00000390: 3a37 8ebe da7b 5fbe b1ce 7b3e 1dfd e03d
000003a0: d984 a93e a51d b93d 5dfe 05bf cfc4 cfbd
000003b0: c8a4 823d d703 133e e277 adbd f582 2d3d
000003c0: c246 98be ef6b ccbe b3c5 8b3c 83f9 283e
000003d0: 4c04 ddbe b846 ecbd 7f81 773e ff92 513e
000003e0: 3930 dfbc 69fa dcbe a3fc f93d 222b 2ebc
000003f0: 6cc2 4a3f f8cb d8bd 6f61 963b 7925 aabb
0.18299063 -0.21887572 -0.20266634 0.07133272 0.34632757 0.014560848 -0.3600935 -0.007204376
0.102697715 0.19946897 -0.21202326 -0.10279709 -0.54083514 -0.1647785 0.09820813 0.31074503
0.006731776 -0.27488366 -0.40649605 0.1522459 -0.015851656 -0.25648078 -0.16236433 -0.36435854
-0.5303983 0.05714303 0.11796978 -0.063057125 0.08342261 0.22241014 0.31689808 0.22151221
0.24807629 -0.29901633 -0.11073386 0.030819913 -0.09198001 -0.19538218 -0.081695855 0.35735106
-0.100526 -0.46721202 -0.12288383 -0.018499156 0.32445815 0.27025256 -0.123174906 0.19330761
0.02077895 -0.28147915 -0.2612405 -0.27294785 0.09882174 0.21541357 -0.0011162105 0.13124613
-0.007918954 0.11169107 -0.27920893 0.21011469 -0.010373955 0.06447962 0.081589796 0.22610152
0.045916405 0.5282279 -0.25913286 0.4070992 -0.0026109868 -0.26567867 -0.076140314 -0.10445
-0.27166507 0.10118206 0.2530957 -0.015470381 0.058020387 0.09952794 0.00014933737 0.18278985
0.22354963 -0.08561754 0.12947476 -0.08842739 0.10815086 0.28261012 -0.41530278 -0.11782515
0.09953818 0.10795548 0.28424385 0.11335627 -0.16925262 -0.098768406 -0.46594054 0.16099697
-0.24733768 0.07922061 0.3328058 0.12762041 -0.17934307 -0.22232665 0.2523137 0.36657304
0.0857404 0.031804774 0.19693162 0.015251247 0.0061297184 -0.20793866 -0.1489389 0.059155546
0.025942838 -0.428964 0.13394868 0.087445185 -0.36560327 -0.06444851 -0.26508746 0.11736077
0.23586069 -0.09613469 0.21796952 0.23918952 -0.4261936 -0.13588391 -0.022998534 -0.07335948
-0.07086108 0.11353906 0.06598928 -0.11693888 0.03667699 0.1816047 -0.01458046 -0.15959734
-0.079751626 0.36233515 0.28353313 0.15573727 -0.28753164 0.27877772 -0.08166754 -0.008438582
-0.25701144 0.3599799 -0.18845092 -0.09912998 -0.15111482 0.2846959 -0.18017857 -0.021466464
-0.19804625 0.10891091 0.27367967 -0.13628548 -0.15574256 -0.0011545541 0.2345446 -0.26153362
-0.06766221 -0.021528844 -0.20165674 -0.07364036 0.16019464 -0.20655738 0.14285997 -0.33305806
0.06696896 0.16932605 0.104478404 -0.24500929 -0.2389262 0.38676164 0.15262814 0.21315674
0.022497764 0.24916643 -0.42023677 0.5403029 0.16172455 -0.32839042 -0.0075807585 -0.31394142
0.19345757 0.4318319 0.07279005 -0.2700757 -0.42992637 -0.18807898 0.46527076 -0.36987028
0.21173522 -0.13538055 -0.13800478 0.108722955 -0.3949847 0.010359001 0.2620978 -0.032812927
0.270187 0.375513 0.043129347 0.3891566 -0.038820855 0.08813994 -0.46797743 -0.028993469
0.16327907 -0.27291748 0.15775624 0.07369032 0.0067956625 -0.123493746 -0.038270302 0.0350805
-0.09452068 -0.124417126 -0.10755749 -0.100559875 0.37382624 0.27589938 -0.05164502 -0.4610772
-0.0051910556 0.06426651 0.21179907 0.10419105 -0.2777651 -0.2182459 0.24590565 0.109857775
0.33109167 0.09038857 -0.5234125 -0.1014496 0.06379086 0.14356934 -0.084701315 0.04236122
-0.29741484 -0.39926097 0.017062044 0.16501431 -0.4316734 -0.11536926 0.24170493 0.20466231
-0.027244674 -0.43159798 0.1220639 -0.010630401 0.79202914 -0.10585779 0.0045892517 -0.0051924554

network_body.linear_encoder.seq_layers.0.bias f4 [256]
00000000: 7743 f83c ea15 ac3b 3ae7 42bb fc49 70bb
00000010: a5db 9e3c f183 dd3c ea69 e8bb 7eee 623d
00000020: c309 25bc 7ca4 0c3d 546a 23bc ec29 523d
00000030: d85b 1a3b 4a6a 9bbd 8cf6 383d bf7b 053c
00000040: 9d47 6b3c b85e 823c d79b c83c f229 343c
00000050: fc2f ac3c e10a 433c cd6d 7c3c 2784 1a3d
00000060: 012a 65bb ef22 023d bd6d 5cbc d5ef 0bbd
00000070: 6b7f a23b 298c 933b 6f91 e63c 60e8 e13c
00000080: 06b9 e13c 5a58 54b9 4019 aa3c 5d29 113d
00000090: c1de af3b ec96 a93c 292e 003d 952d e63c
000000a0: 48bf a93c e8cc 373d c10d 8f3c d00b f93c
000000b0: 9e48 c73c 6caa 723c 6eee 903c e927 593b
000000c0: a253 4dbb 2bfb 553c 2944 dc3c 03da 933c
000000d0: 668b 9eba 9ca0 c23c c778 f93c 8439 cbba
000000e0: c13d 26bd 83cd 003d e638 fe3c 5f62 8e3c
000000f0: 7869 8e3b 4e7a 6e3c 3323 ca3b fc48 a83c
00000100: 4761 7d3c a950 edbb b41f 7e3c 3107 923c
00000110: 46ae 923b d88b 4b3d 6f65 f63c 9948 893c
00000120: 6ee8 c93c 924c f6bb c659 fc3c c32c 1fbc
00000130: df7e a93c ead2 4dbc 0a7f edbb 4943 05bc
00000140: e256 3b3c 87fa 4b3c 6ed5 243c 302c 7cbc
00000150: a2f2 373c efb4 913c 3339 983c 7a84 a93c
00000160: 6d22 3cbb 6d33 a73c db6f 5e3b c97b a13c
00000170: bc64 e63c acda 4a3d 4652 783c c681 fa3a
00000180: 36a9 153d 3760 d63c 0ba5 5b3c 314e 9f3c
00000190: febe f23c 8dcb 463c d1a3 0d3c 08c0 3b3d
000001a0: d857 823c 22a0 113c 233f 913c 80b3 cb3c
000001b0: 0d61 913c a634 603d c3d5 d8bb c38e 163d
000001c0: f552 75b9 bb62 c83c 0e54 313c 45cb 023c
000001d0: d26a 3b3c 969e b73c 743a 343c e4be e2bb
000001e0: 6b8c 373d 1360 c33c d809 0e3d ac42 b73c
000001f0: 1e9c 08bc 64f6 003c c2c0 1f3c bbf4 813c
00000200: e269 083d 4d0d f63c f46d 1fba 16ef 783b
00000210: 4868 80bc 6c57 683c ae57 bf3c 6c1c a4b8
00000220: 3a9f 0c3d c623 f43c c7a2 1b3d be0d 823c
00000230: 6b02 d33c b2d6 5e3c 9263 68bc df53 563d
00000240: b0fa 473c 435b 0a3c 9518 933c 3537 ab3c
00000250: a8df 29bb e304 3e3c 1cb9 643c fbe8 eb3c
00000260: da95 de3c cc12 8a3c d6e0 62bb ea86 6b3b
00000270: a902 b43b a7e4 9b3c d317 843c 28c6 0e3c
00000280: 6aec f0bb 29bc 5d3d fdd6 753c a108 de3c
00000290: 21d5 6d3c fd1f 063d 640e 963c 0e81 c63c
000002a0: cbf3 823c ee44 ee3c 3f33 153d 3fb2 07bc
000002b0: 18f6 1b3d 2b7a eb3c d8ff ba3b f3d3 aa3c
000002c0: 7625 e63b 90dc 153d f1a6 293d 13c2 023d
000002d0: 5b32 ad3b e01d 25bc e4a6 0c3a 2dc7 943b
000002e0: d2ec c83c 5757 133d e111 7e3c f0a2 d1bb
000002f0: f9f8 cb3c 0626 ad3c 1547 423d 98ae a7ba
00000300: 2f9c 4f3c 04ad 9c3c 4cab 833c 914e f93b
00000310: fb9c 063d 34a0 f53c 63e8 f23c 6333 0f3d
00000320: 7a82 f63c c256 1a3d 22ab 9a3c 9a9a b23c
00000330: deff 16bb 6132 04bc d296 96bc 2845 0d3d
00000340: 556f a23b 4cce 643d 86c3 de3c 92b1 dc3c
00000350: 482e 13bc 9972 173d 9120 773c aa0d 1a3d
00000360: f1d6 a93c da5e 883c 798d bd3c 4324 bb3c
00000370: 8349 963b a6db 803c 76fb f13c c932 a63c
00000380: 978a abbc e9cd d33c c2ed 723c 4774 96bb
00000390: 0d57 f93c 5d9c bc3c 7e3a c83a 739d a83b
000003a0: 1716 2e3d 657f 8b3b 3f35 003b 3d0c 0dbc
000003b0: b154 b23c 7702 d23c a848 c23c 9122 5b3c
000003c0: f05f dc3c 10b7 df3b 5e18 ac3c 955a d33b
000003d0: b44e c63c 6974 cc3b 81e5 933c dd88 973c
000003e0: d432 da3c f126 8ebb 7109 ba3a 1825 233c
000003f0: ff3b ef3c 54b9 a4bc 7f15 803c 6bb1 2f3c
0.030305607 0.005251636 -0.0029739873 -0.0036665192 0.019391844 0.027040454 -0.007092704 0.055403225
-0.010073128 0.034336552 -0.009974081 0.05130951 0.0023553278 -0.075886324 0.045157 0.008147179
0.014360336 0.015914306 0.024488373 0.010996329 0.021018974 0.011904449 0.015407038 0.037723687
-0.0034967663 0.031771597 -0.013453898 -0.03416427 0.004959037 0.0045027924 0.02814552 0.027576625
0.027554046 -0.00020250809 0.020763993 0.035439838 0.0053671305 0.020701848 0.03129402 0.028097907
0.020721093 0.04487315 0.017462613 0.03040114 0.024326619 0.01481114 0.017691817 0.003313536
-0.0031330367 0.013060371 0.02688797 0.018048292 -0.0012095987 0.023758225 0.030453099 -0.0015504812
-0.040586237 0.03144599 0.03103299 0.017380891 0.004346069 0.014555527 0.006168747 0.020542614
0.015465087 -0.0072422815 0.015510488 0.017825695 0.0044763414 0.049693912 0.030077664 0.01675825
0.024646964 -0.007516452 0.030804526 -0.009715262 0.02069038 -0.012562493 -0.0072478103 -0.008133718
0.011434289 0.012449867 0.010060651 -0.0153913945 0.011227282 0.017786471 0.018581962 0.020693053
-0.0028707043 0.020410264 0.0033941183 0.019712346 0.028124206 0.049524948 0.015156334 0.0019112162
0.036538325 0.026168926 0.0134060485 0.019446464 0.029632088 0.012133491 0.008645014 0.045837432
0.015911028 0.008888276 0.017730301 0.024865866 0.017746473 0.05473771 -0.0066172793 0.036757242
-0.00023395925 0.02446114 0.010823263 0.007983034 0.011439042 0.022414487 0.011000264 -0.0069197286
0.044811647 0.023849523 0.034677356 0.022370659 -0.0083380025 0.007871244 0.009750547 0.015863767
0.033304103 0.03003564 -0.0006081753 0.0037984303 -0.015674725 0.014180999 0.023357239 -7.8254234e-05
0.034331538 0.029802214 0.037997033 0.015875693 0.025757989 0.013600992 -0.014183896 0.05232608
0.012205765 0.00844461 0.017956058 0.020900348 -0.0025920663 0.011597845 0.013960149 0.028797617
0.027171064 0.016854666 -0.0034618876 0.003593857 0.005493481 0.019029928 0.016124642 0.008714236
-0.0073524015 0.05413452 0.0150048705 0.027103724 0.014516146 0.03274535 0.018317409 0.02423146
0.01598539 0.029085603 0.036425825 -0.008282243 0.03807649 0.028744778 0.0057067685 0.020853018
0.0070235087 0.036587298 0.041418973 0.031923365 0.005285544 -0.010077924 0.0005365445 0.004540345
0.024526987 0.035971966 0.015507192 -0.0063975975 0.024898993 0.021136295 0.04743107 -0.0012793122
0.012671514 0.019125469 0.016072892 0.007608243 0.032864552 0.029983617 0.029651826 0.034961116
0.030091513 0.037680395 0.01888043 0.021802235 -0.0023040692 -0.008068652 -0.018382464 0.03448978
0.0049571195 0.055860803 0.027192842 0.02694014 -0.008983202 0.036974523 0.015083448 0.037610687
0.020732375 0.016646791 0.023138748 0.02284444 0.0045864 0.015729737 0.029538851 0.020287888
-0.020940108 0.025855022 0.014827194 -0.004591498 0.030437017 0.023023779 0.0015276221 0.0051457225
0.042501535 0.00425713 0.0019562987 -0.008608875 0.0217689 0.025635941 0.023716286 0.0133749405
0.026901215 0.0068272427 0.021007713 0.006450007 0.02420745 0.006239463 0.018053772 0.018497879
0.026635565 -0.0043381383 0.0014193488 0.009957574 0.029203413 -0.020107903 0.01563525 0.010723452

network_body.linear_encoder.seq_layers.2.weight f4 [256, 256]
00000000: 087e 84bc 2255 043d ead7 1b3c 8cd5 5b3d
00000010: e014 2f3d 2622 033d e9d7 77bc 61c8 ae3c
00000020: d4a0 53bd 3a79 e73d f577 1c3c f8b0 10bd
00000030: ca27 84bc f133 eb3d 8014 7fbd 918b c9bc
00000040: 7f42 ab3d 5530 42bc 3ccd 363d caf7 1c3c
00000050: 641a ba3c f86e 92bd 1f4c a33c 8e75 b03c
00000060: c4d7 afbd 3394 063e 7218 71bc f2b2 1d3d
00000070: 6058 e6bc a275 9b3d 3d98 c73d dab5 783a
00000080: a685 aabc 22db df3c fe8c e93a 2efd 203b
00000090: 4ccc f53d 3572 d63c 388d 13bd f552 ec3d
000000a0: d9c0 12be a836 87bd 5c1f 33bc caad 3d3d
000000b0: c043 4b3d 6978 00bd 2819 eb3d 4f08 713d
000000c0: ba3c b83d 0611 87bd 2bed 9bbd 5ea9 6ebd
000000d0: ad1c d5bc 399c 8e3d c5e4 c3bd 052d 2ebd
000000e0: ebbf 713d ce47 943c 25b0 673d a685 f3bd
000000f0: 272b efbc 502b 8bbd 1297 1a3c ff56 c4bd
00000100: bb8d 01be e59a 34bd bb9a 0c3d f91c 59bd
00000110: 8c53 653c 5fac c6bb f736 b63d 1ce4 a4bd
00000120: b93a 9dbc c3f3 1f3d 79c0 473d ce52 2a3d
00000130: 96e5 72bc 0736 b9bd 557b eebb ca40 923d
00000140: 8256 693c 7a92 80bd e356 6d3d 305f c3bc
00000150: 9c3b fa3a 2248 703d bb47 ff3c 32de f53d
00000160: 17d2 e93c b711 913c 0e55 33be 9000 a5bd
00000170: bfc8 0cbd 0fcf d4bc eb4e 7a3c b51f 033d
00000180: c011 4cbd 7e2c be3c 8d77 8c3d 339a 37bd
00000190: 4fe2 d6bd 9e01 903d 96b0 25bd 3f3c d63d
000001a0: 9d95 5d3d 1351 933c 8707 01bd 73ae 203c
000001b0: b547 d13d d2f2 163e b451 f4bb 3e64 77bd
000001c0: 928a 26bd 9836 273d 5947 97bd 8017 bfbc
000001d0: 0686 07be 1fbb 96bd 707a df3d 19d2 063d
000001e0: b090 dd3a 4a86 aebb c7e1 c33d c036 163c
000001f0: 5575 b13d 0852 4fbd 5d15 783d 7f32 c3bc
00000200: fc0f ffbd e6dc 30bd 9743 383d 78f1 babb
00000210: 8efc a6bd 6c12 debc ae9e 073d c4c5 64bc
00000220: a900 1fbd 0863 c53d 96ac 353b 1671 f0bd
00000230: 6142 8e3d ab3d c1bd 2f2b 9ebd 1d8f d13b
00000240: 5359 b9bd 1e02 b4bc adb1 753d 140a 23bd
00000250: 9507 253b 207f f1bd d434 d2bd dcfa be3d
00000260: 5550 4bbd 36de 67bd 9fb4 91bd 3b53 803d
00000270: 7a14 063d 6adc 6ebd 9848 563d 69d7 f33c
00000280: 9999 f83c f9d6 683d 6d87 d1bd da60 233b
00000290: 0e56 bbbc 32c8 ee3d 67d5 d2bb b5cd 923d
000002a0: 0841 193e 5473 8b3b cbf4 553d 004f 0f3d
000002b0: c59d d3bd 783a 4abd 221e f3b9 7c3d a23c
000002c0: a0b6 393c cdbd e03c 6d26 633d 638d 763d
000002d0: f902 c33b bcea 61bd 3011 15bc 8ee1 2c3c
000002e0: 678c a43b 8d56 a43d 9e56 ae3d 87d4 b63c
000002f0: b396 973d 44d4 1dbe 9f31 883b 2534 aabd
00000300: 5b2d 8bbd d9a8 823c b429 dbbc 955c f8bc
00000310: 3007 1f3c 4180 28bd b505 aabc b6b4 aebb
00000320: feb7 66bd d812 003c 4d5d 9f3d 74d0 303c
00000330: ce4d ffbb d68c 9e3c 8195 803d b419 14be
00000340: 07b2 1ebc 2782 a5bd d194 8c3c 5cdf 8bbc
00000350: 9436 ba3c 61f8 0f3d 12cf 993d 0c81 d53d
00000360: e4e3 acbc 9563 8d3c 3c1a 253d aca6 a23b
00000370: dcfd 2bbd 3283 bf3d fac5 ee3d 7a01 e6bd
00000380: 3fec 90bd a2c8 c73d f7af c6bd 6d7d 2e3c
00000390: 3214 ab3d dee6 a33c 1047 aebd 4ede 11bc
000003a0: 07ef 4b3d 1431 533d 4ce5 4ebd b495 97bd
000003b0: 7167 77bb 0836 df3d c019 9c3c da95 3d3d
000003c0: 401a 533d e4d8 6ebc a48c abbd 227d 55bd
000003d0: e74a 933c 37a0 9f3d c7c8 69bc f769 d6bd
000003e0: 2ae5 6cbd c914 21be 99cf 023d 20dc 763d
000003f0: 8583 db3d 9d53 f73a 7141 bdbd c090 013e
-0.016173378 0.03230775 0.009511927 0.05367045 0.042744517 0.03201499 -0.015127161 0.021335782
-0.05166705 0.11302419 0.009550084 -0.03532502 -0.016132254 0.114845164 -0.06227541 -0.024602683
0.083622925 -0.011852344 0.04462932 0.009580562 0.022717662 -0.07150072 0.019933758 0.02154043
-0.08586076 0.13142471 -0.014715301 0.038500734 -0.028118312 0.07590796 0.09745834 0.0009487547
-0.020815682 0.02732617 0.0017818508 0.002456497 0.12001857 0.026177505 -0.03602335 0.1153926
-0.14331378 -0.06602222 -0.01093277 0.046308316 0.04962516 -0.031364832 0.114794075 0.058845814
0.08995958 -0.06595044 -0.076135956 -0.05826699 -0.02601465 0.06963391 -0.09565119 -0.042523403
0.059020918 0.018100645 0.05656447 -0.11890726 -0.029195381 -0.067953706 0.009435432 -0.09586906
-0.12651722 -0.04409303 0.03432725 -0.053006146 0.01399697 -0.0060630287 0.088972025 -0.08051321
-0.01919304 0.03905083 0.04876754 0.041582875 -0.014825245 -0.09043508 -0.007277886 0.07141264
0.0142418165 -0.06277938 0.05794419 -0.0238491 0.0019091251 0.05866254 0.031162133 0.12005271
0.028542561 0.017708642 -0.17512915 -0.08056748 -0.034371134 -0.02597764 0.015277605 0.03201266
-0.049821615 0.023214575 0.0685874 -0.04482479 -0.10492384 0.070315585 -0.04045161 0.1046071
0.05409776 0.017982995 -0.03150132 0.009807217 0.10218755 0.14741066 -0.007456029 -0.060398333
-0.040659495 0.04082355 -0.07386655 -0.023326635 -0.1323472 -0.07359909 0.10912025 0.03291521
0.0016904082 -0.005326067 0.09564548 0.009168327 0.086649574 -0.05061534 0.06056725 -0.02382779
-0.12454221 -0.043179415 0.044986334 -0.005705055 -0.0815364 -0.027108394 0.033110313 -0.013963167
-0.03881899 0.09638029 0.0027721277 -0.117403194 0.069462545 -0.0943559 -0.0772308 0.0063952343
-0.0905024 -0.021973666 0.059983898 -0.039804533 0.0025181521 -0.11791825 -0.102639824 0.093251914
-0.049637157 -0.0566084 -0.07114529 0.06265875 0.03273437 -0.058315672 0.052315325 0.029765802
0.030346679 0.05684564 -0.102309085 0.0024929554 -0.022868183 0.11659278 -0.006434131 0.07168142
0.14966214 0.0042556915 0.052235406 0.03498745 -0.103328265 -0.049372166 -0.00046371022 0.019804709
0.011335045 0.027434254 0.055456568 0.06019343 0.005951282 -0.0551555 -0.009098336 0.010551823
0.00502162 0.08024321 0.08512615 0.022318138 0.074017905 -0.15413004 0.004156306 -0.08310727
-0.0679576 0.015949653 -0.026753284 -0.030317584 0.0097063035 -0.041137937 -0.020754674 -0.005331601
-0.056327812 0.007816993 0.077814676 0.010791887 -0.0077912575 0.019354265 0.062785156 -0.1446293
-0.009686 -0.08081465 0.017160805 -0.01707428 0.022731103 0.035148982 0.07510199 0.10425004
-0.02110476 0.017259398 0.040308222 0.0049637165 -0.041990146 0.093511954 0.11658855 -0.112307504
-0.0707631 0.097550645 -0.097015314 0.010650021 0.08353461 0.020007547 -0.08509648 -0.008903099
0.0497885 0.051560476 -0.050511643 -0.074016005 -0.0037750865 0.108989775 0.019055247 0.046285488
0.051538706 -0.014578078 -0.083764344 -0.05212129 0.017980052 0.077942304 -0.01426906 -0.1046943
-0.057835735 -0.15730585 0.03193626 0.06026852 0.10718445 0.0018869523 -0.092409976 0.12652874

network_body.linear_encoder.seq_layers.2.bias f4 [256]
00000000: e99b 943c fa19 8e3c 1e2a a5bb 7543 d13c
00000010: 5086 1f3d 2b22 8b3c 78b2 f83b b87c 923c
00000020: 8215 d5bb 2a67 9c39 ed13 bc3c dbcb 033c
00000030: db22 2bbb 8fd2 f13c 77c4 653a b35f ceba
00000040: aca0 953c 3a21 a53c 2ee2 673b 3a76 833c
00000050: 2efa e1bb f845 d3ba e483 c73c ac56 8b3b
00000060: 7e66 fc3c c48f e03c 72bf c53c 1b38 6a3c
00000070: 573d 763c 9b8a 9e3c 0b85 183c 008a f9ba
00000080: 0654 133c 944b b2bb 8a73 9c3c acf4 203c
00000090: 9029 a23c 902e a73c ddfc 683b a317 e73b
000000a0: a45f 903c 877a 783c bac1 1f3d dfc8 9fb9
000000b0: ef92 093d 716a b23c 161f 8a3c fd5f 643c
000000c0: 6d71 d3b8 3db6 bbbb a99b 23bb 4cd9 933c
000000d0: 58e5 063d fd6e 013d 40db 893c 9eee 953b
000000e0: 30ae 923c b3ed fd3a 79d7 d13a de1b 373c
000000f0: 2a38 a93a fac1 913b bbc0 b93c 01f5 213c
00000100: 15ce 463c 753a 903b fb47 983a 1b80 403b
00000110: 6e00 5e3c 977f a63c 41eb a23c 35c0 023c
00000120: 2942 b43c 5da8 033d 1582 3c3c fc5a e7ba
00000130: dcf6 0c3d c361 ea3b 76bc 23bc d376 803b
00000140: ee7c 143c 2dfd 323b b87f c23b a101 163b
00000150: 7bd4 0d3c 820a 8b3c 3b2b b03c 8986 ecb9
00000160: ca23 d13c 67db 5e3c 1487 583c 06e5 973b
00000170: e5b5 953b bf1d 323a 541d bb3c a83a fe3b
00000180: 50bc 943b d030 2f3c 7025 c338 d1e8 013c
00000190: 9aaa 833b b242 963c 2c34 b23b e503 923b
000001a0: e06e 6d3c ba9f cb3b 3027 143c 20f5 e73c
000001b0: d2f0 2f3c 6544 183c d8d6 7b3c b576 143c
000001c0: 78be 0f39 49f2 d93c f9b1 4e3c b0fa a33c
000001d0: ea11 c53c 7977 e33c 27e6 d33c a006 8c3c
000001e0: addf 093c 9564 b33c f746 ae3a 8ca1 0a3d
000001f0: 7bdd c93c 6b40 07bb 28f9 d43c a4f5 993b
00000200: b769 083c 8626 223c c560 663a e70f 5dbc
00000210: 8f45 583c c311 14ba 2cd0 1a3c ba7e a63c
00000220: 6d20 643c faa6 e93c 03c5 923b b128 603c
00000230: 12dc 8a3c eb96 213c b6c8 1f3c 0dd7 c83b
00000240: bafb 5f3b 31e6 8c3c 37a0 263c de7a 0cbc
00000250: d240 b93c 9429 ae3b 8867 983c d804 4c3c
00000260: 030f 853c bb3f 7f39 cf6f 3f3c d5c5 f33b
00000270: f8fd 0e3d 10dc 003c d0f1 ac3c bc4e 173d
00000280: 66d0 a23c 6b2b 023d 1ea4 253c 8947 523c
00000290: 9c0c 6c3c b8df a03c 58f7 bc3b 185f ecbb
000002a0: 2f04 c33c 83be 443c cdf8 3f3c 1aa4 883c
000002b0: 643f 7b3c 1702 ff3c 9a8c 123c 211f b53a
000002c0: 26c9 f93b 6f6b 3f3c dc9f 733c 7780 923b
000002d0: 810a 6c3c 233f e3ba a4df 003b 0562 5c3c
000002e0: ba34 2e3c fc3b 053c 439c 323c 9f59 fb3c
000002f0: f29a 843b 234c 0d3d ce12 fd3a 3cbf 953c
00000300: eae8 733c a697 b03c 4629 9e3c e7f9 be3b
00000310: 37d9 f83c 8b42 8b3c a505 9d39 8a20 c43a
00000320: 29fc 563b 1af5 c13c 2607 903c ae81 863c
00000330: df39 043c e44c 893c d947 f43b 807a 523c
00000340: a5f8 ea3c b826 6cba 7206 d03c 2f1c a83c
00000350: 1f71 a6bb cc10 b23b c61e d13c ff4f 0d3c
00000360: 4288 b43c 8512 543c f864 b03c 1b25 463c
00000370: 5562 d43c ffae b23b e56c 843c dc41 8e3c
00000380: b118 753c 7bff 833c 2b8f 8b3c c4d4 7e3c
00000390: 6cf2 163c 9825 423c e24e f83c f459 a739
000003a0: c1b1 eb3c 824b 403b 5a43 b63c 4610 3739
000003b0: d2c0 5f3c dbfe a23b 7776 883c 196e 513b
000003c0: 91b6 ecbb 964e 283b d87a 9b3c 83e7 c73c
000003d0: f6cb 113d 97c3 9c3b 1353 9b3c 6cc2 8b3b
000003e0: 5135 9e3c 7d66 d43c d54a 1d3c 6464 cb3c
000003f0: 92b0 153c 5407 8e3c 3db6 183c 7109 783c
0.01814075 0.017346371 -0.005040421 0.025544861 0.03894645 0.016984066 0.0075896345 0.017881736
-0.006502808 0.00029831502 0.02295872 0.008044208 -0.0026113305 0.029519347 0.0008764932 -0.0015745073
0.01826509 0.020157445 0.0035382616 0.016047586 -0.006896279 -0.0016118875 0.024354883 0.0042522755
0.03081059 0.027412303 0.02413914 0.014295603 0.015029273 0.019353202 0.009309064 -0.001903832
0.008992201 -0.0054411385 0.019098062 0.009823959 0.01979521 0.020407945 0.003555111 0.0070523783
0.01762373 0.015165932 0.03900311 -0.00030476504 0.033587392 0.02177927 0.016860526 0.013938901
-0.00010082391 -0.0057285116 -0.0024964607 0.018047951 0.032933563 0.031599987 0.01682818 0.0045755645
0.017905325 0.0019373208 0.001600965 0.011176078 0.0012910415 0.0044481726 0.022674909 0.009885074
0.012134095 0.0044015 0.0011618132 0.0029373232 0.013549907 0.020324511 0.019887568 0.007980396
0.022004204 0.032142986 0.011505623 -0.0017651017 0.03441511 0.0071527674 -0.009993663 0.003920415
0.009062989 0.002731155 0.0059356354 0.0022889154 0.008656616 0.016972784 0.021504989 -0.00045113664
0.02552976 0.013602114 0.013215799 0.004635456 0.0045688027 0.00067945936 0.022841133 0.007758457
0.00453905 0.01069279 9.305298e-05 0.007929043 0.00401814 0.01834235 0.0054383483 0.0044560307
0.014491767 0.0062141092 0.009042546 0.028315127 0.010738568 0.00929365 0.015371047 0.009061505
0.00013708498 0.026604788 0.012615674 0.020016998 0.024056394 0.02776693 0.025866581 0.017093003
0.008415145 0.021898547 0.0013296296 0.03384547 0.024641743 -0.0020637761 0.025997713 0.004698472
0.008325986 0.00989688 0.00087882235 -0.013492561 0.013200178 -0.00056483987 0.009449046 0.0203241
0.0139237465 0.028522003 0.004479052 0.013681577 0.01695064 0.009862642 0.009752443 0.0061291517
0.003417714 0.017199608 0.010170034 -0.008574216 0.022613917 0.005315015 0.018604055 0.012452327
0.01624251 0.00024342437 0.011684372 0.007439355 0.034910172 0.007864967 0.021111399 0.03694032
0.019874763 0.031779688 0.010109929 0.012834438 0.014407303 0.019637927 0.0057667904 -0.0072134845
0.023805706 0.012008312 0.011717034 0.016679812 0.015334938 0.031128926 0.008944655 0.0013818481
0.0076228557 0.011683329 0.014869656 0.0044708806 0.014406801 -0.0017337542 0.001966455 0.013451104
0.010632688 0.008131977 0.0109015135 0.030682383 0.0040467912 0.034496438 0.0019307972 0.018279664
0.014887074 0.021556687 0.01930679 0.0058281305 0.030377014 0.016999504 0.0002994958 0.0014963311
0.0032804108 0.023676444 0.017581534 0.016419258 0.008070438 0.016760297 0.007454854 0.012846589
0.028683016 -0.0009008455 0.025393698 0.020521251 -0.005079403 0.0054341312 0.02552737 0.00862503
0.022037629 0.0129438685 0.02153252 0.012093808 0.025925795 0.00545299 0.016165206 0.017365389
0.0149595 0.016113034 0.017036041 0.015553657 0.009213071 0.011849783 0.030311052 0.00031919742
0.028771283 0.002934188 0.022248913 0.00017458302 0.013656812 0.004974229 0.016658051 0.0031956492
-0.007223912 0.0025681606 0.018979475 0.024402386 0.035594903 0.0047840583 0.018960511 0.0042651203
0.019312533 0.025927776 0.009600361 0.024828143 0.009136336 0.017337479 0.009320793 0.01513897

action_model._continuous_distribution.log_sigma f4 [1, 5]
00000000: fe1f 813c 7b9b e7ba dca1 da3c 6863 423d
00000010: 5229 61bd
0.015762325 -0.0017670238 0.026688509 0.047458082 -0.054971047

action_model._continuous_distribution.mu.weight f4 [5, 256]
00000000: a24e 06bd 715f 3a3d 23b1 b9bc 49c6 a73d
00000010: 3f74 84bd cb10 613d f870 c7bc 17fd 9fbd
00000020: 6bf9 cd3c 002f 8e3d 4705 51bd 7912 c7bc
00000030: c932 12bc 46ad 8fbd 8cb5 64bc 7598 14bd
00000040: c8b7 483b 777e 32bc 2b2e 033d ae3c 70bd
00000050: 0aeb c0bb f997 a03c 3a3d a2bd 5212 cfbb
00000060: 43bd 323d c11a 00bb 0f4c d23c ae70 f5bc
00000070: 6944 ac3c 4208 2a3c 6d3e f0bc 26f9 3abd
00000080: 513c f0bc 8163 99bc b7e6 eb3c 3419 003d
00000090: 5d0d 573d ce47 babd 5ba2 90bb dfff 793d
000000a0: f9ad 14bd 4ec7 17bd fc0c b6bd 9fdd 183d
000000b0: b9fb dd3b 379a 813d b8fa ce3c db9f 10bb
000000c0: 8f2a 993b e7cf ac3c 962d 153d 660b 47bd
000000d0: eadb ce3c 1eae 9b3d 2cef 56bd 6d2e 85bc
000000e0: 7ffc 8e3c d4e2 ea3c 7393 3d3d 00ce 19bd
000000f0: 3224 10bd ef4b 263d c7b2 c43d 8f6c c3bc
00000100: bb7e 17bd 4600 513d e02a c0bc 9a17 493d
00000110: 9ed3 bebb 4a9b 72bc 9348 a33d f258 683b
00000120: 7014 af3c 083e fa3c 7f56 1abd 7475 01bc
00000130: d95a a7bc 54c0 9abc 9be5 46b9 c4e4 5a3d
00000140: 4767 bdbb 8c13 0e3d 5580 c2ba d711 bfbb
00000150: 5c6a 753d ee46 9f3c 6628 7dbc c4c2 b8bc
00000160: fa80 073c e67a 8a3d 1cc2 56bd 1b87 febb
00000170: 5911 e4bc 522f dd3c 4365 86bc 5d67 7bbb
00000180: fe7e 47bc 99fd f9bc 633e 5abd f322 0abc
00000190: c35a 92bc a048 8c3d 3e10 823b decd d0bb
000001a0: ea30 82bd 9594 f23c b12c c53c 8b10 5a3d
000001b0: dabb 0b3d 177b b63c caad ebbc ea48 413c
000001c0: 8b61 c8ba da6e 58bc 3433 f43c 0c7c fc3c
000001d0: dbe4 82bd dd26 85bd 6b77 503d b5c8 a7bd
000001e0: a898 343d 2473 0abd 856a 06bd c053 a63d
000001f0: 7b42 203b 1a26 2e3d 0138 c4bd 0403 c0bc
00000200: f996 eb3b e94c 2b3d d69a 2a3c 903c f83b
00000210: 8ab3 35bc 5f5b ce3b b8b4 b83d 452c 873d
00000220: f72c 62bd a0c2 b03d 4803 4cbd f770 883d
00000230: 2ed4 e23c bd06 933c 41a9 26bd ed87 07bd
00000240: 797b 92bc d1c9 91bd 2dbf 18bd 7315 bf3b
00000250: 2073 1bbd 3492 523d e539 2ebd 7ba7 0e3c
00000260: 7176 953b 71ee 1d3d 0f40 ccbc b289 c5bc
00000270: fb13 be3d 8266 553c 0931 b1bd ce11 87bd
00000280: ed81 aa3c a39e fb3c 9f33 95bb 3590 9c3d
00000290: 4e64 003d 9de6 003d 07df 223d 8665 27bc
000002a0: 3750 9cbd 5308 903d e4d6 acbc f872 c43d
000002b0: 18ca 933d b603 4ebd b134 a3bc 8d2c 503d
000002c0: 5633 803c 6796 e2bc a695 1cbd b5b8 c7bc
000002d0: ccd3 2fbd ebe0 83bb bcab 2c3d fa2d 28bc
000002e0: d600 3fbd 4948 e0bc 21cc 22bd cb34 51bd
000002f0: 6479 d7bc 29f4 c6bc 734f 353d 8a7c d93a
00000300: 4f5b 81bc 6219 953d 226c a13d 591a 0bbc
00000310: 4ed8 af3d 562e 2c3b 066d 75bc fff7 95bc
00000320: b9a8 f53c ab09 4a3d 1a9a 843c dc19 99bd
00000330: ffe4 823d 10e8 933d 3a88 ed3c d5d8 74bc
00000340: a63f b9bb 725f 6f3c df25 a2bd f950 77bd
00000350: 454f 9f3a fc08 af3c 69e0 ddbb 6a4d 7fbd
00000360: 0b97 89bd f997 c7bc 7045 35bd 0d32 753d
00000370: 2b10 6dbd f22d 33bc 86fa 983d 0687 2fbd
00000380: 80e3 ce3b f15d 27bd ca3d 05bd 344f 4e3d
00000390: 7aae 1d3d a499 e3bc be60 473c ec12 53ba
000003a0: 7e2e 98bd 0e00 ab3d b239 22bd 37ba fe3c
000003b0: 00a5 af3d a723 7c3d 9f43 00bd cfc6 acbc
000003c0: 25b8 893c b665 2c3d 3ce7 103c d27e 35bd
000003d0: b15c 50bc 23c1 ea3c 543f 103c 724d 87bc
000003e0: e02d 15bd caf8 5e3d bac1 66bd df03 84bd
000003f0: 6006 953d 27b7 8ebd a5c6 a43c 7808 d7bc
-0.032789834 0.045501176 -0.022667473 0.08192117 -0.06467485 0.054947656 -0.02434586 -0.07811945
0.025143346 0.06942558 -0.051030423 -0.0243008 -0.008923241 -0.07015471 -0.0139593 -0.036278207
0.003062712 -0.010894409 0.03202645 -0.05865162 -0.005887394 0.019603716 -0.07921834 -0.0063193226
0.043637525 -0.0019547197 0.025671033 -0.029960956 0.021028714 0.010377945 -0.029326642 -0.045647763
-0.029325636 -0.018724205 0.028796537 0.031274036 0.05250298 -0.09095727 -0.0044138855 0.061035033
-0.036298726 -0.037055306 -0.08889195 0.03732073 0.0067743924 0.06328242 0.025266036 -0.0022067938
0.004674263 0.02109523 0.036420427 -0.048594855 0.025251348 0.076015696 -0.052474186 -0.01625749
0.017454384 0.028672613 0.046283197 -0.037549973 -0.03519077 0.04059976 0.096044116 -0.023855476
-0.036986094 0.05102565 -0.023457944 0.049094774 -0.0058235666 -0.014807532 0.07972827 0.0035453406
0.02137205 0.030547157 -0.037680145 -0.007901538 -0.020429062 -0.018890537 -0.00018968286 0.053440824
-0.005780134 0.03468661 -0.0014839271 -0.005830984 0.059915885 0.019443002 -0.015451526 -0.022553809
0.0082704965 0.06761722 -0.05243121 -0.0077675707 -0.027840303 0.027000103 -0.016405707 -0.003836117
-0.012176273 -0.030516433 -0.053282153 -0.008431184 -0.017865544 0.068497896 0.0039692214 -0.0063721975
-0.06356986 0.029611865 0.024069162 0.053238433 0.034114696 0.02227549 -0.028769393 0.011797169
-0.0015287859 -0.013210023 0.029809572 0.030820869 -0.06391307 -0.06501553 0.050895136 -0.08192579
0.044090897 -0.033801213 -0.03281643 0.08121443 0.0024453688 0.042516805 -0.095809944 -0.023438938
0.007189628 0.041821394 0.010412892 0.007575579 -0.011090169 0.0062975134 0.09018844 0.066002406
-0.055218663 0.08630872 -0.049807817 0.06662171 0.027689066 0.017947549 -0.040688757 -0.033088613
-0.017881142 -0.071185715 -0.037291694 0.0058314144 -0.03795159 0.05140896 -0.04253568 0.008706923
0.0045612385 0.038557474 -0.02493289 -0.02411351 0.09281155 0.013024928 -0.08651931 -0.06595193
0.020813907 0.030715292 -0.004553273 0.07644693 0.031345658 0.03146993 0.039763477 -0.010217076
-0.07632487 0.07032838 -0.021098562 0.09592241 0.07216281 -0.050296508 -0.019922586 0.050823737
0.015649479 -0.027659608 -0.038228653 -0.024380067 -0.042926595 -0.004024615 0.042155966 -0.010264868
-0.046631657 -0.027378218 -0.039745454 -0.051075738 -0.026303 -0.024286347 0.04426522 0.0016592902
-0.01579061 0.07280232 0.07881953 -0.0084901685 0.08586179 0.0026272736 -0.0149796065 -0.01830673
0.02998768 0.049325626 0.016186763 -0.074756354 0.06391334 0.07221997 0.028995622 -0.014944275
-0.0056533394 0.014610158 -0.079173796 -0.060379956 0.0012154361 0.021366589 -0.0067711365 -0.062329687
-0.06718262 -0.024364458 -0.044255674 0.059862185 -0.057876747 -0.010936247 0.074696586 -0.042853378
0.006313741 -0.040861074 -0.03252963 0.050368503 0.038496472 -0.027783222 0.012169061 -0.0008051831
-0.07430743 0.0834962 -0.039605804 0.031094654 0.08576393 0.06155744 -0.03131449 -0.021090893
0.01681144 0.042089187 0.008844193 -0.0443104 -0.012717412 0.028656548 0.008804161 -0.016516421
-0.036420703 0.054436482 -0.056337096 -0.06446051 0.072766066 -0.06968527 0.020114252 -0.026249155

action_model._continuous_distribution.mu.bias f4 [5]
00000000: f350 d8ba ade1 b0bb 487a 74bc 90ed 3ebc
00000010: c8af 823b
-0.0016503617 -0.0053979964 -0.014921732 -0.011653319 0.00398824
