MLConfig/results/badBerry/Animal/Animal-5000304.onnx (onnx, 296297 bytes, 7 tensors)

network_body.linear_encoder.seq_layers.0.weight f4 [256, 24]
000000 a5 7a 3c 3e b8 3e 5f be eb 55 4f be 94 e0 92 3d
       0.1840616 -0.21801269 -0.20247619 0.07171741
000010 92 e0 b1 3e 18 99 7d 3c f5 ea b7 be 52 2a d5 bb
       0.34741646 0.015478395 -0.35921445 -0.006505289
000020 de 37 d4 3d a3 51 4d 3e ea 94 59 be 62 ef d2 bd
       0.10362218 0.20050673 -0.21248212 -0.10299565
000030 f2 17 0a bf d9 7e 27 be 31 86 c8 3d 89 61 9f 3e
       -0.5394279 -0.16356982 0.0979122 0.311291
000040 29 95 02 3c a2 e4 8c be 12 4a d0 be b4 54 1c 3e
       0.007970133 -0.27518183 -0.4068151 0.15266687
000050 6c 47 86 bc 3d 98 83 be ce da 26 be 30 f4 b9 be
       -0.016391478 -0.25702086 -0.16294405 -0.36319113
000060 ba 92 07 bf 8e 74 6e 3d 00 d0 f4 3d 56 04 7c bd
       -0.5295826 0.058216624 0.11953735 -0.061527573
000070 22 30 ab 3d eb 77 64 3e 10 ba a2 3e 05 c0 63 3e
       0.0835879 0.2231137 0.3178258 0.22241218
000080 6d 48 7e 3e 6d e8 98 be c4 ef e1 bd a4 93 00 3d
       0.24832316 -0.29864827 -0.1103206 0.0313908
000090 36 2c bc bd d0 e2 47 be aa 48 a3 bd 72 f9 b6 3e
       -0.0918812 -0.19520116 -0.07972844 0.35737187
0000a0 f7 e4 cf bd 28 a6 ef be b3 2b fc bd 35 42 99 bc
       -0.101510935 -0.46806455 -0.123130225 -0.018708328
0000b0 a1 89 a6 3e bb 6e 8a 3e cd ef fc bd c7 07 46 3e
       0.32526878 0.27037606 -0.12350426 0.19338904
0000c0 82 ae b1 3c 49 d9 8f be 38 f7 85 be 00 dc 8b be
       0.021689657 -0.28095463 -0.26165175 -0.27316284
0000d0 40 d4 cc 3d e1 94 5d 3e ca 6a a8 ba 10 39 06 3e
       0.10001421 0.21638824 -0.0012849208 0.13107705
0000e0 b9 cd f5 bb 6b 96 e5 3d b7 41 8f be fc c3 56 3e
       -0.0075013307 0.112103306 -0.27979824 0.209732
0000f0 43 fd 26 bc 2d 78 84 3d 91 58 a7 3d 30 95 67 3e
       -0.010192218 0.06468234 0.081711896 0.22615504
000100 e5 2e 40 3d 79 42 07 3f b5 ee 84 be 02 28 d1 3e
       0.046919722 0.52835804 -0.2596337 0.40850836
000110 8d 83 23 bb 78 d0 88 be f7 68 9c bd 3b 67 d6 bd
       -0.0024950237 -0.2672155 -0.07637208 -0.104689084
000120 c6 87 8b be 71 e1 cd 3d 08 d6 81 3e 28 11 78 bc
       -0.27252024 0.10052765 0.25358605 -0.015140809
000130 c0 9c 6c 3d 7e 76 cb 3d 89 0c 20 3a 8e 87 3b 3e
       0.057766676 0.0993471 0.00061053835 0.18313429
000140 08 8b 64 3e a8 bb af bd 29 37 05 3e 2c 42 b4 bd
       0.22318661 -0.085807145 0.13009323 -0.08801684
000150 a8 e9 dd 3d 3a e3 90 3e 23 cd d5 be 12 bc f1 bd
       0.10835582 0.2829836 -0.4175807 -0.1180345
000160 92 74 cd 3d c9 e7 e0 3d 5a 7a 92 3e 8f c3 e7 3d
       0.10032 0.109817095 0.28608972 0.11316597
000170 ea 3a 2d be 29 96 c9 bd 51 d4 ee be 63 a9 25 3e
       -0.16917005 -0.09843094 -0.4664636 0.16177897
000180 d1 bd 7c be af ac a3 3d 58 cf aa 3e 6d a4 03 3e
       -0.24681784 0.07991921 0.33361316 0.12855692
000190 73 6d 38 be 6a 48 64 be ab 5e 81 3e f2 ed bb 3e
       -0.18010502 -0.22293249 0.25267538 0.36704975
0001a0 db be b0 3d f6 7b 04 3d a6 34 4a 3e fb a1 81 3c
       0.08630153 0.03234478 0.19746646 0.015824309
0001b0 99 8d ec 3b 2a 02 54 be e6 b2 18 be a3 5a 77 3d
       0.007219028 -0.2070395 -0.14911994 0.060389172
0001c0 76 42 cb 3c fa 42 dc be 65 c9 09 3e 83 4d b3 3d
       0.024811964 -0.4301985 0.13455732 0.087550186
0001d0 00 bc bb be b0 d7 83 bd 72 2c 88 be 48 85 f1 3d
       -0.3666687 -0.064376235 -0.2659641 0.117929995
0001e0 24 bb 70 3e 04 87 c6 bd 40 fa 5e 3e fa a7 74 3e
       0.23508888 -0.09693721 0.2177515 0.23892203
0001f0 c1 fc d9 be 00 38 0b be d9 c1 bb bc f2 5b 96 bd
       -0.42575648 -0.13595581 -0.022919582 -0.07341756
000200 15 78 91 bd 70 51 e8 3d a2 a9 87 3d 73 4b ef bd
       -0.07102982 0.11343658 0.06624152 -0.11684313
000210 d2 91 18 3d 48 9c 3a 3e 93 8f 8b bc 2e c4 23 be
       0.03724844 0.18223679 -0.017036235 -0.15992805
000220 53 71 9e bd b9 6f ba 3e ad d9 91 3e 02 c7 1e 3e
       -0.07736459 0.36413363 0.28486386 0.15505603
000230 7a 9c 93 be 1c 13 8f 3e b3 79 a7 bd 7e e0 fb bb
       -0.2883032 0.27944267 -0.08177509 -0.0076866737
000240 16 5b 83 be 23 56 b8 3e 62 ad 41 be 2f 6f cc bd
       -0.2565543 0.36003217 -0.18913797 -0.09982144
000250 bf 87 1a be d0 c4 91 3e 5a 3e 39 be 13 28 b5 bc
       -0.15090846 0.2847047 -0.18090191 -0.022113835
000260 1a c8 4a be 01 8e de 3d 78 b3 8b 3e 00 51 0c be
       -0.19802895 0.10866929 0.2728536 -0.13702774
000270 54 0e 20 be 51 c6 dd ba f0 18 71 3e f9 29 86 be
       -0.15630466 -0.0016920065 0.23544669 -0.26203898
000280 1c 1b 8c bd fc b6 ac bc 92 28 50 be 4e 86 96 bd
       -0.06841108 -0.021083347 -0.20327976 -0.07349835
000290 21 fd 23 3e 99 c2 53 be 61 16 13 3e f9 a3 aa be
       0.1601453 -0.20679702 0.14364006 -0.33328226
0002a0 26 af 8a 3d 3e c7 2d 3e 72 d1 d5 3d 8c f7 7a be
       0.06771688 0.16970536 0.10440339 -0.24508494
0002b0 18 33 73 be 9b 63 c6 3e a3 84 1c 3e 3f 7f 5a 3e
       -0.2374996 0.38747868 0.15284972 0.21337603
0002c0 88 d8 b9 3c 46 3c 7f 3e c0 f8 d6 be 8e 6e 0a 3f
       0.022686258 0.24925336 -0.41986656 0.54074943
0002d0 42 1d 26 3e 63 ec a7 be cd 19 08 bc 26 a6 a0 be
       0.16222098 -0.32797536 -0.008306933 -0.3137676
0002e0 93 be 48 3e df 86 dd 3e 23 01 96 3d 25 42 8a be
       0.19603948 0.4326696 0.073244356 -0.2700359
0002f0 d1 9c dc be 24 d7 40 be 74 43 ee 3e 71 24 bd be
       -0.4308839 -0.1883207 0.46535838 -0.36941865
000300 22 85 57 3e 7b ab 0b be 20 58 0d be a3 61 de 3d
       0.2104688 -0.13639633 -0.13803148 0.108584665
000310 ce 9c ca be 32 89 1d 3c 6f 15 86 3e 53 34 07 bd
       -0.39572757 0.009615229 0.26188228 -0.033008885
000320 92 2f 8a 3e fb 1c c0 3e e7 be 31 3d f6 45 c7 3e
       0.26989418 0.3752211 0.04339495 0.38920563
000330 50 d4 1e bd e1 af b4 3d 61 43 f0 be a7 56 ec bc
       -0.038776696 0.08822609 -0.46926406 -0.028849913
000340 f5 d6 26 3e bd 5e 8b be 41 7c 22 3e 08 ee 95 3d
       0.16292937 -0.27220717 0.15867712 0.073207915
000350 ce d1 d6 3b 21 8b fb bd a6 58 1e bd 61 2e 10 3d
       0.0065557724 -0.12282396 -0.03865876 0.03520048
000360 dd 3d bf bd 5c de fc bd 9e 4b db bd 81 cf cc bd
       -0.09337971 -0.12347099 -0.10707782 -0.10000516
000370 f9 d9 bf 3e c7 b2 8d 3e ce 4f 52 bd 90 ea eb be
       0.37470987 0.2767546 -0.05134564 -0.46077394
000380 d4 10 97 bb 7b c9 84 3d 2e 54 58 3e 4f ae d4 3d
       -0.0046101604 0.06483742 0.21125862 0.10384809
000390 3f eb 8d be d7 0a 5f be 42 3b 7d 3e 8c 67 e1 3d
       -0.2771854 -0.21781479 0.24729636 0.11006078
0003a0 a7 7e a9 3e 7f 02 b8 3d 58 2d 06 bf 55 c1 cf bd
       0.3310444 0.08984851 -0.5241294 -0.10144297
0003b0 b6 0f 82 3d 61 cb 12 3e 8a ab ad bd 05 06 2d 3d
       0.06350653 0.14335395 -0.08479984 0.04224207
0003c0 14 4c 98 be c2 2c cc be 05 c4 95 3c da 3b 2a 3e
       -0.29745543 -0.39877898 0.018281946 0.16624394
0003d0 64 50 dd be a9 53 eb bd f7 85 78 3e 8e 98 52 3e
       -0.43225396 -0.11490566 0.24269854 0.20566007
0003e0 32 ea e4 bc 77 29 dd be 96 40 fc 3d 0b 4f 1d bc
       -0.027943704 -0.43195698 0.12317006 -0.009601365
0003f0 00 c7 4a 3f 27 56 d8 bd f0 f7 bb 3b 15 6f a4 bb
       0.792099 -0.10563307 0.0057363436 -0.005018125

network_body.linear_encoder.seq_layers.0.bias f4 [256]
000000 9a 02 fd 3c a9 a2 b8 3b 88 e3 46 bb 43 c2 4d bb
       0.03088503 0.005634625 -0.0030348022 -0.0031396307
000010 1b 46 a6 3c d2 ee df 3c c6 ea 02 bc 1a 38 64 3d
       0.0202971 0.027335558 -0.007990545 0.055717565
000020 67 d2 20 bc 8e 26 0d 3d 1a d2 18 bc 96 8d 52 3d
       -0.009815789 0.034460597 -0.009327436 0.051404558
000030 96 b9 36 3b fd d8 9d bd 9c a8 3d 3d 64 e2 03 3c
       0.0027881614 -0.07707403 0.046303377 0.008049581
000040 97 eb 6d 3c ea 3a 87 3c 25 72 ce 3c bb e1 31 3c
       0.014521501 0.016507585 0.025200913 0.010857041
000050 b2 40 ad 3c ff ae 3b 3c cb 8f 7a 3c bd 29 1b 3d
       0.021149013 0.011455297 0.015293072 0.0378816
000060 56 f4 82 bb e4 e2 01 3d d3 9c 64 bc d8 2b 0e bd
       -0.0039964123 0.03171052 -0.013953405 -0.03470978
000070 bd 4c 9a 3b 8d ba b0 3b 28 ca e7 3c a7 c2 e3 3c
       0.004708855 0.0053933323 0.028294638 0.027802778
000080 72 20 e8 3c 40 67 87 3a 66 1a aa 3c ef ce 10 3d
       0.028335784 0.0010330454 0.02076454 0.035353597
000090 a2 fb b1 3b f3 c3 b1 3c 5c 1e fd 3c 2f 47 ec 3c
       0.0054316083 0.021699881 0.030898266 0.028842537
0000a0 b3 46 a8 3c 5c ac 37 3d 33 74 91 3c 83 9c fa 3c
       0.020541525 0.04484211 0.017755603 0.030592209
0000b0 d2 5f cf 3c f3 7a 74 3c a2 c4 93 3c 4d e4 78 3b
       0.025314245 0.0149218915 0.018038098 0.0037977875
0000c0 7f 31 5e bb 40 c5 64 3c 66 d6 e4 3c 8f 8e 9b 3c
       -0.0033904014 0.013963044 0.027934264 0.018988876
0000d0 9b 3d 84 ba 73 23 c2 3c d8 4a fd 3c 51 98 b0 ba
       -0.0010089161 0.023698544 0.030919477 -0.0013473128
0000e0 0b 31 29 bd 8f d4 01 3d ea 2f fe 3c 12 a1 94 3c
       -0.041306537 0.031696852 0.031028707 0.01814321
0000f0 bf 19 82 3b e0 c1 75 3c fa 8a f6 3b 0c 01 af 3c
       0.0039703543 0.014999837 0.0075238915 0.021362804
000100 0a b8 7a 3c 1f 57 04 bc f9 11 84 3c 8a 25 94 3c
       0.015302667 -0.008077412 0.016121851 0.018084306
000110 63 77 9c 3b 94 0e 50 3d da 67 f9 3c 6d 47 8c 3c
       0.004774974 0.050795153 0.030445028 0.017123902
000120 2f 3f ce 3c 5f 40 fa bb a9 63 fe 3c 40 db 1c bc
       0.025176613 -0.007637068 0.031053381 -0.009573758
000130 76 a6 b2 3c 44 b4 52 bc 13 57 f0 bb 83 e4 04 bc
       0.02180789 -0.0128603615 -0.007334599 -0.008111122
000140 09 f4 33 3c c7 a6 49 3c 17 97 2f 3c b2 db 82 bc
       0.0109834755 0.012307829 0.010717175 -0.0159739
000150 5c 39 3a 3c d8 8c 97 3c ba 49 96 3c 25 14 ae 3c
       0.011366215 0.018499777 0.018345702 0.02124984
000160 c7 ff 36 bb 0d 68 a8 3c 59 6e 6a 3b d5 a8 a2 3c
       -0.0027923451 0.020557428 0.0035771339 0.019855896
000170 27 b2 e8 3c 69 17 4c 3d 9c 89 66 3c 8b e9 2a 3b
       0.028405262 0.049827013 0.014070895 0.0026079144
000180 91 1d 19 3d 47 02 dd 3c df 0c 5b 3c d0 00 a5 3c
       0.037381712 0.026978625 0.013369768 0.020141989
000190 62 57 f2 3c 67 16 52 3c 1f 30 0d 3c 5f 6e 3e 3d
       0.029582683 0.012822724 0.00861743 0.046491977
0001a0 92 af 83 3c 5c 2f 16 3c 4d 73 95 3c 0e c2 cf 3c
       0.01607493 0.009166565 0.018243456 0.025361087
0001b0 e5 b7 92 3c f5 be 62 3d 39 62 ba bb 7f 5c 1c 3d
       0.017909953 0.055357892 -0.0056879786 0.03817415
0001c0 7d c0 82 39 e5 ae cb 3c 09 59 42 3c 20 c3 02 3c
       0.00024938947 0.02486367 0.011862048 0.007981092
0001d0 c7 c7 47 3c 36 62 bc 3c 3d 66 36 3c a6 62 dc bb
       0.012193627 0.02299605 0.011132774 -0.006725627
0001e0 5d bb 3a 3d 1a 32 c7 3c 0c 54 10 3d 03 5c bf 3c
       0.04558884 0.024315882 0.035236403 0.023359304
0001f0 db b9 ff bb b2 79 01 3c fc a9 16 3c fd dc 79 3c
       -0.007804138 0.00790255 0.009195801 0.015250442
000200 0e a8 05 3d c7 de f6 3c 2b 1a 02 b9 02 fa 8a 3b
       0.032630973 0.030135525 -0.00012407514 0.004241229
000210 21 48 73 bc 82 f6 67 3c be 94 bf 3c 42 7c a4 38
       -0.01484874 0.014157893 0.023386355 7.843274e-05
000220 21 fa 0c 3d d6 47 f8 3c 7d 77 1e 3d 9a 9c 88 3c
       0.03441823 0.030307692 0.03868817 0.016676236
000230 08 ff d4 3c e8 03 5f 3c 95 d0 65 bc a3 09 59 3d
       0.026000515 0.013611771 -0.014026781 0.052987706
000240 11 60 4d 3c a9 94 16 3c f9 ae 94 3c ba e8 a8 3c
       0.012535111 0.009190717 0.01814984 0.020618785
000250 d8 e1 0e bb 6c 0c 3e 3c 7b d0 6c 3c 7c af ef 3c
       -0.0021802094 0.011599641 0.0144540025 0.029258482
000260 ec 4a d8 3c 95 18 8a 3c 74 95 58 bb 4a 72 84 3b
       0.026402913 0.016857425 -0.0033048065 0.0040419446
000270 72 3f ae 3b 7d f1 9f 3c ed b8 82 3c 41 9e 22 3c
       0.005317622 0.01952433 0.01595732 0.009925426
000280 c5 81 03 bc 67 2e 63 3d 5d cc 73 3c b5 cd de 3c
       -0.008026545 0.055464175 0.014880267 0.027197698
000290 e0 c2 6f 3c c8 ec 06 3d 87 91 92 3c cb c9 c6 3c
       0.014633864 0.032940656 0.017891658 0.024266144
0002a0 da 69 8c 3c 54 20 ef 3c e3 bf 17 3d a6 0b 0c bc
       0.017140318 0.02919022 0.03704823 -0.008547699
0002b0 d2 92 21 3d b3 d5 ec 3c 35 b7 b9 3b 42 d5 aa 3c
       0.03944666 0.028910493 0.005667592 0.020853642
0002c0 9d e3 dc 3b ff a5 18 3d 38 25 2f 3d 91 6b 03 3d
       0.006741001 0.03726768 0.042760104 0.032085005
0002d0 dc 41 92 3b f4 cd 2c bc 9e 0f cd 3a a3 b2 a8 3b
       0.0044634175 -0.01054715 0.0015644913 0.0051482483
0002e0 7a 55 d0 3c 4c 58 12 3d 4c 27 82 3c 4a 86 cf bb
       0.025431383 0.035728738 0.015887879 -0.006333147
0002f0 d6 57 cf 3c 07 ac af 3c b0 31 3e 3d c8 20 bd ba
       0.025310438 0.021444334 0.046434104 -0.0014429325
000300 75 c8 54 3c 85 64 9e 3c e8 6b 8c 3c ce a2 13 3c
       0.012987246 0.01933504 0.017141297 0.009010984
000310 2f b6 08 3d 74 98 fa 3c e4 b8 f6 3c 51 c5 11 3d
       0.03337687 0.030590273 0.03011746 0.035588566
000320 0f ab fb 3c 86 ca 1a 3d eb 52 9a 3c d2 e4 b8 3c
       0.030721216 0.037790798 0.018838366 0.022570048
000330 d2 41 29 bb d0 3d eb bb de 31 97 bc b0 65 0f 3d
       -0.0025826585 -0.0071789995 -0.018456396 0.035009086
000340 87 c0 bd 3b 9d dc 64 3d 3b 91 dc 3c 99 fe dc 3c
       0.0057907733 0.055874456 0.02692472 0.02697687
000350 79 27 08 bc 55 0d 18 3d b9 1d 78 3c 25 ae 19 3d
       -0.008310192 0.03712209 0.015143805 0.037519593
000360 06 f2 ae 3c 07 fc 8b 3c 23 bb c3 3c a0 3a c1 3c
       0.02135564 0.01708795 0.023892945 0.023587525
000370 63 a4 9e 3b 95 9a 83 3c 81 00 f9 3c a2 24 a9 3c
       0.004841374 0.016064921 0.030395748 0.02064735
000380 db 67 aa bc 2f 0e d8 3c ff 9b 7a 3c 26 01 a9 bb
       -0.020801475 0.02637395 0.015295981 -0.0051576076
000390 6f 55 fd 3c 69 be c0 3c f0 b4 c2 3a 76 b3 90 3b
       0.030924527 0.023528295 0.0014854949 0.0044159247
0003a0 36 9c 2d 3d c6 90 80 3b 7e 4e 18 3b 3c 81 14 bc
       0.042385302 0.0039235083 0.0023240144 -0.009064015
0003b0 95 ac b7 3c cb 56 d5 3c ec 6e c7 3c ee cb 63 3c
       0.02242116 0.026042363 0.024344884 0.013903601
0003c0 14 5c e4 3c 99 49 f1 3b d3 55 af 3c 9d 38 c9 3b
       0.027875938 0.00736351 0.021403229 0.006140782
0003d0 be 99 ca 3c 88 85 d5 3b 15 2a 90 3c 69 9e 9e 3c
       0.024731513 0.0065161623 0.017598191 0.019362645
0003e0 6f 76 e0 3c 5c 88 86 bb 1d fe b1 3a ed 8f 2c 3c
       0.027400224 -0.004105611 0.001357976 0.010532361
0003f0 29 b7 f6 3c 6f 03 a5 bc 4f bc 82 3c de 6e 34 3c
       0.030116634 -0.020143239 0.015958933 0.011012761

network_body.linear_encoder.seq_layers.2.weight f4 [256, 256]
000000 16 78 7d bc b6 79 08 3d 0c 32 19 3c 97 b0 5d 3d
       -0.015470525 0.033319198 0.009350311 0.054123487
000010 bb c0 32 3d 4e ea 01 3d 1e e0 83 bc a0 5f b2 3c
       0.043640833 0.03171759 -0.016098078 0.021774113
000020 04 ca 4e bd fe 59 e7 3d f9 7f 1c 3c 30 2b 18 bd
       -0.050485626 0.112964615 0.009551995 -0.03715056
000030 af 70 7b bc a3 61 e9 3d 98 12 7f bd bc d8 d3 bc
       -0.01534669 0.11395576 -0.06227359 -0.025860183
000040 7b e3 ad 3d 30 e0 34 bc a4 c8 35 3d 01 be 2b 3c
       0.08490654 -0.011039779 0.0443808 0.010482312
000050 2e 24 b7 3c 05 77 90 bd ba 70 ab 3c aa 15 ad 3c
       0.022356119 -0.07053951 0.020927776 0.021128494
000060 56 04 b2 bd f6 e1 06 3e a0 65 7f bc b2 06 21 3d
       -0.08692233 0.13172135 -0.015588194 0.039313026
000070 4f 79 da bc 39 59 9c 3d 3a 59 c8 3d 04 b4 eb 3a
       -0.026669173 0.07634205 0.097826436 0.0017982726
000080 d6 a0 b2 bc da a2 e8 3c 8f 47 f2 39 6a 31 3d 3b
       -0.021805208 0.028397966 0.00046211152 0.0028868564
000090 bf 65 f8 3d d8 12 e4 3c 2e ed 15 bd c7 77 ee 3d
       0.121287815 0.027841017 -0.036603145 0.116439395
0000a0 38 b1 12 be 30 d1 88 bd 0f 08 2b bc 78 fd 3b 3d
       -0.14325416 -0.06680524 -0.010438933 0.045896024
0000b0 0c db 4b 3d 7c 44 09 bd 45 ae ec 3d 5e 6a 6a 3d
       0.049769446 -0.033512577 0.11556677 0.057230346
0000c0 08 3d b9 3d a1 30 87 bd ae 4f 9e bd 8c 95 6f bd
       0.09044844 -0.06601072 -0.077300414 -0.05849223
0000d0 11 0a cf bc 34 96 90 3d da f9 c2 bd 7e cc 2d bd
       -0.025273355 0.07059899 -0.09520312 -0.042431347
0000e0 04 b3 74 3d a1 ab 9b 3c 64 a8 66 3d a7 a1 f2 bd
       0.059741035 0.019002737 0.056312934 -0.11847239
0000f0 dc a2 eb bc e4 b9 8b bd 1f b0 0e 3c a8 e3 c4 bd
       -0.02876418 -0.06822565 0.008708983 -0.096137345
000100 5e b3 00 be 14 00 32 bd 8c b7 0e 3d 31 9c 56 bd
       -0.12568423 -0.043457106 0.034843013 -0.05239505
000110 8b a9 76 3c d0 27 ec bb f8 44 b5 3d b5 2c a4 bd
       0.015055071 -0.0072068945 0.08851045 -0.0801634
000120 a2 b8 a0 bc 36 39 26 3d 16 9a 4a 3d 26 f8 2f 3d
       -0.01961929 0.040581904 0.049463354 0.042961262
000130 92 90 68 bc 2f 79 b6 bd fc 97 00 bc 39 ad 93 3d
       -0.0141946245 -0.08909833 -0.007848736 0.07210774
000140 92 68 5d 3c f2 70 80 bd 5b d4 70 3d 96 60 be bc
       0.013513701 -0.062715426 0.058796268 -0.023239415
000150 47 1a 2a 3b b1 dc 74 3d e4 85 fe 3c dd 06 f8 3d
       0.0025955604 0.05978078 0.031069703 0.12110684
000160 a9 66 ec 3c 7d 71 92 3c cd 3e 32 be e4 c8 a3 bd
       0.028857546 0.017876381 -0.17406769 -0.07997301
000170 05 66 0c bd 50 ac d6 bc f9 8c 6a 3c 9b 30 06 3d
       -0.03427698 -0.026205212 0.014315837 0.032761198
000180 1f 83 4f bd 2b 5c bf 3c 8b c0 8d 3d d4 c2 38 bd
       -0.050662156 0.023359379 0.0692149 -0.045107678
000190 ec 37 d9 bd 8d 1e 91 3d c1 a3 20 bd 79 d0 d4 3d
       -0.106063694 0.07085905 -0.039218668 0.103913255
0001a0 30 89 60 3d 33 2c 8f 3c 6d 08 f6 bc 3c 83 22 3c
       0.054818332 0.01747713 -0.030033315 0.009918984
0001b0 3f ba d2 3d 4d 2a 16 3e c3 9e d4 bb 1b 72 79 bd
       0.1028943 0.14664574 -0.0064886524 -0.060899835
0001c0 67 11 23 bd fb d8 27 3d 83 28 98 bd ef fb ba bc
       -0.039811518 0.040978413 -0.07429602 -0.02282521
0001d0 b7 65 06 be ee 45 97 bd 2c 8e e0 3d 46 89 0a 3d
       -0.13124739 -0.07386385 0.10964617 0.03382232
0001e0 d6 db 08 3b 6c af a0 bb 15 7a c3 3d ae fd 1a 3c
       0.0020882986 -0.0049037244 0.0954477 0.009459896
0001f0 2d f2 b3 3d 55 14 4d bd cb 59 7d 3d 47 da c2 bc
       0.08786426 -0.05006822 0.06185321 -0.023785723
000200 a2 eb ff bd df 35 34 bd 99 cf 3a 3d db 31 95 bb
       -0.12496115 -0.043996688 0.045608137 -0.0045530624
000210 39 3a a7 bd 3e ad e1 bc ae 1a 0a 3d f8 2c 4d bc
       -0.08165402 -0.027548429 0.03371685 -0.012522928
000220 95 22 24 bd 18 ba c6 3d 28 d2 28 3b 39 c5 ee bd
       -0.040072042 0.09703463 0.0025760029 -0.11658711
000230 82 04 90 3d 38 a0 bf bd be 17 9d bd ae ab c5 3b
       0.0703211 -0.09356731 -0.07670544 0.0060324287
000240 b1 88 b7 bd 1e 07 ae bc 8e a0 73 3d c4 28 28 bd
       -0.08961619 -0.021243628 0.05947929 -0.041054502
000250 da b1 5c 3b 71 bb f0 bd 65 b4 d2 bd 6e e5 c0 3d
       0.0033675344 -0.117545016 -0.10288314 0.0941876
000260 7d 9c 51 bd 00 2f 66 bd 39 4b 91 bd b9 9c 81 3d
       -0.05117463 -0.056197166 -0.07094426 0.063287206
000270 f0 c3 0a 3d ed e4 6c bd 91 f2 50 3d ce 14 ed 3c
       0.033878267 -0.05783551 0.05101258 0.028940585
000280 71 3a 00 3d 50 68 68 3d fd c4 d0 bd c2 0f 39 3b
       0.031305734 0.056740105 -0.101938225 0.0028238152
000290 14 4e c6 bc b0 b6 ec 3d 35 c5 d8 bb fa ea 93 3d
       -0.024207152 0.115582824 -0.006615306 0.072225526
0002a0 ef 68 18 3e 8c 01 a7 3b 8a 8e 55 3d c1 2c 10 3d
       0.14883779 0.00509662 0.05213789 0.03519893
0002b0 c1 ab d2 bd 67 14 45 bd 4d 28 c2 ba 54 70 a0 3c
       -0.10286666 -0.04811516 -0.0014813036 0.019584812
0002c0 b7 a9 3d 3c ef 75 e5 3c 3a ea 5f 3d b8 a2 70 3d
       0.011576108 0.028010337 0.054666735 0.05874893
0002d0 de f0 b5 3b 6f 98 63 bd 30 1e 09 bc e5 81 37 3c
       0.0055523952 -0.055565294 -0.008369014 0.011200403
0002e0 9e 31 92 3b e9 52 a3 3d 35 a2 af 3d 3a 95 b8 3c
       0.0044614812 0.07974798 0.085758604 0.022532094
0002f0 0b 42 98 3d 71 47 1e be 31 fb 73 3b 79 27 a8 bd
       0.07434472 -0.1545694 0.003722858 -0.08210654
000300 09 a5 8c bd 56 16 71 3c 8f 59 de bc f6 bb 00 bd
       -0.068674155 0.014714798 -0.027142314 -0.031429254
000310 59 fe 2e 3c b3 bf 23 bd fa d6 aa bc ec ad c3 bb
       0.010680758 -0.03997774 -0.020854462 -0.005971661
000320 95 45 60 bd f6 6d e7 3b 30 a9 9f 3d 18 ab 28 3c
       -0.05475386 0.007062669 0.07795942 0.010294698
000330 24 71 13 bc 8d 05 a2 3c cd 61 83 3d 8f b7 14 be
       -0.008999143 0.019778037 0.064151384 -0.14523147
000340 cc ab 2c bc 9f 72 a6 bd c2 d0 8b 3c ef 65 8b bc
       -0.010539006 -0.08127331 0.017067317 -0.01701638
000350 6f 6c bd 3c e1 20 0d 3d 07 ea 97 3d 93 f4 d6 3d
       0.023122994 0.034455184 0.07417684 0.104958676
000360 47 c7 b3 bc 50 2f 8c 3c 9a 96 26 3d d2 48 a9 3b
       -0.021945609 0.017112404 0.04067097 0.0051661516
000370 db c3 28 bd 99 bb c0 3d bb db ec 3d c0 db e3 bd
       -0.041202407 0.094107814 0.11565348 -0.11125898
000380 ac 9f 90 bd e1 c6 ca 3d 35 ed c5 bd 8b 97 3a 3c
       -0.07061705 0.099012144 -0.09664384 0.01138867
000390 68 2f ab 3d 2e a1 ac 3c 4f aa ad bd 29 e4 20 bc
       0.083586514 0.02107295 -0.084797494 -0.009820023
0003a0 44 b6 44 3d 98 ea 4b 3d 3e c6 51 bd 3e 7d 96 bd
       0.048025385 0.049784273 -0.05121445 -0.07348107
0003b0 0c 74 9b bb 4a 59 de 3d fd 9e 92 3c 45 e9 40 3d
       -0.0047440585 0.10856874 0.017898077 0.047097463
0003c0 81 91 50 3d cc 0c 60 bc 93 b4 ad bd 10 4b 52 bd
       0.050920013 -0.013674926 -0.084817074 -0.051341116
0003d0 05 40 8d 3c fa a9 a1 3d fc 55 7c bc 20 fd d7 bd
       0.017242441 0.078937486 -0.01540136 -0.10546327
0003e0 59 f5 69 bd c7 85 20 be 25 9b 03 3d fd ca 79 3d
       -0.057118747 -0.15676032 0.03213038 0.0609846
0003f0 e0 68 d9 3d 5b 38 34 3b 93 bc bb bd cb e4 01 3e
       0.106157064 0.002749941 -0.09166827 0.12684934

network_body.linear_encoder.seq_layers.2.bias f4 [256]
000000 0f 69 9b 3c 17 8e 95 3c f0 9d a6 bb 10 62 d9 3c
       0.018970994 0.01825623 -0.0050847456 0.026536018
000010 8f 5c 20 3d 4c 9e 93 3c 7a ef 02 3c 05 a9 90 3c
       0.03915077 0.018019818 0.007991666 0.01765872
000020 45 52 c5 bb 2c e8 9b 3a 2c e9 bf 3c f3 d6 09 3c
       -0.00602177 0.0011894754 0.023426615 0.008413064
000030 92 ab 51 bb da 2e f4 3c f4 7a 90 3a 71 cb c0 ba
       -0.0031993133 0.029807497 0.0011022971 -0.0014709068
000040 df e7 99 3c ac 88 ab 3c 71 16 8b 3b 1e cc 81 3c
       0.018787323 0.020939194 0.0042446186 0.015844401
000050 0f a9 e4 bb 55 bd d2 b9 bf 16 cb 3c ff f7 86 3b
       -0.006978161 -0.00040195385 0.02479112 0.004118919
000060 89 1d 01 3d 1d 0b e6 3c ce 05 cd 3c 2c 26 71 3c
       0.031522308 0.028081471 0.025027182 0.014718574
000070 38 db 7c 3c c3 42 a1 3c ea 85 1a 3c 80 e7 eb ba
       0.015433125 0.019685155 0.009431342 -0.001799807
000080 0a 78 19 3c 99 93 a0 bb d6 c7 9e 3c 91 9b 2b 3c
       0.009366998 -0.0049004075 0.019382399 0.010474102
000090 ac 3e a4 3c 56 24 a8 3c 81 3d 75 3b bc 2f f1 3b
       0.020049416 0.020525139 0.0037420692 0.0073604267
0000a0 26 40 8f 3c 38 4d 78 3c 0f f1 1f 3d 7b 35 07 3a
       0.017486643 0.015155129 0.03904825 0.00051578105
0000b0 58 82 0c 3d 58 73 bb 3c 1a 94 92 3c 06 fe 5d 3c
       0.034303993 0.022882149 0.017892886 0.013549333
0000c0 7c f0 46 39 2b de bb bb fd 7c 1e bb 52 40 93 3c
       0.00018972339 -0.0057332716 -0.0024183386 0.017975006
0000d0 93 03 0b 3d 86 19 05 3d f3 08 8a 3c 0d 66 8b 3b
       0.033938956 0.032495044 0.01684997 0.0042541088
0000e0 46 03 9c 3c 9b 55 45 3b bc 54 3a 3b f3 f3 44 3c
       0.01904453 0.003011084 0.0028431853 0.012021053
0000f0 68 4c cd 3a a3 1f 99 3b f8 6d bc 3c a6 3d 20 3c
       0.001566303 0.004672961 0.023001656 0.009780323
000100 b6 1b 49 3c 51 7b 95 3b f1 2f 97 3a 43 82 87 3b
       0.012274673 0.0045618196 0.0011534673 0.0041354015
000110 33 1e 65 3c eb 4a aa 3c b3 61 a8 3c cb 45 0b 3c
       0.013984251 0.020787677 0.0205544 0.008500527
000120 0a d5 ba 3c a3 1d 08 3d 54 21 40 3c 0b cf be ba
       0.022806663 0.03323139 0.011726696 -0.0014557553
000130 7b a7 0e 3d d1 e2 f3 3b ce 3e 25 bc 13 fa 87 3b
       0.03482769 0.00744281 -0.010085775 0.004149684
000140 12 70 1a 3c e4 66 64 3b 12 f5 be 3b 27 56 4a 3b
       0.009426134 0.0034851367 0.0058275545 0.0030874105
000150 a6 4d 0d 3c e0 18 92 3c fc da b0 3c f2 78 98 b7
       0.00862447 0.017834127 0.021588795 -1.8176132e-05
000160 d2 81 d4 3c cc 1f 67 3c d1 32 5b 3c 15 6c a8 3b
       0.02594081 0.014106702 0.013378815 0.0051398375
000170 39 3c 93 3b 1b ca ae 3a e6 ed c5 3c de e5 07 3c
       0.004493263 0.0013335379 0.02416129 0.008294551
000180 f4 ed a4 3b 68 c3 31 3c c3 cd 12 39 18 d0 04 3c
       0.005033249 0.010849811 0.00014000297 0.008106254
000190 77 30 82 3b 81 8a 9d 3c 5f d2 b8 3b d4 e3 9d 3b
       0.0039730626 0.019231083 0.0056403126 0.004818419
0001a0 31 24 71 3c a2 bb d3 3b 50 fd 12 3c c7 6a ee 3c
       0.014718101 0.0064615766 0.008971527 0.02910365
0001b0 55 66 44 3c 20 a0 18 3c fc 38 81 3c cf 0c 15 3c
       0.0119872885 0.0093155205 0.015774243 0.009097292
0001c0 de 3b 09 3a d5 36 e3 3c 90 dd 5c 3c 63 6e ad 3c
       0.0005235056 0.027736107 0.013480559 0.0211708
0001d0 11 a7 c7 3c a2 34 e7 3c 42 3a da 3c 2b 56 8e 3c
       0.024371656 0.02822334 0.026639108 0.017375072
0001e0 ab cd 12 3c 71 55 bb 3c 77 9a ba 3a d6 b8 0f 3d
       0.008960168 0.02286789 0.0014236708 0.035088383
0001f0 c8 b1 cf 3c d9 27 87 ba c0 e3 d5 3c 1a f2 a7 3b
       0.025353327 -0.0010311558 0.026109576 0.0051252963
000200 6f dd 0c 3c 61 f8 25 3c f3 7f df 3a e8 ab 60 bc
       0.008597716 0.010130019 0.0017051682 -0.013712861
000210 08 61 5d 3c 9a 0a e3 38 ba f6 2b 3c 32 93 ab 3c
       0.013511904 0.00010826178 0.010495836 0.020944212
000220 b2 56 63 3c 1c 13 f2 3c d1 8c 92 3b bf a2 65 3c
       0.01387565 0.029550128 0.004472353 0.0140158525
000230 18 48 8c 3c bb fe 22 3c 3c f7 28 3c fc 34 d3 3b
       0.01712422 0.009948428 0.0103128515 0.006445525
000240 cf 7d 34 3b 68 f5 90 3c 08 32 25 3c 61 19 0a bc
       0.0027540808 0.017695144 0.010082729 -0.008428902
000250 d9 cd bf 3c 3d a0 b3 3b a1 e0 9e 3c 23 75 52 3c
       0.023413585 0.0054817484 0.01939422 0.01284531
000260 61 7e 88 3c 29 0f 1f 3a 9a 33 45 3c 65 4a 02 3c
       0.016661825 0.00060676277 0.012036229 0.007952307
000270 69 82 12 3d 1c 90 04 3c 38 95 ab 3c 92 51 1a 3d
       0.0357689 0.008090999 0.020945176 0.037675448
000280 03 90 a8 3c ac 2d 05 3d e5 45 2b 3c 51 ac 56 3c
       0.020576483 0.03251426 0.010453676 0.013102607
000290 7b f1 77 3c ad b3 a7 3c 31 0f eb 3b 09 8f e9 bb
       0.015133257 0.020471418 0.007173442 -0.007127647
0002a0 59 61 c6 3c 68 31 51 3c ad 69 3b 3c aa 6e 8c 3c
       0.02421634 0.012768127 0.011438769 0.017142612
0002b0 50 f0 7f 3c 19 ef 00 3d 2e 51 1a 3c 86 c3 b6 3a
       0.01562126 0.03147802 0.009418769 0.0013943769
0002c0 ea d7 02 3c 9f 04 42 3c d9 60 80 3c fc 90 95 3b
       0.007986048 0.011841922 0.01567118 0.0045644026
0002d0 af 7c 69 3c 1f c1 f4 ba 33 11 f4 3a a3 e5 66 3c
       0.014250918 -0.0018673277 0.0018620848 0.014092836
0002e0 79 7d 23 3c e1 3c 0b 3c b2 87 37 3c 60 a5 fe 3c
       0.0099786455 0.008498401 0.011201786 0.031084716
0002f0 e6 34 99 3b db 0f 0f 3d d5 92 4d 3b d3 56 98 3c
       0.0046754954 0.03492723 0.0031368036 0.018596089
000300 78 a3 7c 3c ee 66 b6 3c 3e 40 a3 3c 93 cc d2 3b
       0.015419833 0.022265878 0.019928094 0.0064330786
000310 b7 d4 fe 3c b8 1e 90 3c 91 0b 05 39 fe b9 bd 3a
       0.03110729 0.017592773 0.00012688177 0.0014474986
000320 db 31 91 3b 47 d5 c6 3c 59 88 94 3c f4 97 89 3c
       0.004430992 0.02427162 0.018131422 0.01679609
000330 6d b4 0a 3c 3c 10 8e 3c 8a f2 f6 3b b9 b9 5b 3c
       0.008465868 0.017341726 0.007536237 0.013410979
000340 48 1d f0 3c e6 e9 48 ba 5e 52 cd 3c da 1b af 3c
       0.029310837 -0.0007664248 0.02506369 0.021375585
000350 ed 95 a9 bb 9a aa b6 3b f0 9b d1 3c 99 d8 0d 3c
       -0.0051753432 0.0055745365 0.025587052 0.008657598
000360 94 44 b7 3c 16 7e 51 3c 97 e7 af 3c 9e 16 4a 3c
       0.022371568 0.012786409 0.021472735 0.012334494
000370 d8 44 d3 3c 6d 95 c5 3b 30 83 87 3c 46 7e 8f 3c
       0.025789663 0.006029776 0.016542047 0.017516267
000380 9e e4 7a 3c 15 3a 85 3c 7c 0d 8c 3c 1e bf 86 3c
       0.015313296 0.016263047 0.017096274 0.016448554
000390 cb 8b 1b 3c 5a 69 3f 3c 24 33 fc 3c f8 20 d9 39
       0.009493778 0.011682833 0.030786105 0.0004141403
0003a0 2d c5 ef 3c 80 90 6a 3b 93 c1 b8 3c 57 10 91 3a
       0.029268825 0.0035791695 0.02255324 0.0011067492
0003b0 02 f6 6e 3c f7 73 b1 3b 24 1b 8b 3c 93 63 43 3b
       0.01458502 0.0054154354 0.016980715 0.002981399
0003c0 d5 47 e7 bb fa cb 38 3b 42 b1 9d 3c 0f 5c ca 3c
       -0.0070581236 0.0028197751 0.019249562 0.0247021
0003d0 cb 30 15 3d 48 24 9e 3b ab 7a a1 3c 6e 63 91 3b
       0.036423486 0.0048261024 0.019711813 0.004436902
0003e0 4e 2d 9e 3c 4b ba d9 3c a5 bd 1b 3c c6 01 cb 3c
       0.019308712 0.02657809 0.009505664 0.02478112
0003f0 db ca 20 3c c1 67 8e 3c c3 68 1f 3c c3 07 80 3c
       0.0098139895 0.017383458 0.009729567 0.015628701

action_model._continuous_distribution.log_sigma f4 [1, 5]
000000 b7 4b 85 3c c6 b3 b5 ba ce 1a ea 3c 03 ef 3f 3d
       0.016271455 -0.0013862781 0.028577235 0.0468588
000010 ed 67 66 bd
       -0.056251455

action_model._continuous_distribution.mu.weight f4 [5, 256]
000000 e9 0b 0c bd 74 8b 40 3d a5 7c b5 bc 4d ad aa 3d
       -0.034191046 0.047007993 -0.022154162 0.08333836
000010 ec fc 83 bd d6 e1 66 3d 2a 3d cf bc 27 de a1 bd
       -0.064447254 0.056367718 -0.02529772 -0.079037
000020 05 39 d2 3c d1 6e 92 3d 36 5a 50 bd e0 56 d1 bc
       0.025661955 0.07150043 -0.05086728 -0.02555412
000030 50 6e 12 bc 43 52 92 bd 36 a5 66 bc b4 bd 1b bd
       -0.008937433 -0.071445964 -0.014077475 -0.038022712
000040 e5 e3 07 3b 3e e4 34 bc b3 84 0a 3d 4d 56 72 bd
       0.00207352 -0.011040745 0.033817958 -0.059164334
000050 44 83 b9 bb 94 ff 9d 3c 6f 56 a3 bd 77 d7 d8 bb
       -0.0056614 0.019286908 -0.0797547 -0.0066174823
000060 41 f4 32 3d f5 93 30 bb 7c 81 cc 3c 03 97 f1 bc
       0.04368997 -0.0026943658 0.024964087 -0.029490953
000070 de 8b b0 3c f5 1c 31 3c 3e dc f6 bc 69 28 3c bd
       0.021551069 0.010810127 -0.030134317 -0.045936976
000080 a0 f1 f0 bc cc 36 9b bc c9 d1 ef 3c 35 97 05 3d
       -0.02941209 -0.018947028 0.029274838 0.032614905
000090 8a b4 5a 3d 54 91 bc bd bc 45 83 bb d4 77 80 3d
       0.05339483 -0.09207407 -0.0040061157 0.062728554
0000a0 4e 94 17 bd 77 b7 1c bd 0f d5 b7 bd af d1 1b 3d
       -0.03700667 -0.038260903 -0.089761846 0.038041767
0000b0 b6 cc df 3b 44 d3 84 3d ab b2 cd 3c 48 77 ee ba
       0.0068298234 0.06485608 0.02510961 -0.0018193508
0000c0 7d 37 9a 3b eb 93 b4 3c f6 0e 17 3d af 99 48 bd
       0.0047063217 0.022043189 0.036879502 -0.04897469
0000d0 eb 00 c6 3c db 7a 9d 3d 07 4c 58 bd cc 97 83 bc
       0.02417036 0.076894484 -0.05280688 -0.016063593
0000e0 da 8d 98 3c c2 69 f4 3c 44 6c 43 3d ef 12 20 bd
       0.018622328 0.029835586 0.047710672 -0.039080556
0000f0 4d f0 11 bd dd 33 29 3d 9b 3f c7 3d c6 dd ca bc
       -0.03562956 0.041309226 0.09728929 -0.024763953
000100 3e 05 1a bd 0e 8e 54 3d 8a 36 c2 bc 69 8b 4f 3d
       -0.037602656 0.051893286 -0.023707647 0.05067006
000110 12 e4 b6 bb c5 6d 76 bc 1c 56 a6 3d e5 fc 3d 3b
       -0.0055813873 -0.0150408195 0.08121893 0.0028989848
000120 c2 3e ac 3c 79 53 f4 3c a0 15 1e bd 0c 0c 01 bc
       0.021026019 0.02982496 -0.038594842 -0.007876407
000130 c5 47 ae bc 7e 52 9e bc 11 2f e6 b9 33 71 5e 3d
       -0.021274457 -0.019326445 -0.00043904086 0.054307174
000140 b9 fd ae bb 08 29 14 3d 83 70 a8 ba b2 79 af bb
       -0.0053403047 0.036171943 -0.0012850914 -0.0053550834
000150 ae f9 78 3d 1c 10 9a 3c 5c cb 8b bc 11 dd bb bc
       0.060784988 0.01880651 -0.017064743 -0.022932561
000160 82 34 0d 3c c4 6d 8c 3d 35 6d 5b bd 38 e2 01 bc
       0.008618476 0.06856874 -0.053570945 -0.00792747
000170 55 df e6 bc e7 56 dc 3c 52 c9 92 bc 1a aa 77 bb
       -0.028182665 0.026896907 -0.017918263 -0.0037790597
000180 fa d0 52 bc ea 9c f5 bc 44 5d 5d bd 09 b5 06 bc
       -0.012867207 -0.029982049 -0.054044023 -0.008221873
000190 16 cb 94 bc 04 35 8f 3d 39 d6 8f 3b ca c3 cc bb
       -0.018163245 0.06992534 0.004389551 -0.006248926
0001a0 9e 03 84 bd 06 90 f9 3c 22 c6 c8 3c 4d cd 5b 3d
       -0.064460024 0.030464184 0.02450854 0.053662587
0001b0 43 1a 14 3d e8 85 ba 3c 20 da ef bc bf 2c 3f 3c
       0.036157858 0.02276893 -0.029278815 0.011668383
0001c0 36 70 d6 ba b4 85 6a bc ea 13 f8 3c 68 e0 fd 3c
       -0.0016360346 -0.014314104 0.030282933 0.030990794
0001d0 39 a4 84 bd e3 15 88 bd f6 7a 55 3d 1f ce a9 bd
       -0.064766355 -0.066447996 0.052119218 -0.082912676
0001e0 be 5c 39 3d e9 32 10 bd 7d c6 07 bd 89 17 a9 3d
       0.04525446 -0.0352048 -0.033148278 0.08256442
0001f0 23 71 6e 3b 55 5b 31 3d ac 9b c5 bd 03 c3 c5 bc
       0.0036383353 0.04329999 -0.09648833 -0.02414084
000200 eb 2f fb 3b 3a 6d 2f 3d b6 cc 31 3c 6c b7 03 3c
       0.0076656244 0.042828776 0.01085203 0.008039337
000210 fb e5 38 bc 92 55 c0 3b f2 95 bc 3d 4c 3b 89 3d
       -0.0112853 0.005869576 0.09208287 0.06700763
000220 b8 c8 63 bd 78 a5 b3 3d c1 02 4d bd ee 6c 8a 3d
       -0.055611342 0.08771795 -0.050051454 0.06759058
000230 f2 78 e3 3c 87 e3 97 3c 13 d8 27 bd 4f 1e 05 bd
       0.027767632 0.01854111 -0.04097755 -0.032499608
000240 93 15 8d bc f5 65 93 bd 21 36 18 bd bf 1a d0 3b
       -0.017222201 -0.07197181 -0.037160996 0.0063508446
000250 78 d6 1f bd 1e 56 56 3d c5 a3 33 bd 0f 2a 12 3c
       -0.039022893 0.05232822 -0.043857355 0.00892116
000260 11 a2 9a 3b 00 30 22 3d 3f c3 c7 bc dd e9 ce bc
       0.004719027 0.039596558 -0.024385093 -0.025258
000270 f2 a2 bf 3d 2d 4a 65 3c 43 e8 b2 bd 2d 32 89 bd
       0.09357251 0.013994736 -0.08735707 -0.066990234
000280 12 13 a3 3c c8 1c 00 3d b1 1a 94 bb f6 c1 9e 3d
       0.019906554 0.031277448 -0.0045197834 0.07751839
000290 17 35 fe 3c 4f 90 02 3d 80 1a 2a 3d a3 9d 26 bc
       0.031031175 0.031875905 0.04152918 -0.010169419
0002a0 73 6b 9e bd 81 b0 92 3d a2 ea b0 bc 32 89 c7 3d
       -0.07735338 0.07162572 -0.021596257 0.09742965
0002b0 8f 22 97 3d 0b 19 52 bd 83 d9 a8 bc ba 85 53 3d
       0.073796384 -0.051293414 -0.02061153 0.051641203
0002c0 4f 00 83 3c 03 80 e4 bc 59 0f 21 bd 4c 4d cc bc
       0.015991358 -0.027893072 -0.039321277 -0.024939202
0002d0 bc 51 33 bd 75 d8 81 bb 88 08 30 3d 8d d2 36 bc
       -0.04377912 -0.0039625713 0.042976886 -0.011158598
0002e0 84 3e 41 bd a2 06 e5 bc a3 78 25 bd f1 dc 54 bd
       -0.04717876 -0.027957264 -0.04039825 -0.05196852
0002f0 f6 2c e1 bc 4b dd cf bc 3b 20 38 3d a9 fe 22 3b
       -0.02748726 -0.025374075 0.044952612 0.0024871028
000300 41 a5 8a bc dd c5 97 3d 3e cc a1 3d 6b 95 15 bc
       -0.016924502 0.07410786 0.07900284 -0.009129862
000310 55 5d b2 3d 09 b9 6f 3b 49 d6 78 bc 45 6c 94 bc
       0.08709208 0.0036578795 -0.015187808 -0.018118033
000320 59 30 04 3d 65 9b 4c 3d b2 95 82 3c 17 bf 9a bd
       0.03227267 0.049952883 0.01594052 -0.07555979
000330 f9 03 85 3d 32 79 96 3d 5a 91 f1 3c 51 a1 66 bc
       0.06494898 0.07347335 0.029488254 -0.014076547
000340 ac 73 be bb 20 7c 74 3c 65 61 a3 bd c2 d8 78 bd
       -0.005812129 0.014922172 -0.07977561 -0.06075359
000350 86 34 11 3b 4e 25 b8 3c cf 64 d3 bb 1a 65 80 bd
       0.002215655 0.022478726 -0.0064512263 -0.062692836
000360 f6 51 8a bd 70 e1 c8 bc 60 72 34 bd 26 9d 7a 3d
       -0.06753914 -0.02452156 -0.04405439 0.061185025
000370 a3 e2 6f bd 17 1f 44 bc e1 58 9b 3d 95 c8 32 bd
       -0.058565747 -0.011970303 0.07585312 -0.04364832
000380 c3 56 f1 3b e6 a5 29 bd ed ba 04 bd 56 49 52 3d
       0.007365079 -0.04141798 -0.03240483 0.05133947
000390 b5 57 20 3d 4f f2 ea bc e6 79 40 3c 5c 13 5f ba
       0.039146144 -0.028679995 0.011747813 -0.00085096597
0003a0 a5 43 9b bd d1 8d ad 3d 0e 24 26 bd 1b d3 02 3d
       -0.075812615 0.08474315 -0.04056173 0.031939607
0003b0 61 07 b3 3d d0 47 82 3d b0 4e 06 bd cd e2 ae bc
       0.08741642 0.063613534 -0.032789886 -0.021348381
0003c0 b3 8b 8e 3c bb 56 30 3d 03 ae 19 3c a0 48 37 bd
       0.017400598 0.043051463 0.0093798665 -0.044746995
0003d0 cc c9 4b bc 63 75 f1 3c c6 9e 09 3c 5c a3 8e bc
       -0.012438249 0.02947492 0.008399671 -0.01741188
0003e0 c3 e0 17 bd 3e 98 64 3d 75 86 6b bd 94 ae 85 bd
       -0.037079584 0.055809252 -0.057501275 -0.06527439
0003f0 95 0d 98 3d be b3 8f bd 97 29 a8 3c 81 5b d8 bc
       0.074244656 -0.07016705 0.020527644 -0.02641082

action_model._continuous_distribution.mu.bias f4 [5]
000000 9c ce b5 ba f6 e8 92 bb 55 98 7b bc 98 08 3f bc
       -0.0013870778 -0.0044833375 -0.015356143 -0.011659764
000010 2c 32 8a 3b
       0.0042174067
