MLConfig/results/badBerry/Animal/Animal-3499920.onnx (onnx, 296297 bytes, 7 tensors)

network_body.linear_encoder.seq_layers.0.weight f4 [256, 24]
0.18317595 -0.2180274 -0.20317648 0.07258847 0.35080934 0.019193612 -0.3622343 -0.008719992
0.10589201 0.2016384 -0.21533307 -0.10610029 -0.539637 -0.16412242 0.08970839 0.31309563
0.0059302547 -0.2759742 -0.40564153 0.1482091 -0.018368313 -0.2534116 -0.1610531 -0.36646238
-0.52950746 0.05820625 0.121185265 -0.061722834 0.08417095 0.22221687 0.31532216 0.21975836
0.24851169 -0.29916033 -0.112975456 0.027964868 -0.09304883 -0.19619463 -0.08608898 0.35446638
-0.09755765 -0.46652445 -0.1245817 -0.011057513 0.3201343 0.26308414 -0.1210653 0.19212502
0.021421691 -0.2808279 -0.2601629 -0.2715825 0.10405873 0.21994343 -0.0036457363 0.12981158
-0.006060837 0.11261701 -0.28035563 0.20916246 -0.01189418 0.063063845 0.077709354 0.2267051
0.04994671 0.52333367 -0.2570235 0.4069538 -0.0030706283 -0.26521137 -0.07566437 -0.10562517
-0.27139083 0.102074616 0.25203022 -0.015461511 0.05566697 0.0978929 -0.00012892166 0.18338284
0.22280242 -0.086075835 0.1292961 -0.08738202 0.10998473 0.28388143 -0.410017 -0.11587493
0.09975256 0.11095644 0.2851582 0.11294442 -0.1678071 -0.09923969 -0.46797046 0.1615725
-0.24862689 0.077530056 0.33453295 0.12844168 -0.18138427 -0.22486308 0.2548376 0.3678995
0.083931714 0.030641718 0.19532283 0.012838757 0.006774184 -0.20783989 -0.15036239 0.057712436
0.024258047 -0.42778018 0.13208921 0.08532532 -0.3660756 -0.06225983 -0.26224685 0.11920444
0.23658049 -0.095081784 0.21611035 0.23907965 -0.42614278 -0.13473801 -0.024245098 -0.07332127
-0.06982026 0.11481665 0.06430992 -0.1165813 0.038511485 0.18292616 -0.010585506 -0.15594701
-0.08356051 0.36356452 0.28511128 0.1531914 -0.28546488 0.2806813 -0.0843823 -0.010472685
-0.2586538 0.3582322 -0.18949923 -0.101416424 -0.15058392 0.28553703 -0.18511462 -0.026796894
-0.19301769 0.11293124 0.27344087 -0.1375118 -0.1537344 0.00052059465 0.23246479 -0.26275113
-0.06805152 -0.030427048 -0.19934143 -0.07169888 0.15841399 -0.20765164 0.14436321 -0.3345103
0.06699464 0.16908386 0.100551315 -0.24713624 -0.23619497 0.39005882 0.15028878 0.21200563
0.022481266 0.24967374 -0.42391974 0.53833336 0.1626203 -0.3271376 -0.011820197 -0.31086636
0.18647563 0.43005472 0.07531523 -0.27524325 -0.42813957 -0.18271172 0.46143845 -0.3769942
0.21288529 -0.13413146 -0.13666983 0.10944575 -0.39565203 0.0095458 0.26424983 -0.03139987
0.26957875 0.37533355 0.044056255 0.39053985 -0.037611205 0.088730395 -0.46231848 -0.028795509
0.16638869 -0.2702869 0.15806599 0.072464146 0.0070863455 -0.12246253 -0.038315825 0.036918532
-0.09436027 -0.1239378 -0.10459758 -0.098081306 0.3770706 0.27901018 -0.04885419 -0.45885876
-0.0026672664 0.065854274 0.21133043 0.102907516 -0.278515 -0.21861716 0.23764181 0.11156767
0.33073384 0.0865053 -0.5257277 -0.10052939 0.0615315 0.14276655 -0.084214084 0.0411971
-0.29810324 -0.39974678 0.018620808 0.16440937 -0.43518624 -0.11860974 0.2407838 0.20362863
-0.029274449 -0.43286195 0.12209608 -0.01156063 0.79327685 -0.104882486 0.008745878 -0.006808709
00000000: 7a92 3b3e 9342 5fbe 7f0d 50be 44a9 943d
00000010: 489d b33e ec3b 9d3c c676 b9be 4cde 0ebc
00000020: e9dd d83d 4c7a 4e3e 4680 5cbe 1c4b d9bd
00000030: a725 0abf b50f 28be 08b9 b73d 124e a03e
00000040: 9552 c23b 7e4c 8dbe 3fb0 cfbe 20c4 173e
00000050: 2579 96bc 2abf 81be 1beb 24be f5a0 bbbe
00000060: cd8d 07bf ad69 6e3d fb2f f83d 15d1 7cbd
00000070: d261 ac3d d28c 633e e871 a13e 5608 613e
00000080: d979 7e3e 8b2b 99be ad5f e7bd 9416 e53c
00000090: 6390 bebd 3fe7 48be 6b4f b0bd 9e7c b53e
000000a0: 4ecc c7bd 4bdc eebe b124 ffbd 922a 35bc
000000b0: a5e8 a33e f7b2 863e 16f1 f7bd 6cbc 443e
000000c0: 8b7c af3c adc8 8fbe 1234 85be dd0c 8bbe
000000d0: be1c d53d da38 613e 4eed 6ebb 54ed 043e
000000e0: fc99 c6bb bfa3 e63d c68a 8fbe af2e 563e
000000f0: cfdf 42bc 9e27 813d 1526 9f3d 6225 683e
00000100: ec94 4c3d 32f9 053f 9698 83be 405c d03e
00000110: 983c 49bb c9c9 87be ecf5 9abd 0252 d8bd
00000120: bdf3 8abe 7f0c d13d 1b0a 813e 4752 7dbc
00000130: 0c03 643d 137c c83d 252f 07b9 b6c8 3b3e
00000140: 5126 643e 8748 b0bd 3266 043e 58f5 b2bd
00000150: ad3f e13d e858 913e c0ed d1be d64f edbd
00000160: 124b cc3d 213d e33d 4100 923e 674f e73d
00000170: a0d5 2bbe 2e3e cbbd d399 efbe 4373 253e
00000180: 0c98 7ebe 14c8 9e3d e747 ab3e 3786 033e
00000190: ccbc 39be 8242 66be 137a 823e 535d bc3e
000001a0: 64e4 ab3d 5704 fb3c b502 483e a659 523c
000001b0: f9f9 dd3b fbd3 54be 99f8 19be e063 6c3d
000001c0: d0b8 c63c 0106 dbbe 6542 073e 0bbf ae3d
000001d0: 436e bbbe 2a04 7fbd 3845 86be 7521 f43d
000001e0: 2842 723e 3dba c2bd 084c 5d3e 4cd1 743e
000001f0: 632f dabe c3f8 09be a89d c6bc 7629 96bd
00000200: edfd 8ebd fe24 eb3d ebb4 833d 2dc2 eebd
00000210: 38be 1d3d ff50 3b3e d56e 2dbc 93b0 1fbe
00000220: c621 abbd 2125 ba3e 1bfa 913e 35de 1c3e
00000230: 7428 92be 76b5 8f3e a1d0 acbd a095 2bbc
00000240: 456e 84be 366a b73e 160c 42be 6ab3 cfbd
00000250: ac32 1abe e931 923e b08e 3dbe 2985 dbbc
00000260: 6ea6 45be 7e48 e73d 7100 8c3e e5cf 0cbe
00000270: 8d6c 1dbe 8478 083a 400b 6e3e 5187 86be
00000280: 985e 8bbd 2542 f9bc 2920 4cbe ddd6 92bd
00000290: 4737 223e a2a2 54be f3d3 133e ef44 abbe
000002a0: 7c34 893d 5224 2d3e d9ed cd3d 4811 7dbe
000002b0: 18dd 71be cab5 c73e 4de5 193e 0118 593e
000002c0: a22a b83c 79aa 7f3e 020c d9be 37d0 093f
000002d0: f085 263e 947e a7be 80a9 41bc e029 9fbe
000002e0: 78f3 3e3e 2230 dc3e df3e 9a3d afec 8cbe
000002f0: 1c35 dbbe c818 3bbe a941 ec3e 6205 c1be
00000300: 9afe 593e c259 09be 2df3 0bbe 1825 e03d
00000310: e792 cabe fd65 1c3c c14b 873e 269d 00bd
00000320: 3a06 8a3e b82b c03e 5574 343d d7f4 c73e
00000330: 350e 1abd 48b8 b53d 02b5 ecbe 8fe4 ebbc
00000340: cc61 2a3e 0b63 8abe 0ddc 213e 1568 943d
00000350: 9334 e83b a3cd fabd 0ef1 1cbd e337 173d
00000360: f53f c1bd 1ad3 fdbd 4237 d6bd dade c8bd
00000370: 660f c13e 6cda 8e3e 551b 48bd 89ef eabe
00000380: 4ecd 2ebb 9bde 863d 0167 583e 2dc1 d23d
00000390: 8599 8ebe 2ddd 5fbe 6058 733e 977d e43d
000003a0: f255 a93e b129 b13d 1796 06bf 5ae2 cdbd
000003b0: 7408 7c3d 6531 123e 6f78 acbd 4abe 283d
000003c0: fda0 98be 9cab ccbe aa8a 983c ee5a 283e
000003d0: bbd0 debe aae9 f2bd 0790 763e 0684 503e
000003e0: f8d0 efbc 15a0 ddbe 820d fa3d cc68 3dbc
000003f0: 3114 4b3f a1cc d6bd df4a 0f3c 971b dfbb

network_body.linear_encoder.seq_layers.0.bias f4 [256]
0.029581388 0.0009780449 -0.0046100025 -0.0019351848 0.018632391 0.02983336 -0.008081213 0.05820718
-0.008480259 0.03361557 -0.010556871 0.0464331 0.0022689095 -0.07817471 0.04463665 0.004335365
0.013546287 0.016771186 0.020444274 0.008736555 0.015968243 0.009460657 0.01584246 0.039426874
-0.0067213816 0.028860392 -0.017169096 -0.0324327 0.0041188966 0.0040579466 0.0253149 0.028385868
0.027414676 -0.0023873092 0.016564678 0.03370267 0.0052847853 0.022075653 0.029459465 0.030286668
0.017030874 0.038692325 0.0143320225 0.033071138 0.02233887 0.011348801 0.018561276 0.0028654092
-0.0053499388 0.01273098 0.026685352 0.018324926 -0.003049018 0.02512318 0.032122098 -0.0016479203
-0.042722877 0.028507933 0.028287003 0.016702645 0.0006620088 0.012449428 0.003254737 0.02028362
0.012367896 -0.0075566866 0.016814606 0.01819223 0.004169193 0.049279246 0.032624505 0.018233666
0.026614938 -0.0066021346 0.030514909 -0.0095347315 0.020758571 -0.012130724 -0.009192955 -0.009686002
0.009911688 0.013819954 0.0050247717 -0.018429535 0.01016403 0.014848117 0.016068222 0.019841934
-0.0063208067 0.018784704 0.0026745037 0.017615842 0.026279699 0.05049022 0.010164382 0.001502788
0.038892943 0.027648007 0.013101541 0.020403512 0.03096951 0.011663607 0.0073414487 0.041763473
0.015362009 0.009003722 0.019869082 0.021736713 0.015346551 0.059485234 -0.005170872 0.03954832
0.0018943785 0.026891595 0.010977071 0.006581294 0.013885525 0.021025745 0.008391866 -0.009377689
0.043613184 0.018399527 0.034172423 0.022608772 -0.010590333 0.0062522627 0.009381347 0.01912636
0.02961991 0.025343355 -0.0013875165 0.0034527066 -0.016588235 0.013142983 0.023513503 -0.0015154214
0.028434142 0.030370558 0.03946931 0.017006181 0.024366546 0.011308333 -0.013143033 0.052784525
0.010117717 0.009462399 0.021939654 0.016503341 0.00039009604 0.008083457 0.015198202 0.030275874
0.025416382 0.015199624 -0.005234856 0.004327217 0.0048335274 0.014729978 0.0116471145 0.010423366
-0.0062729055 0.055026364 0.013666704 0.02632131 0.013759444 0.031318437 0.015327294 0.02182798
0.01822426 0.030056868 0.037045665 -0.011203174 0.037488066 0.027998172 0.0046151406 0.022395035
0.0057374486 0.033510856 0.042111844 0.028552432 0.005171731 -0.011122453 -0.0007391796 0.0076598856
0.027487507 0.032772426 0.017639227 -0.008298766 0.02337419 0.02061988 0.047487725 -0.0013254632
0.013274456 0.021534106 0.018056788 0.0097931335 0.03272293 0.029746031 0.025917085 0.036332376
0.028827012 0.03680704 0.0201811 0.022104813 0.0020744246 -0.012020727 -0.018814575 0.036884025
0.00159234 0.054796617 0.024725802 0.023523077 -0.011063618 0.03476047 0.01499422 0.035141855
0.022138646 0.019893263 0.025540616 0.019378997 0.00062288676 0.014415681 0.029011143 0.019458095
-0.023304975 0.02589196 0.013000574 -0.0064540077 0.028070737 0.022253005 0.0013934022 0.0018052029
0.041860797 0.0037627916 0.0018517313 -0.011379075 0.021640113 0.025692686 0.023897136 0.009265575
0.02729519 0.0046282997 0.020356944 0.004885861 0.02460203 0.0056589306 0.016636372 0.020144558
0.026280312 -0.0050053135 0.0031091461 0.008991905 0.03121917 -0.021146392 0.01682355 0.008160222
00000000: ab54 f23c be31 803a 810f 97bb 07a6 fdba
00000010: f5a2 983c 1765 f43c 1067 04bc a76a 6e3d
00000020: c9f0 0abc 7bb0 093d baf6 2cbc a230 3e3d
00000030: fcb1 143b 101a a0bd ebd4 363d ad0f 8e3b
00000040: 3ff1 5d3c ba63 893c c07a a73c c523 0f3c
00000050: d5cf 823c df00 1b3c 0cc8 813c 137e 213d
00000060: 093f dcbb a16c ec3c 34a6 8cbc 27d8 04bd
00000070: cff7 863b 86f8 843b 3161 cf3c 7b89 e83c
00000080: be94 e03c 6774 1cbb a6b2 873c d00b 0a3d
00000090: fe2b ad3b 00d8 b43c fa54 f13c bf1b f83c
000000a0: 5584 8b3c d87b 1e3d dcd0 6a3c 9a75 073d
000000b0: 0200 b73c 52f0 393c d10d 983c 97c9 3b3b
000000c0: 8a4e afbb 9a95 503c 3d9b da3c 281e 963c
000000d0: 09d2 47bb 21cf cd3c 7692 033d 08ff d7ba
000000e0: 2ffe 2ebd 7889 e93c 25ba e73c fcd3 883c
000000f0: a98a 2d3a b0f8 4b3c 6d4d 553b d629 a63c
00000100: b7a2 4a3c 159e f7bb c9be 893c df07 953c
00000110: ba9d 883b 09d9 493d 46a1 053d c55e 953c
00000120: 9207 da3c b856 d8bb 67fa f93c 9037 1cbc
00000130: e10d aa3c f2bf 46bc 0c9e 16bc 09b2 1ebc
00000140: a264 223c 176d 623c d7a6 a43b 89f9 96bc
00000150: 0887 263c 8445 733c 81a1 833c 8d8b a23c
00000160: c51e cfbb 61e2 993c ba46 2f3b 194f 903c
00000170: 8648 d73c d5ce 4e3d 8288 263c 33f9 c43a
00000180: 354e 1f3d 137e e23c d9a7 563c 4425 a73c
00000190: c5b3 fd3c b718 3f3c 8990 f03b 2d10 2b3d
000001a0: f0b0 7b3c 5984 133c 7cc4 a23c 3111 b23c
000001b0: 1a70 7b3c caa6 733d 6b70 a9bb 6bfd 213d
000001c0: cb4c f83a c34b dc3c 2cd9 333c e5a7 d73b
000001d0: 1d80 633c 2f3e ac3c 0a7e 093c e1a4 19bc
000001e0: bda3 323d 9bba 963c 62f8 0b3d 0836 b93c
000001f0: 1383 2dbc c8df cc3b 39b4 193c e2ae 9c3c
00000200: 74a5 f23c de9c cf3c 54dd b5ba ce46 623b
00000210: 0de4 87bc ab55 573c 649f c03c 1ba1 c6ba
00000220: b8ee e83c adcb f83c 92aa 213d 8c50 8b3c
00000230: 5a9c c73c 9646 393c e055 57bc 9634 583d
00000240: c8c4 253c 2e08 1b3c caba b33c 0432 873c
00000250: ce85 cc39 7a70 043c e101 793c 1c05 f83c
00000260: 0436 d03c d807 793c 2889 abbb 54cb 8d3b
00000270: 9162 9e3b 0156 713c 8ad3 3e3c c4c6 2a3c
00000280: f28c cdbb 5363 613d 50ea 5f3c ca9f d73c
00000290: 4a6f 613c c347 003d 551f 7b3c 98d0 b23c
000002a0: 0b4b 953c d239 f63c 32bd 173d 848d 37bc
000002b0: 168d 193d 6c5c e53c 9b3a 973b cb75 b73c
000002c0: 3501 bc3b ae42 093d 787d 2c3d cae6 e93c
000002d0: a077 a93b f33a 36bc 81c5 41ba c7ff fa3b
000002e0: 7b2d e13c 613c 063d 2480 903c 8cf7 07bc
000002f0: 3b7b bf3c 06eb a83c 7d82 423d 2abb adba
00000300: 1b7d 593c 4b68 b03c d4eb 933c 6173 203c
00000310: 7b08 063d f3ad f33c 1150 d43c 42d1 143d
00000320: a026 ec3c fbc2 163d d652 a53c 2715 b53c
00000330: 12f3 073b 95f2 44bc 0621 9abc b413 173d
00000340: 10b6 d03a 6b72 603d c48d ca3c 78b3 c03c
00000350: 2d44 35bc ff60 0e3d 51aa 753c e8f0 0f3d
00000360: 1b5c b53c 32f7 a23c 8e3a d13c b4c0 9e3c
00000370: 3949 233a c02f 6c3c c7a8 ed3c 9566 9f3c
00000380: 13ea bebc 601b d43c 5c00 553c 247c d3bb
00000390: 9af4 e53c ef4b b63c d2a2 b63a 8f9c ec3a
000003a0: 3a76 2b3d 2b99 763b cbb5 f23a 4d6f 3abc
000003b0: 9b46 b13c 7879 d23c edc3 c33c a3ce 173c
000003c0: 2a9a df3c fea8 973b 9bc3 a63c 9319 a03b
000003d0: 328a c93c 8d6e b93b 0049 883c 3306 a53c
000003e0: cf49 d73c 9d03 a4bb d1c2 4b3b c852 133c
000003f0: 58bf ff3c 333b adbc 8bd1 893c 74b2 053c

network_body.linear_encoder.seq_layers.2.weight f4 [256, 256]
-0.007291464 0.03669641 0.01191896 0.054160144 0.04427716 0.028402084 -0.017784322 0.01890658
-0.053046808 0.11888474 0.005309436 -0.038848758 -0.013392047 0.11098528 -0.057124775 -0.02939898
0.08352438 -0.010851844 0.03698024 0.0092968615 0.019166594 -0.07187341 0.021878978 0.01762879
-0.0836264 0.1300294 -0.01720998 0.034605414 -0.034253955 0.07605158 0.094518915 0.0022088757
-0.02617425 0.026410112 8.513523e-05 0.0024068544 0.12102941 0.031185115 -0.041966163 0.120422706
-0.14624256 -0.06194753 -0.011935125 0.042587236 0.046542462 -0.034711186 0.11632284 0.05563688
0.08685502 -0.06008047 -0.079134874 -0.0547153 -0.028761636 0.070975296 -0.09089934 -0.04396584
0.05685097 0.022686742 0.055297278 -0.12425906 -0.03123488 -0.06952926 0.007534921 -0.09256771
-0.12220141 -0.0466123 0.032333072 -0.048999675 0.017027484 -0.0037141799 0.0874525 -0.08017233
-0.017222308 0.03537541 0.045452848 0.045094967 -0.010601086 -0.09037002 -0.0071801487 0.07249568
0.016872536 -0.06492173 0.056118637 -0.023495805 0.0057372004 0.05789962 0.02521979 0.12148479
0.028216934 0.022884304 -0.17084801 -0.0797507 -0.035059333 -0.025276845 0.01255554 0.03468697
-0.049129844 0.028215816 0.06747995 -0.049107537 -0.10250589 0.07581787 -0.042597678 0.10001078
0.059217732 0.017635267 -0.031477116 0.008020503 0.10443312 0.14488694 -0.004510969 -0.06062491
-0.043693338 0.044103183 -0.07352492 -0.020962706 -0.13070601 -0.07434201 0.110690586 0.03331099
0.01163511 -0.011844199 0.095127046 0.015594702 0.087279 -0.05152308 0.06402809 -0.025891125
-0.12575325 -0.04515513 0.044241827 -0.0041596806 -0.08471098 -0.028343093 0.03471171 -0.01177281
-0.042248726 0.09554953 0.0015283879 -0.11437717 0.07554472 -0.08994645 -0.07818601 0.011533836
-0.092525914 -0.020692756 0.057879597 -0.040089194 0.0021521866 -0.11922123 -0.106942475 0.103901014
-0.053521436 -0.054809246 -0.07352704 0.06688726 0.03257621 -0.050341055 0.053215567 0.030511176
0.031376887 0.06703504 -0.10377583 0.0061210706 -0.020840172 0.120028555 -0.001279673 0.07333789
0.15171452 0.005019958 0.0565082 0.034957785 -0.09916605 -0.05061696 -0.0023358488 0.018963313
0.005785854 0.029717267 0.059904356 0.053997047 0.0021762645 -0.05481322 -0.007918076 0.014508895
0.004563791 0.07962521 0.08870129 0.022263879 0.07629123 -0.15622246 0.00047570787 -0.08687937
-0.07024029 0.020493753 -0.024280753 -0.03352234 0.00874334 -0.03746482 -0.015015866 -0.0060824603
-0.056491967 0.007995415 0.07234961 0.009936369 -0.010599275 0.019768734 0.06491197 -0.14453204
-0.012970921 -0.077696115 0.008536024 -0.016732467 0.018360065 0.035226587 0.07187864 0.105936006
-0.019265594 0.019451544 0.0406945 0.0066867303 -0.03739532 0.096275076 0.11971909 -0.10568731
-0.06972156 0.09628428 -0.095944315 0.009592994 0.083250664 0.019875718 -0.08707654 -0.015115688
0.048399173 0.052585606 -0.055660184 -0.07904031 -0.0050712693 0.106853954 0.024062013 0.04631819
0.04880121 -0.019021546 -0.08918137 -0.053106766 0.017966658 0.07755621 -0.016074246 -0.113525495
-0.054744724 -0.15904102 0.03072127 0.057822242 0.10430986 0.002416419 -0.095569395 0.12338966
00000000: 3ced eebb fa4e 163d be47 433c 07d7 5d3d
00000010: f85b 353d 7dab e83c 6db0 91bc f9e1 9a3c
00000020: 9c47 59bd d879 f33d c7fa ad3b e01f 1fbd
00000030: 516a 5bbc 404c e33d abfb 69bd 21d6 f0bc
00000040: d50e ab3d efcb 31bc 9878 173d dd51 183c
00000050: 4303 9d3c 5e32 93bd 8b3b b33c 416a 903c
00000060: 5144 abbd 6d26 053e f2fb 8cbc 68be 0d3d
00000070: e04d 0cbd eec0 9b3d 2293 c13d c9c2 103b
00000080: 616b d6bc 055a d83c a18a b238 51bc 1d3b
00000090: 44de f73d ed77 ff3c b6e4 2bbd 2ea0 f63d
000000a0: 9cc0 15be b1bc 7dbd 8b8b 43bc f46f 2e3d
000000b0: 4fa3 3e3d 512d 0ebd ab3a ee3d 7fe3 633d
000000c0: 0be1 b13d f016 76bd 7711 a2bd 271d 60bd
000000d0: 869d ebbc 7f5b 913d 6f29 babd 8615 34bd
000000e0: 90dc 683d 8cd9 b93c 667f 623d 897b febd
000000f0: 4be0 ffbc 5b65 8ebd 80e7 f63b 2494 bdbd
00000100: bc44 fabd 8aec 3ebd af6f 043d e2b3 48bd
00000110: 397d 8b3c 9969 73bb 4c1a b33d 6431 a4bd
00000120: cc15 8dbc cee5 103d c42c 3a3d 80b5 383d
00000130: 2db0 2dbc eb13 b9bd 7447 ebbb 9d78 943d
00000140: 4638 8a3c aff5 84bd a8dc 653d 467a c0bc
00000150: 20ff bb3b 2728 6d3d bc99 ce3c 05cd f83d
00000160: 3327 e73c dd77 bb3c c8f2 2ebe 5654 a3bd
00000170: 609a 0fbd 6311 cfbc c0b5 4d3c ed13 0e3d
00000180: 603c 49bd db24 e73c ee32 8a3d fc24 49bd
00000190: 9cee d1bd 6646 9b3d e77a 2ebd 74d2 cc3d
000001a0: 4b8e 723d d677 903c 26ee 00bd 6e68 033c
000001b0: 08e1 d53d 3e5d 143e c0d0 93bb d351 78bd
000001c0: c9f7 32bd 8aa5 343d 3c94 96bd fbb9 abbc
000001d0: ccd7 05be a040 98bd bfb1 e23d 1b71 083d
000001e0: 30a1 3e3c 2c0e 42bc f8d1 c23d ec80 7f3c
000001f0: 55bf b23d dd09 53bd 2921 833d a019 d4bc
00000200: 76c5 00be 96f4 38bd eb36 353d ee4d 88bb
00000210: f37c adbd c62f e8bc de2d 0e3d bee2 40bc
00000220: 000d 2dbd 79af c33d 3054 c83a 943e eabd
00000230: 31b7 9a3d d835 b8bd fd1f a0bd 6af8 3c3c
00000240: 3a7e bdbd db83 a9bc 2813 6d3d 9134 24bd
00000250: b30b 0d3b 432a f4bd a804 dbbd 0eca d43d
00000260: 4b39 5bbd a97f 60bd 5895 96bd 30fc 883d
00000270: a26e 053d 6c32 4ebd 91f8 593d 93f2 f93c
00000280: 0d85 003d ab49 893d 6c88 d4bd 4393 c83b
00000290: 02b9 aabc 88d1 f53d b3ba a7ba 2d32 963d
000002a0: 0d5b 1b3e 767e a43b 2475 673d e52f 0f3d
000002b0: 9217 cbbd bb53 4fbd 0a15 19bb f358 9b3c
000002c0: 4397 bd3b a071 f33c 455e 753d 022c 5d3d
000002d0: a99f 0e3b d483 60bd d1ba 01bc b7b6 6d3c
000002e0: db8b 953b 8b12 a33d 06a9 b53d bd62 b63c
000002f0: 943e 9c3d c8f8 1fbe 6e68 f939 d0ed b1bd
00000300: 24da 8fbd 84e2 a73c 6ee8 c6bc b94e 09bd
00000310: 3a40 0f3c b674 19bd 1b05 76bc 604f c7bb
00000320: 1f64 67bd 33ff 023c 082c 943d 27cc 223c
00000330: 95a8 2dbc 0af2 a13c 91f0 843d 3500 14be
00000340: fc83 54bc 241f 9fbd aeda 0b3c 8712 89bc
00000350: d967 963c c149 103d 1c35 933d faf4 d83d
00000360: e1d2 9dbc d858 9f3c 47af 263d 5c1c db3b
00000370: d62b 19bd de2b c53d 482f f53d 9772 d8bd
00000380: 2dca 8ebd b130 c53d 747e c4bd ef2b 1d3c
00000390: 537f aa3d 67d2 a23c 2f55 b2bd caa7 77bc
000003a0: 363e 463d 0164 573d effb 63bd e3df a1bd
000003b0: e42c a6bb 3fd6 da3d b31d c53c 24b8 3d3d
000003c0: c7e3 473d 13d3 9bbc b9a4 b6bd 7b86 59bd
000003d0: d02e 933c cad5 9e3d 23ae 83bc 0e80 e8bd
000003e0: 013c 60bd a6db 22be 2cab fb3c 04d7 6c3d
000003f0: 68a0 d53d c95c 1e3b e3b9 c3bd b8b3 fc3d

network_body.linear_encoder.seq_layers.2.bias f4 [256]
0.020827042 0.020275744 -0.0069862152 0.023820864 0.04036677 0.018963244 0.0072388053 0.014697241
-0.008616591 0.0012406203 0.025511114 0.00830064 -0.0019920587 0.028311765 -0.0004101345 -0.00458519
0.018184636 0.023074223 0.007076512 0.014854805 -0.0052277553 0.002006155 0.024491467 -0.0009670978
0.027619887 0.02839362 0.024555366 0.017503487 0.017353239 0.020124799 0.00827718 -0.0034867967
0.009255399 -0.004792329 0.020880552 0.010311452 0.01853845 0.019527273 0.001579382 0.00987922
0.017235663 0.011482417 0.03578896 -0.003026646 0.036267824 0.022906309 0.018331366 0.011352435
-0.0016851047 -0.006574948 -0.0015578549 0.015390017 0.032945883 0.0301623 0.013232512 0.0027809641
0.019709257 -0.00012135458 0.0020053836 0.012768747 -0.00054084125 0.003815663 0.023453971 0.007265493
0.011667775 0.005492813 -0.0009851811 0.0022910812 0.010454866 0.017187571 0.018966796 0.0076861293
0.021526108 0.032325707 0.0078003774 -0.0047651706 0.034431282 0.0071621994 -0.011330061 0.004550858
0.0034654718 0.0018477406 0.0055426834 0.005672536 0.008408252 0.01867198 0.020825809 -0.0013872373
0.026659982 0.01563078 0.011667477 0.0013278094 0.0011051575 -0.00014593884 0.023805868 0.004529785
0.0030050257 0.012035299 -0.0007503141 0.006506248 -5.1815525e-05 0.017098758 0.0041720625 0.0014074165
0.012734471 0.004336325 0.005986133 0.027338212 0.0132547235 0.00595854 0.015621975 0.0054221577
-0.0025417472 0.03023525 0.008675607 0.022844078 0.024318336 0.02757552 0.026657969 0.016689764
0.0077577783 0.024392186 -0.0016971203 0.033987477 0.02798226 -0.0050957976 0.023997625 0.00071907166
0.007997588 0.008495293 -0.0008340361 -0.013770437 0.009879253 -0.0020785783 0.007772045 0.020189445
0.010149315 0.02907686 0.0009675541 0.012457248 0.015904564 0.009797672 0.007345059 0.008236603
0.0006866706 0.016517805 0.00802062 -0.009897013 0.025053775 0.0057711 0.019049624 0.009414068
0.01367176 -0.00032259902 0.014679479 0.008243251 0.03575305 0.0070476555 0.017702686 0.03845113
0.019934114 0.033851165 0.0074966922 0.01320708 0.016784554 0.01945384 0.008605815 -0.010166706
0.023326065 0.00955416 0.007268329 0.015290734 0.0140712755 0.030109532 0.006614235 -8.1573504e-05
0.0088182185 0.0083884075 0.015007347 0.0056207995 0.010455785 -0.0029412925 0.00011471885 0.009520947
0.007325297 0.0049606934 0.0099668605 0.028466387 0.0014770691 0.03350219 -0.00050287234 0.02091201
0.015536234 0.021617822 0.016376061 0.0060193664 0.028458895 0.018387325 -0.0021700587 0.0017577357
0.0063523455 0.022757804 0.019716782 0.016112836 0.005720788 0.01689166 0.0041883523 0.015678678
0.030295115 -0.004751899 0.022126772 0.02301871 -0.00706768 0.0068457075 0.023226418 0.006359321
0.02198359 0.012219989 0.020168105 0.014182683 0.021534761 0.005472019 0.014254423 0.016528638
0.0140623 0.014367647 0.015126446 0.012539473 0.00654027 0.010816485 0.0300417 -0.0010486079
0.027628792 0.0031372353 0.01969331 -0.0017048991 0.014303503 0.005097872 0.016553862 0.0019614082
-0.007442749 0.0012592506 0.018359534 0.018633597 0.038440492 0.003758992 0.019888049 0.0024467476
0.015245531 0.026132217 0.0059235524 0.020791614 0.007824429 0.013858247 0.007685694 0.012790082
00000000: 799d aa3c 5119 a63c 9fec e4bb f923 c33c
00000010: a057 253d ce58 9b3c 8033 ed3b b2cc 703c
00000020: 9a2c 0dbc 4f9c a23a affc d03c 68ff 073c
00000030: 338d 02bb 13ee e73c 5207 d7b9 5d3f 96bb
00000040: f2f7 943c 2706 bd3c 16e2 e73b 9161 733c
00000050: 974d abbb b279 033b 54a2 c83c d684 7dba
00000060: 1a43 e23c bd99 e83c 5628 c93c 7963 8f3c
00000070: 6128 8e3c c3dc a43c 029d 073c be82 64bb
00000080: f5a3 173c f808 9dbb b10d ab3c 5df1 283c
00000090: f3dd 973c a9f7 9f3c 4403 cf3a 74dc 213c
000000a0: ce31 8d3c bf20 3c3c 7297 123d b25a 46bb
000000b0: 928d 143d 03a6 bb3c a92b 963c 90ff 393c
000000c0: bbde dcba a972 d7bb f030 ccba 6926 7c3c
000000d0: 43f2 063d ee16 f73c 2ecd 583c d640 363b
000000e0: 4f75 a13c be7f feb8 c16c 033b 0234 513c
000000f0: 3ec7 0dba 3410 7a3b 8b22 c03c 5f13 ee3b
00000100: 322a 3f3c 0efd b33b 3121 81ba f725 163b
00000110: e34a 2b3c f3cc 8c3c 4160 9b3c eddb fb3b
00000120: 8557 b03c f667 043d 4f9a ff3b 2625 9cbb
00000130: d107 0d3d e2b0 ea3b b8a1 39bc 5d1f 953b
00000140: f81c 633b e32f f23a 669f b53b aee0 b93b
00000150: c4c2 093c fbf5 983c e39a aa3c f6d3 b5ba
00000160: 0966 da3c 1f0c 803c f228 3f3c e409 ae3a
00000170: efda 903a 2907 19b9 8604 c33c 976e 943b
00000180: f7ef 443b b42f 453c bab0 44ba 5d32 d53b
00000190: 7f54 59b8 b212 8c3c ccb5 883b 1079 b83a
000001a0: 3ea4 503c bb17 8e3b 5327 c43b 63f4 df3c
000001b0: 572a 593c db3f c33b 50f3 7f3c 5bac b13b
000001c0: 7193 26bb eaaf f73c 2224 0e3c 8123 bb3c
000001d0: 3f37 c73c 0fe6 e13c d061 da3c f9b8 883c
000001e0: f634 fe3b 1fd2 c73c e871 deba 7436 0b3d
000001f0: 0d3b e53c a6fa a6bb ab96 c43c 1580 3c3a
00000200: 5108 033c d72f 0b3c 37a3 5aba 669d 61bc
00000210: 97dc 213c c238 08bb a4ac fe3b 5664 a53c
00000220: 5049 263c 9832 ee3c 75a3 7d3a 7c19 4c3c
00000230: 4a4a 823c 6a86 203c d2ae f03b d1f2 063c
00000240: af01 343a 5950 873c eb68 033c 1527 22bc
00000250: 933d cd3c 7f1b bd3b f50d 9c3c 773d 1a3c
00000260: 85ff 5f3c 8222 a9b9 3382 703c b30e 073c
00000270: ca71 123d 05f0 e63b 3905 913c ef7e 1d3d
00000280: de4c a33c 85a7 0a3d d0a6 f53b 8262 583c
00000290: c37f 893c a95d 9f3c 67ff 0c3c 4192 26bc
000002a0: 4e16 bf3c 0d89 1c3c 2a2b ee3b fd85 7a3c
000002b0: 358b 663c 44a8 f63c 3abc d83b 7112 abb8
000002c0: 4a7a 103c 886f 093c 60e1 753c af2e b83b
000002d0: be4e 2b3c b3c2 40bb 3795 f038 bffd 1b3c
000002e0: 0c09 f03b 508d a23b 0b4c 233c 5732 e93c
000002f0: 379a c13a 9839 093d 31d3 03ba aa4f ab3c
00000300: b08b 7e3c dc17 b13c 1727 863c 1b3e c53b
00000310: a122 e93c 04a1 963c 8b37 0ebb d363 e63a
00000320: 5627 d03b 936e ba3c 1785 a13c 11ff 833c
00000330: 7375 bb3b 6160 8a3c 723e 893b 9270 803c
00000340: 762d f83c d1b5 9bbb 3443 b53c bc91 bc3c
00000350: ff97 e7bb f551 e03b 5445 be3c da61 d03b
00000360: ee16 b43c 5936 483c 9537 a53c 7c5e 683c
00000370: ab69 b03c 9f4e b33b 628b 693c 1167 873c
00000380: 9065 663c 4766 6b3c ead4 773c 5d72 4d3c
00000390: c34f d63b a037 313c 031a f63c 7171 89ba
000003a0: c755 e23c 139a 4d3b dd53 a13c ec76 dfba
000003b0: 3d59 6a3c 0d0c a73b f79b 873c f88a 003b
000003c0: 4ee2 f3bb 700d a53a bc66 963c 7ca5 983c
000003d0: c773 1d3d 6c59 763b 43ec a23c 9d59 203b
000003e0: 64c8 793c 3b13 d63c 5c1a c23b 2d53 aa3c
000003f0: 0932 003c b30d 633c 46d8 fb3b 7e8d 513c

action_model._continuous_distribution.log_sigma f4 [1, 5]
0.015122409 -0.0039719935 0.021712048 0.050744247 -0.05724263
00000000: fbc3 773c 7f27 82bb 77dd b13c 33d9 4f3d
00000010: 3f77 6abd

action_model._continuous_distribution.mu.weight f4 [5, 256]
-0.037522245 0.044954438 -0.014496337 0.077690676 -0.06090921 0.053906124 -0.024159852 -0.07668658
0.022669576 0.06819236 -0.047165226 -0.026782181 -0.0077305706 -0.07086482 -0.010783651 -0.031393662
-0.0011130213 -0.008415846 0.031090057 -0.05625219 -0.004235661 0.016470524 -0.07776715 -0.007205383
0.04030681 -0.0047183232 0.022491101 -0.02779761 0.022962624 0.011091548 -0.02742686 -0.041648798
-0.030003719 -0.02053261 0.028967291 0.029699178 0.054424383 -0.08987791 -0.00017827415 0.06125287
-0.03579182 -0.038208865 -0.08781792 0.033747993 0.0076956335 0.06229445 0.021031138 -0.0022916247
0.001385709 0.023122573 0.03511185 -0.049143713 0.021332812 0.07057873 -0.050864484 -0.014433693
0.016964113 0.024612986 0.04430762 -0.037577745 -0.036280535 0.039122675 0.0952979 -0.024931401
-0.0353399 0.049273115 -0.023062538 0.047102697 -0.0011605204 -0.017361002 0.07709471 -0.000834472
0.020110901 0.02760457 -0.038861685 -0.0044810977 -0.021337366 -0.01733216 -0.0017952506 0.0510681
-0.007815625 0.0323302 0.0002661541 -0.0048327846 0.05966509 0.014594676 -0.012977675 -0.02430246
0.00996302 0.0661507 -0.05480673 -0.009514093 -0.026823059 0.023215858 -0.017984357 -0.0049694222
-0.015540554 -0.027515702 -0.0505332 -0.0061562755 -0.015843822 0.06626463 0.0023358152 -0.0047767414
-0.063721344 0.030654356 0.022907097 0.050575767 0.033947326 0.019060835 -0.029796015 0.008672933
-0.0030229655 -0.011139206 0.027386354 0.030614153 -0.060501445 -0.06487123 0.048657086 -0.07972862
0.042264313 -0.03545942 -0.033753548 0.077840984 0.0046904497 0.039782938 -0.09531318 -0.024110967
0.0069012507 0.040468406 0.0075859656 0.0068963133 -0.011058409 0.004231018 0.08769333 0.06449806
-0.055445198 0.08416757 -0.04063376 0.06714624 0.026367228 0.017684767 -0.04009263 -0.029848618
-0.01239057 -0.071725726 -0.031185925 0.0061232 -0.035723608 0.050156824 -0.04087865 0.008028478
0.0042147525 0.039959434 -0.022074135 -0.02840869 0.09093805 0.014181014 -0.0847823 -0.06333615
0.015538547 0.031232785 -0.0018250142 0.07567974 0.0300523 0.028316027 0.03644269 -0.010055384
-0.074207366 0.06693567 -0.01833687 0.09374058 0.071370125 -0.04497348 -0.021990532 0.051245045
0.016595861 -0.02808345 -0.04232959 -0.022822246 -0.041682333 -0.0034652117 0.040990278 -0.014088114
-0.042853102 -0.028307095 -0.04110905 -0.053680606 -0.028453562 -0.024266047 0.043279134 0.00394328
-0.021427074 0.07177822 0.07208785 -0.012857601 0.08171724 0.006049136 -0.008339244 -0.018670792
0.029721357 0.04796248 0.015897652 -0.07196511 0.059175644 0.069974445 0.027123226 -0.012836203
-0.004736289 0.012911034 -0.07351843 -0.05912567 0.006594455 0.020136734 -0.0034001942 -0.060015604
-0.065577544 -0.023689706 -0.03904843 0.060245458 -0.053379793 -0.013779267 0.0704536 -0.04178828
0.0083414195 -0.04026825 -0.028230868 0.048482314 0.039054386 -0.024900531 0.010878212 -0.000755211
-0.072299905 0.07860421 -0.04148973 0.027340475 0.0834174 0.06180511 -0.034181487 -0.021180559
0.01644449 0.042888988 0.009319991 -0.04060034 -0.012271552 0.029939167 0.010121254 -0.017823765
-0.036837097 0.053782623 -0.054618195 -0.061942864 0.07142183 -0.06891865 0.022786602 -0.024082989
00000000: edb0 19bd 2522 383d 0b82 6dbc 4a1c 9f3d
00000010: f07b 79bd abcc 5c3d e2ea c5bc db0d 9dbd
00000020: 8cb5 b93c 70a8 8b3d 5330 41bd 4e66 dbbc
00000030: ba50 fdbb 9321 91bd e9ad 30bc a496 00bd
00000040: cce2 91ba 9ee2 09bc 93b0 fe3c b268 66bd
00000050: 4dcb 8abb 31ed 863c 6244 9fbd 221b ecbb
00000060: c118 253d 2a9c 9abb 423f b83c d0b7 e3bc
00000070: 1d1c bc3c 53b9 353c 4bae e0bc ee97 2abd
00000080: 5cca f5bc 0134 a8bc d04c ed3c b14b f33c
00000090: 1aec 5e3d e911 b8bd 1aef 3ab9 4ae4 7a3d
000000a0: 729a 12bd e680 1cbd e2d9 b3bd 563b 0a3d
000000b0: a72b fc3b 7728 7f3d 7e49 ac3c 152f 16bb
000000c0: aea0 b53a 8d6b bd3c 71d1 0f3d eb4a 49bd
000000d0: 26c2 ae3c 958b 903d 4757 50bd 4c7b 6cbc
000000e0: 53f8 8a3c 2ca1 c93c e87b 353d 1feb 19bd
000000f0: e69a 14bd 193f 203d 8c2b c33d f03c ccbc
00000100: 92c0 10bd 9bd2 493d a6ed bcbc c2ee 403d
00000110: 9a1c 98ba a938 8ebc d5e3 9d3d 78c0 5aba
00000120: 9ebf a43c fb22 e23c 6e2d 1fbd 2cd6 92bb
00000130: b3cb aebc 2dfc 8dbc 9d4e ebba c92c 513d
00000140: 1b0d 00bc ac6c 043d 998a 8b39 565c 9ebb
00000150: 6263 743d 821e 6f3c 50a0 54bc f415 c7bc
00000160: ef3b 233c 057a 873d 067d 60bd 00e1 1bbc
00000170: 08bc dbbc 2f2f be3c ee53 93bc 89d6 a2bb
00000180: cf9d 7ebc 9c68 e1bc e7fb 4ebd 95ba c9bb
00000190: e7ca 81bc c0b5 873d 7a14 193b 3686 9cbb
000001a0: 5680 82bd d81e fb3c aaa7 bb3c 8928 4f3d
000001b0: 5a0c 0b3d 7825 9c3c c616 f4bc eb18 0e3c
000001c0: f21c 46bb 3781 36bc 5959 e03c 88ca fa3c
000001d0: 5dd0 77bd 35db 84bd a74c 473d c248 a3bd
000001e0: 581d 2d3d e63d 11bd 2941 0abd 186b 9f3d
000001f0: 58b2 993b 6ff3 223d 8e33 c3bd 5d84 c5bc
00000200: e323 e23b 33c2 253d b193 f83b 78fa e13b
00000210: 542e 35bc 5aa4 8a3b 9098 b33d 8f17 843d
00000220: 811a 63bd 0c60 ac3d 966f 26bd f883 893d
00000230: 1600 d83c a5df 903c 2b38 24bd 1785 f4bc
00000240: d101 4bbc f0e4 92bd a079 ffbc 20a5 c83b
00000250: eb52 12bd 3e71 4d3d 5f70 27bd e189 033c
00000260: e81b 8a3b 81ac 233d d1d4 b4bc 57b9 e8bc
00000270: ba3d ba3d 7c57 683c 58a2 adbd 62b6 81bd
00000280: 6495 7e3c e6db ff3c 5135 efba fbfd 9a3d
00000290: 3e30 f63c 03f7 e73c ee44 153d 56bf 24bc
000002a0: 08fa 97bd 9215 893d 3437 96bc 10fb bf3d
000002b0: 802a 923d 1d36 38bd 7d25 b4bc 53e6 513d
000002c0: 0bf4 873c 430f e6bc cb61 2dbd b8f5 babc
000002d0: 18bb 2abd 9b18 63bb 6ce5 273d d5d1 66bc
000002e0: bc86 2fbd 48e4 e7bc f761 28bd 32e0 5bbd
000002f0: 7217 e9bc 97c9 c6bc 7645 313d a136 813b
00000300: d587 afbc 7600 933d cba2 933d b0a8 52bc
00000310: 5e5b a73d d537 c63b 53a1 08bc 7df3 98bc
00000320: 347a f33c 4e74 443d cb3b 823c 7262 93bd
00000330: 2962 723d c34e 8f3d 8731 de3c f04e 52bc
00000340: df32 9bbb cd88 533c d590 96bd c22d 72bd
00000350: 4c16 d83b cbf5 a43c cbd5 5ebb ecd2 75bd
00000360: 854d 86bd ea10 c2bc 3ff1 1fbd f1c3 763d
00000370: c5a4 5abd 6fc2 61bc fa49 903d 302a 2bbd
00000380: 73aa 083c 52f0 24bd 6c44 e7bc 6495 463d
00000390: 7ef7 1f3d 33fc cbbc 873a 323c 5af9 45ba
000003a0: f911 94bd 3efb a03d 23f1 29bd 22f9 df3c
000003b0: bed6 aa3d 5b27 7d3d e301 0cbd da82 adbc
000003c0: 98b6 863c 5dac 2f3d e0b2 183c 8b4c 26bd
000003d0: 9f0e 49bc fc42 f53c 9ed3 253c 2503 92bc
000003e0: 7fe2 16bd 2b4b 5c3d 54b7 5fbd cdb7 7dbd
000003f0: 9c45 923d 3925 8dbd f8aa ba3c b049 c5bc

action_model._continuous_distribution.mu.bias f4 [5]
-0.0014509332 -0.004493243 -0.017048731 -0.006963316 0.004303876
00000000: 3d2d beba 0e3c 93bb c8a9 8bbc 872c e4bb
00000010: 8707 8d3b
