MLConfig/results/hb01/Lion/Lion-350304.onnx (onnx, 296297 bytes, 7 tensors)

network_body.linear_encoder.seq_layers.0.weight f4 [256, 24]
0.32635644 -0.06265603 -0.27617362 0.14283194 0.01811955 -0.18487996 0.19175321 0.48378637
0.24298686 0.36898533 0.11449614 0.038537376 -0.24066079 -0.113971844 -0.23818816 0.012427828
-0.046558008 -0.37252647 0.059127048 -0.25165755 0.29439095 0.09978185 0.12304766 -0.058093995
0.1989024 0.031629592 -0.14449188 -0.22846572 -0.09417125 -0.035553943 0.1078584 -0.20870231
-0.12792656 -0.046930864 0.124115996 0.3421759 0.33084977 0.11030334 0.061697263 0.049538307
-0.1007624 -0.14518078 0.020673139 0.14663044 0.118433565 0.31803498 -0.2312327 0.1518263
-0.024738625 -0.45307383 0.3100039 -0.11715459 -0.39401743 0.21575066 -0.13602555 -0.04922083
0.07192836 0.0731321 0.41104424 0.1677017 -0.23868655 0.22952916 0.12817255 -0.13006136
0.1656149 -0.27737007 0.375825 -0.06638816 -0.0764531 -0.123828426 0.18040057 0.33783635
-0.58158 -0.04566851 -0.6136344 0.103181034 -0.06700001 0.059433736 0.108446844 -0.121479295
-0.016258562 -0.0594577 -0.45687506 -0.22536147 0.079923324 0.13660415 -0.058319833 -0.31055793
-0.07877878 -0.08741568 -0.095052406 -0.14506778 -0.02383077 -0.24648574 0.16718177 0.14724502
-0.19611916 0.051805824 0.09196558 0.03833951 -0.14928761 0.31702235 -0.33613792 -0.06517888
0.03255625 0.3484963 0.07469665 0.034644227 0.12969412 -0.121162064 -0.0041379193 -0.053982943
-0.0054850946 -0.13790943 0.011237061 -0.30295727 -0.22625104 -0.19331682 0.27852556 0.24885702
-0.04349416 -0.17961977 0.13180506 0.059282538 0.18942821 0.26718423 0.015582944 0.3221671
0.04986515 -0.019227276 0.22166456 -0.121364534 -0.113704056 -0.063011356 -0.13698877 0.36713645
-0.064779356 0.27049753 0.33086574 -0.23134522 0.42970508 0.0999787 -0.04805954 0.13735972
0.023848664 -0.12463114 0.028994847 -0.14187159 0.2701462 0.13754009 -0.29972932 0.22698903
0.054806124 -0.050149314 0.034034666 -0.059101764 -0.41764688 -0.13224436 -0.029371982 0.2667687
0.042406544 0.16050152 -0.59150976 0.23184681 -0.029942615 -0.31067315 0.009684426 -0.14042108
0.3213258 0.19415815 -0.03711195 0.13856322 -0.1985913 0.022609701 0.28397575 -0.21061459
0.20298618 -0.06266157 0.153896 -0.0629417 0.24676481 -0.21138117 -0.6021738 0.14411862
-0.058344014 0.3151296 -0.3133069 -0.258518 0.26302922 0.08880339 0.045734897 -0.18387887
0.3591046 0.30930555 -0.0612812 0.33611327 0.3299504 0.087624945 0.41149455 0.07476468
0.0011016774 0.037819352 -0.008813556 -0.27467814 0.08498512 0.05492619 0.13458551 -0.015595711
-0.38805142 -0.07646425 -0.50843656 0.09312248 0.120349854 0.2187244 -0.13191323 -0.3469102
-0.42160517 0.2889885 0.23152408 0.09308421 -0.21085751 0.17224105 -0.18724696 -0.25112033
-0.24883717 -0.0011309658 0.017646272 -0.105075054 0.26801103 -0.35119313 -0.1315938 -0.2667302
-0.08564285 0.14346558 0.0791744 -0.1489027 0.10480918 0.2810524 0.053673152 0.052236143
-0.07383802 -0.18297078 -0.32004318 -0.10657636 -0.041337706 0.23203306 -0.30161503 0.042064674
-0.0144413095 0.123366594 0.3469632 0.18713367 0.09756183 -0.25201163 -0.10017214 0.24412163
00000000: 3118 a73e ce51 80bd a166 8dbe 8942 123e
00000010: 736f 943c 2c51 3dbe f45a 443e d9b2 f73e
00000020: 8cd1 783e a5eb bc3e f47c ea3d 5ed9 1d3d
00000030: c86f 76be 126a e9bd 99e7 73be 179e 4b3c
00000040: 9cb3 3ebd cabb bebe 342f 723d 42d9 80be
00000050: 69ba 963e 6d5a cc3d 6900 fc3d f8f3 6dbd
00000060: 12ad 4b3e 088e 013d aef5 13be ebf2 69be
00000070: dbdc c0bd 03a1 11bd dde4 dc3d 0fb6 55be
00000080: 2eff 02be 943a 40bd 8730 fe3d ae31 af3e
00000090: 2465 a93e b8e6 e13d 45b6 7c3d aee8 4a3d
000000a0: 845c cebd 45aa 14be b75a a93c 4a26 163e
000000b0: 4c8d f23d 7bd5 a23e 44c8 6cbe 5b78 1b3e
000000c0: a8a8 cabc 4bf9 e7be d5b8 9e3e bfee efbd
000000d0: a7bc c9be beed 5c3e 484a 0bbe c89b 49bd
000000e0: 2d4f 933d 48c6 953d 6474 d23e ffb9 2b3e
000000f0: 3f6a 74be b109 6b3e aa3f 033e ce2e 05be
00000100: f496 293e 7303 8ebe 226c c03e 84f6 87bd
00000110: 7193 9cbd c299 fdbd edba 383e e3f8 ac3e
00000120: 6de2 14bf e70e 3bbd 2517 1dbf 9450 d33d
00000130: 4d37 89bd ca70 733d 6119 de3d 23ca f8bd
00000140: ad30 85bc eb89 73bd 87eb e9be 28c5 66be
00000150: d7ae a33d f5e1 0b3e c7e0 6ebd 7301 9fbe
00000160: c556 a1bd fe06 b3bd d6aa c2bd a68c 14be
00000170: bf38 c3bc c266 7cbe b331 2b3e 66c7 163e
00000180: 76d3 48be 5832 543d 7358 bc3d e409 1d3d
00000190: dade 18be c150 a23e 451a acbe 817c 85bd
000001a0: b459 053d 1b6e b23e 8ffa 983d 1be7 0d3d
000001b0: 89ce 043e d123 f8bd 6297 87bb 381d 5dbd
000001c0: 4fbc b3bb 2138 0dbe a61b 383c 371d 9bbe
000001d0: 5aae 67be d8f4 45be e79a 8e3e 60d4 7e3e
000001e0: ef26 32bd 3fee 37be e8f7 063e 3fd2 723d
000001f0: 78f9 413e 5fcc 883e 9b4f 7f3c 16f3 a43e
00000200: 663f 4c3d 8582 9dbc 09fc 623e f88d f8bd
00000210: acdd e8bd 190c 81bd c946 0cbe 4ff9 bb3e
00000220: 0aab 84bd a77e 8a3e 3c67 a93e c3e5 6cbe
00000230: 4e02 dc3e a2c1 cc3d 15da 44bd 07a8 0c3e
00000240: 465e c33c 9c3e ffbd 9a86 ed3c c946 11be
00000250: 9a50 8a3e 4fd7 0c3e 1f76 99be d06f 683e
00000260: 637c 603d 5e69 4dbd ef67 0b3d b114 72bd
00000270: d0d5 d5be 116b 07be 839d f0bc e895 883e
00000280: 7cb2 2d3d 835a 243e 2f6d 17bf 4069 6d3e
00000290: 374a f5bc 8d10 9fbe 6dab 1e3c 8bca 0fbe
000002a0: d184 a43e 65d1 463e b302 18bd 84e3 0d3e
000002b0: 855b 4bbe fb37 b93c 4565 913e 5aab 57be
000002c0: 9cdb 4f3e b654 80bd ea96 1d3e 94e7 80bd
000002d0: eaaf 7c3e 4e74 58be 1028 1abf d593 133e
000002e0: 22fa 6ebd ab58 a13e c369 a0be 795c 84be
000002f0: c4ab 863e 8dde b53d 8454 3b3d be4a 3cbe
00000300: 8fdc b73e 4c5d 9e3e ff01 7bbd 0a17 ac3e
00000310: 42ef a83e b574 b33d 6aaf d23e 391e 993d
00000320: 2966 903a 77e8 1a3d bc66 10bc 9da2 8cbe
00000330: ae0c ae3d 49fa 603d c9d0 093e 2785 7fbc
00000340: adae c6be 4a99 9cbd e628 02bf 00b7 be3d
00000350: fc79 f63d 4af9 5f3e 4314 07be 379e b1be
00000360: a2dc d7be 4df6 933e a614 6d3e efa2 be3d
00000370: 08eb 57be f55f 303e abbd 3fbe d892 80be
00000380: 2ccf 7ebe ea3c 94ba ea8e 903c 9731 d7bd
00000390: be38 893e 96cf b3be 86c0 06be dc90 88be
000003a0: 8565 afbd a4e8 123e 3026 a23d f379 18be
000003b0: 32a6 d63d 1ae6 8f3e 61d8 5b3d 91f5 553d
000003c0: 6338 97bd b15c 3bbe b3dc a3be b544 dabd
000003d0: ba51 29bd 139a 6d3e 496d 9abe 024c 2c3d
000003e0: 3e9b 6cbc a0a7 fc3d 29a5 b13e f89f 3f3e
000003f0: 7fce c73d ab07 81be 0d27 cdbd 05fb 793e

network_body.linear_encoder.seq_layers.0.bias f4 [256]
-0.0050982903 0.004562338 0.0032286732 -0.027994314 0.004483644 0.0004027445 -0.0011232789 -0.0055719498
0.002107577 -0.00078416086 0.012465885 0.00024747345 -0.0009615588 0.003907831 0.0019726132 -0.0016793003
0.0037915248 0.004658546 0.0063923313 0.011008235 0.0013366834 -0.001459097 -0.014829539 0.001323664
0.0022791952 -0.0161974 -0.0002198969 0.0010381978 0.017969023 -0.0033633432 -0.0012692508 -0.0008528245
0.0034563527 0.01006748 0.00595642 0.001885853 0.0016544496 0.013475927 0.0020271682 0.0249415
-0.002951793 0.0037066045 0.013942341 0.0064747757 -0.008167803 -0.0039324136 -0.00017572504 -0.0067601623
0.010632201 0.0043460145 0.006343532 -0.016785415 -0.0088953255 0.0014932535 0.006675503 0.00070965383
0.0026062012 -0.0023663419 -0.0071357894 -0.0057870112 0.0010519112 -0.00096610666 -0.0041630026 -0.0084633585
-0.0017819062 -0.004062433 -0.0033089155 0.001694973 -0.0139051415 -0.009062314 0.0146075925 -0.0016084283
-0.001220178 -0.011817086 0.006097137 -0.0020721583 0.006086128 0.0041888636 0.010104162 -0.007473605
0.009083752 -0.0018012429 0.00036896917 0.004202309 -0.0006533833 -0.0032616355 0.021796672 -0.004025384
-0.0035030022 -0.0030343484 -0.005459611 -0.0009040079 -0.014724035 5.3122814e-05 -0.013485106 -0.0010907664
-0.0019462933 -0.0075111347 -0.007023965 0.00503903 0.008152566 0.0041163634 0.0057705385 0.016370775
0.008059166 -0.0006616572 0.0038165844 0.010769897 -0.002714545 -0.0029457358 0.004233054 -0.0084253
0.00031497693 0.02022132 0.0055949013 -0.008516691 -0.001186235 0.0020891838 -0.0014629606 -0.007103823
-0.0043715024 -0.0068123224 0.008121844 -0.005870531 0.017003112 -0.0032119148 0.01975363 0.00083146547
-0.0036929324 0.00819352 0.00487927 0.008937887 -0.02649167 0.0030700192 0.0069934293 -0.005680008
-0.0030497562 0.018412765 -0.0012328379 0.0023510489 0.010927655 0.0045573697 -0.005316896 0.0028395092
0.0010849503 0.002958707 -0.006154202 -0.0050912662 0.0064571686 0.016540183 -0.0059816684 0.0031527206
0.008063851 -0.0099729635 -0.0004419681 -0.007372596 -0.0011133662 0.00328656 0.010773947 -0.0010221759
0.0058469954 0.004507832 -0.004871325 -0.004253025 -0.0010872742 0.0014442304 -0.0030263297 0.001884559
0.0040920232 -0.0007925371 -0.0067474493 -0.00019745665 0.016471237 0.019414114 0.006376203 -0.003007517
-0.0060577653 0.0033921013 -0.0036713104 0.016706124 -0.0017974293 -0.005712855 -0.00462733 0.015382996
0.001011787 -0.016513968 -0.00060558005 -0.00027311713 0.0047545494 0.0050599673 0.020343361 0.0021361546
-0.0052758083 -0.0054622004 -0.0057930597 0.013820658 -0.004495356 -0.0014921421 -0.0038508181 -0.006066066
0.00077038666 -0.00038498038 0.0015533492 0.021258563 -0.009579886 0.0025804418 0.008389389 -0.004854632
-0.006952253 -0.0012106762 -0.0018027812 0.014954719 0.00032876848 0.00089735433 -0.006840169 0.011135848
0.023498302 -0.0029804904 0.008248521 -0.0054628556 0.008707633 0.024186175 0.001993038 -0.0028032423
-0.0011346927 -0.002833463 -0.008941232 0.0034888675 3.310585e-05 0.002108353 -0.01873832 0.017981827
-0.005245218 -0.004356916 -0.007530603 0.0028586672 -0.0020212007 -0.005825674 -0.0056907954 0.0031267523
0.013158572 0.0062017734 0.004103305 0.013973427 0.009763017 -0.009466554 -0.0022415114 -0.005869757
0.015422851 -0.008085707 -0.0009982316 0.005908939 -0.0064500305 -0.0012112833 0.0097414 -0.0028628206
00000000: 8f0f a7bb aa7f 953b 2698 533b 5554 e5bc
00000010: 88eb 923b 7427 d339 fc3a 93ba e794 b6bb
00000020: 461f 0a3b 2590 4dba b63d 4c3c 53bf 8139
00000030: 1e11 7cba 430d 803b f546 013b f81b dcba
00000040: 3b7b 783b b7a6 983b c376 d13b e25b 343c
00000050: a733 af3a 2c3f bfba 98f7 72bc cb7e ad3a
00000060: 8d5e 153b 69b0 84bc 2094 66b9 2314 883a
00000070: c633 933c 896b 5cbb fd5c a6ba 1590 5fba
00000080: fa83 623b 12f2 243c 132e c33b ba2e f73a
00000090: 1eda d83a 22ca 5c3c 3dda 043b 1e52 cc3c
000000a0: de72 41bb 81ea 723b 6b6e 643c 5b2a d43b
000000b0: 40d2 05bc 7adb 80bb d542 38b9 5a84 ddbb
000000c0: af32 2e3c 0369 8e3b 67dd cf3b 9181 89bc
000000d0: b3bd 11bc 46b9 c33a 2ebe da3b 1008 3a3a
000000e0: cdcc 2a3b a114 1bbb 57d3 e9bb f8a0 bdbb
000000f0: 48e0 893a 5242 7dba cc69 88bb e6a9 0abc
00000100: da8e e9ba 281e 85bb 64da 58bb db29 de3a
00000110: 64d2 63bc 1a7a 14bc af54 6f3c e6d1 d2ba
00000120: 61ee 9fba 739c 41bc 7eca c73b 0ccd 07bb
00000130: 246e c73b bc42 893b ed8b 253c 25e5 f4bb
00000140: 04d4 143c af17 ecba 3472 c139 86b3 893b
00000150: d047 2bba 2ac1 55bb ef8e b23c 5ee7 83bb
00000160: a092 65bb ebdb 46bb 89e6 b2bb f1fa 6cba
00000170: 143d 71bc 30d0 5e38 a2f0 5cbc 0cf8 8eba
00000180: c41a ffba f71f f6bb 4a29 e6bb 731e a53b
00000190: 5792 053c 8fe2 863b c916 bd3b 011c 863c
000001a0: 980a 043c 1073 2dba a91f 7a3b 3974 303c
000001b0: 82e6 31bb 3f0d 41bb 6eb5 8a3b 450a 0abc
000001c0: 7d23 a539 2fa7 a53c 6f55 b73b 9789 0bbc
000001d0: 717b 9bba b0ea 083b d0c0 bfba 30c7 e8bb
000001e0: d23e 8fbb e739 dfbb 7c11 053c 955d c0bb
000001f0: 1c4a 8b3c fd7e 52bb 5dd2 a13c b4f6 593a
00000200: 2005 72bb 1d3e 063c 49e2 9f3b 3770 123c
00000210: 0f05 d9bc 6032 493b 2329 e53b 5c1f babb
00000220: 6bde 47bb 5ed6 963c 2d97 a1ba 0e14 1a3b
00000230: e809 333c fd55 953b 5b39 aebb 0f17 3a3b
00000240: e434 8e3a dee6 413b 30a9 c9bb a3d4 a6bb
00000250: a896 d33b 477f 873c df01 c4bb e09d 4e3b
00000260: 3e1e 043c a465 23bc f4b7 e7b9 d195 f1bb
00000270: 5fee 91ba 5463 573b 3685 303c 88fa 85ba
00000280: 2798 bf3b 70b6 933b a39f 9fbb f65c 8bbb
00000290: de82 8eba 554c bd3a 6355 46bb 4f03 f73a
000002a0: 6116 863b 44c2 4fba b519 ddbb 5e0c 4fb9
000002b0: b0ee 863c 590a 9f3c 78ef d03b c319 45bb
000002c0: 3880 c6bb 044e 5e3b 5e9a 70bb 48db 883c
000002d0: b897 ebba e732 bbbb dca0 97bb f608 7c3c
000002e0: f09d 843a 4d48 87bc cabf 1eba 2931 8fb9
000002f0: 0dcc 9b3b 15ce a53b 1fa7 a63c bafe 0b3b
00000300: b0e0 acbb 42fc b2bb b5d3 bdbb 0b70 623c
00000310: c84d 93bb fb93 c3ba 025e 7cbb dac5 c6bb
00000320: c6f3 493a 31d7 c9b9 c099 cb3a 7026 ae3c
00000330: f4f4 1cbc a11c 293b a673 093c 9b13 9fbb
00000340: bacf e3bb 8daf 9eba 4d4b ecba a304 753c
00000350: 8f5e ac39 6e3c 6b3a 7f23 e0bb 2273 363c
00000360: 837f c03c 5554 43bb ce24 073c c101 b3bb
00000370: 76aa 0e3c 1622 c63c a19d 023b 9ab6 37bb
00000380: f8b9 94ba 9fb1 39bb 3f7e 12bc 7ca5 643b
00000390: 23db 0a38 4b2c 0a3b 1b81 99bc a04e 933c
000003a0: 14e0 abbb 76c4 8ebb 47c3 f6bb 7a58 3b3b
000003b0: 1f76 04bb 4ce5 bebb da79 babb 33ea 4c3b
000003c0: 0d97 573c 3f38 cb3b 0475 863b cdf0 643c
000003d0: 10f5 1f3c 9b19 1bbc 52e6 12bb 1757 c0bb
000003e0: 20b0 7c3c ea79 04bc 18d7 82ba c69f c13b
000003f0: c75a d3bb ecc3 9eba 659a 1f3c 299e 3bbb

network_body.linear_encoder.seq_layers.2.weight f4 [256, 256]
-0.092348054 0.02989708 0.05914403 -0.055873808 0.0038565095 -0.037712935 -0.0214898 -0.028180378
0.08686615 0.104379654 0.10423954 0.051502384 0.07666132 0.04796759 -0.024707232 -0.124137506
-0.036423378 -0.008873255 -0.0021480506 -0.0021146496 -0.036152367 0.030054763 -0.033571556 0.030043116
0.0015925943 -0.02164683 -0.0040410412 -0.013999536 -0.05630936 -0.094858766 -0.023818199 -0.054892033
-0.035921257 0.057019327 -0.027193163 -0.00093510404 0.02022462 0.068932295 -0.034781806 -0.005544474
0.0079831965 0.18057336 -0.026413877 0.0026312226 -0.015992753 -0.02449929 0.072025515 -0.043660425
-0.07540725 -0.0110629285 0.030531121 -0.05875982 -0.056131475 0.043715954 0.12589766 -0.0044886796
0.08962008 -0.031502046 -0.07820491 -0.057204086 -0.046974882 -0.06230047 -0.05436258 -0.047947105
-0.042155493 -0.04724574 0.027730754 -0.06330351 0.055473894 0.024101896 0.051287096 0.0672611
0.11046947 0.020436654 0.14247723 0.0073841545 0.11592469 0.11243521 -0.042333156 0.04132418
-0.091189824 0.124057755 0.007510108 0.052254356 0.1263528 -0.06169337 -0.045645103 0.0719847
0.042118203 -0.0128559675 -0.027921744 -0.04226768 0.015925901 -0.056195896 0.07634849 0.10281972
0.010444575 -0.08383999 -0.024820188 0.06065009 -0.029066645 0.09451977 -0.020752784 0.010540885
-0.08644754 0.028063461 -0.049612843 -0.023343062 0.07931138 0.002028927 -0.07143276 0.017408948
-0.11555246 0.083193876 -0.061766688 0.11040123 0.06985604 0.07223524 -0.10668607 -0.10330734
0.05503822 0.045101907 -0.04919653 -0.009865603 -0.057717163 0.093862124 0.03340977 -0.006543184
-0.07230044 0.03610463 -0.10349313 -0.008977743 -0.04557759 0.039481886 0.030520083 -0.049867693
0.017491577 -0.037980855 -0.08172183 0.044595756 -0.022122761 -0.0013220762 0.05754459 0.06428144
0.005968643 -0.044289842 -0.031191176 -0.03411991 0.044570576 0.041077692 -0.038409483 0.037638225
0.046941373 0.034949347 -0.07948925 0.045161366 -0.055013742 0.035598636 0.02384417 0.04354159
0.05492731 -0.09851747 -0.09144916 0.11782582 -0.16629478 0.030769315 0.025237719 -0.114912346
0.09697464 0.045669947 -0.012293479 0.03824705 0.044930648 0.046140637 0.114516966 0.02376036
0.023656001 0.015514561 -0.03196111 -0.10457458 0.020818304 0.02205341 0.049539525 0.0436127
0.028198218 0.07055187 -0.09423463 -0.12916252 -0.009569569 -0.017950833 -0.1546494 0.013021657
-0.05814975 0.0109153455 0.030617662 0.07750411 -0.094660826 0.13825461 0.024350854 0.15214506
0.06274557 -0.07446049 0.13476615 0.090302974 -0.008182341 0.016267318 -0.15539168 0.07771647
-0.07235325 0.028714746 0.08132904 -0.04349296 -0.116107434 0.061868418 -0.09655372 -0.06921224
-0.01954189 -0.025552094 0.04574062 0.046335507 0.035838623 -0.07208097 -0.082522176 -0.023832543
-0.1042059 -0.038104046 0.009212622 0.025543807 0.15136431 -0.086804174 0.034231115 -0.12356345
-0.033480573 -0.08431622 0.008889552 0.0019252738 0.053801112 0.049848374 0.10442569 -0.03197487
-0.043372553 0.054278534 0.038845565 0.09155518 -0.05477685 -0.03421745 -0.0118288845 -0.10796225
-0.017663144 -0.015749354 -0.009710304 0.08465058 0.09049735 -0.0028628437 0.046324704 0.05003175
00000000: fa20 bdbd b9ea f43c 0341 723d efdb 64bd
00000010: 7ebd 7c3b e178 1abd 610b b0bc 89da e6bc
00000020: e1e6 b13d 00c5 d53d 8a7b d53d 2af4 523d
00000030: 9c00 9d3d aa79 443d d266 cabc ce3b febd
00000040: ae30 15bd 2161 11bc 4fc6 0cbb ef95 0abb
00000050: 8114 14bd 6835 f63c 5482 09bd fb1c f63c
00000060: 99be d03a b154 b1bc b66a 84bb 4f5e 65bc
00000070: a5a4 66bd 5045 c2bd 621e c3bc 78d6 60bd
00000080: 2b22 13bd 198d 693d 32c4 debc c521 75ba
00000090: 1aae a53c 602c 8d3d 5e77 0ebd 6bae b5bb
000000a0: f4cb 023c 39e8 383e ea61 d8bc 9770 2c3b
000000b0: 3c03 83bc bcb2 c8bc 1d82 933d 46d5 32bd
000000c0: 1e6f 9abd 4941 35bc 671c fa3c 23ae 70bd
000000d0: 1eea 65bd 800f 333d 51eb 003e c615 93bb
000000e0: bc8a b73d 4a08 01bd e529 a0bd d54e 6abd
000000f0: bc68 40bd c72e 7fbd 4cab 5ebd 2f64 44bd
00000100: 3dab 2cbd c084 41bd 9b2b e33c 45a5 81bd
00000110: 9838 633d 5771 c53c 6b12 523d 30c0 893d
00000120: d13d e23d c56a a73c 8de5 113e c7f6 f13b
00000130: ed69 ed3d 6e44 e63d 8865 2dbd 8b43 293d
00000140: bbc1 babd fe11 fe3d 5a17 f63b aa08 563d
00000150: a162 013e 30b2 7cbd 5cf6 3abd b76c 933d
00000160: 2384 2c3d d6a1 52bc 24bc e4bc e020 2dbd
00000170: 0977 823c ab2d 66bd 995c 9c3d 2593 d23d
00000180: b91f 2b3c 4db4 abbd b553 cbbc 3b6c 783d
00000190: 2c1d eebc 9593 c13d be01 aabc adb3 2c3c
000001a0: 680b b1bd 58e5 e53c d636 4bbd f339 bfbc
000001b0: 016e a23d bff7 043b 574b 92bd 369d 8e3c
000001c0: c5a6 ecbd 8d61 aa3d 11ff 7cbd 0a1a e23d
000001d0: af10 8f3d 12f0 933d 3a7e dabd cc92 d3bd
000001e0: c26f 613d c7bc 383d 4d82 49bd 57a3 21bc
000001f0: d568 6cbd c93a c03d afd8 083d 3568 d6bb
00000200: 4112 94bd 73e2 133d 35f4 d3bd 6217 13bc
00000210: 91af 3abd c2b7 213d 4105 fa3c 1142 4cbd
00000220: 7f4a 8f3c d091 1bbd c65d a7bd 0aaa 363d
00000230: cb3a b5bc 8449 adba e0b3 6b3d fda5 833d
00000240: 9b94 c33b 4469 35bd a384 ffbc 52c1 0bbd
00000250: a38f 363d 1541 283d 4353 1dbd 8a2a 1a3d
00000260: 9945 403d 0c27 0f3d 43cb a2bd 20fb 383d
00000270: 1756 61bd e0cf 113d d954 c33c ab58 323d
00000280: 76fb 603d 87c3 c9bd b249 bbbd aa4e f13d
00000290: 2e49 2abe ee0f fc3c 55bf ce3c 2a57 ebbd
000002a0: a49a c63d 6910 3b3d 976a 49bc f0a8 1c3d
000002b0: 3309 383d f7fd 3c3d df87 ea3d 16a5 c23c
000002c0: 3bca c13c c930 7e3c a7e9 02bd 332b d6bd
000002d0: 268b aa3c 5aa9 b43c f5e9 4a3d 3ba3 323d
000002e0: f3ff e63c 807d 903d 16fe c0bd 2e43 04be
000002f0: aec9 1cbc a00d 93bc 6a5c 1ebe ca58 553c
00000300: 6f2e 6ebd 47d6 323c e4d1 fa3c 7aba 9e3d
00000310: 89dd c1bd 9e92 0d3e 717b c73c eacb 1b3e
00000320: c080 803d be7e 98bd 2300 0a3e c4f0 b83d
00000330: 3a0f 06bc 0a43 853c ff1e 1fbe d029 9f3d
00000340: f12d 94bd 303b eb3c d78f a63d ad25 32bd
00000350: bcc9 edbd bd69 7d3d f5bd c5bd 26bf 8dbd
00000360: 5016 a0bc a052 d1bc 845a 3b3d 4dca 3d3d
00000370: 85cb 123d 309f 93bd 6301 a9bd 773c c3bc
00000380: e769 d5bd fd12 1cbd 8af0 163c 3f41 d13c
00000390: 3fff 1a3e 63c6 b1bd ed35 0c3d d60e fdbd
000003a0: ed22 09bd fbad acbd 7ca5 113c 7859 fc3a
000003b0: 8e5e 5c3d cf2d 4c3d 23dd d53d 15f8 02bd
000003c0: 6ba7 31bd 2b53 5e3d 871c 1f3d 4881 bb3d
000003d0: b15d 60bd 9927 0cbd f0cd 41bc 501b ddbd
000003e0: 4cb2 90bc ca04 81bc f817 1fbc 495d ad3d
000003f0: ad56 b93d 8c9e 3bbb f9be 3d3d 18ee 4c3d

network_body.linear_encoder.seq_layers.2.bias f4 [256]
0.009836193 -0.00048693336 -0.0012822344 -0.0010892956 0.000821119 0.0052589797 -0.0009379001 -0.008769684
-0.0015346311 0.008229508 -0.002056315 0.004830149 0.0038614424 -0.001878036 -0.0027885803 0.0015987474
0.0067625092 -0.006473422 0.006151576 -0.011272017 -0.0029094238 0.007284404 0.002678779 0.000347616
-0.0004538871 0.007261876 0.0010148553 -0.0077057984 -0.010410306 -0.0108764665 0.008570713 0.002309343
0.0036669024 -0.0040340717 0.009255574 -0.00057810376 -0.008748353 0.0052504535 0.0027646509 -9.370921e-05
-0.010042386 -0.00048562748 -0.007170288 -0.004914274 0.006832623 0.0030075095 0.005570001 0.0021726412
0.004387585 -0.011651921 0.0052808197 0.0060860054 0.0075528487 0.001402654 -0.0054025366 0.0013910934
-0.0018217138 0.00460331 0.007314503 -0.006488178 0.008980031 -0.0025946354 0.0005539136 -0.0018873237
-0.0018999418 -0.0045996 -0.0067687854 -0.0051824036 0.0012566365 0.0052419445 -0.0017351285 0.0025096342
0.0021972351 -0.0035276623 0.007969429 0.0048091174 0.0055021415 0.0038121548 0.0073893787 0.00828706
0.014876313 -0.00022922608 0.004490495 0.013117054 0.009073627 -0.005788191 -0.007904252 7.384304e-05
0.006908546 0.009307768 0.015217376 0.007625377 -0.0017480724 0.0051104636 -0.00499756 0.0007364949
-0.0037436734 0.011976184 -0.0019840205 -0.004342174 -0.0014223221 -0.0010743177 -0.0011612588 -0.004732602
-0.0010508951 -0.0059928037 0.0032905184 0.00946972 -0.0019252446 -0.0040349113 -0.0012364959 0.0066613136
-0.008091973 -0.005417608 -2.2345357e-05 0.01350546 0.0010868883 0.0021367434 0.0028078682 0.019427005
0.0110983895 -0.0011211722 -0.006638738 -0.0044225655 -0.00031585386 0.0044631944 0.006291457 -0.0069648265
-0.0048419572 -0.002331909 0.0021364943 -0.0044743917 0.0028548473 0.0022338827 0.007342072 -0.001371314
0.009576028 -0.005320158 0.00402254 0.0029107186 0.00021874963 0.0008557248 0.00059204176 -0.0039520096
-0.0075062094 -0.007276162 0.012397179 -0.003225749 0.0013778898 0.0017819254 -0.0032837712 -0.0051229224
0.0005662817 0.0027981305 -0.0036124447 -0.0025317937 -0.0047078477 0.00052220194 0.0007884321 0.004616187
-0.0010581518 -0.0009747762 -0.00486412 -0.0008252278 0.0024058542 0.009651459 0.0023736197 -0.003912665
0.0057114325 0.0044462695 0.002099504 0.0007753618 0.0039248373 0.0033389407 -0.0023094786 0.0005113132
0.0042606713 0.0030149207 -0.004372998 0.0034209914 0.00902517 -0.0056176637 0.003893466 -0.004792467
-0.0053631673 -0.0034050874 0.0027074912 0.0012779392 0.0013916795 0.003076205 0.0013324426 0.004696951
-0.0066297376 -0.005772246 -0.0018043189 -0.0022672422 0.0002126985 0.0029631536 0.0055852435 0.0007475279
-0.0027310464 0.0033187508 0.008013745 -0.004023919 -0.000877953 -0.003162126 0.0046073194 -0.0057317815
-0.0033718594 -0.0009654689 0.008225116 -0.0024142663 0.005339876 0.0023848908 -0.011940097 -0.002788757
0.0032721634 -0.0003289078 0.0014996646 0.011150474 0.015898325 0.00237209 0.004064996 0.009069331
0.020298146 -0.0051913494 0.011926843 -0.0015208152 0.0037966317 0.00056214235 0.0069177803 0.0087950695
0.0070103733 0.003293122 0.008886218 -0.006292816 0.001149617 -0.0048057423 0.0072764386 0.0060849567
0.014696936 0.005624348 -0.0035203367 0.004700489 0.0049215807 0.0072728805 0.009926472 -0.0010247963
0.009106415 0.021396682 -0.0018294645 0.0037507417 0.00016602974 -0.00357559 -0.0031730926 0.0068220557
00000000: fc27 213c 174b ffb9 a610 a8ba b2c6 8eba
00000010: 5d40 573a 8553 ac3b 69dd 75ba b8ae 0fbc
00000020: ad25 c9ba 0fd5 063c 3ec3 06bb 3a46 9e3b
00000030: 4110 7d3b 6e28 f6ba 9dc0 36bb 108d d13a
00000040: 0a98 dd3b 001f d4bb 2993 c93b 44ae 38bc
00000050: 08ac 3ebb 02b2 ee3b 748e 2f3b 3b40 b639
00000060: b2f7 edb9 08f5 ed3b e504 853a ec80 fcbb
00000070: fd8f 2abc 3533 32bc 2d6c 0c3c 5958 173b
00000080: 6a50 703b 3f30 84bb b1a4 173c e38b 17ba
00000090: 4155 0fbc ff0b ac3b 252f 353b c085 c4b8
000000a0: d288 24bc d19b feb9 bcf4 eabb eb07 a1bb
000000b0: 32e4 df3b a319 453b 8e84 b63b df62 0e3b
000000c0: bbc5 8f3b b3e7 3ebc ba0a ad3b 1d6d c73b
000000d0: e37d f73b 42d9 b73a c307 b1bb 5955 b63a
000000e0: 92c6 eeba 5dd7 963b 80ae ef3b c89a d4bb
000000f0: fb20 133c c20a 2abb 8334 113a 1360 f7ba
00000100: 7807 f9ba 3eb8 96bb b0cc ddbb 27d1 a9bb
00000110: b9b5 a43a 9ec4 ab3b 406d e3ba ad78 243b
00000120: 7dff 0f3b 5a30 67bb 3592 023c cd95 9d3b
00000130: 4f4b b43b 58d5 793b 9a22 f23b 73c6 073c
00000140: c7bb 733c 685c 70b9 0125 933b e9e8 563c
00000150: 8da9 143c deaa bdbb d680 01bc 2edc 9a38
00000160: 1661 e23b 9c7f 183c 4d52 793c 4cde f93b
00000170: 941f e5ba ad75 a73b 92c2 a3bb 5611 413a
00000180: 6b58 75bb c237 443c 5706 02bb cc48 8ebb
00000190: 366d baba 1fd0 8cba 6135 98ba f113 9bbb
000001a0: 30be 89ba 485f c4bb bda5 573b e226 1b3c
000001b0: 7d58 fcba 4a37 84bb eb11 a2ba 2647 da3b
000001c0: 3294 04bc 3186 b1bb 4a72 bbb7 0146 5d3c
000001d0: eb75 8e3a 9b08 0c3b 3604 383b 6225 9f3c
000001e0: 05d6 353c 4cf4 92ba c589 d9bb 2beb 90bb
000001f0: 3099 a5b9 fd3f 923b 9128 ce3b 3339 e4bb
00000200: 48a9 9ebb f1d2 18bb 6d04 0c3b eb9d 92bb
00000210: 6418 3b3b 5566 123b c495 f03b aabd b3ba
00000220: c6e4 1c3c b854 aebb 83cf 833b c1c1 3e3b
00000230: 2860 6539 b852 603a 4033 1b3a dc7f 81bb
00000240: a6f6 f5bb df6c eebb 8a1d 4b3c 1667 53bb
00000250: 4f9a b43a 7f8f e93a 8a34 57bb 30de a7bb
00000260: 8672 143a d760 373b c4be 6cbb 73ec 25bb
00000270: 4a44 9abb 61e4 083a c8ae 4e3a 6243 973b
00000280: afb1 8aba 2088 7fba 3263 9fbb 1a54 58ba
00000290: 89ab 1d3b 2721 1e3c bb8e 1b3b d035 80bb
000002a0: f826 bb3b 03b2 913b d597 093b a641 4b3a
000002b0: ec9b 803b 21d2 5a3b 9f5a 17bb a609 063a
000002c0: 1a9d 8b3b fa95 453b 5e4b 8fbb b632 603b
000002d0: 4ede 133c 6114 b8bb 8529 7f3b 210a 9dbb
000002e0: 82bd afbb e327 5fbb 2a70 313b 8680 a73a
000002f0: 0469 b63a 289a 493b 5ba5 ae3a e1e8 993b
00000300: 453e d9bb 1c25 bdbb e57e ecba 0396 14bb
00000310: d207 5f39 7831 423b 6b04 b73b c0f5 433a
00000320: 5bfb 32bb 667f 593b 154c 033c 14db 83bb
00000330: 6e26 66ba ac3b 4fbb fff8 963b abd1 bbbb
00000340: 6afa 5cbb 8517 7dba a3c2 063c ab38 1ebb
00000350: 20fa ae3b d44b 1c3b 66a0 43bc 94c3 36bb
00000360: cb71 563b 4271 acb9 6590 c43a 7ab0 363c
00000370: 343d 823c 1175 1b3b a833 853b 8897 143c
00000380: 4c48 a63c 321c aabb ce68 433c 1756 c7ba
00000390: e9d0 783b bc5c 133a 8cae e23b 3219 103c
000003a0: 46b7 e53b 6bd1 573b 8097 113c f733 cebb
000003b0: bfae 963a 7d79 9dbb 316f ee3b 5164 c73b
000003c0: 6bcb 703c 734c b83b 73b5 66bb 8f06 9a3b
000003d0: 3645 a13b 5851 ee3b a4a2 223c 7552 86ba
000003e0: 1333 153c 1848 af3c a4ca efba 01cf 753b
000003f0: 4518 2e39 7254 6abb a9f3 4fbb 8d8b df3b

action_model._continuous_distribution.log_sigma f4 [1, 5]
-0.0030233264 0.0037478162 0.011966181 0.0052293777 0.0006445362
00000000: 0023 46bb ec9d 753b cd0d 443c 335b ab3b
00000010: 18f6 283a

action_model._continuous_distribution.mu.weight f4 [5, 256]
0.010843857 -0.0013623921 -0.019602478 -0.011303073 0.022897579 0.025894174 0.012614972 -0.006457737
-0.015681636 0.0146103585 -0.0017154182 0.0126232365 0.008853001 0.0038185243 -0.024176434 0.02667488
0.003920151 0.001554482 0.0060930024 -0.007997937 -0.001000584 0.014223592 0.0116200065 -0.025729323
0.011084641 -0.013417153 0.0083472105 -0.011210099 0.007615895 0.008938034 0.028221382 0.025288433
0.003699203 0.01749564 0.018008765 -0.0030648145 -0.016349996 -0.008501142 -0.0050875572 -0.031989496
-0.0013277871 -0.002656346 -0.020707523 -0.0034449515 0.0007544789 0.018357683 0.013626363 0.0068916148
-0.019517478 -0.016300496 -0.003187361 -0.00026791336 0.018086348 0.011092764 -0.012744396 -0.01686636
-0.0027403089 0.0031606876 -0.0045506223 -0.006728482 -0.018091297 -0.001439324 -0.008497999 -0.007787007
-0.003078606 -0.0039408635 -0.0058774916 0.017298663 0.011765939 0.011950879 -0.0074146013 -0.019145539
-0.013740269 0.00415099 -0.0076545877 0.018333593 -0.014071948 -0.00934025 -0.013854501 0.02535051
-0.00025632128 -0.017696878 0.007585458 0.015593796 0.017751848 0.0037580747 -0.021985041 0.014416682
0.0008418664 -0.008087451 0.010141052 0.0019779047 0.0016346464 0.024981448 0.012553437 0.01067503
-0.009990118 -0.008126045 0.013980205 -0.00072987203 -0.015873032 -0.005957549 -0.0071573094 0.0013253009
0.00816695 -0.012828113 0.014782893 0.00024026251 0.021620447 -0.009101114 -0.0012313091 -0.0035095576
-0.0031179166 -0.025503209 0.0028720996 0.014855977 0.019113613 -0.0076483665 0.022519281 0.0055982675
0.008633273 0.0036931792 -0.015973551 -0.029725756 0.010855107 0.016666254 0.0047937846 -0.0064180903
-0.007948978 0.0044087567 -0.017285796 0.006077522 -0.012310384 0.009689933 0.0043474096 0.010083015
0.019376453 -0.005082281 0.029915046 -0.0017765176 0.018393168 0.005478101 -0.011544323 0.0046391906
-0.04019714 -0.027828755 -0.0070774374 0.012408017 -0.00430995 -0.01978208 -0.017170249 0.0004455569
0.000525187 0.0050620097 -0.0026602386 0.02769055 0.0027242647 0.012796368 0.021626143 0.004622552
-0.0064134956 0.0075084767 -0.033547834 0.0022275948 0.006775123 0.0008955709 0.0051644095 -0.00092390087
0.024291344 -0.0033694974 -0.0034221378 -0.010471796 -0.012512369 -0.013267513 -0.0106000425 -0.008128136
-0.0043865074 -0.0066774143 -0.011036461 0.01551894 0.032471716 -0.036257368 0.0018947707 0.007733973
0.007155239 -0.001094122 0.008866442 0.00046470723 -0.020265875 0.012281271 0.027642347 0.012631794
-0.008501274 -0.009895226 -0.0033351972 -0.008590756 -0.0025476124 0.010088615 0.020098867 -0.0033572782
0.004894848 0.0077921324 0.025716433 -0.014628853 -0.0049494477 -0.02056356 0.016827032 0.008892452
-0.009271902 -0.002457823 0.0075194323 -0.02337584 0.021985138 0.011826847 -0.010906078 -0.01776768
-4.706529e-05 -1.7627339e-05 -0.006332748 0.029307317 0.015211557 -0.009870319 0.009900499 0.006938015
0.009210698 -0.015137276 0.0031254787 -0.027740322 0.010581604 -0.0026888913 0.0022455312 0.015447367
-0.024881532 0.0065205786 0.0066344207 -0.0146278525 -0.0045107324 0.0063972156 0.014090988 0.013673061
-0.009755206 -0.0032109604 -0.0045858524 -0.0008969245 0.0036377592 0.019843679 -0.010723936 -0.029301938
0.034529153 0.013956986 0.016463036 0.0027611288 -0.005636081 0.0041517867 -0.007493233 0.021082526
00000000: 6faa 313c 4b92 b2ba 6095 a0bc 8630 39bc
00000010: b493 bb3c 0520 d43c 07af 4e3c 6d9b d3bb
00000020: c676 80bc 4960 6f3c e2d7 e0ba b1d1 4e3c
00000030: 2d0c 113c 3540 7a3b a80d c6bc 4785 da3c
00000040: 9c74 803b c3bf cb3a cfa7 c73b c709 03bc
00000050: 0726 83ba 120a 693c d761 3e3c 4dc6 d2bc
00000060: 5b9c 353c 9ed3 5bbc bdc2 083c 90aa 37bc
00000070: c28e f93b d570 123c 8730 e73c b029 cf3c
00000080: 546e 723b 0453 8f3c 1e87 933c 0edb 48bb
00000090: 6df0 85bc 6048 0bbc 86b5 a6bb 6b07 03bd
000000a0: 2409 aeba 1716 2ebb d3a2 a9bc b2c4 61bb
000000b0: 39c8 453a da62 963c 1c41 5f3c 0ed3 e13b
000000c0: 1ee3 9fbc 9e88 85bc 0be3 50bb b976 8cb9
000000d0: d229 943c 6dbe 353c dfcd 50bc 522b 8abc
000000e0: c196 33bb 8a23 4f3b 631d 95bb 997a dcbb
000000f0: 3334 94bc b3a7 bcba 313b 0bbc 262a ffbb
00000100: 70c2 49bb 5c22 81bb f997 c0bb edb5 8d3c
00000110: edc5 403c 9fcd 433c 2ff6 f2bb 1bd7 9cbc
00000120: dd1e 61bc 0705 883b 56d3 fabb 5530 963c
00000130: 078e 66bc d907 19bc fdfd 62bc dfab cf3c
00000140: dc62 86b9 0bf9 90bc 6f8f f83b 1f7d 7f3c
00000150: 536c 913c 084a 763b f919 b4bc f233 6c3c
00000160: b3b0 5c3a 3a81 04bc a826 263c bc9f 013b
00000170: a241 d63a e5a5 cc3c eeac 4d3c 52e6 2e3c
00000180: 98ad 23bc 1a23 05bc 3b0d 653c e254 3fba
00000190: 2908 82bc 8b37 c3bb dd87 eabb b8b5 ad3a
000001a0: acce 053c 012d 52bc f233 723c faee 7b39
000001b0: 5d1d b13c d71c 15bc e163 a1ba 9b00 66bb
000001c0: f655 4cbb 1bec d0bc d639 3c3b 7c66 733c
000001d0: 2794 9c3c 269f fabb 5b7a b83c ac71 b73b
000001e0: 9272 0d3c 4409 723b f7da 82bc 6e83 f3bc
000001f0: 9ed9 313c ab87 883c 2e15 9d3b d84e d2bb
00000200: 6e3c 02bc 5577 903b f19a 8dbc f325 c73b
00000210: 7eb1 49bc 86c2 1e3c b774 8e3b 3b33 253c
00000220: 5ebb 9e3c 4389 a6bb 6610 f53c 0ada e8ba
00000230: 45ad 963c a481 b33b 6624 3dbc 5a04 983b
00000240: c2a5 24bd 21f9 e3bc d9e9 e7bb ff4a 4b3c
00000250: 7b3a 8dbb 070e a2bc 9fa8 8cbc a399 e939
00000260: b4ac 093a 37df a53b 6657 2ebb 4bd7 e23c
00000270: 9489 323b dca7 513c 4f29 b13c c778 973b
00000280: 4d28 d2bb ab09 f63b 7469 09bd d7fc 113b
00000290: da01 de3b bfc4 6a3a 353a a93b f031 72ba
000002a0: a4fe c63c c9d2 5cbb f245 60bb e591 2bbc
000002b0: ae00 4dbc fc5f 59bc cdab 2dbc e02b 05bc
000002c0: b1bc 8fbb 36ce dabb 46d2 34bc 2743 7e3c
000002d0: 1001 053d 9b82 14bd f459 f83a 456d fd3b
000002e0: 7f76 ea3b a468 8fba 8e44 113c f3a3 f339
000002f0: 9f04 a6bc 6237 493c 3472 e23c 96f5 4e3c
00000300: ed48 0bbc 961f 22bc 5393 5abb 3ec0 0cbc
00000310: d8f5 26bb b84a 253c 61a6 a43c c805 5cbb
00000320: f664 a03b 2555 ff3b 45ab d23c dbad 6fbc
00000330: fa2e a2bb e974 a8bc d8d8 893c a6b1 113c
00000340: 2de9 17bc 6d13 21bb 9265 f63b b17e bfbc
00000350: 2d1a b43c 64c5 413c 68af 32bc 878d 91bc
00000360: f867 45b8 6cde 93b7 f182 cfbb e615 f03c
00000370: e539 793c 1eb7 21bc b435 223c 4a58 e33b
00000380: 78e8 163c 5602 78bc d5d4 4c3b ac3f e3bc
00000390: 775e 2d3c 1c38 30bb c329 133b f416 7d3c
000003a0: 5bd4 cbbc 94aa d53b 8e65 d93b a9a9 6fbc
000003b0: c4ce 93bb bc9f d13b e3dd 663c f904 603c
000003c0: 4dd4 1fbc fa6e 52bb eb44 96bb 961f 6bba
000003d0: 7967 6e3b 368f a23c 73b3 2fbc 9e0a f0bc
000003e0: 716e 0d3d d8ab 643c 7ddd 863c 0ef4 343b
000003f0: e0ae b8bb b60b 883b cb89 f5bb 43b5 ac3c

action_model._continuous_distribution.mu.bias f4 [5]
0.0053613847 0.0020306546 -0.0017340533 0.005712476 0.0053534186
00000000: 8eae af3b bb14 053b 2c49 e3ba b92f bb3b
00000010: bb6b af3b
