MLConfig/results/hb01/Lion/Lion-473728.onnx (onnx, 281871 bytes, 7 tensors)

network_body.linear_encoder.seq_layers.0.weight f4 [256, 10]
00000000: 2cea b93d e8b5 66bb e8cb edbe 7711 3d3d
00000010: b63d b13d 297b af3e 8b3b a53e 82a1 013e
00000020: 10f6 22bd 0158 0cbe a426 8fbe bf7f 9a3e
00000030: 5b94 dabe 7f11 a83c 6502 c3be d0f7 543e
00000040: 0c23 c93e 4a67 f5be ae68 9d3e d297 e1be
00000050: 3f67 ff3d 626e 5cbe 76ee 8fbe 3ae3 9f3e
00000060: a59c e53e a35a 29bd 4bcc b33e 19b8 87bb
00000070: 0058 c4be f502 6abe 72e5 b93e 86f6 69bd
00000080: 636c b3be 63c6 cabe 8ca8 50be 59d7 ef3e
00000090: baaf a63e a930 4dbe 77a5 94be 9a22 0ebe
000000a0: 1950 0e3d a433 64be e819 283d 5247 56be
000000b0: f5c3 59be 0fa2 043e 1296 c83e 1448 c4be
000000c0: c6c8 7a3f e020 b5bd c447 193d 6685 273e
000000d0: ecf9 59be 6272 883d b0d2 7fbe ecd4 1fbf
000000e0: 60d3 9c3d 0365 81bc 8196 323e a8e6 553e
000000f0: 60a5 63be b769 073d 1a60 be3e 7484 7fbd
00000100: 9a12 ae3e 1385 d4be 9b7b f33e 9812 82be
00000110: 1f18 01bf 5058 8bbf b764 aa3d d876 47bf
00000120: 9b88 9f3d 9c44 ea3e 1812 0abf 58e3 193e
00000130: 629e 5a3e 2f12 98be 26f6 2cbe b24d b13e
00000140: 9745 533f 781c 60bd 78d3 3f3e 0e5c b23e
00000150: d9d4 523e f197 b23e 55e0 17be d35c 32be
00000160: 3920 123f 4994 fe3e 186f e5bd 996f 853f
00000170: 9050 17bf e08e 263e efad 2d3e 7942 85bf
00000180: 4895 af3e 0bfd 0e3e 3d19 8b3e 00ea a4bc
00000190: 608d 11be f95f 653d 6c4f 2dbd 6929 88be
000001a0: d157 abbd 7550 973d a8a7 e83e 3134 6bbd
000001b0: 317b b23e 22a9 39be a483 783d 22d3 43be
000001c0: 3c56 753e 5c50 4a3f 2407 a43e 91a9 c5be
000001d0: ef4a 2d3d f474 713f bd3e 433e 2118 7d3e
000001e0: c210 943e 73b3 833e df7d ba3d 4b7d 203f
000001f0: 5b07 c0bc 09f9 253d 1af6 9e3e 6d46 24be
00000200: b9b1 09bf 8efc f83e 896e da3e fdd6 8d3e
00000210: 6d44 253f 85bf c1be b17b 61bd 63aa dbbe
00000220: 0018 1e3f d50f 103e 3853 7d3e 0915 3a3e
00000230: 77aa a2be 9c5f 7d3e 6764 53be e768 9bbe
00000240: 13a1 dd3b 91d1 d3bd 34b6 703e 8f45 f63d
00000250: 9255 3dbf fa09 dbbd 8de1 d8be 9562 7a3e
00000260: 4275 34be 1ba2 fc3e 501e ab3d 7338 dc3e
00000270: abcf 9d3e fbe6 59be 81f7 e9be b2ec d33e
00000280: a967 32bd 929d c9bd 0969 9fbe efb9 a9bc
00000290: ec7f 8abe 62ab 9e3e be8d fc3d e091 5ebe
000002a0: 9191 d03c 6ba4 27bd 9ea8 e63d d994 51be
000002b0: f44e 20bf db6e b83e 1a9b c73e 6c15 013f
000002c0: 699e 83be 4f33 71be c222 373d 17c8 4cbe
000002d0: 41f3 bd3e 6217 d23c 222e 9d3e 4788 83be
000002e0: 7781 f8be 100b a2bd e64d c23e d9c6 12bf
000002f0: e156 7dbe 4e3d fabd 7ecd 7a3e e9c1 8fbe
00000300: 8422 79bc 16b2 d6bd daa2 bfbd 916c 213f
00000310: 5cfb f93e ddc5 db3e 0a5e 823e d078 853d
00000320: 8692 063e 3ac6 7bbe 47be 3f3e 245d 863e
00000330: 43c5 b83d 5fae 833c 97a4 a83e bbe5 4ebc
00000340: 02c8 3f3f 0607 26be 2630 02be cb5a a23e
00000350: 2c7d d2be fde9 31be 9885 063e 82b0 bf3d
00000360: 8bf6 993d b9c8 6e3d d5db e4be 0d91 123e
00000370: 1683 10bd 1e57 54be c11b e6be 4aa5 ecbe
00000380: a6c2 f1be 6b99 b6be 91f2 913e 3841 65be
00000390: 60dd 43be 9a11 833e e6cf 93be 82c2 76bd
000003a0: f8f4 3e3d cf57 10bf cbcc c93e ff66 0e3e
000003b0: 49ac 66bd b31f 7b3d 62de 3d3e ab94 bfbd
000003c0: 6cd0 b2be f2e9 c6be e257 0abe 60e6 3fbe
000003d0: 28ca 963e 72e3 c93e 21fe 7c3d 758c 1bbc
000003e0: e22f a9be f445 8a3b 12dd a7be ce26 8e3e
000003f0: 4ec0 8bbe d238 b5be 3044 8fbe 57da b6bd
0.09077868 -0.003520364 -0.4644463 0.046159234 0.086543486 0.3427365 0.3227199 0.12659267
-0.039785445 -0.13705446 -0.27959168 0.30175588 -0.4269131 0.020516155 -0.38087764 0.20797658
0.3928455 -0.47930366 0.30743927 -0.44061142 0.124708645 -0.21526483 -0.2811162 0.31228048
0.44846073 -0.041346204 0.351168 -0.004141819 -0.3834839 -0.2285269 0.36307865 -0.05711987
-0.3504363 -0.39604482 -0.20376796 0.46843985 0.32555944 -0.20038094 -0.2903249 -0.13880387
0.034744356 -0.22285324 0.04104033 -0.20925644 -0.21266158 0.12952445 0.39176995 -0.3833624
0.97962606 -0.08844161 0.037421957 0.16359481 -0.21286744 0.06662442 -0.24982715 -0.6243427
0.07657504 -0.015795236 0.17440225 0.2088877 -0.22231054 0.033059802 0.37182695 -0.062382177
0.33998567 -0.41507778 0.4755524 -0.2540481 -0.5042743 -1.0886326 0.08319991 -0.77915716
0.07789727 0.4575547 -0.5393386 0.15028131 0.21349481 -0.29701373 -0.16890773 0.3462959
0.8252806 -0.05471465 0.18733013 0.34835857 0.20589007 0.34881547 -0.1483167 -0.17418222
0.5708042 0.49722508 -0.1120283 1.0424682 -0.59107304 0.1626544 0.16960882 -1.0410911
0.3429358 0.13963716 0.27167693 -0.020131111 -0.14214087 0.05599973 -0.04231207 -0.26594093
-0.08366359 0.07388393 0.45440412 -0.05742282 0.34859613 -0.18130925 0.060672417 -0.1912351
0.23958677 0.7902887 0.32036698 -0.3860593 0.04230779 0.9431908 0.19066902 0.24716236
0.28919035 0.25722846 0.09106039 0.6269118 -0.023441007 0.0405207 0.31047136 -0.1604249
-0.5378681 0.48630184 0.42662457 0.27703086 0.64557534 -0.3784143 -0.055049602 -0.42903432
0.6175537 0.1406854 0.24738777 0.18172087 -0.3177068 0.24743503 -0.20643769 -0.30353472
0.0067635863 -0.10342706 0.23507005 0.12024986 -0.73958695 -0.10695262 -0.42359582 0.24451669
-0.17622855 0.49342427 0.08355391 0.43011817 0.308225 -0.21279518 -0.45696643 0.41391522
-0.04355589 -0.09844507 -0.31134823 -0.020718543 -0.27050722 0.3099013 0.12331723 -0.21735334
0.025460036 -0.040928286 0.1126263 -0.20466937 -0.6262047 0.36022076 0.3898552 0.5042331
-0.25706795 -0.23554729 0.044710882 -0.19998203 0.3709965 0.025645915 0.3069926 -0.2568991
-0.48536274 -0.07912266 0.37950057 -0.5733467 -0.24740173 -0.12218724 0.24492452 -0.2807763
-0.015205983 -0.10483186 -0.09357233 0.63056284 0.48824584 0.42924395 0.2546237 0.06517184
0.13141832 -0.24587336 0.18724929 0.26242936 0.09022 0.016074358 0.32938072 -0.012628014
0.7491456 -0.16213617 -0.1271368 0.31709895 -0.41111124 -0.17374416 0.131369 0.09359838
0.075177275 0.058296893 -0.4469897 0.14313145 -0.035281263 -0.20736358 -0.4494305 -0.46219856
-0.47218817 -0.35663924 0.28505376 -0.2238816 -0.19127417 0.25599366 -0.2886955 -0.06024409
0.04662034 -0.56383985 0.39414057 0.13906477 -0.056316648 0.061309528 0.18541864 -0.09354528
-0.34924638 -0.3885036 -0.13510087 -0.18740225 0.29451108 0.3943134 0.061765794 -0.009493937
-0.33044344 0.004219765 -0.3278585 0.2776398 -0.27295154 -0.35394913 -0.2798171 -0.08928364

network_body.linear_encoder.seq_layers.0.bias f4 [256]
00000000: 57dd 663c 9963 913c 6257 ffbb 8cb9 823b
00000010: dc70 83bc ebf5 253c b5b6 c53c a1b1 e53a
00000020: ff6e eaba 9dff 183c 4bf2 9c3c 9c79 37ba
00000030: f684 e3ba 3915 763b bb82 2f3c 443d aa3b
00000040: f0e6 0d3c 2348 5e3b a2f6 573c 9981 023c
00000050: 3528 a7bc 5f55 403b adf3 803b 6d75 e03c
00000060: 3356 b63b e7f3 573c 2c07 81bb 27e8 353b
00000070: e375 193c 63f0 1aba 81eb bc3b 4cc6 ccba
00000080: d554 073b 3ac2 313c 5714 db3b 0241 d3ba
00000090: ed6b 863c a097 c53b 4135 9dba 00d7 84bb
000000a0: d62d ba3a 1b5e 403c f783 f739 5b30 933c
000000b0: f889 f73b 274f 803b 9ba1 b73b 338f 0c3b
000000c0: 4d61 ac3b e3eb b23c 124c 50b9 54a1 0e3c
000000d0: 0b90 99bb 732f af3c dc5a e2bb 0fb0 85bb
000000e0: f6dc 65bb 15a9 a73c 2856 443b 79f0 b03c
000000f0: 39a5 393c 8cd3 a63c df96 c73a f77b ec3c
00000100: 9140 b5bb b754 7e3a 151e 95bb b903 48bb
00000110: 0e4e 9c3c 8fa1 073b 08c6 2dbb 634b 023c
00000120: 7f34 95ba 5399 ee39 c649 a5ba 07af f33b
00000130: 7270 813a fd18 353b 28ff b23b ac5d 4e3b
00000140: 1c11 dbba 1222 a6ba a75c ec3c 868b 51bb
00000150: 181b a13a 2868 febb 58d5 73ba fcee f63a
00000160: 0ef5 74b9 9079 f339 4cac 58bb 27bc da3a
00000170: 5bca d3ba 88ae 523b 8446 0e3a 1d6a a33c
00000180: 0b2f e93a 0024 b03c 1821 363c ba5c a73b
00000190: 68e8 b2ba 98ab 1ebc 1c8e 5f3c d1d9 da3a
000001a0: 7ddc bd3c 81fd c5ba d49c 65bc 0c88 cc3a
000001b0: 1f56 7aba 4bb3 b53b 1409 acba 976d 343d
000001c0: 27b3 6d3b a566 2f3b f21e 28bb cfc8 6fbb
000001d0: f290 57bb 0aaf f0b9 bfbe f33a ea43 063c
000001e0: 77c0 e3bb 5299 823c 8681 813c f88f e0bb
000001f0: 5735 08bb fc6e ff3c 63bc 2b3b 815f b13b
00000200: 2df0 e43b d45c a9bb c2db 7ebc e86d de3c
00000210: 8480 103b 2eb7 a8bb 78e5 853c 81a5 dd3c
00000220: 5697 c13b d722 aa3c 6b7e 25bc 8d48 353b
00000230: c32d 413c 9cb4 8d3c b750 093b c10a 103a
00000240: c088 c439 fafe e7bb a5d8 5f3c bcaf 963c
00000250: 9be6 47bc 967d 883b 6715 a23c 85a5 373c
00000260: 4091 e93c 2d09 b03b ba00 7a3b b0a5 00bc
00000270: 54fd 0a3d 89d1 543a e1f2 e93c b910 323b
00000280: 2780 a2bb 000c 033b 77e5 05ba b4f6 973c
00000290: 586b abba df5d d23b 36cc 1d3d 1f9d 69bc
000002a0: 7824 803b b956 61ba cd9b 2a3d 517d e13a
000002b0: f413 04bb 2a97 553c 022f 873b a72f 81ba
000002c0: 2453 113d f660 43bb fbea cb3c 5979 f23b
000002d0: 741e 143c e69a 10bc 6c5e 2f38 2ef1 403c
000002e0: f0d7 b53c 5155 843b 1c78 9a3c 3cf1 953b
000002f0: b760 e23a 44d7 603c f2eb 713b 6258 51bb
00000300: 4697 623a 41ba d8bb a1f8 1c3d c8d1 40bb
00000310: dd41 903b bb46 12bb a0ed 003d 8d9f c53b
00000320: ba07 673b 00d4 d63a 337a adba bf85 ef3b
00000330: 26db 023b c3ac 1b3c 1700 f63c 1d56 183b
00000340: 406d 3e3c a9ec 0a3d 7e2b f73b 4416 4c3c
00000350: 854f c53c 8ff3 a2bb d8ac 9f3b 87a7 413c
00000360: f13d a6bc 34b0 86bb 8519 193c 37d2 193a
00000370: 5e10 073c ae97 e83c efc6 1fba 4cd4 73bb
00000380: 5384 a23c f0ad 08bc 1b47 5cbb fc20 01bb
00000390: 7d0c 903c 030c 553b aa5b 023b aaa4 2fbb
000003a0: 9524 b53b 1a01 333c 9fb7 e5ba 76df 83bc
000003b0: 9e5d a038 a278 793c 7a31 ddbb df1d 6e3c
000003c0: cdb0 ffbc 06fe feba df7e eb3b 3fcc 3b3c
000003d0: 18b7 3dbb dd14 5f3a b89b 203c 5321 9a3c
000003e0: ac5b b6ba f1d2 7c3c 6c1d ac3c 6160 7ebb
000003f0: 6e9f 13bb c10b a537 7d09 103d 39f2 973a
0.0140908575 0.017747687 -0.0077923993 0.003989404 -0.016045026 0.010129432 0.024134973 0.0017524251
-0.0017885863 0.009338287 0.019158503 -0.0006999017 -0.0017358351 0.003754927 0.010712321 0.0051952917
0.008661017 0.0033917509 0.01318136 0.007965469 -0.020404914 0.002934776 0.0039352984 0.027399743
0.005564475 0.013180709 -0.0039376225 0.0027756782 0.009366485 -0.0005910454 0.005765379 -0.0015623062
0.002064993 0.01084953 0.0066857743 -0.0016117396 0.016408885 0.006030038 -0.001199402 -0.0040539503
0.0014204334 0.0117411865 0.00047209833 0.017967394 0.007554289 0.0039156857 0.0056039817 0.0021447658
0.0052606226 0.021840995 -0.00019864764 0.008705456 -0.0046863607 0.02138493 -0.006907804 -0.0040798257
-0.003507433 0.020466367 0.002995858 0.021599041 0.011330896 0.020364545 0.0015227458 0.028867705
-0.0055313786 0.00097019546 -0.004550705 -0.0030519797 0.019080188 0.0020695662 -0.002651574 0.007952544
-0.0011383443 0.00045509133 -0.0012610487 0.0074366364 0.000987543 0.0027633302 0.005462546 0.0031488938
-0.0016713473 -0.0012674949 0.028852774 -0.0031974032 0.00122914 -0.0077638812 -0.0009301505 0.0018839533
-0.00023360943 0.00046439143 -0.0033061681 0.0016688154 -0.0016158329 0.0032147486 0.0005427378 0.01994806
0.0017790509 0.021501541 0.011116289 0.0051074894 -0.0013649585 -0.009684466 0.013644721 0.0016696994
0.023176426 -0.0015105457 -0.0140144415 0.001560451 -0.0009549576 0.005545055 -0.0013125264 0.044049826
0.0036270113 0.0026764062 -0.002565321 -0.0036588197 -0.003289279 -0.0004590678 0.0018596275 0.008194903
-0.006950434 0.01594225 0.015808832 -0.0068531 -0.0020783746 0.031180851 0.0026204817 0.0054129963
0.006986639 -0.0051685367 -0.015555324 0.027152017 0.0022049258 -0.00514879 0.01634477 0.027056457
0.005907933 0.020768566 -0.010100941 0.0027661652 0.011790696 0.017298035 0.002095265 0.00054947665
0.0003748592 -0.007079956 0.013662492 0.018394344 -0.012200977 0.0041653616 0.019785596 0.0112088965
0.028511643 0.0053721876 0.0038147406 -0.007852003 0.033933 0.00081183814 0.028558196 0.0027170612
-0.0049591246 0.0019996166 -0.000510774 0.018550254 -0.0013078256 0.0064198817 0.03852483 -0.014258652
0.0039105974 -0.00085959915 0.04165249 0.0017203485 -0.0020153495 0.013036529 0.004125477 -0.000985612
0.03547968 -0.0029812432 0.02489232 0.0073997197 0.009040464 -0.008825993 4.181119e-05 0.011776252
0.022197694 0.004038491 0.0188561 0.0045758765 0.0017271255 0.013723198 0.0036914316 -0.003194355
0.00086437573 -0.006614 0.03832305 -0.0029421914 0.0044023828 -0.002231999 0.031476617 0.006030983
0.0035252408 0.0016390085 -0.0013235271 0.007309645 0.0019967048 0.009501639 0.03002934 0.0023244687
0.011622727 0.033917103 0.0075430265 0.01245648 0.02408577 -0.004972882 0.0048728995 0.011819727
-0.020293208 -0.0041103605 0.009344463 0.0005867811 0.008243648 0.028392639 -0.0006095012 -0.0037205396
0.019838488 -0.008342251 -0.0033611718 -0.0019703498 0.01758408 0.003250838 0.0019891062 -0.0026801028
0.0055280426 0.010925556 -0.0017526037 -0.016097765 7.646832e-05 0.015226515 -0.006750283 0.014533489
-0.031212235 -0.0019454367 0.007186755 0.01146227 -0.0028948244 0.0008509884 0.009802751 0.018814718
-0.0013912818 0.015431152 0.021010123 -0.003881477 -0.0022525447 1.9675006e-05 0.0351653 0.0011592574

network_body.linear_encoder.seq_layers.2.weight f4 [256, 256]
00000000: a1ca 683d a156 34bd b1b9 8c3c 545a 483c
00000010: 81b3 01bd 75d0 66bd 8edf e83d 992c 79bd
00000020: 0e6d 123d 9a40 1cbe 7406 9e3c 2c51 6abc
00000030: 2364 ec3d ee9f d9bc 96a4 60bd abbc 403d
00000040: f51e 9c3b b06a 023d 9eac 37bd 0b5f 3ebc
00000050: c127 50bd 7863 6dbd e923 c33d 313c a3bd
00000060: 439d d43c 878d f23d ad44 e6ba 0777 243d
00000070: 8b0c 93bd b418 eebd 9475 64bd 0861 763c
00000080: 2673 16bd 49a0 30bd 448d 3abe 77c9 9bbd
00000090: 2183 233d 2744 85bc d22c 5dbd 0048 b7bc
000000a0: 6065 26bc dc50 3bbd 5dfa b43a f061 113c
000000b0: 2448 90bd b802 cdbd fcf2 cd3d cb24 0b3e
000000c0: f57e 813c 0007 693d 2c5b f53a ed66 3e3d
000000d0: 2b3a 6abd ea08 093e 57f9 58bd 3066 28bd
000000e0: 8942 38ba 0c2a edbc 429f b63d e427 263b
000000f0: dc70 a33c 14b6 9e3d 4b83 e7bc e5bb 5cbd
00000100: 65de 533c 8b20 3b3c d216 31bd f0b8 0cbd
00000110: 71fa 2abd eccb 91bd decb 9f3d a479 4cbc
00000120: d373 d9bb ae94 c53c f038 8d3d 0ad5 10bd
00000130: ffe9 5fbd 13d4 25bd b433 1ebc 3d12 41bd
00000140: 06c6 8a3d 5054 e43b 208d 8ebd bbb6 76bb
00000150: 76bc 56bd c045 fbbc 3ac2 4f3d 7c3e 2d3e
00000160: 063b 8c3d 991c f93d 5f28 b7bc 7b81 433e
00000170: 7f3c 47bd 2811 bc3d 3672 eb3d 37cd 81bc
00000180: 0a88 b8bd b3c9 0d3d a534 46bb 252e 99bd
00000190: 6281 1e3e e3e0 983d 6859 91bc b099 49bd
000001a0: de09 fbbc 8fe9 433e bf7f 21be 591c 113d
000001b0: 79e7 933b c3ac 423e 167c 9f3a 17e6 e1bd
000001c0: 76c8 ffbc 9218 08bd 4466 a3bb 06de e83c
000001d0: 3dbc 2ebd dd3c 00be 7e53 ffbc 71b9 3e3d
000001e0: 828a a73c a292 2fbd 4460 63bd 2b96 383d
000001f0: 022c f3bc b927 5abb 8481 05bc 02b0 4d3a
00000200: 5bcf 81bd ff1b 503c aee2 73bd 2e0f a8bd
00000210: a03d 96bd f1ef 503d 74d3 54bd cdd9 423e
00000220: 017f 61bc 1747 8a3d b3ef 37bd 0a6c 7c3d
00000230: 0808 5e3d 5c65 dfbc 0cc5 c43d aaec 8e3d
00000240: 6ef6 babd b68d 35bd 62c3 c5bb 7b39 4cbd
00000250: b6d5 673c 63c7 f6bc 42e1 433e 53ae cd3c
00000260: 74e5 b73d a7c7 a3bd a7a6 fe3d 7fb6 42bd
00000270: 801c 4d3d 94a8 9bbd 96c7 d43d 8add 1bbc
00000280: f281 9b3d 6af1 093d ba64 8e3c 5dea 1a3d
00000290: 07c8 1abc 8948 793d b1d0 303d 85ee 3cbc
000002a0: d0b7 c93c fd3b 33bc f11e 00be dbec d13c
000002b0: 0924 1d3d b321 fe3d 217e f43c 3df2 103e
000002c0: 1736 d9bb 6485 9abd 50c9 b6bd 69f7 853d
000002d0: 6f33 a93d 09a8 23bd faf1 bdbd 3101 f2bc
000002e0: 78ee 4a3d 95cb 0d3d 14ca 25bd 0aad 1fbe
000002f0: 187a 0ebd 5289 ee3c 19fd 12bc 128f 8d3d
00000300: ea56 5e3c 7127 f93b c7a0 e53a a2ef cdbb
00000310: fad5 cabc 0ac1 453c 6265 ccba 2fbf 4cbc
00000320: 5d4f 53bd e566 5f3d 5ebf 5c3d dafe 403c
00000330: 4ef5 683d 6858 c9b9 d5a2 28bc 8f03 8abd
00000340: 6c95 ac3c 750d c13c 52fa 08be 077e 86bc
00000350: d74d a23d 0d2b 31be 14f7 38bd 79ac c9bd
00000360: 85b3 7dbd 89cb 45bd fcc9 3e3c 6dea da3a
00000370: b9d1 61bd 5049 e03a d06b 2dbd 4d3e bdbb
00000380: 567a 653d 389b 1b3a 551c 6f3d f380 adbd
00000390: 95c7 983d 508e 15bd da26 be3b b2d5 e9bc
000003a0: 99c7 ac3d f380 6c3d 5c1e 943c a08b 993c
000003b0: 35ca 2ebc c99d cd3d 8309 fdbc bc86 05bd
000003c0: dbff 30bc b15d bfbc d0dd 85bd 7493 62bc
000003d0: 58bc 69bd 1081 8a3d 6526 823c 03fa 3abc
000003e0: a3de c1bd 8a40 b63d 3c7e 66bd 3fd6 983d
000003f0: 8d02 6a3d 47aa 7ebd c3bd 213d 6297 5cbc
0.056833867 -0.04402793 0.017178388 0.012228567 -0.03166533 -0.056351144 0.11370765 -0.060833547
0.035748534 -0.15259019 0.019290186 -0.014301579 0.11542537 -0.026565518 -0.05484446 0.047054928
0.0047644326 0.031840026 -0.044842355 -0.01161934 -0.050819162 -0.05795619 0.09528334 -0.07970465
0.025953894 0.118434004 -0.0017568074 0.040152576 -0.07180127 -0.116258055 -0.055776194 0.0150377825
-0.036730908 -0.04312161 -0.18217951 -0.07606786 0.039919976 -0.01626785 -0.053997822 -0.0223732
-0.010156006 -0.04573141 0.0013807524 0.008873448 -0.0704501 -0.10010284 0.10056111 0.13588254
0.015807608 0.05689144 0.0018719188 0.046484876 -0.05718438 0.13382307 -0.052972164 -0.04111308
-0.00070289575 -0.028950714 0.08917095 0.0025353367 0.019951276 0.077495724 -0.028260848 -0.053890128
0.012931441 0.011421333 -0.043234654 -0.034356058 -0.041742746 -0.07118973 0.078025565 -0.012480173
-0.006636122 0.024118748 0.068956256 -0.03535942 -0.054666515 -0.040485453 -0.009655882 -0.047136534
0.06776051 0.0069680586 -0.06960511 -0.0037645537 -0.052425824 -0.030672908 0.05072234 0.16918367
0.06847195 0.12163658 -0.022358118 0.19092362 -0.048641678 0.0918296 0.114963934 -0.015844924
-0.090103224 0.034616183 -0.003024378 -0.074795045 0.15479043 0.07464769 -0.017742828 -0.049218833
-0.030644353 0.19132064 -0.15771388 0.035427425 0.0045136777 0.19011216 0.0012167718 -0.11030214
-0.031223517 -0.033226557 -0.0049865562 0.028426182 -0.042659987 -0.12523217 -0.031167742 0.04656357
0.020451788 -0.04286445 -0.055511728 0.045065086 -0.02968407 -0.0033287837 -0.008148555 0.00078463566
-0.06338378 0.012701987 -0.05954235 -0.0820602 -0.07335973 0.051010076 -0.05195947 0.19028397
-0.01376319 0.067518406 -0.04490633 0.06162647 0.054206878 -0.027270012 0.09607896 0.06978734
-0.09129034 -0.0443246 -0.0060352543 -0.049859505 0.014150074 -0.030124372 0.19128898 0.025107538
0.089793116 -0.07997065 0.1243413 -0.047537323 0.050076008 -0.07600513 0.103896305 -0.009513268
0.075931445 0.033677496 0.017382015 0.037821162 -0.009447104 0.06086019 0.043167774 -0.011531477
0.024623781 -0.010939595 -0.12511803 0.025625637 0.038364444 0.12408771 0.0298453 0.14154907
-0.0066287625 -0.075449735 -0.08925116 0.0654133 0.08261763 -0.039955173 -0.09274669 -0.029541584
0.049543828 0.03461798 -0.04047592 -0.15593353 -0.034784406 0.029118214 -0.008971476 0.06912054
0.013570527 0.0076035787 0.0017519229 -0.00628467 -0.024760235 0.01206995 -0.0015594179 -0.012496754
-0.05158936 0.054541487 0.05389344 0.011779511 0.056874566 -0.00038403575 -0.010292728 -0.0673896
0.021067344 0.023565987 -0.1337674 -0.016417516 0.07925003 -0.17301579 -0.045157507 -0.0984735
-0.06193878 -0.04828981 0.0116448365 0.0016701944 -0.055131648 0.0017111693 -0.042339146 -0.005775249
0.05602487 0.000593591 0.05837663 -0.08471861 0.07459942 -0.036512673 0.0058029713 -0.02854428
0.08436508 0.057740163 0.018080883 0.018743336 -0.010668327 0.10039861 -0.030888325 -0.032599196
-0.010803188 -0.023360105 -0.06536448 -0.013829101 -0.057064384 0.06762898 0.015887449 -0.0114121465
-0.09466293 0.088990286 -0.05627273 0.07462739 0.05713134 -0.062174108 0.03948761 -0.013463827

network_body.linear_encoder.seq_layers.2.bias f4 [256]
00000000: 2bef 163b cc08 5c39 b3ee a13c ec4f 543b
00000010: b598 3fbb c279 d93b 2abd e4ba cf9c 0c3c
00000020: 1e25 313c 9d26 5fbb 29db d4bb 3fed 123a
00000030: 369d b53c 59e2 b13a 97db 2c3c da26 8d39
00000040: b46a f23b 85fb f4b8 edfd 10bc 5008 cb3b
00000050: efe2 543b b30b 953b 3011 6937 02ae 4a39
00000060: 8350 563c e38e 0b3c 1e4c 8dba 0da8 5bba
00000070: ff18 003b 5d60 e73c 3891 b93c 36f3 e43b
00000080: ac78 0cba e8f1 b53b 1df2 2a3d 3cc2 fbba
00000090: be6e 383c d1ee 2abb 8355 ddba 887f e139
000000a0: 976d 0e3c 6419 d5b8 59e8 d4b9 7eb7 9c3a
000000b0: 3d16 023c f41f 853c b88a 323b 4531 363c
000000c0: 477a cdba ed65 903c 8880 14bb b40f ad3a
000000d0: 6479 4aba 7493 d9ba 740a 1b3b 40c4 933b
000000e0: 1b72 803c fa18 bb39 2ff7 c53b 1363 22ba
000000f0: dfb1 653c a92d ce3a 3025 523c 5c39 673c
00000100: c5d0 5e3c 262b d93a 9cca 153b fb19 763c
00000110: a3f5 16ba 4470 47bb 8ac3 9a3c 2e4a 8a3c
00000120: c2a4 163c 62cb a73b e927 a43c 5fc0 e7ba
00000130: 129f dd3c efd4 aeba 2c8d 66bb 79eb 7f3a
00000140: 1d70 be3c ca4a b33b 6714 fc39 efc5 b33a
00000150: 3b47 81ba 7ce1 c1ba 7c93 9a3c 5723 aa39
00000160: 8bc9 fe3a f103 483c 054b 2e3d 4df4 8f3a
00000170: 636a 76b8 f48b 853c 68ad 533c 5e41 073d
00000180: 13cd faba 023c 2a3b f719 113c 6659 743c
00000190: 7fb6 1cb9 88c5 ddb7 2c55 853c b50f 72bb
000001a0: 7f18 6b3a b469 3cbc a798 193b 2695 1d3c
000001b0: 5cce e539 8e06 77bb c0fd a8ba 3520 583b
000001c0: 1e87 543a d56e ff3c bcac fbba 8a7d 133c
000001d0: ce14 d2bb b743 4d3c ab34 babb 8b75 d43c
000001e0: 5518 01bb 25b9 9bba 2209 de3c e6af 433a
000001f0: 73ed c539 e210 8c3b ccc3 19bb 5d7a c23c
00000200: c01a 0a3d d1b6 e439 2ec2 483c 5376 053a
00000210: cf16 2b3a c055 15bc 77b3 663b c9c1 bcba
00000220: 4393 91ba 0ab3 5639 b0da f4ba 9f15 c1ba
00000230: 65cd 243b 7083 593b 5b0f 533a 9666 dbb9
00000240: c7f4 fc3c 0d10 663b 62ab 8a3c 8e62 01ba
00000250: 4f52 26bb 2890 593c c96c 963b cbf5 32ba
00000260: 02ac 6239 f770 a03c 4b7c a53c 2e91 a63c
00000270: e23d 8c3a 90fa 843b 49f0 f83c 41f7 983b
00000280: 5b19 7d3a b008 65bc c13d 34ba bebf d739
00000290: b622 5a3b cbf7 2d3b 0ba2 633a 7947 a33a
000002a0: a134 083b fd7b 033a cded 76ba bb5f cb3b
000002b0: ebbe 8f3c dc0a 0f3a 4866 183c 5f76 23ba
000002c0: 391a 093d 5d50 033c 2e13 1a3c e03c e13a
000002d0: cd9c a83c 1cae 9e3c 20d9 e13a 9626 18bb
000002e0: 9b47 fc3b f930 30bb 9fca 883c 7e73 7d3b
000002f0: 6976 2a3b ad80 dc3b 1310 013a 1a0e a33c
00000300: 9c7d e73c 6bec 96ba d247 803c 8d58 293c
00000310: 32d4 8839 c4e9 753c 9914 643c 24c2 0e3c
00000320: 3bcb 9c3c 6c6b eb3a dae3 973b 8ef8 ab3a
00000330: 5a46 09bb 1340 c13a 0a47 21b9 47b0 ab3c
00000340: 6852 73b9 7498 883c 43e5 55bb a9df 0b3c
00000350: 0e06 6e3c 8640 f63b 505a a23c 3247 813c
00000360: d45d 7dba fca3 baba de2c 85ba d2a3 18bc
00000370: a3f5 aa39 627c 4f3b effc c23a a5ae 6fba
00000380: 9977 843c 2027 0b3b 360b bd3c 193b c33b
00000390: 7dc8 d33a 90fa 18b9 3ab0 43ba bd59 993c
000003a0: 442b f039 f081 c03a e6a4 cb3b 040b 5437
000003b0: 0191 6dbc d39d 5f3b be88 d73a 9ade 3d3a
000003c0: 8bc6 bd3c 73f0 3a3c 26c9 083d 98d1 063b
000003d0: fe6a 1a3c c481 87bb e871 9139 faa2 683c
000003e0: e0e4 903c 6ee9 cb3a ed72 e7b8 9535 753a
000003f0: 53db ab3b 93a7 053d 5e34 183d a1b4 0fba
0.0023030739 0.00020984112 0.019767141 0.003239627 -0.0029235308 0.006636829 -0.0017451395 0.008582308
0.010812072 -0.0034050115 -0.0064958525 0.00056048104 0.02216969 0.0013571485 0.010550401 0.00026922562
0.007397974 -0.00011681676 -0.008849603 0.0061960593 0.0032483896 0.004548514 1.3891884e-05 0.00019329044
0.013080719 0.008517954 -0.0010780131 -0.00083792285 0.0019546149 0.028244192 0.022652254 0.006987001
-0.00053585577 0.005552519 0.041734803 -0.0019207667 0.011256872 -0.0026082287 -0.0016886446 0.00043010362
0.00869312 -0.00010161361 -0.00040608904 0.001195654 0.007939872 0.016250588 0.0027243327 0.011120145
-0.00156767 0.017626727 -0.0022659618 0.0013203532 -0.0007723777 -0.0016599731 0.0023657354 0.004509479
0.01567941 0.00035686028 0.0060414295 -0.0006194573 0.014019459 0.001573016 0.012826249 0.014112797
0.013599579 0.0016568645 0.002285636 0.015020843 -0.00057586486 -0.0030431906 0.018892068 0.016881075
0.009194555 0.0051206807 0.020038562 -0.0017681232 0.02705339 -0.0013338606 -0.003517936 0.0009762566
0.02324682 0.005471562 0.00048080386 0.0013715605 -0.0009863147 -0.0014791931 0.018869154 0.00032451257
0.0019438727 0.012207971 0.042552013 0.0010982841 -5.875005e-05 0.016302086 0.012919761 0.033021323
-0.0019134603 0.002597571 0.008856288 0.014913892 -0.00014945304 -2.6437236e-05 0.016275965 -0.0036935632
0.0008968189 -0.011499811 0.0023436935 0.009618079 0.00043832033 -0.0037693116 -0.0012893006 0.0032978181
0.0008107292 0.031180779 -0.0019201259 0.009002099 -0.0064111715 0.0125283515 -0.005682548 0.025934955
-0.001969834 -0.0011880739 0.027103964 0.00074648706 0.00037751682 0.0042744735 -0.0023462651 0.023739988
0.033716917 0.00043623758 0.012253327 0.0005091179 0.0006526531 -0.009114683 0.0035202184 -0.0014401014
-0.001110651 0.00020475328 -0.0018680897 -0.0014731175 0.0025146839 0.0033189915 0.00080512994 -0.00041847368
0.030878438 0.0035104782 0.016927425 -0.0004935645 -0.002537865 0.013278998 0.004590605 -0.0006826787
0.00021617117 0.019585116 0.020200869 0.020332899 0.0010699595 0.0040581897 0.030388014 0.004668147
0.00096549623 -0.013979122 -0.0006875657 0.00041150855 0.003328485 0.0026545401 0.0008683509 0.0012457214
0.0020783322 0.0005015729 -0.00094195904 0.0062064803 0.017547091 0.0005456635 0.0093017295 -0.0006235595
0.033472273 0.008014766 0.009403987 0.001718428 0.020582581 0.019370131 0.0017230846 -0.0023216358
0.0076989657 -0.0026884659 0.01669818 0.0038673575 0.002601052 0.0067292065 0.0004923355 0.019904185
0.028258137 -0.001151455 0.015659247 0.010336054 0.0002609804 0.015009347 0.0139209265 0.008713279
0.019139877 0.0017961091 0.0046353163 0.001312034 -0.0020946474 0.0014743827 -0.0001538062 0.020958079
-0.00023204985 0.016674258 -0.0032637871 0.008537211 0.014527811 0.007515016 0.019818455 0.015781019
-0.00096651656 -0.0014239545 -0.0010160466 -0.009316402 0.0003260794 0.0031659831 0.0014876405 -0.00091431505
0.01617031 0.0021233037 0.023076635 0.0059579727 0.0016157773 -0.00014589191 -0.00074649195 0.018719548
0.00045808603 0.0014687162 0.006214726 1.26387495e-05 -0.014499904 0.003412117 0.0016443951 0.0007242948
0.023165962 0.011409867 0.033394955 0.0020571705 0.009424923 -0.0041353423 0.00027741422 0.014199013
0.017687261 0.0015557238 -0.00011036345 0.00093539926 0.0052446513 0.032630514 0.037159316 -0.0005481933

action_model._continuous_distribution.log_sigma f4 [1, 5]
00000000: be4e 78bc da7e 133b 736a 7e3c 0060 973b
00000010: d12f 63bc
-0.015155492 0.002250603 0.015528309 0.0046195984 -0.013866381

action_model._continuous_distribution.mu.weight f4 [5, 256]
00000000: 5a88 6abc fa70 a73c 3f14 163d 0889 19bc
00000010: f95b a8ba 7c2f f23c e9b2 a23c c1d3 1dbd
00000020: 0dfc 39bd 19ef b53b 7967 2d3d c995 b93c
00000030: c5be 08bb 7a42 f7bb e13c 05bd 2424 44bc
00000040: b742 803c 11a4 603c a437 55bc 3a2a 9c3c
00000050: 25bd 163c 0f01 633c e4c8 cf3c 42be 043c
00000060: 5add f8bc dd93 c63c f6a3 033c 40df 4fbc
00000070: ec65 6ebb fb9c 2c3c 59ed 69bd b5e3 273d
00000080: 2acf 44bc cecd cbba 5eae 40bd 1f7f 3e3c
00000090: b3d0 b53c e3f3 faba d87e 31bc 3487 f03c
000000a0: 2d4d 643c ef1f 35bb 324c c5bc e713 2abc
000000b0: dc1d d43c a582 7c3c a92b aa3c 4e68 143c
000000c0: 2f8e 44bc 937e 96bc c8e9 7a3d 6358 f03b
000000d0: 6c07 893c d856 34bc 3cd1 463b 523b 843c
000000e0: fef4 a93b c7d8 b936 0e77 843d 3217 7abb
000000f0: dea3 433d 2251 0abc 1a45 6d3c eb37 c7bc
00000100: 1bd6 5f3c 4907 8c3a 33b6 213d df37 58bc
00000110: c5ce 59bc 375e 993c 3f1e 483b ef90 b6bc
00000120: ebff c53c 7b0d 3f3d 08d5 373c 42e3 2a3c
00000130: 75e2 803c 2ed0 a6bb 3bbc 523d a21b 393d
00000140: 8b94 19bd 3269 c0bc a414 7ebc e1bf ac3b
00000150: 1917 183b 8f2e 183b 22d9 34bd b453 2b3a
00000160: fc07 05bb 8e82 e9bc a183 85bd 537e 29bc
00000170: 676a 923a 72f9 57bd ec78 093d 4e89 493b
00000180: ed1e 813b e667 9ebb f498 fa3b de3d 42bd
00000190: cbaa db3c b566 fc3c 1f6c c7bc 8ce6 17bc
000001a0: dca8 bd3c a60a eabb c661 21bd 03ee 5ebd
000001b0: 6895 a5bc 09c8 00bc 4a55 9fbb 5adb f93a
000001c0: cb08 4cbc 90da 6cbd a426 5f3b c8b4 35bd
000001d0: c902 043d 80e4 21bd a832 50bc 3cc5 2f3a
000001e0: 4c9b 003c de4c 0bbc 81c0 35bd 6655 b0bb
000001f0: 9175 bbbc d20b 1c3c a2d8 d4bb fc0b 88bc
00000200: e026 8bbd 15cd 9bbc 5202 d43b 8ccc e6bb
00000210: 1117 a13b 0f2e 11ba 4411 00bc 8636 5e3a
00000220: 4c74 cfba 5104 b9b8 09f1 1fbb 4370 e1bb
00000230: 0c22 a2bb f00a 3fbb ffb1 42bc 3a59 373c
00000240: 67bd 6cbd 078d 22bc 5683 41bd 8165 4cbc
00000250: 45e3 48bb 5a45 0c3d 5504 ef3c 662b 2dbb
00000260: 93f0 643b f259 75bd c1dd 0cbd 2d40 4abd
00000270: 6c25 8b3b 6fc0 b03a 4fc8 e1bc 2df9 893c
00000280: 6096 393c 48b6 e83b 427a 20bb 2ce0 153c
00000290: c029 f43c 2090 78bb c7c9 863c 4b3d a6bb
000002a0: 6e66 a93b 90e4 e33c 7f54 703c 9025 193d
000002b0: f18d be3c 1aab a33a 045e c83c 66a3 be3b
000002c0: 0626 66bc 33c3 cabc e44a dcbc 87f3 863b
000002d0: 3565 14bd 9be3 cfbc 3b5f ec3b 98d9 b23c
000002e0: 8f5a 0dbd eb3a 9cbc 98f3 22bd bd10 aa3c
000002f0: ab05 ec3c 7ebc 293d 83d1 953b 788d 0ebd
00000300: 614b 11bb e055 13ba b211 25bd e48a d13a
00000310: 3233 303c b400 1e3d 3204 b23c 1927 d2bc
00000320: 3cb2 4a3d 22e8 d5bb ff1f 68bc d874 8a3b
00000330: abc2 d739 e1a3 16bc e997 e4bb afaf 2b3d
00000340: 24b6 0b3d 7eec 01bb cf16 76bb 4627 d93c
00000350: cd2e 353d 81c0 3c3d 32e0 95bb 2fd2 6e3c
00000360: a138 d53b ec46 c73c c90d 93ba f9bc 403a
00000370: f499 343d c9d1 813c 7b87 733b 7482 363c
00000380: 004b 863c 996d d73b ab88 aabc 4848 7339
00000390: 247e 0a3c 0614 80bc a643 1e3c 8d11 73bd
000003a0: fa96 133c 4ba2 cc3c ef04 15bd 42d5 38bc
000003b0: 77c3 593c 1de9 223c 335b a43c 5779 26bc
000003c0: 72e9 fa3c bc41 f73b 3818 a2bc eb33 60ba
000003d0: aa70 093d 8880 483d d71c 84bb 086c 803d
000003e0: f34d 41bd 163a 043c 08c3 45bb 56fc 813c
000003f0: caa2 9a3c 4e44 283c 2588 4e3c 3a0e bc3b
-0.014314735 0.020439614 0.036640402 -0.00937105 -0.0012844793 0.029563658 0.019860702 -0.038532022
-0.04540639 0.0055521843 0.042335007 0.022654431 -0.002086566 -0.0075457664 -0.03252876 -0.011971507
0.015656812 0.0137109915 -0.013013754 0.019063104 0.009200369 0.013855233 0.025364347 0.008102002
-0.030378986 0.024240429 0.008034697 -0.012687504 -0.0036376668 0.010535474 -0.057111118 0.040988643
-0.012012282 -0.0015549005 -0.04704129 0.011626988 0.022194242 -0.001914617 -0.010833465 0.029361345
0.013934416 -0.0027637442 -0.024084184 -0.010380722 0.025893144 0.015412007 0.020772772 0.009058071
-0.01199679 -0.018370902 0.061258107 0.0073347553 0.016727172 -0.011007033 0.0030337116 0.016141567
0.005186676 5.538666e-06 0.064680204 -0.0038160798 0.047763698 -0.008442195 0.014481807 -0.024318656
0.013661887 0.0010683323 0.0394804 -0.013196914 -0.013293927 0.018721683 0.0030535606 -0.022285907
0.024169883 0.046643715 0.011220224 0.010430159 0.015732983 -0.005090735 0.05144904 0.04519237
-0.037495177 -0.023487661 -0.015507851 0.005271897 0.0023207127 0.002322111 -0.044152386 0.0006535605
-0.0020298949 -0.028504636 -0.06519247 -0.010345059 0.0011170626 -0.052728124 0.033562586 0.0030752006
0.003940454 -0.004834163 0.007647628 -0.047422282 0.026814839 0.030810693 -0.024343548 -0.009271275
0.023151807 -0.0071423827 -0.039399885 -0.054426204 -0.020212844 -0.007860192 -0.004862462 0.0019062564
-0.012453268 -0.057825625 0.0034050131 -0.04436186 0.03222922 -0.039524555 -0.01270739 0.00067051104
0.007849526 -0.008502213 -0.04437304 -0.005381274 -0.022883208 0.009524303 -0.006495551 -0.016607277
-0.06794524 -0.01901869 0.006470003 -0.007043427 0.00491608 -0.00055381743 -0.007816616 0.00084767526
-0.0015827506 -8.8222914e-05 -0.0024405143 -0.0068798377 -0.0049479064 -0.0029150806 -0.011883258 0.011190707
-0.057797816 -0.009921319 -0.047244392 -0.012475372 -0.0030653041 0.034245826 0.02917687 -0.0026423573
0.0034933432 -0.05990023 -0.03439117 -0.04937761 0.0042464044 0.0013485084 -0.027561335 0.01684245
0.011327356 0.0071018077 -0.0024486934 0.009147685 0.029805064 -0.0037927702 0.016453637 -0.0050732247
0.0051696813 0.027818948 0.014668583 0.037389338 0.023261042 0.0012486905 0.024458893 0.0058178185
-0.014047151 -0.024751281 -0.02689118 0.004118386 -0.03622933 -0.025377085 0.007213501 0.021832272
-0.03451019 -0.019071063 -0.03978309 0.020759935 0.028811296 0.041439526 0.004572095 -0.034802884
-0.0022170173 -0.00056204014 -0.04030008 0.0015986827 0.010754393 0.03857489 0.021730516 -0.025653409
0.049486384 -0.0065279165 -0.014167785 0.0042253546 0.00041153035 -0.009194345 -0.006976117 0.04191559
0.03410925 -0.0019824798 -0.0037550216 0.026507985 0.044234086 0.046082024 -0.0045738453 0.014576479
0.006506995 0.02432581 -0.0011219318 0.0007352378 0.044092134 0.015847104 0.003715961 0.011139501
0.016393185 0.0065743444 -0.020817121 0.00023201213 0.008452926 -0.015634548 0.009659683 -0.05934291
0.009008164 0.024979731 -0.03638166 -0.011281313 0.013291231 0.009943274 0.020063018 -0.010160766
0.030628894 0.007545678 -0.019786939 -0.0008552658 0.03355471 0.048950702 -0.0040317583 0.06270605
-0.04719348 0.008070489 -0.0030176062 0.015867393 0.018876452 0.010270191 0.012605702 0.0057390006

action_model._continuous_distribution.mu.bias f4 [5]
00000000: 0226 75ba a6a2 ccba 2330 a03a 08c2 52bb
00000010: 8ee8 29b8
-0.0009351672 -0.0015612438 0.0012221377 -0.0032159109 -4.0509323e-05
