MLConfig/results/hb01/Lion/Lion-6512.pt (torch, 563535 bytes, 12 tensors)

network_body.linear_encoder.seq_layers.0.weight f4 [256, 10]
0	0x3da41938	0.080126226
1	0xbc668800	-0.014070511
2	0xbef3018c	-0.47462118
3	0x3d61879c	0.055060968
4	0x3db718ba	0.08940263
5	0x3eb6da38	0.35713363
6	0x3e825e3c	0.2546252
7	0x3df248f4	0.11830321
8	0xbce4c0af	-0.02792391
9	0xbe07a693	-0.13247137
10	0xbe8c5c38	-0.27414107
11	0x3e86ca7b	0.26326355
12	0xbedd6f05	-0.43248764
13	0x3c34cef2	0.011035668
14	0xbec921e6	-0.39283675
15	0x3e539e67	0.20665894
16	0x3eb4acb7	0.3528802
17	0xbef00a2e	-0.46882766
18	0x3ea44204	0.32081616
19	0xbeefb840	-0.4682026
20	0x3de8c6ae	0.1136602
21	0xbe49d5ca	-0.1971046
22	0xbe98f9a2	-0.29877955
23	0x3ea9337b	0.3304709
24	0x3ed6e7ba	0.41973668
25	0xbd2c8046	-0.04211452
26	0x3e9e4221	0.30909827
27	0xbc5aa1bd	-0.0133442255
28	0xbec9721f	-0.3934488
29	0xbe62eaad	-0.22159834
30	0x3ea43860	0.3207426
31	0xbd36e75e	-0.044654243
32	0xbeaeb335	-0.341211
33	0xbecf19ee	-0.4044947
34	0xbe5ad0f6	-0.21368775
35	0x3efc26b3	0.49248275
36	0x3e913daa	0.28367358
37	0xbe6312a6	-0.22175083
38	0xbe9570ec	-0.29187715
39	0xbe10e4ad	-0.14149733
40	0x3d0bec9c	0.034161195
41	0xbe6f4778	-0.23367107
42	0x3d51dc72	0.051235624
43	0xbe5d36fa	-0.21603003
44	0xbe75023b	-0.23926632
45	0x3e084d48	0.1331073
46	0x3ec2fc80	0.38083267
47	0xbec78fba	-0.38976842
48	0x3f75ba0a	0.95987
49	0xbda25ecc	-0.07928237
50	0x3c201845	0.009771411
51	0x3e1be020	0.15222216
52	0xbe6a8587	-0.22902499
53	0x3d52588a	0.05135397
54	0xbe577506	-0.21040735
55	0xbf1d8476	-0.61530244
56	0x3d964995	0.073382534
57	0xbcb131ab	-0.021630129
58	0x3e333432	0.1750038
59	0x3e55d98e	0.20883772
60	0xbe756652	-0.23964813
61	0x3d083b2e	0.033259563
62	0x3ebe4687	0.37163183
63	0xbd516ff9	-0.051132176
64	0x3ea5a605	0.32353225
65	0xbec72d57	-0.3890178
66	0x3ed9e423	0.42556867
67	0xbe929de9	-0.286361
68	0xbef7c044	-0.48388875
69	0xbf8ee00f	-1.1162127
70	0x3da99958	0.08281201
71	0xbf45df9f	-0.77294344
72	0x3d938953	0.07203927
73	0x3eeb91f5	0.46009794
74	0xbf01171a	-0.50425875
75	0x3e2b7437	0.16743551
76	0x3e5a5836	0.21322712
77	0xbe9f33a9	-0.310941
78	0xbe2c2077	-0.1680926
79	0x3eb21a34	0.34785616
80	0x3f583ecc	0.8447082
81	0xbd833e49	-0.06408364
82	0x3e3fe66b	0.18740241
83	0x3eab35a6	0.33439368
84	0x3e5b0ec4	0.21392351
85	0x3ea186c6	0.31548136
86	0xbe19d7cf	-0.1502373
87	0xbe1f6419	-0.15565528
88	0x3f11e288	0.56986284
89	0x3eff0d48	0.4981482
90	0xbdbbd8ab	-0.091721855
91	0x3f7fb390	0.99883366
92	0xbf1c7390	-0.61113834
93	0x3e113508	0.14180386
94	0x3e13cf3d	0.14434524
95	0xbf861044	-1.0473714
96	0x3e9dcbd4	0.3081957
97	0x3e1b153a	0.15144816
98	0x3e8d479d	0.275937
99	0xbcd1ff08	-0.025634304
100	0xbe15733a	-0.14594737
101	0x3cb9d389	0.022683876
102	0xbd402b33	-0.046916198
103	0xbe907da1	-0.28220847
104	0xbd92ef65	-0.07174567
105	0x3dc408b3	0.09571972
106	0x3ec74e50	0.38926935
107	0xbd9edf8a	-0.077574804
108	0x3eb8525c	0.36000335
109	0xbe371f15	-0.1788295
110	0x3db293f1	0.08719624
111	0xbe3ef5ad	-0.18648405
112	0x3e7920e0	0.24328947
113	0x3f4acf2c	0.7922237
114	0x3e8815e2	0.26579195
115	0xbeca9252	-0.3956476
116	0x3d198302	0.037478454
117	0x3f741bb6	0.95354784
118	0x3e4911f7	0.1963576
119	0x3e7eb0bd	0.24872108
120	0x3e8f8f4b	0.2803901
121	0x3e823468	0.25430608
122	0x3da97b4a	0.08275469
123	0x3f1ebdfe	0.62008655
124	0x3c92d670	0.017924517
125	0x3cb21e16	0.021742862
126	0x3e98935c	0.29799926
127	0xbe0b9cf5	-0.13634093
128	0xbf0a1f3d	-0.53953916
129	0x3ef95deb	0.48704466
130	0x3ed40ba7	0.4141514
131	0x3e8f61e3	0.2800437
132	0x3f26be96	0.6513456
133	0xbebe9131	-0.37220147
134	0xbd82abb5	-0.06380407
135	0xbed03bd3	-0.40670642
136	0x3f1b3e9b	0.60642403
137	0x3e03bdd7	0.12865387
138	0x3e7f31e2	0.24921373
139	0x3e3a2ff2	0.18182352
140	0xbeb319f6	-0.34980744
141	0x3e876f7c	0.26452243
142	0xbe4fac42	-0.20280555
143	0xbe9a3701	-0.3012009
144	0x3d3286e7	0.043585684
145	0xbdbc56f0	-0.091962695
146	0x3e4d19e5	0.20029409
147	0x3ddf90df	0.10916304
148	0xbf3b34e5	-0.73127586
149	0xbde946f3	-0.113904856
150	0xbedadb64	-0.42745507
151	0x3e77e24d	0.2420742
152	0xbe355368	-0.17707598
153	0x3ef553de	0.47915548
154	0x3dd0eca0	0.10201383
155	0x3ed6dad4	0.41963828
156	0x3e96cee2	0.29454714
157	0xbe469c14	-0.19395477
158	0xbee6f1bf	-0.45106313
159	0x3ed48d4e	0.41514057
160	0xbd8addbc	-0.06780574
161	0xbda0bcbd	-0.07848499
162	0xbea2bd9d	-0.31785288
163	0xbc53262a	-0.012887517
164	0xbe6df192	-0.23236683
165	0x3ea48b4a	0.3213752
166	0x3dc79e85	0.09747032
167	0xbe6884af	-0.22706865
168	0x3cf8af14	0.030356921
169	0xbd26002d	-0.04052751
170	0x3dfb47df	0.12269568
171	0xbe55c80f	-0.20877098
172	0xbf23c68e	-0.63974845
173	0x3eb67ae1	0.35640624
174	0x3ebd970d	0.37029305
175	0x3f027769	0.50963455
176	0xbe594e4e	-0.21221277
177	0xbe7b7aac	-0.24558514
178	0x3d4077ea	0.04698936
179	0xbe4e36da	-0.20138112
180	0x3eae1b75	0.34005323
181	0x3cad75d4	0.021174349
182	0x3e90c591	0.2827573
183	0xbe854fb3	-0.26037368
184	0xbef5fbd0	-0.4804368
185	0xbd8d2a01	-0.06892777
186	0x3eaf08c4	0.34186375
187	0xbf124f7d	-0.5715254
188	0xbe76ba43	-0.2409449
189	0xbe02140c	-0.1270296
190	0x3e51234f	0.20423625
191	0xbe91dd44	-0.28489125
192	0xbc80db50	-0.015729576
193	0xbdbee302	-0.09320642
194	0xbddec833	-0.10878029
195	0x3f2931bb	0.6609151
196	0x3ef10a95	0.47078386
197	0x3ed26792	0.41094643
198	0x3e82e296	0.25563496
199	0x3d86275c	0.06550476
200	0x3e19a5fc	0.15004724
201	0xbe80c1b6	-0.2514779
202	0x3e469b50	0.19395185
203	0x3e8cf1e7	0.27528307
204	0x3d0ee847	0.034889486
205	0x3c590b0e	0.013247265
206	0x3ea09cc7	0.31369612
207	0xbc16bef9	-0.009200805
208	0x3f3cd050	0.7375536
209	0xbe1dd8f0	-0.15414786
210	0xbe0a9468	-0.13533175
211	0x3ea2bc18	0.3178413
212	0xbed74a8c	-0.42049062
213	0xbe34e6d6	-0.17666182
214	0x3df19fac	0.11798033
215	0x3de0cdc7	0.10976749
216	0x3dacac3c	0.084312886
217	0x3d653e4b	0.05596761
218	0xbee3d708	-0.44499993
219	0x3e13dc6a	0.1443955
220	0xbd8f372c	-0.06992945
221	0xbe4d85e2	-0.20070603
222	0xbee40c86	-0.44540805
223	0xbee52f3d	-0.44762602
224	0xbee32270	-0.4436221
225	0xbea5c95f	-0.32380196
226	0x3e8d0a4c	0.27546918
227	0xbe753d61	-0.23949195
228	0xbe44559d	-0.19173284
229	0x3e834d5e	0.25644964
230	0xbe97338d	-0.29531518
231	0xbd32c3dc	-0.043643817
232	0x3d58411b	0.052796464
233	0xbf08e764	-0.53478074
234	0x3eb546dc	0.35405624
235	0x3e227cf5	0.1586798
236	0xbd502ba9	-0.050822888
237	0x3d48b7f4	0.049003556
238	0x3e60c886	0.21951494
239	0xbde9c745	-0.11414961
240	0xbebbd99f	-0.3668947
241	0xbec5c261	-0.38624862
242	0xbe10c45f	-0.1413741
243	0xbe34542d	-0.17610236
244	0x3e76e8b3	0.24112205
245	0x3ee00f62	0.43761736
246	0x3d71f996	0.059075914
247	0xbd09fc10	-0.03368765
248	0xbea6699d	-0.32502452
249	0x3b402900	0.0029321313
250	0xbeb5759e	-0.35441297
251	0x3e87e853	0.26544437
252	0xbe893072	-0.26794773
253	0xbeb8ac1a	-0.36068803
254	0xbe91a0f8	-0.28443122
255	0xbd9cdb00	-0.076589584

network_body.linear_encoder.seq_layers.0.bias f4 [256]
0	0x00000000	0.0
1	0x00000000	0.0
2	0x00000000	0.0
3	0x00000000	0.0
4	0x00000000	0.0
5	0x00000000	0.0
6	0x00000000	0.0
7	0x00000000	0.0
8	0x00000000	0.0
9	0x00000000	0.0
10	0x00000000	0.0
11	0x00000000	0.0
12	0x00000000	0.0
13	0x00000000	0.0
14	0x00000000	0.0
15	0x00000000	0.0
16	0x00000000	0.0
17	0x00000000	0.0
18	0x00000000	0.0
19	0x00000000	0.0
20	0x00000000	0.0
21	0x00000000	0.0
22	0x00000000	0.0
23	0x00000000	0.0
24	0x00000000	0.0
25	0x00000000	0.0
26	0x00000000	0.0
27	0x00000000	0.0
28	0x00000000	0.0
29	0x00000000	0.0
30	0x00000000	0.0
31	0x00000000	0.0
32	0x00000000	0.0
33	0x00000000	0.0
34	0x00000000	0.0
35	0x00000000	0.0
36	0x00000000	0.0
37	0x00000000	0.0
38	0x00000000	0.0
39	0x00000000	0.0
40	0x00000000	0.0
41	0x00000000	0.0
42	0x00000000	0.0
43	0x00000000	0.0
44	0x00000000	0.0
45	0x00000000	0.0
46	0x00000000	0.0
47	0x00000000	0.0
48	0x00000000	0.0
49	0x00000000	0.0
50	0x00000000	0.0
51	0x00000000	0.0
52	0x00000000	0.0
53	0x00000000	0.0
54	0x00000000	0.0
55	0x00000000	0.0
56	0x00000000	0.0
57	0x00000000	0.0
58	0x00000000	0.0
59	0x00000000	0.0
60	0x00000000	0.0
61	0x00000000	0.0
62	0x00000000	0.0
63	0x00000000	0.0
64	0x00000000	0.0
65	0x00000000	0.0
66	0x00000000	0.0
67	0x00000000	0.0
68	0x00000000	0.0
69	0x00000000	0.0
70	0x00000000	0.0
71	0x00000000	0.0
72	0x00000000	0.0
73	0x00000000	0.0
74	0x00000000	0.0
75	0x00000000	0.0
76	0x00000000	0.0
77	0x00000000	0.0
78	0x00000000	0.0
79	0x00000000	0.0
80	0x00000000	0.0
81	0x00000000	0.0
82	0x00000000	0.0
83	0x00000000	0.0
84	0x00000000	0.0
85	0x00000000	0.0
86	0x00000000	0.0
87	0x00000000	0.0
88	0x00000000	0.0
89	0x00000000	0.0
90	0x00000000	0.0
91	0x00000000	0.0
92	0x00000000	0.0
93	0x00000000	0.0
94	0x00000000	0.0
95	0x00000000	0.0
96	0x00000000	0.0
97	0x00000000	0.0
98	0x00000000	0.0
99	0x00000000	0.0
100	0x00000000	0.0
101	0x00000000	0.0
102	0x00000000	0.0
103	0x00000000	0.0
104	0x00000000	0.0
105	0x00000000	0.0
106	0x00000000	0.0
107	0x00000000	0.0
108	0x00000000	0.0
109	0x00000000	0.0
110	0x00000000	0.0
111	0x00000000	0.0
112	0x00000000	0.0
113	0x00000000	0.0
114	0x00000000	0.0
115	0x00000000	0.0
116	0x00000000	0.0
117	0x00000000	0.0
118	0x00000000	0.0
119	0x00000000	0.0
120	0x00000000	0.0
121	0x00000000	0.0
122	0x00000000	0.0
123	0x00000000	0.0
124	0x00000000	0.0
125	0x00000000	0.0
126	0x00000000	0.0
127	0x00000000	0.0
128	0x00000000	0.0
129	0x00000000	0.0
130	0x00000000	0.0
131	0x00000000	0.0
132	0x00000000	0.0
133	0x00000000	0.0
134	0x00000000	0.0
135	0x00000000	0.0
136	0x00000000	0.0
137	0x00000000	0.0
138	0x00000000	0.0
139	0x00000000	0.0
140	0x00000000	0.0
141	0x00000000	0.0
142	0x00000000	0.0
143	0x00000000	0.0
144	0x00000000	0.0
145	0x00000000	0.0
146	0x00000000	0.0
147	0x00000000	0.0
148	0x00000000	0.0
149	0x00000000	0.0
150	0x00000000	0.0
151	0x00000000	0.0
152	0x00000000	0.0
153	0x00000000	0.0
154	0x00000000	0.0
155	0x00000000	0.0
156	0x00000000	0.0
157	0x00000000	0.0
158	0x00000000	0.0
159	0x00000000	0.0
160	0x00000000	0.0
161	0x00000000	0.0
162	0x00000000	0.0
163	0x00000000	0.0
164	0x00000000	0.0
165	0x00000000	0.0
166	0x00000000	0.0
167	0x00000000	0.0
168	0x00000000	0.0
169	0x00000000	0.0
170	0x00000000	0.0
171	0x00000000	0.0
172	0x00000000	0.0
173	0x00000000	0.0
174	0x00000000	0.0
175	0x00000000	0.0
176	0x00000000	0.0
177	0x00000000	0.0
178	0x00000000	0.0
179	0x00000000	0.0
180	0x00000000	0.0
181	0x00000000	0.0
182	0x00000000	0.0
183	0x00000000	0.0
184	0x00000000	0.0
185	0x00000000	0.0
186	0x00000000	0.0
187	0x00000000	0.0
188	0x00000000	0.0
189	0x00000000	0.0
190	0x00000000	0.0
191	0x00000000	0.0
192	0x00000000	0.0
193	0x00000000	0.0
194	0x00000000	0.0
195	0x00000000	0.0
196	0x00000000	0.0
197	0x00000000	0.0
198	0x00000000	0.0
199	0x00000000	0.0
200	0x00000000	0.0
201	0x00000000	0.0
202	0x00000000	0.0
203	0x00000000	0.0
204	0x00000000	0.0
205	0x00000000	0.0
206	0x00000000	0.0
207	0x00000000	0.0
208	0x00000000	0.0
209	0x00000000	0.0
210	0x00000000	0.0
211	0x00000000	0.0
212	0x00000000	0.0
213	0x00000000	0.0
214	0x00000000	0.0
215	0x00000000	0.0
216	0x00000000	0.0
217	0x00000000	0.0
218	0x00000000	0.0
219	0x00000000	0.0
220	0x00000000	0.0
221	0x00000000	0.0
222	0x00000000	0.0
223	0x00000000	0.0
224	0x00000000	0.0
225	0x00000000	0.0
226	0x00000000	0.0
227	0x00000000	0.0
228	0x00000000	0.0
229	0x00000000	0.0
230	0x00000000	0.0
231	0x00000000	0.0
232	0x00000000	0.0
233	0x00000000	0.0
234	0x00000000	0.0
235	0x00000000	0.0
236	0x00000000	0.0
237	0x00000000	0.0
238	0x00000000	0.0
239	0x00000000	0.0
240	0x00000000	0.0
241	0x00000000	0.0
242	0x00000000	0.0
243	0x00000000	0.0
244	0x00000000	0.0
245	0x00000000	0.0
246	0x00000000	0.0
247	0x00000000	0.0
248	0x00000000	0.0
249	0x00000000	0.0
250	0x00000000	0.0
251	0x00000000	0.0
252	0x00000000	0.0
253	0x00000000	0.0
254	0x00000000	0.0
255	0x00000000	0.0

network_body.linear_encoder.seq_layers.2.weight f4 [256, 256]
0	0x3d42ecbb	0.047589045
1	0xbd2574ca	-0.04039458
2	0x3c052452	0.008126335
3	0xbb0d5a9b	-0.0021568898
4	0xbd0455f6	-0.03230854
5	0xbd67d2f2	-0.056597658
6	0x3dd17de7	0.10229092
7	0xbd7cfca2	-0.061764367
8	0x3d107aec	0.035273477
9	0xbdf17d81	-0.11791516
10	0x3c1292b1	0.008946107
11	0xbc6464b1	-0.013940022
12	0x3dec5a5b	0.115406714
13	0xbcde5ca9	-0.027143793
14	0xbd880092	-0.06640734
15	0x3d409eab	0.047026318
16	0x3af3c3cb	0.001859778
17	0x3ca8f88d	0.02062633
18	0xbd60c839	-0.054878447
19	0xbc86419c	-0.016388707
20	0xbd36f340	-0.044665575
21	0xbd6f0be0	-0.058360934
22	0x3dbfd12d	0.09366069
23	0xbdb73f2a	-0.089475945
24	0x3c8d0db8	0.017218456
25	0x3e025b1c	0.12730068
26	0xbb1abe07	-0.00236118
27	0x3d048fa0	0.032363534
28	0xbd9518ea	-0.072801426
29	0xbdefa2db	-0.11700984
30	0xbd5e0b90	-0.054210246
31	0x3c6e211e	0.014534263
32	0xbcc8eac6	-0.024526011
33	0xbd03174e	-0.032004647
34	0xbe307aa8	-0.1723429
35	0xbda11943	-0.078661464
36	0x3cb5eb2e	0.022206869
37	0xbc35a75b	-0.011087264
38	0xbd5f9849	-0.05458859
39	0xbcbef6f6	-0.02331112
40	0xbc2e4cbb	-0.010638411
41	0xbd292caa	-0.04130236
42	0x3c326c21	0.010890038
43	0x3b0f0dca	0.0021828287
44	0xbd8f96fa	-0.07011218
45	0xbdcd1bac	-0.100150436
46	0x3dc3bac3	0.09557106
47	0x3e0a6542	0.1351519
48	0x3c6cf9e9	0.01446388
49	0x3d8e1a57	0.06938618
50	0x399801c8	0.00028993026
51	0x3d3b6c37	0.0457575
52	0xbd6e7aec	-0.058222696
53	0x3df4d1ce	0.119540796
54	0xbd5bb3ff	-0.053638455
55	0xbd2404cb	-0.040043633
56	0xba3d4a28	-0.0007220828
57	0xbd03e691	-0.032202307
58	0x3d98e15f	0.07464861
59	0x3bb59cef	0.0055423896
60	0x3d02b373	0.031909417
61	0x3d9cd979	0.07658667
62	0xbd03201d	-0.032013047
63	0xbd36caa6	-0.044626854
64	0x3c4b00f1	0.012390361
65	0x3ccc201b	0.024917653
66	0xbd33d3ce	-0.043903165
67	0xbd0bb7e0	-0.034110904
68	0xbd7afe86	-0.06127789
69	0xbda82075	-0.08209316
70	0x3da11790	0.07865822
71	0xbd1672fe	-0.03673076
72	0xbbee06df	-0.0072640027
73	0x3b16273a	0.0022911564
74	0x3d8ca717	0.06867807
75	0xbd154914	-0.036446646
76	0xbd672990	-0.05643612
77	0xbd23c9fa	-0.03998754
78	0xbc2e7d85	-0.010650043
79	0xbd4bedc2	-0.04978729
80	0x3d8959ce	0.06706582
81	0x3be26e70	0.006910138
82	0xbdaff4fc	-0.08591649
83	0xbb97d9a5	-0.0046340995
84	0xbd3a285f	-0.045448657
85	0xbc7226b7	-0.014779738
86	0x3d55ec7b	0.05222748
87	0x3e2c497b	0.16824906
88	0x3d8ab5c5	0.06772951
89	0x3dc0b2cc	0.09409103
90	0xbcbf2deb	-0.023337325
91	0x3e421a48	0.18955338
92	0xbd3ee6df	-0.046606895
93	0x3dd5b5b8	0.10435051
94	0x3dec3971	0.115343936
95	0xbcc935f9	-0.024561869
96	0xbdb85d62	-0.09002186
97	0x3d2f5616	0.042806707
98	0xbc2831f3	-0.010265815
99	0xbd99ca99	-0.075093456
100	0x3e1dbe3a	0.15404597
101	0x3d89da2f	0.06731068
102	0xbd0f65f5	-0.035009343
103	0xbd43af84	-0.047774807
104	0xbcf7a633	-0.030230617
105	0x3e43a34b	0.1910526
106	0xbe23893a	-0.15970317
107	0x3cbf586b	0.02335759
108	0x3c02aa6f	0.007975205
109	0x3e3d3353	0.1847661
110	0xbc1d7cae	-0.0096122455
111	0xbddf9886	-0.109177634
112	0xbd0a6553	-0.033788037
113	0xbd0df531	-0.03465766
114	0xbb5ad66f	-0.0033391973
115	0x3ce380b2	0.027771328
116	0xbcafdb3e	-0.021466848
117	0xbdffed03	-0.12496378
118	0xbd0389f4	-0.032113984
119	0x3d3efe49	0.046629224
120	0x3d19f0a1	0.037582997
121	0xbcced1fa	-0.025246609
122	0xbd4f1677	-0.050558534
123	0x3d35f890	0.0444265
124	0xbcf06a23	-0.029347485
125	0x3beca8f1	0.007222288
126	0xbc0f0a20	-0.008730441
127	0x3af004df	0.0018311999
128	0xbd573aa3	-0.052546155
129	0x3c54d54d	0.012990308
130	0xbd4d4586	-0.05011513
131	0xbdc2fb1b	-0.09520551
132	0xbd95fea2	-0.07323958
133	0x3d8c1db5	0.06841604
134	0xbd1abf4f	-0.037780102
135	0x3e3b8b51	0.18314864
136	0xbc8f90f1	-0.017525168
137	0x3d53213d	0.05154537
138	0xbcfaec5b	-0.030630281
139	0x3d73dcc1	0.0595367
140	0x3d4eb099	0.050461385
141	0xbc102fcc	-0.008800458
142	0x3dc33885	0.095322646
143	0x3d8aae8a	0.06771572
144	0xbdbcf99e	-0.09227298
145	0xbcbe54f9	-0.023233877
146	0xbc8ed3c3	-0.01743496
147	0xbd8643fa	-0.06555934
148	0x3cb879eb	0.022519073
149	0xbcfd08e3	-0.030888027
150	0x3e3b4519	0.18288077
151	0x3c3f4276	0.01167356
152	0x3da71408	0.081581175
153	0xbda3afa2	-0.07992484
154	0x3dfc8eec	0.12331948
155	0xbd474df4	-0.048658326
156	0x3d27e4c4	0.040989652
157	0xbd9cd608	-0.07658011
158	0x3dce7124	0.100801736
159	0xbc1cfe9c	-0.009582188
160	0x3d9a65a3	0.07538917
161	0x3d123754	0.035697296
162	0x3c87b019	0.016563462
163	0x3d8409b8	0.06447166
164	0xbc261b4f	-0.010138347
165	0x3d8d9af8	0.069143236
166	0x3d4e6a30	0.050394237
167	0xbc8e604b	-0.0173799
168	0x3cae92da	0.021310259
169	0xbc394f00	-0.011310339
170	0xbe07ed13	-0.1327403
171	0x3ca5382a	0.020168383
172	0x3d140ef6	0.03614708
173	0x3e01db90	0.12681413
174	0x3cbbf60b	0.02294447
175	0x3e0d438f	0.13795303
176	0x3bfafe64	0.0076597203
177	0xbd84e706	-0.06489377
178	0xbd8900fc	-0.06689641
179	0x3d8ac4fc	0.06775853
180	0x3da25032	0.07925452
181	0xbd254cec	-0.04035656
182	0xbdbe6c74	-0.092980295
183	0xbd0ce88d	-0.034401465
184	0x3d232dfe	0.039838783
185	0x3cff6874	0.031177737
186	0xbce84075	-0.028351048
187	0xbe231fe7	-0.15930139
188	0xbd0dc10a	-0.034607925
189	0x3cdada4c	0.02671542
190	0xbc202a80	-0.009775758
191	0x3d906b31	0.07051695
192	0x3c54d6fa	0.0129907075
193	0x3bdbe37b	0.0067104674
194	0x3cc27d77	0.023741467
195	0x3c630f55	0.013858636
196	0xbccda597	-0.025103373
197	0x3c37f986	0.011228925
198	0xbc077d4d	-0.00826962
199	0xbc4c1319	-0.012455725
200	0xbd503e7c	-0.05084084
201	0x3d5c35ce	0.05376225
202	0x3d59df5b	0.053191524
203	0x3c35357e	0.011060117
204	0x3d699261	0.057024363
205	0xbc42899c	-0.011873629
206	0xbbe1410a	-0.0068742083
207	0xbd8c7e73	-0.06860056
208	0x3c3193ac	0.01083843
209	0x3c7c8a4c	0.015413832
210	0xbe0a5280	-0.13508034
211	0xbc62d07b	-0.013843651
212	0x3daf689b	0.08564874
213	0xbe31d545	-0.17366512
214	0xbcf22a09	-0.02956106
215	0xbda1c703	-0.078992866
216	0xbd2f5ec0	-0.04281497
217	0xbd31b83f	-0.0433886
218	0x3c9236cb	0.017848393
219	0x39a0b1ec	0.0003065014
220	0xbd6b246a	-0.057407774
221	0xbc583c16	-0.013197919
222	0xbd10a6d9	-0.03531537
223	0xbc0f6a9e	-0.008753447
224	0x3d547f29	0.051879082
225	0xb935fdc2	-0.00017356037
226	0x3d57ec38	0.05271551
227	0xbdafa7e9	-0.08576948
228	0x3d9fdf74	0.07806292
229	0xbd18c761	-0.037299518
230	0x3c8d1361	0.017221155
231	0xbd08960c	-0.03334622
232	0x3d9df41b	0.07712575
233	0x3d654edc	0.05598341
234	0x3c98e24a	0.01866259
235	0x3cb7c9e5	0.022435138
236	0xbbfbad44	-0.007680567
237	0x3ddfdc3e	0.1093068
238	0xbcf65c3e	-0.030073281
239	0xbd275aed	-0.040858198
240	0xbc3c1a65	-0.011480902
241	0xbcc5d21c	-0.02414804
242	0xbd8fbab5	-0.070180334
243	0xbc81678a	-0.015796442
244	0xbd81e991	-0.063433774
245	0x3d881ae7	0.06645756
246	0x3bc01267	0.0058615687
247	0xbc0d6345	-0.008629625
248	0xbdc2caa8	-0.0951131
249	0x3db27f0f	0.08715641
250	0xbd976ec1	-0.073941715
251	0x3da4c65e	0.08045648
252	0x3d629e32	0.055326648
253	0xbd81a043	-0.063293956
254	0x3d858267	0.06519013
255	0xbc66f616	-0.014096757

network_body.linear_encoder.seq_layers.2.bias f4 [256]
0	0x00000000	0.0
1	0x00000000	0.0
2	0x00000000	0.0
3	0x00000000	0.0
4	0x00000000	0.0
5	0x00000000	0.0
6	0x00000000	0.0
7	0x00000000	0.0
8	0x00000000	0.0
9	0x00000000	0.0
10	0x00000000	0.0
11	0x00000000	0.0
12	0x00000000	0.0
13	0x00000000	0.0
14	0x00000000	0.0
15	0x00000000	0.0
16	0x00000000	0.0
17	0x00000000	0.0
18	0x00000000	0.0
19	0x00000000	0.0
20	0x00000000	0.0
21	0x00000000	0.0
22	0x00000000	0.0
23	0x00000000	0.0
24	0x00000000	0.0
25	0x00000000	0.0
26	0x00000000	0.0
27	0x00000000	0.0
28	0x00000000	0.0
29	0x00000000	0.0
30	0x00000000	0.0
31	0x00000000	0.0
32	0x00000000	0.0
33	0x00000000	0.0
34	0x00000000	0.0
35	0x00000000	0.0
36	0x00000000	0.0
37	0x00000000	0.0
38	0x00000000	0.0
39	0x00000000	0.0
40	0x00000000	0.0
41	0x00000000	0.0
42	0x00000000	0.0
43	0x00000000	0.0
44	0x00000000	0.0
45	0x00000000	0.0
46	0x00000000	0.0
47	0x00000000	0.0
48	0x00000000	0.0
49	0x00000000	0.0
50	0x00000000	0.0
51	0x00000000	0.0
52	0x00000000	0.0
53	0x00000000	0.0
54	0x00000000	0.0
55	0x00000000	0.0
56	0x00000000	0.0
57	0x00000000	0.0
58	0x00000000	0.0
59	0x00000000	0.0
60	0x00000000	0.0
61	0x00000000	0.0
62	0x00000000	0.0
63	0x00000000	0.0
64	0x00000000	0.0
65	0x00000000	0.0
66	0x00000000	0.0
67	0x00000000	0.0
68	0x00000000	0.0
69	0x00000000	0.0
70	0x00000000	0.0
71	0x00000000	0.0
72	0x00000000	0.0
73	0x00000000	0.0
74	0x00000000	0.0
75	0x00000000	0.0
76	0x00000000	0.0
77	0x00000000	0.0
78	0x00000000	0.0
79	0x00000000	0.0
80	0x00000000	0.0
81	0x00000000	0.0
82	0x00000000	0.0
83	0x00000000	0.0
84	0x00000000	0.0
85	0x00000000	0.0
86	0x00000000	0.0
87	0x00000000	0.0
88	0x00000000	0.0
89	0x00000000	0.0
90	0x00000000	0.0
91	0x00000000	0.0
92	0x00000000	0.0
93	0x00000000	0.0
94	0x00000000	0.0
95	0x00000000	0.0
96	0x00000000	0.0
97	0x00000000	0.0
98	0x00000000	0.0
99	0x00000000	0.0
100	0x00000000	0.0
101	0x00000000	0.0
102	0x00000000	0.0
103	0x00000000	0.0
104	0x00000000	0.0
105	0x00000000	0.0
106	0x00000000	0.0
107	0x00000000	0.0
108	0x00000000	0.0
109	0x00000000	0.0
110	0x00000000	0.0
111	0x00000000	0.0
112	0x00000000	0.0
113	0x00000000	0.0
114	0x00000000	0.0
115	0x00000000	0.0
116	0x00000000	0.0
117	0x00000000	0.0
118	0x00000000	0.0
119	0x00000000	0.0
120	0x00000000	0.0
121	0x00000000	0.0
122	0x00000000	0.0
123	0x00000000	0.0
124	0x00000000	0.0
125	0x00000000	0.0
126	0x00000000	0.0
127	0x00000000	0.0
128	0x00000000	0.0
129	0x00000000	0.0
130	0x00000000	0.0
131	0x00000000	0.0
132	0x00000000	0.0
133	0x00000000	0.0
134	0x00000000	0.0
135	0x00000000	0.0
136	0x00000000	0.0
137	0x00000000	0.0
138	0x00000000	0.0
139	0x00000000	0.0
140	0x00000000	0.0
141	0x00000000	0.0
142	0x00000000	0.0
143	0x00000000	0.0
144	0x00000000	0.0
145	0x00000000	0.0
146	0x00000000	0.0
147	0x00000000	0.0
148	0x00000000	0.0
149	0x00000000	0.0
150	0x00000000	0.0
151	0x00000000	0.0
152	0x00000000	0.0
153	0x00000000	0.0
154	0x00000000	0.0
155	0x00000000	0.0
156	0x00000000	0.0
157	0x00000000	0.0
158	0x00000000	0.0
159	0x00000000	0.0
160	0x00000000	0.0
161	0x00000000	0.0
162	0x00000000	0.0
163	0x00000000	0.0
164	0x00000000	0.0
165	0x00000000	0.0
166	0x00000000	0.0
167	0x00000000	0.0
168	0x00000000	0.0
169	0x00000000	0.0
170	0x00000000	0.0
171	0x00000000	0.0
172	0x00000000	0.0
173	0x00000000	0.0
174	0x00000000	0.0
175	0x00000000	0.0
176	0x00000000	0.0
177	0x00000000	0.0
178	0x00000000	0.0
179	0x00000000	0.0
180	0x00000000	0.0
181	0x00000000	0.0
182	0x00000000	0.0
183	0x00000000	0.0
184	0x00000000	0.0
185	0x00000000	0.0
186	0x00000000	0.0
187	0x00000000	0.0
188	0x00000000	0.0
189	0x00000000	0.0
190	0x00000000	0.0
191	0x00000000	0.0
192	0x00000000	0.0
193	0x00000000	0.0
194	0x00000000	0.0
195	0x00000000	0.0
196	0x00000000	0.0
197	0x00000000	0.0
198	0x00000000	0.0
199	0x00000000	0.0
200	0x00000000	0.0
201	0x00000000	0.0
202	0x00000000	0.0
203	0x00000000	0.0
204	0x00000000	0.0
205	0x00000000	0.0
206	0x00000000	0.0
207	0x00000000	0.0
208	0x00000000	0.0
209	0x00000000	0.0
210	0x00000000	0.0
211	0x00000000	0.0
212	0x00000000	0.0
213	0x00000000	0.0
214	0x00000000	0.0
215	0x00000000	0.0
216	0x00000000	0.0
217	0x00000000	0.0
218	0x00000000	0.0
219	0x00000000	0.0
220	0x00000000	0.0
221	0x00000000	0.0
222	0x00000000	0.0
223	0x00000000	0.0
224	0x00000000	0.0
225	0x00000000	0.0
226	0x00000000	0.0
227	0x00000000	0.0
228	0x00000000	0.0
229	0x00000000	0.0
230	0x00000000	0.0
231	0x00000000	0.0
232	0x00000000	0.0
233	0x00000000	0.0
234	0x00000000	0.0
235	0x00000000	0.0
236	0x00000000	0.0
237	0x00000000	0.0
238	0x00000000	0.0
239	0x00000000	0.0
240	0x00000000	0.0
241	0x00000000	0.0
242	0x00000000	0.0
243	0x00000000	0.0
244	0x00000000	0.0
245	0x00000000	0.0
246	0x00000000	0.0
247	0x00000000	0.0
248	0x00000000	0.0
249	0x00000000	0.0
250	0x00000000	0.0
251	0x00000000	0.0
252	0x00000000	0.0
253	0x00000000	0.0
254	0x00000000	0.0
255	0x00000000	0.0

action_model._continuous_distribution.log_sigma f4 [1, 5]
0	0x00000000	0.0
1	0x00000000	0.0
2	0x00000000	0.0
3	0x00000000	0.0
4	0x00000000	0.0

action_model._continuous_distribution.mu.weight f4 [5, 256]
0	0xbc6e1fd3	-0.014533955
1	0x3ca3d614	0.019999541
2	0x3c0d64a3	0.008629951
3	0xbc01e990	-0.007929221
4	0xbbb80ac0	-0.005616516
5	0x3c8e0b4f	0.017339377
6	0x3c9de0a5	0.019272158
7	0xbaeab3e5	-0.0017906396
8	0xbcb8d473	-0.022562241
9	0x3ba26dbf	0.0049569304
10	0x3c770f17	0.015079281
11	0x3cb7df30	0.022445291
12	0xbc41907f	-0.011814236
13	0xbc031d49	-0.008002588
14	0xbc9ede89	-0.019393222
15	0xbc4c50af	-0.012470408
16	0xbb8c95b9	-0.0042903093
17	0x3c64f463	0.013974282
18	0xb95a5337	-0.000208211
19	0x3bc4ed9b	0.00600977
20	0x3c0f9501	0.008763553
21	0x3c1bffd7	0.009521446
22	0xbb8d60a7	-0.0043145004
23	0x3bfbecf3	0.0076881587
24	0xbc865c47	-0.016401423
25	0x3c28e682	0.010308864
26	0x3bfc733d	0.007704167
27	0xbc5882cf	-0.013214781
28	0xbb7e7872	-0.0038829115
29	0xbc578c83	-0.013156059
30	0xbcafe424	-0.02147109
31	0x3c6c7b97	0.014433763
32	0xbc4c7385	-0.012478714
33	0xbbc7d07f	-0.0060978527
34	0xbca02acc	-0.019551657
35	0x3be05847	0.006846461
36	0x3b101381	0.0021984281
37	0xbb22ddf6	-0.0024851537
38	0xbbe74487	-0.0070577296
39	0x3cee274f	0.029071478
40	0x3bc3d208	0.0059759654
41	0xbb4ab731	-0.0030931944
42	0xbcca71bd	-0.024712438
43	0xbc378a71	-0.011202441
44	0x3c7f3092	0.015575545
45	0xbb3b09a5	-0.0028539684
46	0x3b9d0134	0.004791403
47	0xbbbcdb38	-0.0057634376
48	0xbc5272c3	-0.012844744
49	0xbb42423c	-0.002964153
50	0x3d094d57	0.033521023
51	0x3bfbf35b	0.0076889223
52	0x3c84235f	0.016130148
53	0xbc3d2c87	-0.011546261
54	0x3b23c647	0.0024990009
55	0xbb004f4c	-0.0019578515
56	0xbb01a08f	-0.0019779538
57	0xba07cb3c	-0.00051801256
58	0x3d058002	0.03259278
59	0xbb909f83	-0.0044135465
60	0x3c744615	0.014909287
61	0xbc109efc	-0.008826967
62	0x3b17e151	0.002317507
63	0xbbb0009f	-0.005371168
64	0xbc595e42	-0.013267102
65	0x3a72dad3	0.0009264175
66	0x3bc8cc03	0.0061278357
67	0xbbc2a61f	-0.0059402133
68	0xbc674312	-0.014115112
69	0x3c966c6c	0.018362246
70	0xbbaae208	-0.0052149333
71	0xbc86e76f	-0.016467778
72	0x3b72e5a2	0.0037063141
73	0x3c944338	0.018098459
74	0x39133a36	0.00014040698
75	0x3c25fbbf	0.010130822
76	0x3aaf5e4c	0.0013379543
77	0xbbb99030	-0.0056629404
78	0x3c5d1450	0.013493612
79	0x3c7b3e8f	0.015334739
80	0xbc37cf0f	-0.0112188
81	0x3b684ad0	0.0035444982
82	0xbc820b98	-0.015874669
83	0x3b9dc04d	0.004814184
84	0x3ae20238	0.0017243093
85	0x3ac81425	0.0015264793
86	0xbbe01692	-0.006838628
87	0x3996c618	0.0002875782
88	0xbb20e103	-0.002454818
89	0xbc5cfb47	-0.013487644
90	0xbd05afeb	-0.03263847
91	0xbc33b5c2	-0.010968627
92	0x3a0bf294	0.0005338576
93	0xbce1660a	-0.027514476
94	0x3bd77967	0.0065757516
95	0xbb486ab1	-0.003058117
96	0x3b44ecce	0.0030048373
97	0xbbadb9af	-0.005301676
98	0xbc5a58d2	-0.0133268405
99	0xbc06b671	-0.008222208
100	0x3cd95092	0.026527677
101	0x3cfadca2	0.030622784
102	0xbbc97ccf	-0.0061489115
103	0xbc20e523	-0.009820255
104	0x3cba3fda	0.022735525
105	0x3b910bc0	0.0044264495
106	0xbacf21cb	-0.0015802918
107	0xbc4ddf12	-0.012565391
108	0xbca9df90	-0.020736486
109	0xbc09458f	-0.0083784005
110	0xbba14565	-0.0049216026
111	0x3a40a385	0.0007348585
112	0xbc527352	-0.012844877
113	0xbb29c987	-0.0025907473
114	0x3b3bfcd4	0.0028684633
115	0xbcc43977	-0.023953183
116	0x3cbd2444	0.023088582
117	0xbc20ab97	-0.009806535
118	0xb903c64f	-0.00012567009
119	0xbc66a100	-0.014076471
120	0x3bef89d8	0.0073101334
121	0xbc140f3e	-0.009036837
122	0xbc3161fd	-0.010826585
123	0xbbc00d65	-0.0058609718
124	0xbcc205bf	-0.02368438
125	0x3b8b1916	0.004244934
126	0xbbe50428	-0.006989021
127	0x3a03bccb	0.0005025386
128	0xbcd9fc60	-0.0266096
129	0xbca0322e	-0.019555178
130	0x3abff8b0	0.0014646258
131	0xbbf39cd5	-0.0074344673
132	0x3b8c3cdf	0.0042797173
133	0xbc1baddd	-0.009501901
134	0xbc07d5f2	-0.008290755
135	0x3835f699	4.3383425e-05
136	0xbb0c10dc	-0.0021372354
137	0xb9d5c01a	-0.00040769653
138	0xbb1f5998	-0.0024314877
139	0xbbf67afa	-0.007521984
140	0xbb914258	-0.0044329576
141	0xbb4d993d	-0.0031371855
142	0xbc4a5678	-0.012349717
143	0x3c308e00	0.010776043
144	0xbca6ee49	-0.020377295
145	0xbc2aa072	-0.01041423
146	0xbc9cbd1f	-0.019133149
147	0xbc55dbc3	-0.013052884
148	0xbb7d548d	-0.0038655133
149	0x3bd66f6f	0.0065440456
150	0x3c1a0259	0.009399974
151	0xbb4c320a	-0.0031157755
152	0x3ab23ea4	0.0013598991
153	0xbd1c8eba	-0.038222052
154	0xbc88a908	-0.016682163
155	0xbbac5888	-0.005259577
156	0x3b7229a5	0.0036951092
157	0x3a9658f7	0.0011470605
158	0xbbaad35b	-0.005213184
159	0x3c48ebc0	0.012263238
160	0x3c35ebd1	0.011103586
161	0x3bb49d2e	0.0055119013
162	0xbb4aa326	-0.0030919998
163	0x3c1bfdc1	0.009520949
164	0x3c40e577	0.011773459
165	0xbb878c25	-0.0041365796
166	0x3c852a9a	0.016255666
167	0xbbb1a1f3	-0.005420917
168	0x3b9f4fcf	0.004861809
169	0x3b713efb	0.003681122
170	0x3bc509ea	0.0060131447
171	0x3c4dd088	0.012561925
172	0x3abb9c35	0.0014313521
173	0x3a553448	0.00081330957
174	0x3af9a59a	0.0019046545
175	0x3badd268	0.0053046234
176	0xbc5b5657	-0.013387284
177	0xbb2ecd34	-0.0026672604
178	0xbc24942a	-0.010045091
179	0x3b804564	0.003914522
180	0xbcf50348	-0.029908791
181	0xbc6bc6b5	-0.014390637
182	0x3bd9b178	0.0066434704
183	0x3cafd4de	0.021463808
184	0xbca82617	-0.020525975
185	0xbca31f71	-0.019912453
186	0xbc8ab450	-0.016931683
187	0x3b2f25a7	0.0026725323
188	0x3b981548	0.004641209
189	0x3c300a31	0.010744617
190	0x3b88be82	0.004173101
191	0x3b0c0123	0.0021362982
192	0xbbe095ff	-0.0068538184
193	0xba8289b3	-0.000995925
194	0xbbf055e5	-0.007334458
195	0x3b984b37	0.004647638
196	0x3c2d1577	0.0105642
197	0x3ba4b9c1	0.0050270264
198	0x3c4861d3	0.012230354
199	0xbb3a987d	-0.0028472238
200	0x3c1d8078	0.009613149
201	0xbbdf4823	-0.0068140193
202	0xbb85c733	-0.0040825843
203	0x3b7a8fcb	0.003823268
204	0xb9b09423	-0.00033679706
205	0xbc1eec60	-0.009699911
206	0xbbef982a	-0.0073118405
207	0xbb51b678	-0.003199963
208	0x3d0b98ba	0.0340812
209	0x3a67101d	0.0008814352
210	0x3c80d5b7	0.015726907
211	0x3c068300	0.008209944
212	0x3c9d1092	0.01917294
213	0x3bdaa2a0	0.0066722184
214	0xbba0ace7	-0.004903424
215	0x3a86b1c1	0.0010276363
216	0x3bc79da6	0.006091791
217	0x3bd597ea	0.0065183537
218	0xb9347c7d	-0.00017212513
219	0x3b8c3e95	0.0042799213
220	0x3d080bb7	0.033214297
221	0x3c7afc22	0.015318902
222	0x3b526728	0.0032104943
223	0x3c2f99af	0.010717793
224	0xbb781e23	-0.003785976
225	0x3bc804b5	0.0061040767
226	0xbbf7b527	-0.007559437
227	0xbad1df65	-0.0016012011
228	0x3bc73e81	0.006080449
229	0xbc81cf8e	-0.01584604
230	0x3c190d93	0.009341615
231	0xbcf32e72	-0.029685233
232	0x3c0dc979	0.008653992
233	0x3ccc405b	0.02493303
234	0xba1b84cb	-0.00059325685
235	0xbc410089	-0.011779913
236	0x3b484732	0.0030560014
237	0x3c1cb610	0.009564891
238	0x3ca24dd8	0.01981251
239	0xbc084ce6	-0.008319115
240	0x3c0e8cd3	0.008700567
241	0x38d15358	9.9814206e-05
242	0xbca12e47	-0.019675387
243	0x3a36f0d3	0.00069786346
244	0x3bbbcab9	0.0057309535
245	0x3c9a12fd	0.018807882
246	0xbb9079ab	-0.004409035
247	0x3c7157cd	0.014730406
248	0xbc39ead1	-0.0113474885
249	0x3c022017	0.007942221
250	0xbb67f8d0	-0.0035396107
251	0x3c7d9e07	0.015479571
252	0x3b89b980	0.0042030215
253	0xbc29dc1a	-0.010367418
254	0xb99148bb	-0.00027710744
255	0x3bc8f60a	0.0061328458

action_model._continuous_distribution.mu.bias f4 [5]
0	0x00000000	0.0
1	0x00000000	0.0
2	0x00000000	0.0
3	0x00000000	0.0
4	0x00000000	0.0

network_body.linear_encoder.seq_layers.0.weight f4 [256, 10]
0	0xbf178aee	-0.59196365
1	0xbdb61985	-0.08891586
2	0x3ee1fd23	0.4413844
3	0x3cbd523a	0.023110498
4	0xbe9dad2c	-0.30796182
5	0x3e9d9643	0.30778703
6	0xbe382a4c	-0.17984885
7	0xbf01255b	-0.50447625
8	0xbe9c2629	-0.30497864
9	0xbe629473	-0.22126941
10	0x3d901460	0.07035136
11	0xbe1a7ba9	-0.15086235
12	0x3e3dbb13	0.18528394
13	0x3f09fe59	0.5390373
14	0x3e9e26ed	0.30889073
15	0xbebaa149	-0.36451176
16	0x3f05185f	0.5199031
17	0xbd7d7e72	-0.061888166
18	0x3d9ce751	0.076613076
19	0xbb620b29	-0.0034491515
20	0xbea21f05	-0.3166429
21	0x3f166e9a	0.58762515
22	0x3eb8a4e7	0.3606331
23	0xbe1e7fdb	-0.1547846
24	0xbc544e1c	-0.012958076
25	0xbeadf562	-0.33976275
26	0xbe97d577	-0.29655048
27	0xbdc62b15	-0.09676186
28	0x3f04b908	0.51844835
29	0x3e4c8f6c	0.19976586
30	0x3dd14917	0.10219019
31	0xbde023f1	-0.10944355
32	0xbf4aac52	-0.7916919
33	0x3f02f44e	0.5115403
34	0xbeadaf9b	-0.3392304
35	0xbe381e92	-0.17980412
36	0x3f1beb8a	0.6090628
37	0xbe9e4a41	-0.30916026
38	0xbf033092	-0.5124599
39	0xbee50e7d	-0.44737616
40	0xbd5047d7	-0.05084976
41	0xbe7b702d	-0.2455451
42	0x3dd78598	0.10523528
43	0xbd3a4a6d	-0.045481134
44	0x3dd9c6ee	0.10633646
45	0x3e48c787	0.19607364
46	0xbd3f9390	-0.046771586
47	0x3df09a8d	0.11748228
48	0xbcdd6299	-0.027024554
49	0xbe62737f	-0.22114371
50	0x3d1453c6	0.036212705
51	0xbe64a513	-0.22328596
52	0x3e0387bb	0.12844746
53	0x3eaef116	0.3416831
54	0x3db811d8	0.089877784
55	0xbbaa8cab	-0.005204757
56	0xbe620252	-0.22071198
57	0x3eb3954d	0.35074845
58	0x3e9d0018	0.30664134
59	0xbec2a261	-0.3801451
60	0xbeb1cd2f	-0.34726855
61	0xbf6dc69d	-0.92881185
62	0x3efcacb6	0.49350518
63	0x3e77057e	0.24123189
64	0xbe4828cc	-0.19546813
65	0x3f08e436	0.5347322
66	0xba975189	-0.0011544685
67	0xbeb03bd6	-0.3442065
68	0x3e75fbcb	0.24021833
69	0x3ed1f90c	0.4101032
70	0xbd87acdd	-0.06624768
71	0x3da0e8b1	0.07856882
72	0xbea880a1	-0.32910636
73	0xbef6509a	-0.4810837
74	0x3deed45e	0.116615996
75	0x3d6931ff	0.056932446
76	0x3e3d7a61	0.18503715
77	0xbe2d29d7	-0.16910492
78	0xbef666c7	-0.48125288
79	0xbf269d4b	-0.6508376
80	0x3df9f78f	0.12205421
81	0x3f1c6494	0.6109097
82	0x3e2faa48	0.17154801
83	0xbe5850fe	-0.21124646
84	0x3c00c37a	0.007859105
85	0x3eca7c57	0.3954799
86	0xbe91931a	-0.28432542
87	0xbe09dac9	-0.13462366
88	0x3db24fbd	0.08706615
89	0x3ef02170	0.4690051
90	0x3f22538b	0.63408726
91	0x3e7f7745	0.24947841
92	0x3db7d9ed	0.08977113
93	0xbeb2469b	-0.34819493
94	0x3ec4ed22	0.38462168
95	0x3e26dbac	0.16294736
96	0xbea54980	-0.3228264
97	0xbea02aa6	-0.31282538
98	0x3ebdfebb	0.37108406
99	0x3f27d3a2	0.655573
100	0x3e35b8b1	0.17746235
101	0x3cb38d7c	0.021918051
102	0xbd9dac47	-0.07698875
103	0xbe1d5060	-0.15362692
104	0x3e7510df	0.23932217
105	0x3ecb3662	0.39689928
106	0x3eaf0ec9	0.34190968
107	0x3e4d8c91	0.20073153
108	0xbdcec28b	-0.100957
109	0xbf2b5638	-0.66928434
110	0xbe4bc8e0	-0.19900846
111	0x3eb77c84	0.35837185
112	0xbe1d02d6	-0.15333113
113	0xbe6b7506	-0.2299386
114	0x3dcc005d	0.09961007
115	0xbe3edc05	-0.18638618
116	0x3f61cc8f	0.88202757
117	0xbdb5bf00	-0.08874321
118	0x3dd37080	0.10324192
119	0x3e9b1722	0.30291086
120	0x3d12f716	0.03588017
121	0xbf116237	-0.5679049
122	0xbedfa990	-0.43684053
123	0x3dcbf7c8	0.0995937
124	0xbe61e874	-0.2206133
125	0xbd95e0c9	-0.07318265
126	0xbe9a4e53	-0.30137882
127	0x3edaa145	0.42701164
128	0xbdbf8f39	-0.093534894
129	0xbde08b6c	-0.109640926
130	0x3e392cb3	0.18083458
131	0x3e7ace2e	0.24492714
132	0x3eec949d	0.46207133
133	0xbd804378	-0.06262869
134	0x3eb309bc	0.34968364
135	0xbe2e7de0	-0.17040205
136	0xbda352e7	-0.07974797
137	0x3b24a931	0.002512526
138	0xbe26f3c6	-0.1630393
139	0x3ea73a65	0.3266174
140	0xbe49db0c	-0.19712466
141	0x3ee0b3a9	0.4388707
142	0x3e9ccb79	0.30623987
143	0xbeb4ea41	-0.35334972
144	0xbea18680	-0.31547928
145	0xbcd5e71d	-0.02611118
146	0x3c5e7aa3	0.013579044
147	0x3ed9807e	0.42480844
148	0x3ea166e2	0.31523806
149	0xbdfc9245	-0.12332586
150	0xbe46db35	-0.19419558
151	0x3e95bdeb	0.29246458
152	0x3ecc3807	0.39886495
153	0xbe692bb9	-0.22770585
154	0x3dc2a381	0.09503842
155	0x3f0761be	0.5288352
156	0x3f04b9ce	0.51846015
157	0x3d069501	0.032856945
158	0x3e119393	0.14216451
159	0x3f1e7575	0.61897975
160	0xbeaf34b5	-0.342199
161	0x3d0cf337	0.034411635
162	0xbf1e216e	-0.6176976
163	0x3e846f1c	0.2586602
164	0xbec32cea	-0.38120204
165	0xbe10f8de	-0.14157435
166	0xbddbbb58	-0.10729092
167	0x3ddfbeec	0.10925087
168	0x3d5c0245	0.053713102
169	0xbee88ec1	-0.45421413
170	0x3e8ed136	0.2789399
171	0x3f05c971	0.522605
172	0xbeaf52c9	-0.34242848
173	0x3e21183a	0.15731898
174	0x3efe7631	0.49699548
175	0x3e16d59c	0.14729923
176	0xbe91bb5d	-0.2846326
177	0xba4e86fb	-0.000787839
178	0xbd9f275a	-0.077711776
179	0x3f00cfda	0.50317156
180	0xbf102d83	-0.56319445
181	0xbd3e93bc	-0.04652761
182	0xbf318933	-0.69349974
183	0xbd39cfbc	-0.045364127
184	0xbee43939	-0.44574907
185	0xbdd067f1	-0.10176075
186	0xbee1d100	-0.44104767
187	0xbc87a3a2	-0.016557518
188	0x3e71e041	0.23620702
189	0xbdd5ba2a	-0.104358986
190	0x3e8f54ef	0.27994487
191	0x3f157085	0.58374816
192	0x3edb8afd	0.42879477
193	0xbda0d7fc	-0.07853696
194	0xbc4c3411	-0.0124635855
195	0x3e945580	0.2897148
196	0x3d7ddcfc	0.061978325
197	0xbe5026a7	-0.20327245
198	0xbdb14aed	-0.08656869
199	0xbe293b85	-0.16526611
200	0x3ef6ca96	0.48201436
201	0x3e0c2589	0.13686194
202	0xbec2a4e1	-0.38016418
203	0x3e8f2125	0.27954975
204	0xbe403149	-0.18768801
205	0xbcb28f21	-0.021796765
206	0xbed90639	-0.4238756
207	0xbb922ed0	-0.004461147
208	0x3deb84aa	0.11499913
209	0x3edb676d	0.42852345
210	0x3d6fb8dd	0.05852591
211	0x3ec9fd1d	0.39450923
212	0x3ebf6bb5	0.3738686
213	0x3e40473e	0.18777177
214	0x3e8211cf	0.25404212
215	0x3eb22b9b	0.34798893
216	0xbe8f06b5	-0.27934805
217	0xbd85bd5f	-0.0653026
218	0xbcbd9df6	-0.02314661
219	0x3d251d40	0.040311098
220	0x3eca161f	0.39470002
221	0xbed833d8	-0.42227054
222	0x3cf49852	0.029857788
223	0xbf10c7a4	-0.5655463
224	0xbbf87e87	-0.0075834426
225	0xbb7d5560	-0.0038655624
226	0x3ec35e7b	0.3815802
227	0x3e90afd9	0.2825916
228	0x3e485fde	0.1956782
229	0x3eeb6501	0.45975497
230	0x3e16115a	0.14655057
231	0xbd754e43	-0.05988909
232	0x3e38edb0	0.1805942
233	0xbe3ce4fa	-0.18446723
234	0x3f17a466	0.5923523
235	0xbe7e01b3	-0.24805336
236	0x3e4e8d6a	0.20171133
237	0x3dd9b72f	0.106306426
238	0x3eb16619	0.34648207
239	0x3dfcb93b	0.123400174
240	0xbe64a454	-0.22328311
241	0x3eaa7a17	0.33296272
242	0x3e78cc2c	0.24296635
243	0xbebefb53	-0.3730112
244	0x3df0ca4f	0.11757337
245	0xbd9c78b5	-0.076402105
246	0xbdd6a831	-0.10481299
247	0x3c84278e	0.016132142
248	0xbe800f08	-0.25011468
249	0xbea4ed9d	-0.32212535
250	0xbe14a546	-0.14516172
251	0x3e05d3a0	0.1306901
252	0xbe9d3a60	-0.307086
253	0x3d35e573	0.044408273
254	0x3ef8a3cb	0.48562464
255	0xbe55706c	-0.20843667

network_body.linear_encoder.seq_layers.0.bias f4 [256]
0	0x00000000	0.0
1	0x00000000	0.0
2	0x00000000	0.0
3	0x00000000	0.0
4	0x00000000	0.0
5	0x00000000	0.0
6	0x00000000	0.0
7	0x00000000	0.0
8	0x00000000	0.0
9	0x00000000	0.0
10	0x00000000	0.0
11	0x00000000	0.0
12	0x00000000	0.0
13	0x00000000	0.0
14	0x00000000	0.0
15	0x00000000	0.0
16	0x00000000	0.0
17	0x00000000	0.0
18	0x00000000	0.0
19	0x00000000	0.0
20	0x00000000	0.0
21	0x00000000	0.0
22	0x00000000	0.0
23	0x00000000	0.0
24	0x00000000	0.0
25	0x00000000	0.0
26	0x00000000	0.0
27	0x00000000	0.0
28	0x00000000	0.0
29	0x00000000	0.0
30	0x00000000	0.0
31	0x00000000	0.0
32	0x00000000	0.0
33	0x00000000	0.0
34	0x00000000	0.0
35	0x00000000	0.0
36	0x00000000	0.0
37	0x00000000	0.0
38	0x00000000	0.0
39	0x00000000	0.0
40	0x00000000	0.0
41	0x00000000	0.0
42	0x00000000	0.0
43	0x00000000	0.0
44	0x00000000	0.0
45	0x00000000	0.0
46	0x00000000	0.0
47	0x00000000	0.0
48	0x00000000	0.0
49	0x00000000	0.0
50	0x00000000	0.0
51	0x00000000	0.0
52	0x00000000	0.0
53	0x00000000	0.0
54	0x00000000	0.0
55	0x00000000	0.0
56	0x00000000	0.0
57	0x00000000	0.0
58	0x00000000	0.0
59	0x00000000	0.0
60	0x00000000	0.0
61	0x00000000	0.0
62	0x00000000	0.0
63	0x00000000	0.0
64	0x00000000	0.0
65	0x00000000	0.0
66	0x00000000	0.0
67	0x00000000	0.0
68	0x00000000	0.0
69	0x00000000	0.0
70	0x00000000	0.0
71	0x00000000	0.0
72	0x00000000	0.0
73	0x00000000	0.0
74	0x00000000	0.0
75	0x00000000	0.0
76	0x00000000	0.0
77	0x00000000	0.0
78	0x00000000	0.0
79	0x00000000	0.0
80	0x00000000	0.0
81	0x00000000	0.0
82	0x00000000	0.0
83	0x00000000	0.0
84	0x00000000	0.0
85	0x00000000	0.0
86	0x00000000	0.0
87	0x00000000	0.0
88	0x00000000	0.0
89	0x00000000	0.0
90	0x00000000	0.0
91	0x00000000	0.0
92	0x00000000	0.0
93	0x00000000	0.0
94	0x00000000	0.0
95	0x00000000	0.0
96	0x00000000	0.0
97	0x00000000	0.0
98	0x00000000	0.0
99	0x00000000	0.0
100	0x00000000	0.0
101	0x00000000	0.0
102	0x00000000	0.0
103	0x00000000	0.0
104	0x00000000	0.0
105	0x00000000	0.0
106	0x00000000	0.0
107	0x00000000	0.0
108	0x00000000	0.0
109	0x00000000	0.0
110	0x00000000	0.0
111	0x00000000	0.0
112	0x00000000	0.0
113	0x00000000	0.0
114	0x00000000	0.0
115	0x00000000	0.0
116	0x00000000	0.0
117	0x00000000	0.0
118	0x00000000	0.0
119	0x00000000	0.0
120	0x00000000	0.0
121	0x00000000	0.0
122	0x00000000	0.0
123	0x00000000	0.0
124	0x00000000	0.0
125	0x00000000	0.0
126	0x00000000	0.0
127	0x00000000	0.0
128	0x00000000	0.0
129	0x00000000	0.0
130	0x00000000	0.0
131	0x00000000	0.0
132	0x00000000	0.0
133	0x00000000	0.0
134	0x00000000	0.0
135	0x00000000	0.0
136	0x00000000	0.0
137	0x00000000	0.0
138	0x00000000	0.0
139	0x00000000	0.0
140	0x00000000	0.0
141	0x00000000	0.0
142	0x00000000	0.0
143	0x00000000	0.0
144	0x00000000	0.0
145	0x00000000	0.0
146	0x00000000	0.0
147	0x00000000	0.0
148	0x00000000	0.0
149	0x00000000	0.0
150	0x00000000	0.0
151	0x00000000	0.0
152	0x00000000	0.0
153	0x00000000	0.0
154	0x00000000	0.0
155	0x00000000	0.0
156	0x00000000	0.0
157	0x00000000	0.0
158	0x00000000	0.0
159	0x00000000	0.0
160	0x00000000	0.0
161	0x00000000	0.0
162	0x00000000	0.0
163	0x00000000	0.0
164	0x00000000	0.0
165	0x00000000	0.0
166	0x00000000	0.0
167	0x00000000	0.0
168	0x00000000	0.0
169	0x00000000	0.0
170	0x00000000	0.0
171	0x00000000	0.0
172	0x00000000	0.0
173	0x00000000	0.0
174	0x00000000	0.0
175	0x00000000	0.0
176	0x00000000	0.0
177	0x00000000	0.0
178	0x00000000	0.0
179	0x00000000	0.0
180	0x00000000	0.0
181	0x00000000	0.0
182	0x00000000	0.0
183	0x00000000	0.0
184	0x00000000	0.0
185	0x00000000	0.0
186	0x00000000	0.0
187	0x00000000	0.0
188	0x00000000	0.0
189	0x00000000	0.0
190	0x00000000	0.0
191	0x00000000	0.0
192	0x00000000	0.0
193	0x00000000	0.0
194	0x00000000	0.0
195	0x00000000	0.0
196	0x00000000	0.0
197	0x00000000	0.0
198	0x00000000	0.0
199	0x00000000	0.0
200	0x00000000	0.0
201	0x00000000	0.0
202	0x00000000	0.0
203	0x00000000	0.0
204	0x00000000	0.0
205	0x00000000	0.0
206	0x00000000	0.0
207	0x00000000	0.0
208	0x00000000	0.0
209	0x00000000	0.0
210	0x00000000	0.0
211	0x00000000	0.0
212	0x00000000	0.0
213	0x00000000	0.0
214	0x00000000	0.0
215	0x00000000	0.0
216	0x00000000	0.0
217	0x00000000	0.0
218	0x00000000	0.0
219	0x00000000	0.0
220	0x00000000	0.0
221	0x00000000	0.0
222	0x00000000	0.0
223	0x00000000	0.0
224	0x00000000	0.0
225	0x00000000	0.0
226	0x00000000	0.0
227	0x00000000	0.0
228	0x00000000	0.0
229	0x00000000	0.0
230	0x00000000	0.0
231	0x00000000	0.0
232	0x00000000	0.0
233	0x00000000	0.0
234	0x00000000	0.0
235	0x00000000	0.0
236	0x00000000	0.0
237	0x00000000	0.0
238	0x00000000	0.0
239	0x00000000	0.0
240	0x00000000	0.0
241	0x00000000	0.0
242	0x00000000	0.0
243	0x00000000	0.0
244	0x00000000	0.0
245	0x00000000	0.0
246	0x00000000	0.0
247	0x00000000	0.0
248	0x00000000	0.0
249	0x00000000	0.0
250	0x00000000	0.0
251	0x00000000	0.0
252	0x00000000	0.0
253	0x00000000	0.0
254	0x00000000	0.0
255	0x00000000	0.0

network_body.linear_encoder.seq_layers.2.weight f4 [256, 256]
0	0xbc69ff0a	-0.014281997
1	0x3db9af9d	0.09066699
2	0x3d462804	0.048378006
3	0xbd226cd2	-0.03965456
4	0x3c65c6eb	0.0140244765
5	0x3ca48e74	0.020087458
6	0xbd64f17c	-0.05589436
7	0xbd98c003	-0.07458498
8	0x3da13015	0.07870499
9	0x3dae83ae	0.0852121
10	0x3d72a346	0.05923774
11	0xbd4b0d13	-0.049573015
12	0xbacecb03	-0.0015777055
13	0xbda49569	-0.0803631
14	0xbd981572	-0.07425965
15	0x3d9a7f9d	0.075438716
16	0x3d9c347d	0.07627199
17	0xbd85f876	-0.06541531
18	0x3d0f28ff	0.034951206
19	0xbe1b43f7	-0.15162645
20	0x3db319cc	0.08745155
21	0x3b7ce99a	0.0038591386
22	0x3dc1b989	0.09459216
23	0xbd456129	-0.048188362
24	0x3d181472	0.037128873
25	0x3bae6889	0.00532252
26	0x3c191457	0.009343228
27	0xbdc8fe55	-0.09814135
28	0xbd2545d5	-0.0403498
29	0xbd6cf93c	-0.057854876
30	0xbd3b87d4	-0.045783833
31	0xbbb93679	-0.0056522456
32	0xbd1f2c1f	-0.038860437
33	0xbd8687ed	-0.065688945
34	0xbcc8a05b	-0.024490526
35	0xbcc21ee5	-0.023696372
36	0xbd1bbd4d	-0.03802233
37	0x3d4acf63	0.049514186
38	0xbdcd709f	-0.100312464
39	0x3c055217	0.0081372475
40	0x3d7a84bd	0.061161745
41	0x3d991be0	0.0747602
42	0xbccbde37	-0.024886234
43	0x3c0ac2f1	0.008469329
44	0x3aa08ae5	0.0012248425
45	0x3ca2ae6c	0.019858561
46	0xbd4376d1	-0.047720734
47	0xbd1b61c7	-0.037935045
48	0x3d1ce9df	0.038308974
49	0x3d261e36	0.040556155
50	0xbc9a7fb9	-0.018859731
51	0x3da08ca1	0.07839323
52	0xbd84f28d	-0.064915754
53	0xbc7cac7c	-0.015421983
54	0xbd4917e3	-0.049095046
55	0xbcae7f38	-0.021300897
56	0x3d8446ed	0.064588405
57	0x3dd34934	0.10316697
58	0x3c7c9817	0.01541712
59	0x3c645435	0.013936092
60	0x3e085f40	0.13317585
61	0xbc091678	-0.008367173
62	0x3d83e107	0.06439405
63	0xbdcaa736	-0.09895174
64	0x3c9e1174	0.019295432
65	0x3d312534	0.04324837
66	0xbdbfb797	-0.09361189
67	0xbd0378b6	-0.03209754
68	0xbd654d73	-0.055982064
69	0x3c7038a4	0.014661942
70	0xbcf34010	-0.029693633
71	0x3bf122fc	0.007358907
72	0xbcdfee54	-0.027335323
73	0xbd75de99	-0.06002674
74	0xbd3b6ca7	-0.045757916
75	0xbda3b12a	-0.07992776
76	0x3d987d78	0.07445806
77	0x3c86bb55	0.016446749
78	0xbc1a4bcd	-0.009417486
79	0x3d597a6e	0.053095274
80	0x3e08f462	0.13374475
81	0x3d1859fa	0.037195183
82	0xbc35c714	-0.011094827
83	0xbad3d32d	-0.0016160958
84	0x3d70de28	0.058805615
85	0x3d1d5ae3	0.038416754
86	0xbc69968e	-0.014257086
87	0x3d93f7c6	0.072249934
88	0x3c7e9449	0.015538284
89	0x3d16ea6f	0.036844667
90	0x3cb118b1	0.02161822
91	0x3d6938df	0.056939002
92	0xbdb51a3f	-0.08842897
93	0xbd89dfb2	-0.067321196
94	0x3d5be167	0.053681757
95	0xbd1b9f65	-0.037993807
96	0xbda54dc9	-0.08071477
97	0xbdb69aea	-0.08916266
98	0x3cce6ba7	0.025197817
99	0x3d060559	0.032719944
100	0xbce6da53	-0.028180277
101	0x3d9c15d7	0.07621353
102	0x3c6ff685	0.014646177
103	0xbd82b492	-0.06382097
104	0xbde75d94	-0.112971455
105	0xbc3aeaa0	-0.011408478
106	0x3ca54fe0	0.020179689
107	0x3bedbc24	0.007255094
108	0x3d502b63	0.050822627
109	0x3da4701a	0.08029194
110	0xbccf81a3	-0.02533037
111	0x3d97e384	0.07416442
112	0xbdad0961	-0.084490545
113	0x3d30df39	0.04318163
114	0xbc957014	-0.01824192
115	0xbc63b400	-0.013897896
116	0xbd20d755	-0.039267857
117	0x3daea998	0.08528441
118	0x3d7f54dd	0.06233679
119	0xbd2c900b	-0.042129558
120	0xbd6742c8	-0.056460172
121	0xbdacc9d1	-0.08436931
122	0x3ddf1cd7	0.10894173
123	0xbd05d55b	-0.032674175
124	0x3d04fedc	0.032469615
125	0xbbb15c06	-0.0054125814
126	0xbd14e5dc	-0.036352023
127	0x3d5cc24f	0.053896245
128	0xbc9e46f2	-0.019320939
129	0x3bc834b9	0.0061098007
130	0xbd4b7a73	-0.049677324
131	0x3dd2a9d5	0.10286299
132	0xbce0512a	-0.027382452
133	0x3d450538	0.04810068
134	0xbc675afe	-0.014120815
135	0xbd0d9398	-0.034564584
136	0x3cb806d8	0.0224642
137	0xbb0f33a6	-0.0021850853
138	0x3e07f98b	0.13278787
139	0x3cc2335c	0.02370613
140	0xbd98ce53	-0.07461228
141	0x3d92fdbc	0.07177302
142	0xbd9c5755	-0.07633845
143	0xbda28dc4	-0.07937196
144	0xbdceb8cb	-0.1009384
145	0x3c2f52ae	0.010700865
146	0x3e072cf6	0.13200745
147	0xb8b8c205	-8.809943e-05
148	0x3d242965	0.04007854
149	0x3d4c5c10	0.049892485
150	0xbc3ffece	-0.011718465
151	0x3d2b13d8	0.04176697
152	0x3d10a884	0.03531696
153	0xbe02fb5c	-0.12791198
154	0x3d4828bf	0.048866984
155	0x3de89fb6	0.113585874
156	0x3c39d839	0.011343055
157	0xbce3a7f0	-0.02779004
158	0x3dc6ff23	0.09716632
159	0xbdb8845b	-0.0900962
160	0x3d646192	0.055757113
161	0x3c2c28b3	0.01050775
162	0xbd4fe3d9	-0.0507544
163	0xbcf19fb4	-0.029495098
164	0x3cbfe6f7	0.023425562
165	0x3cfe0baf	0.03101143
166	0xbdc02a8e	-0.09383117
167	0xbdb675ed	-0.08909211
168	0x3d04b2ee	0.032397203
169	0x3d14bd73	0.036313485
170	0x3c04683f	0.008081495
171	0xbcd74e03	-0.026282316
172	0xbcc84c07	-0.024450315
173	0xbd2ac580	-0.041692257
174	0x3d005d13	0.031338762
175	0x3c70d9c4	0.014700357
176	0xbd31640b	-0.0433083
177	0xbca179e7	-0.019711448
178	0x3d8fc502	0.07019998
179	0x3d8d0a0b	0.06886681
180	0x3cf0ce11	0.029395135
181	0x3ba7fcdb	0.0051265783
182	0xbd62dab5	-0.055384357
183	0x3be7b16e	0.007070712
184	0xbdaf003c	-0.085449666
185	0xbc9f3a9e	-0.01943713
186	0x3e092f1f	0.13396882
187	0xbd27d43b	-0.040973883
188	0xbd007560	-0.031361938
189	0x3b1d5296	0.0024005524
190	0x3cacfc9b	0.021116545
191	0x3c72c5b8	0.014817648
192	0xbc3bc2f4	-0.011460055
193	0xbd5ae86a	-0.053444304
194	0x3c9f0c8f	0.019415168
195	0x3b455e75	0.0030116115
196	0x3cbf3521	0.023340764
197	0x3cae6fe2	0.021293584
198	0x3bbe9bd8	0.005816918
199	0x3dfe970e	0.12431155
200	0xbd70aca4	-0.058758393
201	0xbcbebb3f	-0.023282645
202	0x3d6e4c28	0.058178097
203	0x3d057bd3	0.03258879
204	0xbd89c466	-0.06726913
205	0xbc528f41	-0.012851537
206	0xbd85b274	-0.06528178
207	0x3c838c96	0.016058248
208	0x3cdefb63	0.02721948
209	0xbc9975c7	-0.018732918
210	0xbdfca125	-0.123354234
211	0x3c150610	0.009095684
212	0x3d161625	0.036642212
213	0x3dcdf1cd	0.100558855
214	0x3d1bffe9	0.03808585
215	0xbd901998	-0.070361316
216	0xbd6b8624	-0.057500973
217	0xbc4e66d1	-0.0125977555
218	0x3dc4f249	0.09616525
219	0xbd4b9564	-0.049703017
220	0xbdd849fd	-0.10560987
221	0x3d610615	0.05493744
222	0x3d8fe0f9	0.07025332
223	0xbde89125	-0.11355809
224	0xbd3388e8	-0.043831736
225	0xbdb5cb5e	-0.0887668
226	0xbd76300a	-0.060104407
227	0xbcf04680	-0.029330492
228	0xbd6ab011	-0.057296816
229	0xbd4c2fe8	-0.049850374
230	0x3e00a5ef	0.12563299
231	0xbd220407	-0.039554622
232	0x3da8f771	0.08250321
233	0xbd93e636	-0.072216436
234	0x3c482455	0.0122156935
235	0x3cbd5bd2	0.023115072
236	0xbb13519d	-0.0022479065
237	0x3d49aaae	0.04923504
238	0xbcae1f74	-0.021255232
239	0xbd23e342	-0.04001165
240	0xbd1db35c	-0.03850113
241	0x3ce2e939	0.0276991
242	0xbd235502	-0.03987599
243	0xb9b4d25d	-0.00034489008
244	0xbd5f7c5d	-0.05456196
245	0xbe184860	-0.14871359
246	0x3ca38578	0.019961104
247	0x3d18006b	0.037109774
248	0xbd190859	-0.037361477
249	0xbd9100a5	-0.07080201
250	0xbd154437	-0.036442008
251	0x3d3a8c15	0.04554375
252	0xbd3897fb	-0.045066815
253	0x3dab67bb	0.083693944
254	0x3c261f41	0.010139287
255	0x3d772ba5	0.060344357
