MLConfig/results/hb01/Lion/Lion-432704.onnx (onnx, 281871 bytes, 7 tensors)

network_body.linear_encoder.seq_layers.0.weight f4 [256, 10]
0	0x3dbb6446	0.09149985
1	0xbb26dd6c	-0.0025461568
2	0xbeeca879	-0.46222284
3	0x3d2edafe	0.042689316
4	0x3db0acb0	0.086266875
5	0x3eae64d4	0.340613
6	0x3ea5876f	0.3232989
7	0x3e0358dc	0.12826866
8	0xbd23e7d8	-0.040016025
9	0xbe0cf640	-0.13765812
10	0xbe8e4619	-0.27787855
11	0x3e9ad770	0.3024249
12	0xbed9debe	-0.4255275
13	0x3c934c85	0.017980823
14	0xbec2e591	-0.3806577
15	0x3e53bc77	0.20677362
16	0x3ec9ab9c	0.3938874
17	0xbef4bcdf	-0.47800347
18	0x3e9caef9	0.30602244
19	0xbee1c27c	-0.44093692
20	0x3dfe621e	0.12421058
21	0xbe5b186c	-0.21396035
22	0xbe8f71c0	-0.28016472
23	0x3e9e405e	0.30908483
24	0x3ee50446	0.44729823
25	0xbd2eb90a	-0.042656936
26	0x3eb38f7f	0.35070416
27	0xbb664434	-0.0035135867
28	0xbec39345	-0.38198295
29	0xbe6b7d6a	-0.2299706
30	0x3eb8b2bc	0.36073864
31	0xbd604ccb	-0.054760735
32	0xbeb16c9c	-0.34653175
33	0xbecc6c7e	-0.39926523
34	0xbe4ea627	-0.2018057
35	0x3eee4613	0.46537837
36	0x3ea60046	0.32422084
37	0xbe498553	-0.19679765
38	0xbe94872d	-0.2900938
39	0xbe0f82db	-0.14014761
40	0x3d0d6628	0.034521252
41	0xbe65d462	-0.22444299
42	0x3d2a94f2	0.04164595
43	0xbe57437f	-0.21021841
44	0xbe57b22c	-0.21064061
45	0x3e053a86	0.13010606
46	0x3ec86bec	0.39144838
47	0xbec4b0a6	-0.38416022
48	0x3f7adde5	0.97994834
49	0xbdb705e3	-0.0893667
50	0x3d1b4e4c	0.037916467
51	0x3e2839ed	0.16428347
52	0xbe5a05a5	-0.21291216
53	0x3d88715d	0.06662247
54	0xbe7f9e10	-0.2496264
55	0xbf1fd4f3	-0.6243431
56	0x3d9ea928	0.07747108
57	0xbc7b6286	-0.015343314
58	0x3e3159df	0.1731944
59	0x3e55e6f8	0.20888889
60	0xbe63fe95	-0.22265084
61	0x3d0b27ee	0.033973627
62	0x3ebf33fc	0.37344348
63	0xbd829d31	-0.06377638
64	0x3eae2729	0.34014252
65	0xbed522ed	-0.4162821
66	0x3ef338fc	0.47504413
67	0xbe81d4f9	-0.25357798
68	0xbf00af51	-0.5026751
69	0xbf8b738b	-1.0894636
70	0x3da8822d	0.08227954
71	0xbf4759b0	-0.7787123
72	0x3da059c1	0.07829619
73	0x3eeadbf5	0.4587094
74	0xbf0a4a0a	-0.54019225
75	0x3e1a0a50	0.15042996
76	0x3e5b40c9	0.21411432
77	0xbe9794fa	-0.29605848
78	0xbe2d8b03	-0.1694756
79	0x3eb14db2	0.3462959
80	0x3f5438ea	0.82899344
81	0xbd619e92	-0.055082865
82	0x3e3e4886	0.18582353
83	0x3eb356da	0.350272
84	0x3e534e7e	0.20635411
85	0x3eb3f33d	0.35146514
86	0xbe180e0f	-0.14849113
87	0xbe3499f5	-0.17636855
88	0x3f11f842	0.57019436
89	0x3efe9496	0.49722737
90	0xbde0ff04	-0.1098614
91	0x3f850d73	1.0394729
92	0xbf17c124	-0.59279084
93	0x3e27fc3a	0.1640481
94	0x3e2b304f	0.16717647
95	0xbf850bc6	-1.0394218
96	0x3eafa454	0.3430506
97	0x3e0d6d4c	0.13811225
98	0x3e8aca4d	0.27107468
99	0xbca4c304	-0.020112522
100	0xbe1126f5	-0.14175017
101	0x3d66bd70	0.056333005
102	0xbd2641f6	-0.04059025
103	0xbe899908	-0.26874566
104	0xbda8a6fd	-0.082349755
105	0x3d953dca	0.07287176
106	0x3ee92d2b	0.45542273
107	0xbd67d1f7	-0.056596722
108	0x3eb1f8eb	0.34760222
109	0xbe39db68	-0.18150103
110	0x3d756c86	0.05991795
111	0xbe431275	-0.1905001
112	0x3e75ab90	0.23991227
113	0x3f49e964	0.7887175
114	0x3ea34b62	0.3189345
115	0xbec64ff5	-0.38732877
116	0x3d290b96	0.041270815
117	0x3f71a7aa	0.9439646
118	0x3e45011e	0.19238707
119	0x3e7d161a	0.24715462
120	0x3e9566d9	0.2918003
121	0x3e836400	0.2566223
122	0x3db7d52e	0.08976208
123	0x3f20aefc	0.62767005
124	0xbcca59a7	-0.024700953
125	0x3d288dd5	0.041150887
126	0x3e9efb78	0.3105123
127	0xbe23f5b9	-0.16011705
128	0xbf0a3442	-0.5398599
129	0x3ef8fd0c	0.4863056
130	0x3eda4573	0.4263111
131	0x3e8e15cb	0.27751002
132	0x3f258bbe	0.64666355
133	0xbec3062a	-0.3809064
134	0xbd59e435	-0.05319615
135	0xbedc0c34	-0.4297806
136	0x3f1e266d	0.61777383
137	0x3e10ae39	0.1412896
138	0x3e7cbdf0	0.2468183
139	0x3e3a141e	0.18171737
140	0xbea2ad15	-0.31772676
141	0x3e7ea7ca	0.24868694
142	0xbe509103	-0.20367818
143	0xbe9cf7ef	-0.30657908
144	0x3bf00ac7	0.0073255035
145	0xbdd80d72	-0.105494395
146	0x3e71285e	0.23550555
147	0x3dfa50e5	0.12222461
148	0xbf3d5341	-0.7395516
149	0xbddc8a89	-0.10768611
150	0xbed7f8d3	-0.42182025
151	0x3e7a0eb9	0.24419679
152	0xbe34d875	-0.17660697
153	0x3efb82a6	0.49123114
154	0x3da9ada0	0.082850695
155	0x3edc2b33	0.43001708
156	0x3e9dc5af	0.30814883
157	0xbe58ee27	-0.21184598
158	0xbeea432a	-0.45754367
159	0x3ed3ec50	0.4139123
160	0xbd35a828	-0.04434982
161	0xbdc75b18	-0.09734172
162	0xbe9e5b73	-0.30929145
163	0xbcb6c6d7	-0.022311611
164	0xbe8a2fd3	-0.26989612
165	0x3e9e027e	0.30861276
166	0x3dfc8cc4	0.123315364
167	0xbe5c8765	-0.21536024
168	0x3ccc6edd	0.024955207
169	0xbd2921b8	-0.041291922
170	0x3de27842	0.110580936
171	0xbe501bc3	-0.2032309
172	0xbf209e94	-0.6274197
173	0x3eb8924c	0.36049116
174	0x3ec76f53	0.3895212
175	0x3f011b28	0.5043206
176	0xbe838d73	-0.25693855
177	0xbe720dd4	-0.23638088
178	0x3d398fdb	0.045303207
179	0xbe4e3075	-0.20135672
180	0x3ebd1833	0.36932525
181	0x3ce921d0	0.028458506
182	0x3e9e963e	0.30974
183	0xbe85db59	-0.2614391
184	0xbef7a783	-0.4836999
185	0xbda7e070	-0.08197105
186	0x3ec210a0	0.3790331
187	0xbf11e999	-0.56997067
188	0xbe7ee3bf	-0.24891566
189	0xbdfce6bf	-0.12348699
190	0x3e7a4c06	0.24443063
191	0xbe8f576f	-0.27996394
192	0xbc6689b3	-0.014070916
193	0xbddd6e11	-0.10812009
194	0xbdbd3a63	-0.09239652
195	0x3f2123a2	0.62944996
196	0x3ef9e8cc	0.48810422
197	0x3edc779f	0.43060014
198	0x3e81f9d8	0.25385928
199	0x3d857525	0.06516484
200	0x3e070910	0.13187051
201	0xbe7bf91e	-0.2460675
202	0x3e40546e	0.18782207
203	0x3e863eb6	0.2621972
204	0x3db6d133	0.0892662
205	0x3c82101c	0.015876822
206	0x3ea8a1bc	0.32935894
207	0xbc508a0b	-0.0127282245
208	0x3f3fe02b	0.7495143
209	0xbe25a2d6	-0.16175398
210	0xbe03bc43	-0.12864785
211	0x3ea2e8a6	0.31818122
212	0xbed2b354	-0.41152442
213	0xbe327bb1	-0.17429997
214	0x3e06cb74	0.13163549
215	0x3dbf1e8f	0.093320005
216	0x3d99100a	0.07473762
217	0x3d6ffe0c	0.058591887
218	0xbee48e06	-0.44639605
219	0x3e128ffb	0.14312737
220	0xbd18c55a	-0.037297584
221	0xbe533a50	-0.20627713
222	0xbee4e016	-0.44702214
223	0xbeedc38c	-0.46438253
224	0xbef0e1f1	-0.4704738
225	0xbeb780f4	-0.3584057
226	0x3e919407	0.28433248
227	0xbe630086	-0.22168168
228	0xbe442aa8	-0.19156897
229	0x3e83112a	0.25599033
230	0xbe9482ef	-0.29006144
231	0xbd6e381f	-0.05815899
232	0x3d3eca62	0.046579726
233	0xbf103266	-0.563269
234	0x3ec9505f	0.3931913
235	0x3e0d4f7b	0.1379985
236	0xbd707bb3	-0.05871172
237	0x3d801697	0.06254309
238	0x3e3f5162	0.18683389
239	0xbdc201de	-0.094730124
240	0xbeb3a680	-0.35087967
241	0xbec6ba1b	-0.38813862
242	0xbe0a2873	-0.13491993
243	0xbe411e9e	-0.18859336
244	0x3e95fd07	0.29294607
245	0x3ec93442	0.39297682
246	0x3d7bed17	0.061505403
247	0xbc0f76c9	-0.008756348
248	0xbea89d04	-0.32932293
249	0x3b8a2f03	0.00421703
250	0xbea76c43	-0.32699785
251	0x3e8e33e9	0.2777398
252	0xbe8a4b2f	-0.27010486
253	0xbeb61642	-0.35563856
254	0xbe8e620b	-0.27809176
255	0xbdbb9305	-0.09158901

network_body.linear_encoder.seq_layers.0.bias f4 [256]
0	0x3c6fee3b	0.014644201
1	0x3c9a13c5	0.018808255
2	0xbc106059	-0.008812034
3	0x3b856d3a	0.0040718587
4	0xbc8d0c40	-0.017217755
5	0x3c2bcf85	0.010486488
6	0x3cc13e74	0.02358935
7	0x3b0da430	0.0021612756
8	0xbaabb902	-0.0013101401
9	0x3c119472	0.00888549
10	0x3ca46959	0.020069765
11	0xbad90535	-0.0016557338
12	0xba2186ae	-0.00061617314
13	0x3b85a9aa	0.0040790634
14	0x3c374658	0.011186205
15	0x3bab8e92	0.0052355016
16	0x3c137ed4	0.009002406
17	0x3b4b813a	0.0031052367
18	0x3c700b14	0.014651079
19	0x3c05ef6b	0.0081747575
20	0xbca510a9	-0.020149546
21	0x3b326625	0.0027221527
22	0x3b870d6d	0.0041214735
23	0x3cdefcc5	0.02722014
24	0x3ba0980e	0.004900939
25	0x3c6c04ad	0.014405412
26	0xbb838579	-0.004013714
27	0x3abff0af	0.0014643873
28	0x3c0baf00	0.00852561
29	0xb9d07be3	-0.00039765154
30	0x3bb7b98c	0.0056068357
31	0xba244510	-0.00062663946
32	0x3aba8d4b	0.0014232782
33	0x3c3c96fa	0.011510605
34	0x3be65b01	0.0070298915
35	0xbad2bb58	-0.0016077561
36	0x3c7c42d2	0.015396791
37	0x3bbd2cfc	0.005773185
38	0xbaf4df41	-0.0018682258
39	0xbb85964c	-0.0040767547
40	0x3add9d9a	0.0016907931
41	0x3c440a07	0.011965281
42	0x3a16e704	0.000575647
43	0x3c958b4c	0.018254898
44	0x3be702f7	0.007049914
45	0x3ba21d1d	0.004947318
46	0x3bb64d7d	0.0055634365
47	0x3abde344	0.0014487286
48	0x3b8efe1a	0.0043637874
49	0x3ca29b54	0.019849457
50	0x3883c800	6.28382e-05
51	0x3c081c9e	0.008307604
52	0xbb7ae5aa	-0.0038283863
53	0x3cb7239c	0.022355847
54	0xbbe349b3	-0.006936276
55	0xbb8d88f3	-0.004319304
56	0xbb45ea5a	-0.00301995
57	0x3ca230ef	0.019798724
58	0x3ad74736	0.0016424421
59	0x3ca3fb59	0.020017313
60	0x3c2f9ecc	0.0107190125
61	0x3c9d0891	0.019169124
62	0x3b18836a	0.0023271688
63	0x3cf48d5b	0.02985256
64	0xbba97105	-0.0051709437
65	0x391722a4	0.00014413387
66	0xbba0166a	-0.0048854845
67	0xbb59b6a7	-0.0033220442
68	0x3c92b538	0.017908677
69	0x3b038f5c	0.0020074463
70	0xbb297608	-0.0025857706
71	0x3be9d75f	0.00713627
72	0xbacd67b3	-0.0015671164
73	0xba12da1b	-0.0005601958
74	0xba46b811	-0.00075805286
75	0x3bf34711	0.0074242433
76	0x3a08c821	0.000521781
77	0x3b341d3a	0.002748324
78	0x3b9c2db5	0.004766191
79	0x3b01a5ff	0.001978278
80	0xbade6069	-0.0016965988
81	0xbae1d6b8	-0.0017230129
82	0x3ce1eaba	0.027577747
83	0xbb68119c	-0.0035410887
84	0x3a9f4a80	0.001215294
85	0xbbe45cdc	-0.0069690775
86	0xb9160414	-0.00014306634
87	0x3b0752f3	0.0020648807
88	0xb9f31536	-0.00046364375
89	0xba91a368	-0.0011111321
90	0xbb3b1d63	-0.0028551451
91	0x3ac8e9a3	0.0015328418
92	0xbae0f860	-0.0017163865
93	0x3b3e091e	0.0028997133
94	0x39c86c7a	0.00038227794
95	0x3c9ce636	0.019152742
96	0x3b20114f	0.002442438
97	0x3cafd339	0.021463023
98	0x3c3d2041	0.011543334
99	0x3b9df098	0.004819941
100	0xb9f9ac7f	-0.000476215
101	0xbc11e735	-0.008905222
102	0x3c4905a8	0.012269415
103	0x3b30825f	0.0026933176
104	0x3cb970b1	0.022636743
105	0xbadbd1c7	-0.0016770893
106	0xbc4170b0	-0.011806652
107	0x39d612f0	0.0004083137
108	0xba84eede	-0.0010141989
109	0x3baf0fd0	0.005342461
110	0xbab66f93	-0.001391875
111	0x3d32ffa1	0.043700818
112	0x3b7922c2	0.0038015102
113	0x3b1c2fa9	0.0023832119
114	0xbaea003c	-0.0017852853
115	0xbb7e63ba	-0.0038816766
116	0xbb968874	-0.004593903
117	0xba78c57f	-0.00094898784
118	0x3aa177f4	0.0012319074
119	0x3c0ea237	0.008705667
120	0xbbc7d7e9	-0.0060987365
121	0x3c778c11	0.015109078
122	0x3c76c390	0.015061274
123	0xbbc5b0b6	-0.0060330285
124	0xbb0dd9c7	-0.0021644698
125	0x3d00026e	0.031252317
126	0x3b5c3317	0.0033599788
127	0x3ba9629d	0.0051692263
128	0x3bebd3b6	0.007196869
129	0xbbadf4ca	-0.005308722
130	0xbc7f9aa6	-0.015600836
131	0x3ce4ce24	0.027930327
132	0x3b23e0fd	0.002500593
133	0xbbd20046	-0.006408724
134	0x3c817e88	0.015807405
135	0x3cdbc71b	0.02682834
136	0x3ba239c2	0.004950733
137	0x3ca0b437	0.019617183
138	0xbc4092f7	-0.011753789
139	0x3aa2a490	0.0012408663
140	0x3c163b38	0.009169392
141	0x3c89b609	0.016810434
142	0x3b2f1ef8	0.002672134
143	0x389ea85f	7.565389e-05
144	0xb8f149a3	-0.000115054914
145	0xbc0fe98f	-0.008783712
146	0x3c780e85	0.0151401805
147	0x3c972d16	0.018454116
148	0xbc4d3982	-0.012525918
149	0x3b90078e	0.004395432
150	0x3c9f69d4	0.019459642
151	0x3c3195b3	0.010838914
152	0x3ce73ced	0.028227294
153	0x3bbe11e9	0.005800475
154	0x3b5ccc40	0.0033691078
155	0xbc01c588	-0.00792063
156	0x3d0ac4dd	0.03387915
157	0x3a65954f	0.00087579055
158	0x3ce30944	0.02771438
159	0x3b322398	0.002718186
160	0xbba05bf6	-0.004893775
161	0x3b35336c	0.0027649058
162	0xba2d12f9	-0.00066022534
163	0x3c982eb3	0.018576955
164	0xba8e4092	-0.0010852984
165	0x3bcf6f44	0.0063304026
166	0x3d177e46	0.036985658
167	0xbc7d899a	-0.015474701
168	0x3b6b701c	0.0035924977
169	0xba6dcf36	-0.00090717094
170	0x3d27c858	0.040962547
171	0x3b22c029	0.0024833775
172	0xbb012a49	-0.0019709042
173	0x3c504947	0.012712783
174	0x3b4a453c	0.003086402
175	0xba5beae1	-0.00083891867
176	0x3d10537c	0.035235867
177	0xbb719108	-0.0036860127
178	0x3cc00a56	0.023442429
179	0x3bd2c759	0.0064324555
180	0x3bfadbf0	0.007655613
181	0xbc07bf2c	-0.008285325
182	0x3a24bea5	0.0006284512
183	0x3c3eea1b	0.011652495
184	0x3cb13949	0.021633761
185	0x3b4d3f20	0.0031318143
186	0x3c94921d	0.018136078
187	0x3b7f8abd	0.0038992607
188	0x3b0d17db	0.0021529112
189	0x3c51a61a	0.012795949
190	0x3b706bc9	0.0036685339
191	0xbb459468	-0.0030148271
192	0x3a87d614	0.0010363483
193	0xbbc1e97a	-0.005917725
194	0x3d184dca	0.03718356
195	0xbb24158d	-0.002503726
196	0x3b4e9b5f	0.0031525714
197	0xbb0e68e7	-0.0021730007
198	0x3cfd9ae0	0.03095764
199	0x3bc30cda	0.0059524598
200	0x3b6429fb	0.0034815061
201	0x3b17e08e	0.0023174617
202	0xba921749	-0.0011145856
203	0x3bd8a142	0.0066110203
204	0x3a9563bf	0.0011397525
205	0x3c12ab43	0.008951965
206	0x3cf76357	0.030198736
207	0x3b4acfc1	0.0030946585
208	0x3c50a31d	0.012734202
209	0x3d0c7a1f	0.03429615
210	0x3bf8c755	0.0075921216
211	0x3c47dd99	0.012198829
212	0x3cc15854	0.023601688
213	0xbb9f19b5	-0.0048553594
214	0x3b842c07	0.004033569
215	0x3c19ad05	0.00937963
216	0xbcac8fce	-0.021064665
217	0xbb85f7c9	-0.004088376
218	0x3c14e4bf	0.00908774
219	0xb9449ced	-0.00018750476
220	0x3c01426b	0.00788937
221	0x3ce1d0af	0.027565328
222	0xba856a40	-0.001017876
223	0xbb9f27ce	-0.00485704
224	0x3ca3f6e3	0.020015186
225	0xbc093eee	-0.00837682
226	0xbb410f06	-0.0029458418
227	0xbaeb8166	-0.0017967641
228	0x3c8a42fe	0.016877647
229	0x3b5e960b	0.0033963944
230	0x3a8fb518	0.0010964004
231	0xbadb40bf	-0.001672767
232	0x3bce295d	0.006291552
233	0x3c3265c7	0.010888523
234	0xbb0fbe0d	-0.0021933347
235	0xbc7d6798	-0.015466593
236	0x3a1a78fc	0.0005892662
237	0x3c7c0fc8	0.015384622
238	0xbbefa9b2	-0.0073139304
239	0x3c6f8843	0.01461989
240	0xbcf9af52	-0.030479107
241	0xbab00870	-0.0013430249
242	0x3bca7198	0.006178092
243	0x3c30e118	0.010795854
244	0xbb525c3d	-0.0032098435
245	0x39b46bf0	0.00034412695
246	0x3c169a9a	0.009192133
247	0x3c9d98b4	0.019237854
248	0xbaff7ba1	-0.00194918
249	0x3c8a3790	0.016872197
250	0x3ca7a13e	0.020462628
251	0xbb77aaf3	-0.0037791103
252	0xbb26d337	-0.0025455484
253	0x3a88e252	0.0010443425
254	0x3cffea29	0.031239586
255	0x3a2de6ad	0.00066337996

network_body.linear_encoder.seq_layers.2.weight f4 [256, 256]
0	0x3d6404ca	0.05566863
1	0xbd34fa32	-0.044183917
2	0x3c73feea	0.014892319
3	0x3c569363	0.013096663
4	0xbd0032b5	-0.031298358
5	0xbd66cfe1	-0.056350593
6	0x3ded9e61	0.11602474
7	0xbd79321f	-0.060838815
8	0x3d126a58	0.03574595
9	0xbe18bb76	-0.1491526
10	0x3caf5d32	0.021406744
11	0xbc6a6ebc	-0.014308628
12	0x3dec611e	0.11541961
13	0xbcd99365	-0.026559541
14	0xbd58afa3	-0.052901875
15	0x3d40b718	0.04704961
16	0x3b607282	0.003424794
17	0x3cddbed0	0.027068526
18	0xbd374d26	-0.04475131
19	0xbc3e6d75	-0.011622776
20	0xbd515c42	-0.051113375
21	0xbd6d6041	-0.057953123
22	0x3dc32451	0.09528411
23	0xbd9c7953	-0.07640328
24	0x3cd377b3	0.025813913
25	0x3dfb033a	0.12256475
26	0xbae79f8a	-0.0017671448
27	0x3d26b7c1	0.040702585
28	0xbd930e2e	-0.07180439
29	0xbdee19ed	-0.11626039
30	0xbd6473c3	-0.05577446
31	0x3c764dac	0.015033167
32	0xbd0ddb74	-0.034633115
33	0xbd3281b5	-0.04358073
34	0xbe3ad362	-0.18244699
35	0xbd9ec55b	-0.07752486
36	0x3d104252	0.035219498
37	0xbc85473f	-0.016269324
38	0xbd5d2a61	-0.053995494
39	0xbcb749d0	-0.022374064
40	0xbc265db3	-0.010154176
41	0xbd428428	-0.047489315
42	0x3aa0d05b	0.0012269126
43	0x3c427469	0.011868575
44	0xbd9048c3	-0.07045128
45	0xbdcd097a	-0.10011573
46	0x3dcdf7f4	0.10057059
47	0x3e0b259b	0.13588564
48	0x3c817584	0.015803106
49	0x3d7999fe	0.060937874
50	0x3af525dc	0.00187033
51	0x3d3e5a86	0.04647305
52	0xbd6a3bc9	-0.05718592
53	0x3e0ba055	0.1363538
54	0xbd58faca	-0.052973546
55	0xbd28749c	-0.041126832
56	0xba3835a3	-0.00070270355
57	0xbcfa5c2b	-0.030561527
58	0x3dab52b3	0.08365383
59	0x3b16591c	0.0022941297
60	0x3cb6d742	0.02231944
61	0x3da73466	0.08164291
62	0xbce77d8e	-0.028258111
63	0xbd44b32c	-0.048022434
64	0x3c53e5db	0.01293322
65	0x3c7aaaa5	0.015299474
66	0xbd311a5c	-0.04323803
67	0xbd0bd95e	-0.034142844
68	0xbd3072f6	-0.043078385
69	0xbd894cf8	-0.06704134
70	0x3d9fcb74	0.078024775
71	0xbc57c284	-0.013168935
72	0xbbd982da	-0.006637913
73	0x3cb8190f	0.022472886
74	0x3d8d366f	0.06895148
75	0xbd10cd7b	-0.03535221
76	0xbd5fee95	-0.05467089
77	0xbd25da64	-0.040491477
78	0xbc1e3b9b	-0.009657766
79	0xbd40ff53	-0.047118496
80	0x3d8ac564	0.067759305
81	0x3be4618f	0.0069696377
82	0xbd8ee415	-0.06977097
83	0xbb76da7b	-0.0037666846
84	0xbd5c5b82	-0.053798206
85	0xbcee263a	-0.029070962
86	0x3d4fbd5e	0.050717704
87	0x3e2d3ea5	0.16918428
88	0x3d8c3b9e	0.068473086
89	0x3df3bd7b	0.11901375
90	0xbcb72a47	-0.022359027
91	0x3e4380a3	0.1909204
92	0xbd474db9	-0.048658106
93	0x3dc01fce	0.09381066
94	0x3deb7223	0.11496379
95	0xbc8b9dcc	-0.017043017
96	0xbdb3f235	-0.08786432
97	0x3d072dcc	0.03300266
98	0xbb2064c2	-0.002447412
99	0xbd992bb5	-0.074790396
100	0x3e1e804f	0.15478633
101	0x3d9309c8	0.071796
102	0xbca6148a	-0.020273466
103	0xbd49a1d3	-0.049226593
104	0xbd020474	-0.031742528
105	0x3e43e9a3	0.19132094
106	0xbe264e78	-0.16240871
107	0x3d077b7f	0.03307676
108	0xb764e8b8	-1.3644043e-05
109	0x3e42adea	0.19011655
110	0x3a893b7a	0.0010469996
111	0xbde0a41f	-0.109688036
112	0xbd0402e5	-0.032229323
113	0xbd0818a8	-0.03322664
114	0xbba3b7fb	-0.0049962974
115	0x3ce8e037	0.028427226
116	0xbd26d107	-0.040726688
117	0xbe003b47	-0.12522613
118	0xbcff4f0e	-0.031165626
119	0x3d3eb347	0.04655769
120	0x3ca630fc	0.02028703
121	0xbd2c470f	-0.042059954
122	0xbd535e13	-0.051603388
123	0x3d3897a1	0.04506648
124	0xbcf34351	-0.029695185
125	0xbb503e4d	-0.0031775415
126	0xbc0588cd	-0.008150292
127	0xba57f906	-0.00082387065
128	0xbd7ca0cb	-0.06167678
129	0x3c50347b	0.012707825
130	0xbd606232	-0.054781146
131	0xbda37d78	-0.07982916
132	0xbd963f4f	-0.07336294
133	0x3d6374c1	0.055531267
134	0xbd539a30	-0.051660717
135	0x3e40b2ad	0.1881816
136	0xbc61291c	-0.013742711
137	0x3d8fda63	0.07024076
138	0xbd2e160e	-0.0425015
139	0x3d7c707f	0.061630722
140	0x3d6fb78e	0.05852466
141	0xbcc8448b	-0.024446746
142	0x3dc4c574	0.09607974
143	0x3d8eecdd	0.06978772
144	0xbdbaf5df	-0.091289274
145	0xbd24e863	-0.040260684
146	0xbba8eac4	-0.0051549394
147	0xbd4b6307	-0.049654987
148	0x3c5d1e9d	0.013496068
149	0xbcf6cc22	-0.030126635
150	0x3e4314c2	0.19050887
151	0x3cd25bd2	0.025678549
152	0x3db79a05	0.08964924
153	0xbda3c680	-0.07996845
154	0x3dfea2e4	0.12433413
155	0xbd42b6d4	-0.04753764
156	0x3d478f22	0.048720486
157	0xbd9ba9e1	-0.07600761
158	0x3ddbf952	0.107409135
159	0xbc1c1fe8	-0.009529091
160	0x3d9b7d52	0.07592262
161	0x3d05117c	0.032487378
162	0x3c8e5711	0.0173755
163	0x3d2940d8	0.041321605
164	0xbc1ac887	-0.0094472235
165	0x3d795ff5	0.060882527
166	0x3d40a587	0.04703286
167	0xbc6e02f6	-0.014527073
168	0x3cd7d263	0.026345437
169	0xbc336699	-0.010949754
170	0xbe007089	-0.12542929
171	0x3ce9785e	0.028499778
172	0x3d1d2500	0.038365364
173	0x3dfe229e	0.124089465
174	0x3cf433be	0.029809829
175	0x3e10f2ce	0.14155123
176	0xbbd02d76	-0.0063530756
177	0xbd9992cd	-0.07498703
178	0xbdaaaf53	-0.08334222
179	0x3d84ef74	0.064909846
180	0x3da9355a	0.08262129
181	0xbd23abe6	-0.039958857
182	0xbdbdf37a	-0.09274955
183	0xbd025266	-0.031816863
184	0x3d43b80e	0.04778295
185	0x3d0dc840	0.0346148
186	0xbd228acc	-0.03968315
187	0xbe1fa1d9	-0.15589084
188	0xbcfdb29b	-0.030968955
189	0x3cee7647	0.029109133
190	0xbc131063	-0.008976075
191	0x3d8bb91d	0.06822417
192	0x3c5e519d	0.013569263
193	0x3bf9205f	0.007602736
194	0x3ba464cc	0.0050168987
195	0xbb86f985	-0.0041191005
196	0xbccadfac	-0.024764858
197	0x3c45c51a	0.012070918
198	0xbb1b0105	-0.002365173
199	0xbc4ca8a3	-0.012491378
200	0xbd52a90d	-0.05143075
201	0x3d5f6762	0.054541953
202	0x3d5cc332	0.05389709
203	0x3c412b57	0.011790118
204	0x3d689a52	0.056787796
205	0xbac7bd42	-0.0015238898
206	0xbbfa4df7	-0.0076386887
207	0xbd8a01f0	-0.06738651
208	0x3cb147b9	0.021640645
209	0x3cb864cb	0.022509
210	0xbe08fa57	-0.13376747
211	0xbc709fed	-0.014686567
212	0x3daa40c7	0.083131365
213	0xbe312a93	-0.17301397
214	0xbd27b169	-0.040940676
215	0xbdbd7bb7	-0.09252112
216	0xbd729ef6	-0.05923363
217	0xbd45e577	-0.048314538
218	0x3c45fed6	0.012084683
219	0x3adaf332	0.0016704558
220	0xbd64ad4a	-0.055829324
221	0xb825e506	-3.955236e-05
222	0xbd325ab7	-0.043543544
223	0xbc120642	-0.008912625
224	0x3d653076	0.05595442
225	0x3a1b81ff	0.00059321517
226	0x3d613c64	0.054989234
227	0xbdad81fe	-0.0847206
228	0x3d9bebb8	0.07613319
229	0xbd1590a6	-0.0365149
230	0x3c23b054	0.00999077
231	0xbce990a6	-0.028511357
232	0x3daa756e	0.08323179
233	0x3d6c8a59	0.057749126
234	0x3c9411c7	0.018074883
235	0x3c97f40b	0.018548986
236	0xbc2e7f63	-0.010650489
237	0x3dd0d6e2	0.10197236
238	0xbcfcfd08	-0.030882373
239	0xbd0b35aa	-0.033986725
240	0xbc3106f8	-0.010804884
241	0xbcbf615b	-0.023361852
242	0xbd8c32a7	-0.06845599
243	0xbc6205f8	-0.013795368
244	0xbd69bfb5	-0.05706759
245	0x3d8a801a	0.06762715
246	0x3c41303a	0.011791283
247	0xbc6665fa	-0.014062399
248	0xbdc1e08a	-0.094666556
249	0x3db23f7c	0.08703515
250	0xbd5c49ed	-0.05378144
251	0x3d99e9d7	0.075153045
252	0x3d757774	0.059928373
253	0xbd7ebad3	-0.06218989
254	0x3d2dc841	0.042427305
255	0xbc5c9b9c	-0.013464835

network_body.linear_encoder.seq_layers.2.bias f4 [256]
0	0x3b0fd541	0.0021947178
1	0x3a1db221	0.0006015618
2	0x3c96cdc6	0.018408667
3	0x3b633f7d	0.0034675293
4	0xbb133b46	-0.002246575
5	0x3bd157e4	0.006388651
6	0xbaf10365	-0.0018387852
7	0x3c03815d	0.008026448
8	0x3c3870ff	0.011257409
9	0xbb2f780a	-0.002677443
10	0xbbe02c60	-0.0068412274
11	0x36afe6f8	5.2422947e-06
12	0x3cbbf210	0.022942573
13	0x3ab994c2	0.0014158713
14	0x3c447776	0.011991372
15	0x3a61923e	0.00086048606
16	0x3bf88daf	0.0075852494
17	0xb9ca1bac	-0.0003854906
18	0xbc1a89b0	-0.009432241
19	0x3b97a297	0.0046275365
20	0x3b302695	0.0026878465
21	0x3b82819b	0.0039827353
22	0x391c51ce	0.00014907794
23	0x3a13e0df	0.00056411134
24	0x3c3b196b	0.011419634
25	0x3c09ae49	0.008403369
26	0xba3a40df	-0.00071050035
27	0xba63dc8a	-0.00086922257
28	0x3ae0df8b	0.0017156465
29	0x3ce357b6	0.027751785
30	0x3cb71768	0.022350028
31	0x3bdf91a7	0.006822783
32	0xb9aa379b	-0.00032466356
33	0x3b8f6ab5	0.004376734
34	0x3d27c419	0.040958498
35	0xba0c3e2a	-0.00053498393
36	0x3c30fe0a	0.010802755
37	0xbb0c8fcb	-0.0021448012
38	0xba41c45d	-0.0007391626
39	0x39fbc9aa	0.00048024702
40	0x3bf62f92	0.007512995
41	0xb93fc77c	-0.00018289493
42	0xb9d9e77c	-0.00041561935
43	0x3aa7abcb	0.0012792287
44	0x3bd7e467	0.006588507
45	0x3c819dbb	0.015822282
46	0x3ae23efc	0.0017261202
47	0x3c1da451	0.009621696
48	0xbaa15229	-0.0012307811
49	0x3c90afe5	0.017661998
50	0xbb2a2807	-0.00259638
51	0xbb2502f0	-0.0025178753
52	0xba59bc2d	-0.00083059334
53	0xba8fce85	-0.0010971582
54	0x3afb3195	0.0019164557
55	0x3badb33a	0.0053009065
56	0x3c53a66a	0.012918094
57	0x3a584c2f	0.00082510983
58	0x3bb6bfd5	0.0055770674
59	0xba9e889e	-0.0012095158
60	0x3c54a245	0.012978141
61	0x3a3a1534	0.00070984964
62	0x3c5235cd	0.01283021
63	0x3c76f1e0	0.015072316
64	0x3c594fc8	0.01326365
65	0x3a81c074	0.0009899274
66	0x3a832d61	0.0010008031
67	0x3c68f9c4	0.014219705
68	0xb9c1c5e8	-0.0003695928
69	0xbb4d634d	-0.0031339705
70	0x3c9c4519	0.019075917
71	0x3c78c76b	0.015184264
72	0x3c1ad816	0.009450933
73	0x3b9ed3fb	0.0048470474
74	0x3ca5f9f7	0.020260794
75	0xbac603bf	-0.0015107318
76	0x3cd12bad	0.025533522
77	0xba2961a0	-0.00064613856
78	0xbb84103f	-0.004030257
79	0x39b1a4d0	0.00033882866
80	0x3cbc288d	0.022968555
81	0x3b998aea	0.0046857493
82	0x3a4a29c4	0.0007711912
83	0x3aeaf08c	0.0017924472
84	0xba4ee0fa	-0.00078918005
85	0xba9027bf	-0.0010998173
86	0x3c9b86f8	0.018985257
87	0x3a1788eb	0.0005780595
88	0x3b0114ef	0.0019696315
89	0x3c5beadb	0.013422693
90	0x3d2f6348	0.04281929
91	0x3aa661a0	0.001269389
92	0x39afaa59	0.0003350552
93	0x3c844b4b	0.016149184
94	0x3c425808	0.011861809
95	0x3d090b6f	0.03345817
96	0xbab8afe1	-0.0014090502
97	0x3b128458	0.0022356715
98	0x3c05d45b	0.008168305
99	0x3c69556d	0.0142415585
100	0xba2672ed	-0.0006349523
101	0x3952cd62	0.00020103672
102	0x3c800681	0.015628101
103	0xbb568057	-0.0032730305
104	0x3984ec7b	0.00025353194
105	0xbc20a9c5	-0.009806101
106	0x3b090645	0.0020908278
107	0x3c1f1a77	0.0097109
108	0xb71efea4	-9.476822e-06
109	0xbb6592fd	-0.0035030239
110	0xba59bb78	-0.0008305828
111	0x3abcbb44	0.0014399071
112	0x3a4324bb	0.0007444133
113	0x3cff3cca	0.031156916
114	0xbaa26434	-0.0012389482
115	0x3c0cd262	0.008595081
116	0xbbf8fedb	-0.0075987405
117	0x3c474573	0.012162554
118	0xbbacd3d4	-0.0052742753
119	0x3cd470aa	0.025932629
120	0xbafe09f8	-0.0019381633
121	0xba6fe228	-0.00091508264
122	0x3ce393fd	0.027780527
123	0x395ba71c	0.0002094772
124	0x3a39a427	0.00070816505
125	0x3b7dd315	0.003873055
126	0xbaf20f1d	-0.0018467639
127	0x3cc47fe8	0.023986772
128	0x3d0a1448	0.033710748
129	0x3a37eada	0.00070158916
130	0x3c3ce0bf	0.011528193
131	0xb882e9dc	-6.242443e-05
132	0x3a61ef08	0.0008618687
133	0xbbda880c	-0.00666905
134	0x3b4d46bb	0.0031322676
135	0xba8f7b7a	-0.0010946833
136	0xbaa7db32	-0.0012806414
137	0xb92c8623	-0.00016453168
138	0xbad127e8	-0.0015957328
139	0xbaceb7bc	-0.001577131
140	0x3b0cb239	0.0021468534
141	0x3b3369c4	0.0027376274
142	0x3a9bef75	0.0011896925
143	0xba07c557	-0.0005179247
144	0x3cf656c3	0.030070668
145	0x3b64921f	0.0034877134
146	0x3c8a6171	0.016892167
147	0x398eeb33	0.00027259588
148	0xbae6cf70	-0.0017609429
149	0x3c42492c	0.011858266
150	0x3b7db6c1	0.0038713666
151	0xba96ade2	-0.0011495913
152	0xb8b39990	-8.5639884e-05
153	0x3ca3a1c7	0.019974602
154	0x3ca6523e	0.020302888
155	0x3ca87fd9	0.020568775
156	0x3aa934ff	0.0012909471
157	0x3b6c3f2d	0.0036048398
158	0x3cf9a58d	0.030474449
159	0x3b96b628	0.0045993514
160	0x3ab6882a	0.0013926078
161	0xbc6b7ed9	-0.014373505
162	0xb91e9264	-0.00015122589
163	0x39441511	0.00018699864
164	0x3b6cf492	0.0036156517
165	0x3b092ecf	0.002093244
166	0x3aa75e93	0.0012769274
167	0x3aa56248	0.0012617791
168	0x3af5d484	0.0018755351
169	0x3881c6c2	6.188221e-05
170	0xbaf0b51b	-0.001836452
171	0x3bc31ae6	0.0059541343
172	0x3c8fe315	0.017564336
173	0x3a104d71	0.0005504704
174	0x3bdfa685	0.0068252706
175	0xb971fcc5	-0.00023077715
176	0x3d09da5c	0.03365551
177	0x3be31a5f	0.006930634
178	0x3c13dbac	0.009024542
179	0x3b0706d5	0.0020603437
180	0x3cacce6f	0.021094529
181	0x3c92a47c	0.017900698
182	0x3aa0b136	0.0012259844
183	0xbb06e604	-0.0020583877
184	0x3c0e6a6e	0.008692367
185	0xbb04243c	-0.00201632
186	0x3c881674	0.016612269
187	0x3abf3f2c	0.001459097
188	0x3b56198e	0.003266904
189	0x3bb07d54	0.005386034
190	0x3a8a8b94	0.0010570162
191	0x3c9ca391	0.019120963
192	0x3ce61c7c	0.028089754
193	0xba87d4ec	-0.0010363138
194	0x3c802deb	0.015646895
195	0x3c0e2019	0.008674645
196	0x39f9495c	0.00047547638
197	0x3c70828f	0.014679565
198	0x3c5941a7	0.013260282
199	0x3c21afee	0.009868605
200	0x3c91355a	0.017725635
201	0x3ad2e95f	0.0016091279
202	0x3b89fc10	0.0042109564
203	0x3a50e45f	0.00079686
204	0xbad3fb94	-0.0016172999
205	0x3abf71f6	0.0014606107
206	0xb8e37afd	-0.00010847112
207	0x3ca7d03f	0.020485042
208	0xb8ee81f7	-0.00011372932
209	0x3c8ba96e	0.017048564
210	0xbb5a4e0b	-0.0033310677
211	0x3c0eca04	0.0087151565
212	0x3c66ef86	0.014095193
213	0x3bed8714	0.0072487686
214	0x3ca7c06d	0.020477498
215	0x3c7a17e2	0.015264483
216	0xb9cbbad1	-0.00038858366
217	0xba8fceaa	-0.0010971625
218	0xb9b4533e	-0.00034394296
219	0xbbf83464	-0.007574605
220	0xba845fab	-0.0010099312
221	0x3b2b49a6	0.0026136427
222	0x3a58ff91	0.00082778285
223	0xb9be95dc	-0.00036351278
224	0x3c780449	0.01513774
225	0x3b0e0f84	0.0021676729
226	0x3cc3d64e	0.0239059
227	0x3bc4737a	0.005995211
228	0x3b26fe7c	0.0025481274
229	0xb9778f72	-0.00023609193
230	0xbaaccfe2	-0.0013184512
231	0x3c979fab	0.018508753
232	0xb90612af	-0.00012786196
233	0x3a852b0f	0.0010159927
234	0x3bc8d68b	0.006129091
235	0x3a24d977	0.00062885083
236	0xbc5dd74c	-0.0135401
237	0x3b2577f7	0.0025248507
238	0x3aa526bc	0.0012600045
239	0xb97d08ea	-0.00024131281
240	0x3cbbb088	0.022911325
241	0x3c3a5d04	0.011374716
242	0x3cfed07a	0.031105269
243	0x39ae7d84	0.00033281383
244	0x3c13f45f	0.009030431
245	0xbb95fd02	-0.00457728
246	0x3a47602a	0.0007605577
247	0x3c581cb2	0.013190435
248	0x3c94ce27	0.018164707
249	0x3af6be94	0.0018825107
250	0x3969b3fe	0.00022287664
251	0x3a2496b1	0.0006278558
252	0x3b771f55	0.0037707884
253	0x3d03b28c	0.032152697
254	0x3d16fe7c	0.03686379
255	0x381b61a8	3.704583e-05

action_model._continuous_distribution.log_sigma f4 [1, 5]
0	0xbc5b7f31	-0.013397024
1	0x3b689a9c	0.0035492545
2	0x3c55849d	0.013032106
3	0x3b543d22	0.003238507
4	0xbc4fe169	-0.012688019

action_model._continuous_distribution.mu.weight f4 [5, 256]
0	0xbc6a1c90	-0.014289036
1	0x3ca7670a	0.020434875
2	0x3d0fa159	0.035065982
3	0xbbecec07	-0.007230285
4	0xbabe1374	-0.0014501647
5	0x3cf2be0d	0.029631639
6	0x3ca2b8f0	0.019863576
7	0xbd1ae2c2	-0.03781391
8	0xbd3635c6	-0.044484876
9	0x3bb60145	0.0055543506
10	0x3d263918	0.040581793
11	0x3cb98dd8	0.022650644
12	0xbb5941d8	-0.0033150818
13	0xbbf758cd	-0.0075484277
14	0xbd087ae3	-0.03332032
15	0xbc4435e0	-0.011975735
16	0x3c84e3df	0.016221939
17	0x3c60bc9a	0.013716841
18	0xbc4d16c5	-0.012517636
19	0x3c861723	0.016368454
20	0x3c16c21d	0.009201554
21	0x3c4bb513	0.012433308
22	0x3cc3f783	0.023921734
23	0x3c04a62b	0.008096258
24	0xbcf69eb3	-0.03010497
25	0x3cc92abc	0.02455651
26	0x3c03affb	0.0080375625
27	0xbc4fe030	-0.012687728
28	0xbb6e7fa9	-0.003639201
29	0x3c37c3d3	0.011216122
30	0xbd682fd1	-0.056686226
31	0x3d1ed343	0.038775694
32	0xbc44bd36	-0.012008002
33	0x39926211	0.00027920355
34	0xbd3c2ddc	-0.045942172
35	0x3c483ea0	0.012221962
36	0x3cb549a8	0.022129849
37	0xbafa3b6c	-0.0019091195
38	0xbc24a7b6	-0.010049751
39	0x3cf07ce0	0.02935642
40	0x3c6f23dc	0.014595952
41	0xbb3518c3	-0.0027633167
42	0xbcc54bd1	-0.024084004
43	0xbc2a59ec	-0.010397416
44	0x3ccb3388	0.024804845
45	0x3c66db6c	0.0140904
46	0x3cb0711e	0.021538313
47	0x3c29411d	0.010330466
48	0xbc4496d8	-0.011998855
49	0xbc986671	-0.018603535
50	0x3d761969	0.060082827
51	0x3bdd92ad	0.00676187
52	0x3c88fc63	0.01672191
53	0xbc345148	-0.011005707
54	0x3b461322	0.0030223806
55	0x3c7b7655	0.015348037
56	0x3b91aa42	0.004445345
57	0x3659fed7	3.2483856e-06
58	0x3d81fdfd	0.063472725
59	0xbb79efce	-0.003813732
60	0x3d3c3195	0.045945723
61	0xbc0a5d09	-0.008445033
62	0x3c5d6a38	0.013514094
63	0xbccac7b0	-0.024753422
64	0x3c5a3163	0.013317439
65	0x3a8c6c3b	0.0010713408
66	0x3d1a17f2	0.037620492
67	0xbc5941d8	-0.013260327
68	0xbc594ba9	-0.013262668
69	0x3c996822	0.018726412
70	0x3abc3917	0.0014360276
71	0xbcace915	-0.021107236
72	0x3cc791d3	0.024361527
73	0x3d3a6360	0.045504928
74	0x3c48dcf3	0.01225971
75	0x3c2ae4c0	0.010430515
76	0x3c7af9b7	0.015318326
77	0xbba6f12d	-0.0050946684
78	0x3d4b911a	0.049698927
79	0x3d3513ed	0.044208456
80	0xbd199e49	-0.037504468
81	0xbcafd94a	-0.021465916
82	0xbc7e0a63	-0.015505406
83	0x3bacaf06	0.005269888
84	0x3b17fae7	0.002319032
85	0x3b182167	0.0023213269
86	0xbd30944f	-0.043110188
87	0x3a287355	0.0006425877
88	0xbb05066e	-0.0020298022
89	0xbcdf32d0	-0.027245909
90	0xbd832a4e	-0.06404553
91	0xbc296dc6	-0.010341113
92	0x3a921f0c	0.0011148169
93	0xbd56e08d	-0.052460242
94	0x3d02706c	0.031845495
95	0x3acaf17a	0.0015483343
96	0x3b818be2	0.003953443
97	0xbb9e6860	-0.00483422
98	0x3bf95956	0.0076095266
99	0xbd3efd3c	-0.046628222
100	0x3cdba74c	0.026813172
101	0x3cfc750d	0.030817533
102	0xbccf9eae	-0.025344219
103	0xbc17e9fb	-0.009272094
104	0x3cbda540	0.023150086
105	0xbbf60464	-0.0075078476
106	0xbd22112d	-0.03956716
107	0xbd5a22d5	-0.053255875
108	0xbca59581	-0.02021289
109	0xbc00ccf8	-0.007861368
110	0xbba3c1ec	-0.0049974825
111	0x3b0e5648	0.0021718908
112	0xbc4c0201	-0.01245165
113	0xbd69ad5c	-0.057050094
114	0x3b5f1a45	0.0034042757
115	0xbd31c1f0	-0.043397844
116	0x3cff8b6d	0.031194413
117	0xbd1e4ea5	-0.03864922
118	0xbc2a41e5	-0.010391687
119	0x3a7d9728	0.0009673708
120	0x3c009e8d	0.007850301
121	0xbc0b4752	-0.008500891
122	0xbd35fd61	-0.044431094
123	0xbbb04b48	-0.005380068
124	0xbcbb73d3	-0.022882378
125	0x3c246463	0.0100337
126	0xbbd4cbe6	-0.006494033
127	0xbc8d4b3f	-0.017247794
128	0xbd8a0d6d	-0.06740842
129	0xbc9bd300	-0.019021511
130	0x3bfcf796	0.007719944
131	0xbbe6f3b9	-0.007048097
132	0x3ba0e6b5	0.004910315
133	0x3a0b1d71	0.00053068163
134	0xbc00150f	-0.007817521
135	0x3a5c1aa9	0.00083963067
136	0xbace9df3	-0.0015763625
137	0xb8b70e23	-8.728753e-05
138	0xbb1eeacb	-0.0024248834
139	0xbbe14e92	-0.0068758214
140	0xbbb737fd	-0.005591391
141	0xbb4020d0	-0.0029316433
142	0xbc42bcf9	-0.011885875
143	0x3c374d0a	0.011187801
144	0xbd6b118f	-0.057389792
145	0xbc228efd	-0.009921786
146	0xbd3db5d3	-0.04631598
147	0xbc4c6118	-0.012474321
148	0xbb493a05	-0.0030704748
149	0x3d06acc0	0.03287959
150	0x3ce501ad	0.0279549
151	0xbb2cb6f6	-0.002635417
152	0x3b5ee5ed	0.0034011558
153	0xbd7073e5	-0.058704276
154	0xbd1040b3	-0.035217952
155	0xbd48a358	-0.0489839
156	0x3b8aff1d	0.0042418377
157	0x3ab076a5	0.0013463093
158	0xbcd74c98	-0.02628164
159	0x3c875329	0.016519146
160	0x3c394c0a	0.011309633
161	0x3bed03f6	0.007233138
162	0xbb205744	-0.0024466077
163	0x3c1641a2	0.0091709215
164	0x3ceb2abf	0.028706906
165	0xbb787cdf	-0.0037916226
166	0x3c86c549	0.016451495
167	0xbba6156b	-0.005068471
168	0x3ba93d28	0.005164761
169	0x3ce09663	0.02741546
170	0x3c5ac0dc	0.013351645
171	0x3d165604	0.036703125
172	0x3cacd6ae	0.021098461
173	0x3aa3d689	0.001249985
174	0x3cbaec12	0.022817645
175	0x3bbe901b	0.0058155186
176	0xbc4cdaa3	-0.012503299
177	0xbcb808b6	-0.022465091
178	0xbcda284a	-0.02663054
179	0x3b872f9c	0.0041255485
180	0xbd10f2c8	-0.035387784
181	0xbcc16f40	-0.023612618
182	0x3bec401e	0.007209792
183	0x3cb2d6da	0.021830965
184	0xbd123670	-0.035696447
185	0xbc9c3d1f	-0.019072114
186	0xbd1c449a	-0.03815136
187	0x3c8f1555	0.017466227
188	0x3ce1d9ba	0.02756964
189	0x3d25c7e4	0.040473834
190	0x3b959654	0.0045650396
191	0xbd0a1bc8	-0.0337179
192	0xbb1666d6	-0.0022949479
193	0xba0f0aa8	-0.0005456605
194	0xbd214528	-0.039372593
195	0x3aadccb9	0.0013259865
196	0x3c302538	0.010751061
197	0x3d164676	0.03668829
198	0x3cb53747	0.022121085
199	0xbcd33fe6	-0.025787305
200	0x3d46c8f8	0.048531502
201	0xbbd5e48e	-0.00652749
202	0xbc5096d8	-0.012731276
203	0x3b8a497f	0.004220187
204	0x39d63fb1	0.00040864715
205	0xbc169087	-0.009189731
206	0xbbe4756c	-0.0069720056
207	0x3d264864	0.04059638
208	0x3d0bb7d0	0.034110844
209	0xbb726a83	-0.0036989755
210	0xbb9aac4b	-0.004720246
211	0x3cd12236	0.025529008
212	0x3d342109	0.043976817
213	0x3d361db0	0.044461906
214	0xbba7727a	-0.005110082
215	0x3c69ed1e	0.014277725
216	0x3bd51cff	0.0065037007
217	0x3cb99d0b	0.022657892
218	0xba99d0c1	-0.0011735187
219	0x3aca7a60	0.0015447848
220	0x3d2b202b	0.041778725
221	0x3c81cdc6	0.01584519
222	0x3b7352e0	0.0037128255
223	0x3c367257	0.011135659
224	0x3c793dff	0.015212535
225	0x3bd7867c	0.006577311
226	0xbcaf5257	-0.021401567
227	0xbac6694b	-0.0015137581
228	0x3c07e7b5	0.008294989
229	0xbc8001cc	-0.015625857
230	0x3c1e3f38	0.009658627
231	0xbd719315	-0.05897816
232	0x3c139b93	0.00900926
233	0x3ccc9c8a	0.024976987
234	0xbd0d8a7a	-0.03455589
235	0xbc38e497	-0.011284969
236	0x3c37029f	0.0111700585
237	0x3c22db35	0.009939958
238	0x3ca45ce0	0.020063818
239	0xbc3138d9	-0.010816776
240	0x3d00dee1	0.031462554
241	0x3c0d8d52	0.00863965
242	0xbca35849	-0.019939559
243	0xb9e41592	-0.0004350362
244	0x3d0ad1a9	0.033891354
245	0x3d420210	0.04736525
246	0xbb84273c	-0.0040329974
247	0x3d76df79	0.060271714
248	0xbd4085a4	-0.04700245
249	0x3c04402c	0.00807194
250	0xbb45b023	-0.00301648
251	0x3c81fba0	0.015867054
252	0x3c902820	0.017597258
253	0x3c37ef91	0.011226551
254	0x3c558fcd	0.013034773
255	0x3bbbae65	0.0057275766

action_model._continuous_distribution.mu.bias f4 [5]
0	0xbab317a0	-0.0013663657
1	0xba0100b0	-0.0004921062
2	0x3a8d8fc3	0.0010800291
3	0xbb130436	-0.002243293
4	0xb9967302	-0.00028695917
