MLConfig/results/newAnimal/Animal/Animal-2499968.onnx (onnx, 296297 bytes, 7 tensors)

network_body.linear_encoder.seq_layers.0.weight f4 [256, 24]
0.030478744 -0.19024116 -0.23145856 0.36594796 0.076485895 -0.017734451 -0.24205191 -0.11289424
0.27985424 -0.39639184 0.11744949 -0.027676156 -0.062433288 0.07385563 0.057487667 -0.121431604
0.08171738 -0.0084980205 -0.20211376 -0.48086438 -0.19566914 -0.0026989174 0.35154706 -0.23525952
-0.398689 0.32140148 -0.47105289 -0.22305083 0.11259222 -0.047689095 0.19753097 0.6068299
-0.00030558012 0.099446565 0.07813143 0.11654403 -0.25980046 0.3653907 -0.22395068 -0.31007883
-0.014820836 -0.106917284 -0.14868857 -0.5010937 0.33964947 -0.23638113 0.15327974 0.037452217
0.0034008445 0.14946985 -0.21970937 -0.18858859 -0.22915326 0.24213941 0.10326326 -0.19262487
-0.23805952 0.29709974 0.039050348 0.12641473 -0.24098657 0.14105844 -0.54944706 0.3888006
0.33532917 0.08578019 0.23448376 -0.21117905 0.048506614 -0.1961786 0.16700354 -0.029216956
-0.09762311 -0.00984002 0.24926083 -0.28617445 0.0024148403 0.10022801 0.054989025 -0.28381625
0.1081292 0.16801567 -0.064103775 0.18131515 0.16174254 -0.09006671 0.35090593 0.14648111
-0.07705459 -0.16035622 0.11756003 0.093141645 0.3431051 -0.25936577 -0.07349351 0.083361804
0.20240791 -0.27858636 0.11082793 -0.28139347 0.0028415148 -0.122243665 -0.0685701 0.19630802
-0.0251404 -0.44490778 0.3615549 0.10324443 0.122556165 -0.016833162 0.19740249 0.093803935
-0.34310973 -0.43051198 0.015488223 0.276264 -0.32148132 -0.20815413 -0.06070432 -0.084822364
0.14476514 0.2031729 0.02466117 0.03642229 -0.40967423 0.2182759 -0.16922869 0.3551946
0.033339527 0.09891147 -0.31744495 0.097246744 0.16386794 0.1946984 0.0071104066 -0.09250452
0.22510225 0.31471115 -0.08210232 0.00057953043 0.09993564 -0.023343775 -0.049114157 0.04211381
-0.05375286 0.063017435 -0.21975069 0.18634325 -0.16846764 0.36886805 -0.20654002 -0.3036109
-0.19083907 0.058279917 0.23481567 -0.0080264695 0.011898822 -0.1054717 -0.061164197 0.045312345
-0.12128131 -0.17786303 -0.044150226 0.009036205 -0.3356389 -0.20307563 0.38434476 -0.046244442
0.020425763 0.11498114 -0.04534518 -0.019020315 0.41793996 -0.15777765 -0.13163991 0.09620062
0.30462694 0.22807986 0.16598886 0.08917845 -0.27560374 -0.13624318 0.22112352 -0.028223863
-0.06023933 -0.4085746 0.18120575 0.13841037 -0.19387902 -0.11922048 0.30981934 -0.04134005
-0.10385697 0.14199778 -0.0069337296 0.24293326 -0.3126272 0.59918094 -0.19961324 -0.027158888
0.06148066 0.16279487 -0.25775847 -0.22311437 -0.23123345 -0.031433463 0.15990461 -0.05005444
-0.19887461 0.61598444 -0.30126002 -0.010289626 -0.08468974 -0.07505575 -0.056489713 -0.040550426
-0.18419845 -0.27682105 0.13101904 0.20744018 0.05995208 -0.016831066 -0.043280367 -0.09877674
-0.16455744 0.20684248 0.21841939 0.084755555 -0.13238129 -0.024566187 -0.11561851 0.12641251
-0.29448858 0.26884735 -0.09290177 -0.49799958 0.17001906 0.1503817 0.03313303 -0.051855065
0.11091701 0.14553289 -0.39253157 0.07022283 0.22002715 -0.21152781 -0.19094591 0.043189567
-0.09941468 -0.13802244 0.09750357 0.09603368 -0.23296681 0.002700266 -0.109578684 0.13221636
00000000: 8fae f93c 94ce 42be 7903 6dbe 885d bb3e
00000010: a3a4 9c3d d747 91bc 75dc 77be 1835 e7bd
00000020: 0e49 8f3e dff3 cabe 5c89 f03d 1bb9 e2bc
00000030: 0cba 7fbd 9f41 973d 3078 6b3d 22b1 f8bd
00000040: 715b a73d 483b 0bbc e9f6 4ebe db33 f6be
00000050: 7e5d 48be 52e0 30bb fafd b33e dfe7 70be
00000060: f720 ccbe bc8e a43e d82d f1be 7067 64be
00000070: c096 e63d a455 43bd 8f45 4a3e 3459 1b3f
00000080: 4536 a0b9 a4aa cb3d 5f03 a03d a3ae ee3d
00000090: 9104 85be 7d14 bb3e 5453 65be a7c2 9ebe
000000a0: 17d3 72bc 73f7 dabd d141 18be ad47 00bf
000000b0: 89e6 ad3e e50d 72be 5df5 1c3e 7f67 193d
000000c0: b4e0 5e3b a00e 193e 7efb 60be 5e1d 41be
000000d0: 27a7 6abe 65f3 773e b07b d33d 743f 45be
000000e0: e0c5 73be 751d 983e 42f3 1f3d dd72 013e
000000f0: 2fc5 76be a071 103e 90a8 0cbf df10 c73e
00000100: 44b0 ab3e 86ad af3d 831c 703e 523f 58be
00000110: dfae 463d 0be3 48be fa02 2b3e 6658 efbc
00000120: a0ee c7bd 0938 21bc 3b3e 7f3e 7585 92be
00000130: 4c42 1e3b 5844 cd3d 2c3c 613d 5d50 91be
00000140: d872 dd3d 4d0c 2c3e d748 83bd aeaa 393e
00000150: d69f 253e e574 b8bd f1a9 b33e 25ff 153e
00000160: ccce 9dbd 6c34 24be 50c3 f03d 0cc1 be3d
00000170: 79ab af3e 97cb 84be c483 96bd 98b9 aa3d
00000180: 0544 4f3e dfa2 8ebe c1f9 e23d ce12 90be
00000190: b538 3a3b e35a fabd 7b6e 8cbd f804 493e
000001a0: 3df3 cdbc f4ca e3be b91d b93e d171 d33d
000001b0: bafe fa3d b3e5 89bc e123 4a3e 471c c03d
000001c0: 14ac afbe 116c dcbe 51c2 7d3c 7a72 8d3e
000001d0: 3399 a4be 5b26 55be 18a5 78bd 59b7 adbd
000001e0: 503d 143e 8f0c 503e 3906 ca3c 8a2f 153d
000001f0: d2c0 d1be b883 5f3e 494a 2dbe 11dc b53e
00000200: 078f 083d 1992 ca3d 2588 a2be 4d29 c73d
00000210: ffcc 273e 045f 473e 6afe e83b 0373 bdbd
00000220: 3481 663e d221 a13e 4325 a8bd a1eb 173a
00000230: 0fab cc3d 723b bfbc ed2b 49bd 887f 2c3d
00000240: f52b 5cbd 490f 813d 5306 61be c4d0 3e3e
00000250: c882 2cbe 46dc bc3e 3a7f 53be e372 9bbe
00000260: 516b 43be ecb6 6e3d 8573 703e 7481 03bc
00000270: 47f3 423c 8c01 d8bd 4f87 7abd 7099 393d
00000280: 5662 f8bd ba21 36be ded6 34bd 970c 143c
00000290: ddd8 abbe 0ff3 4fbe d6c8 c43e d06a 3dbd
000002a0: ee53 a73c 3b7b eb3d debb 39bd 7ed0 9bbc
000002b0: 3afc d53e 7790 21be 9dcc 06be d504 c53d
000002c0: 10f8 9b3e c48d 693e fcf8 293e 31a3 b63d
000002d0: ef1b 8dbe 5583 0bbe 346e 623e bb35 e7bc
000002e0: 84bd 76bd b130 d1be 008e 393e 73bb 0d3e
000002f0: 3988 46be de29 f4bd a4a0 9e3e 2f54 29bd
00000300: f7b2 d4bd de67 113e 5734 e3bb 7fc3 783e
00000310: ac10 a0be ec63 193f 6a67 4cbe 517c debc
00000320: 25d3 7b3d b3b3 263e ebf8 83be 1878 64be
00000330: 76c8 6cbe 60c0 00bd 09be 233e e205 4dbd
00000340: c9a5 4bbe 28b1 1d3f c13e 9abe d295 28bc
00000350: d071 adbd d4b6 99bd c261 67bd 3418 26bd
00000360: 859e 3cbe 7dbb 8dbe db29 063e 336b 543e
00000370: 5090 753d 4ee1 89bc c146 31bd 764b cabd
00000380: bf81 28be 84ce 533e 55a9 5f3e 5294 ad3d
00000390: f68e 07be 073f c9bc 66c9 ecbd 4872 013e
000003a0: 35c7 96be 5ca6 893e 4843 bebd cdf9 febe
000003b0: 7a19 2e3e a9fd 193e 80b6 073d fa65 54bd
000003c0: 7528 e33d 9306 153e e6f9 c8be fdd0 8f3d
000003d0: cc4e 613e bf9a 58be 5387 43be 8be7 303d
000003e0: ec99 cbbd c155 0dbe f4af c73d 4ead c43d
000003f0: da8e 6ebe f2f6 303b ca6a e0bd ba63 073e

network_body.linear_encoder.seq_layers.0.bias f4 [256]
0.0027806875 0.0023802435 0.009540345 0.016397938 0.024996893 -0.007496825 0.005357846 0.00750025
0.029163124 0.0151616605 0.0734209 0.039587885 0.012223025 0.024784314 0.01834056 0.01488117
0.005482835 0.011027002 0.001387979 0.018444456 -0.0071176556 0.0110542225 0.010974776 -0.005277505
0.0156996 -0.00954073 0.009390935 0.0020617647 0.003735611 0.016189381 -0.0023896447 0.0113954265
0.035666473 0.020766683 -0.00030965387 0.016700104 0.011065771 0.055588797 -0.012791664 -0.027724257
0.022456054 0.019307619 -0.00032845174 0.029327124 0.010198883 0.016566303 0.011193854 0.013258221
0.006326385 0.012533875 -0.007819239 0.002379642 -0.0045436085 0.0023954234 -0.007737524 0.029243618
0.022482174 -0.017574053 0.022434836 0.015534406 0.0065699667 0.02061711 0.011869239 0.017419988
0.0025973804 0.012062826 -0.025760455 0.021292595 0.010751932 0.011301261 0.027283577 0.0015441672
0.004542064 -0.0054291617 -0.00037108653 -0.017428093 0.00650702 0.035632607 0.019828068 0.013589402
-0.002511986 0.008617036 -0.0123736 0.03132997 0.0015065481 0.036990605 0.017432852 0.004887689
-0.003465265 0.009468182 0.01722077 0.016983792 0.0029938817 -0.010745237 0.012099175 0.009379567
0.029575057 0.0042817956 0.01091031 -0.006354738 -0.0013926813 0.023130827 0.020883474 0.014681314
0.023433125 0.000100901016 0.0007200716 0.01412783 0.017115025 0.028655648 0.021707784 0.007053017
0.022644904 0.009579791 0.009349226 -0.003911951 -0.003787828 -0.018987915 0.026288621 0.027194956
0.019666873 0.020700919 0.02343675 -0.0014204537 0.031222753 -0.0005750467 0.010124734 0.033588734
-0.0030909101 -0.023791017 -0.014095159 0.051734462 -0.007840382 0.011958169 0.025359457 0.0005573804
0.009632669 -0.003036251 -0.008014716 0.011792714 -0.004349461 0.0113451155 -0.00904935 -0.018623402
0.011885961 -0.007310683 0.019966435 0.014780121 0.017003747 -0.007117735 -0.007880068 -0.01258025
0.027138298 -0.014935368 0.018641459 0.01960861 0.027936362 0.019825352 0.013513425 -0.00502513
0.010241954 0.036208447 0.018583264 0.04040997 -0.023080483 0.020618655 -0.008622978 0.009054936
-0.0019471609 -0.0039963387 0.03041721 0.009075686 -0.00913207 -0.0066979937 0.015002278 -0.006342313
-0.00047617624 -0.014833506 0.024251306 -0.0042418847 0.0018533475 0.025577556 0.01199373 0.02403269
0.01800722 0.013093098 0.004852289 0.033956256 0.00879349 -0.014929565 0.0032100345 0.018206172
0.025979107 0.018352749 0.019191284 -0.0006924046 0.020848667 0.00946717 0.0052077053 0.010059299
0.029009711 -0.0085311625 0.007855029 0.01733538 0.031073797 0.020988686 0.029692758 0.0073920665
-0.0020324197 0.0013843776 -0.00048946694 0.013063381 0.03703518 0.001782215 0.013492928 -0.0038006345
0.043076195 0.0062858923 -0.001978766 0.022338172 0.006375874 0.015006027 -0.00018685187 0.002273103
0.010077436 -0.02182012 0.017654484 0.009874483 0.0037682052 0.0037064152 0.014782514 -0.009813779
0.004159291 0.021083081 0.017003639 0.0057010767 -0.00822783 0.025198333 0.008142795 0.011536494
0.009646897 0.01659054 -0.0039436584 -0.021136073 0.032368354 0.020712307 0.00054411805 0.01688568
0.013978161 0.021906016 0.008364727 0.009741006 0.0052259522 -0.014475502 0.018728828 0.003792632
00000000: 323c 363b dcfd 1b3b 1b4f 1c3c f854 863c
00000010: 49c6 cc3c eda7 f5bb df90 af3b a8c4 f53b
00000020: 81e7 ee3c 9d68 783c b25d 963d e826 223d
00000030: 1543 483c 7908 cb3c f13e 963c 27d0 733c
00000040: 5ba9 b33b 99aa 343c d9ec b53a d418 973c
00000050: 393b e9bb c51c 353c 8ccf 333c ecee acbb
00000060: 739c 803c b950 1cbc 70dc 193c ac1e 073b
00000070: 27d1 743b 989f 843c 969b 1cbb e2b3 3a3c
00000080: 0217 123d e41e aa3c 0a59 a2b9 a8ce 883c
00000090: 354d 353c 14b1 633d 2194 51bc fb1d e3bc
000000a0: c2f5 b73c 032b 9e3c 0c34 acb9 703f f03c
000000b0: 3719 273c 0eb6 873c 6d66 373c 0239 593c
000000c0: 904d cf3b e25a 4d3c 441c 00bc c5f3 1b3b
000000d0: 8de2 94bb 89fc 1c3b 0e8b fdbb 5090 ef3c
000000e0: 892c b83c 76f7 8fbc 43c9 b73c 0584 7e3c
000000f0: e048 d73b 37e5 a83c 3277 423c 5db4 8e3c
00000100: d038 2a3b 29a3 453c 9707 d3bc cf6d ae3c
00000110: df28 303c ed28 393c cf81 df3c a765 ca3a
00000120: 98d5 943b 1ce7 b1bb 648e c2b9 5cc5 8ebc
00000130: d738 d53b 7ff3 113d 796e a23c 15a6 5e3c
00000140: 22a0 24bb 782e 0d3c a4ba 4abc db53 003d
00000150: 5e77 c53a 7683 173d 57cf 8e3c e828 a03b
00000160: 8019 63bb 6f20 1b3c 9212 8d3c 9821 8b3c
00000170: 0035 443b ca0c 30bc 9e3b 463c c1ac 193c
00000180: 6447 f23c 4e4e 8c3b 28c1 323c 683b d0bb
00000190: a18a b6ba dc7c bd3c d213 ab3c e589 703c
000001a0: d3f6 bf3c d29a d338 30c3 3c3a 6a78 673c
000001b0: cf34 8c3c 40bf ea3c 86d4 b13c ff1c e73b
000001c0: ce81 b93c 8ef4 1c3c 7f2d 193c d32f 80bb
000001d0: 353d 78bb 8b8c 9bbc 3c5b d73c f5c7 de3c
000001e0: 6c1c a13c f994 a93c 6dfe bf3c 842e baba
000001f0: dcc6 ff3c bbbe 16ba 36e2 253c 5794 093d
00000200: de90 4abb 61e5 c2bc 62ef 66bc 84e7 533d
00000210: f274 00bc 32ec 433c a3be cf3c 2a1d 123a
00000220: 58d2 1d3c d7fb 46bb 2850 03bc 3a36 413c
00000230: ec85 8ebb dde0 393c ba43 14bc 1b90 98bc
00000240: 55bd 423c 748e efbb a690 a33c 5228 723c
00000250: 714b 8b3c e43b e9bb 671b 01bc 651d 4ebc
00000260: 2351 de3c 79b3 74bc f9b5 983c 3ca2 a03c
00000270: ccda e43c c768 a23c 6a67 5d3c d9a9 a4bb
00000280: decd 273c 4f4f 143d ee3b 983c ed84 253d
00000290: 4813 bdbc 74e8 a83c 6447 0dbc 275b 143c
000002a0: e137 ffba b8f3 82bb 832d f93c 30b2 143c
000002b0: ad9e 15bc d87a dbbb 1dcc 753c 2dd3 cfbb
000002c0: 4ba7 f9b9 3c08 73bc adaa c63c 82ff 8abb
000002d0: 06ec f23a 0688 d13c 5a81 443c 34e0 c43c
000002e0: e183 933c 6f84 563c f3ff 9e3b b715 0b3d
000002f0: 9212 103c 229b 74bc 715f 523b 1c25 953c
00000300: 23d2 d43c 8158 963c 0a37 9d3c 7c82 35ba
00000310: d3ca aa3c 301c 1b3c 66a5 aa3b c2cf 243c
00000320: c6a5 ed3c 4ac6 0bbc 61b2 003c ed02 8e3c
00000330: 7a8e fe3c 77f0 ab3c 3a3e f33c 2639 f23b
00000340: 5832 05bb 0174 b53a 924f 00ba cb07 563c
00000350: 33b2 173d 3699 e93a 7111 5d3c 1114 79bb
00000360: aa70 303d e3f9 cd3b 2fae 01bb 8bfe b63c
00000370: b5ec d03b d7db 753c abed 43b9 57f8 143b
00000380: d51b 253c 1cc0 b2bc 23a0 903c 95c8 213c
00000390: fef3 763b 54e7 723b 5c32 723c f9c9 20bc
000003a0: a94a 883b 6db6 ac3c 374b 8b3c 19d0 ba3b
000003b0: 05ce 06bc bc6c ce3c 5c69 053c 9003 3d3c
000003c0: 050e 1e3c e2e8 873c ce39 81bb 8f25 adbc
000003d0: ae94 043d dbac a93c 25a3 0e3a d653 8a3c
000003e0: a804 653c 3f74 b33c 350c 093c be98 1f3c
000003f0: 773e ab3b a82a 6dbc 336d 993c ce8d 783b

network_body.linear_encoder.seq_layers.2.weight f4 [256, 256]
-0.021908788 -0.07322955 0.06927924 -0.033597413 0.056488156 0.11925156 0.09762332 -0.1790021
0.05618848 0.04143854 -0.039998032 0.10099634 -0.04578088 -0.07263026 -0.07111493 -0.11352636
-0.012039362 0.035709962 -0.015425792 0.022984935 0.050642617 0.068746164 0.030432852 0.034645375
0.08747553 0.015372929 -0.023113329 0.0065928423 -0.07120812 -0.0036263173 0.013993011 0.021722136
0.031162104 0.08529727 -0.10671608 -0.016891055 0.0035333699 0.10093719 -0.10168979 -0.06481659
-0.023497412 -0.15329446 0.04110767 -0.112844616 0.15289263 -0.029986558 -0.09359528 0.070162214
-0.022057427 -0.07019346 -0.15235722 -0.041903533 0.010484902 -0.025483448 -0.003704182 0.10774236
-0.084048636 -0.13613923 0.006034794 -0.113454275 -0.03951303 -0.08155735 -0.00862401 0.025841057
-0.015023849 -0.044608474 0.05930803 -0.03333758 -0.005198493 -0.010514209 0.09982572 0.108408384
-0.13839251 0.04950215 0.05033104 -0.029561559 -0.18076335 -0.018227404 -0.07159652 0.05589837
0.07075511 0.14299457 0.027911011 0.057882782 0.03107417 0.005683453 -0.115842275 0.0959405
-0.06182241 -0.040334273 0.008694494 0.07633317 -0.11892254 0.043212004 -0.026849464 0.098471746
0.025787758 -0.0431114 -0.05873817 0.040130258 -0.032151777 -0.04609103 -0.09446749 0.054725934
0.10017547 0.03183031 -0.08049022 -0.02682784 -0.05670854 -0.041736867 -0.052896127 0.022874327
0.029484421 -0.06661671 0.016226199 -0.038498413 -0.03933014 0.011632221 0.09292597 -0.024260143
0.04948469 0.082800224 0.085956626 0.0039842613 0.14664944 0.0047627436 -0.17815228 0.027373798
0.05993033 0.035183243 -0.0014139669 0.011979061 -0.03777765 0.116845295 -0.020727756 0.021748882
-0.007822756 0.03652511 -0.0110631045 0.0067466195 -0.043929268 -0.042058777 0.03224009 -0.014957238
-0.096360214 -0.11963538 0.10786069 0.023129823 -0.025904423 -0.09829062 -0.013909971 -0.055700917
-0.099833526 -0.008042461 -0.098295674 0.025954753 -0.059191354 -0.046394326 -0.0066638864 -0.0060811555
0.04003512 -0.032848746 -0.047658924 0.06491481 0.0733931 -0.011913848 0.010988433 0.03179129
-0.12180939 0.032492675 0.0740038 0.12213972 0.043585055 -0.018308735 -0.0005463496 0.017977845
0.039041273 -0.034947317 0.14440532 -0.0008628655 -0.08755448 -0.058222163 -0.18898405 0.025742201
0.03819115 0.042183656 -0.0061377217 0.080818966 0.0004197584 0.08730945 0.048585575 -0.074656956
0.07954565 0.029816877 -0.03764038 -0.0013592115 0.14046746 -0.009495137 0.036547758 -0.048583765
-0.05302678 0.047999863 -0.0016772221 -0.013291971 0.0025716368 -0.01796098 0.07606012 0.00041031244
0.12577653 0.005358185 -0.027318968 -0.076829836 -0.10387789 -0.018954244 -0.13640134 -0.077894256
0.0016740497 0.08892171 0.03264948 0.00036473759 0.02894343 -0.046800945 0.029627066 0.078272745
0.03411476 -0.05858497 -0.049500175 -0.025564902 0.04833499 -0.0046365745 -0.053519446 0.018157352
0.1165427 -0.011244277 -0.016995193 -0.043256998 -0.08145957 -0.012705336 -0.1408646 0.038000375
0.008698535 -0.07625283 -0.06980463 -0.036529656 -0.031479903 0.18164848 0.010429437 0.03577912
-0.0041474206 0.029126305 0.048659414 0.042293217 -0.06500798 -0.033029776 -0.023333864 -0.04682893
00000000: 0f7a b3bc 60f9 95bd 46e2 8d3d 719d 09bd
00000010: 2060 673d 293a f43d bcee c73d 544c 37be
00000020: e425 663d 75bb 293d fad4 23bd 2bd7 ce3d
00000030: bb84 3bbd 2cbf 94bd b4a4 91bd 8280 e8bd
00000040: bf40 45bc 9c44 123d 76bc 7cbc e74a bc3c
00000050: a26e 4f3d caca 8c3d 514e f93c 4fe8 0d3d
00000060: 5f26 b33d bdde 7b3c 2a58 bdbc c508 d83b
00000070: 90d5 91bd 82a7 6dbb f142 653c 9ff2 b13c
00000080: ab47 ff3c 56b0 ae3d f68d dabd 1c5f 8abc
00000090: 1c90 673b 28b8 ce3d bd42 d0bd 8fbe 84bd
000000a0: a57d c0bc 39f9 1cbe 8460 283d 141b e7bd
000000b0: e38f 1c3e 5fa6 f5bc e2ae bfbd 35b1 8f3d
000000c0: c7b1 b4bc 97c1 8fbd 8803 1cbe 0aa3 2bbd
000000d0: dec8 2b3c aac2 d0bc ddc1 72bb 07a8 dc3d
000000e0: b121 acbd 1568 0bbe 85bf c53b b75a e8bd
000000f0: 6ad8 21bd 8a07 a7bd b84b 0dbc a0b0 d33c
00000100: 9726 76bc 60b7 36bd faec 723d fc8c 08bd
00000110: 1f58 aabb ca43 2cbc 6d71 cc3d 3705 de3d
00000120: c4b6 0dbe c4c2 4a3d ec27 4e3d 152b f2bc
00000130: 071a 39be a351 95bc 32a1 92bd b0f5 643d
00000140: 0ee8 903d 2b6d 123e a2a5 e43c 7f16 6d3d
00000150: 428f fe3c 423c ba3b b73e edbd 747c c43d
00000160: 7f39 7dbd 8d35 25bd 5a73 0e3c 9154 9c3d
00000170: a98d f3bd 12ff 303d 68f3 dbbc 8eab c93d
00000180: d940 d33c 9495 30bd 6f97 70bd a05f 243d
00000190: 95b1 03bd f3c9 3cbd 2c78 c1bd 4d28 603d
000001a0: cc28 cd3d 8060 023d 0ed8 a4bd 0fc6 dbbc
000001b0: 3747 68bd 47f4 2abd 9ca9 58bd f162 bb3c
000001c0: 5089 f13c 576e 88bd ceec 843c 83b0 1dbd
000001d0: a418 21bd 1295 3e3c f94f be3d 35bd c6bc
000001e0: 75b0 4a3d 2a93 a93d 070a b03d 688e 823b
000001f0: 452b 163e ca10 9c3b 8d6d 36be 043f e03c
00000200: 8179 753d 4e1c 103d db54 b9ba d343 443c
00000210: bdbc 1abd 964c ef3d 41cd a9bc b62a b23c
00000220: 042b 00bc 5b9b 153d 0642 35bc bf12 dd3b
00000230: 2def 33bd d345 2cbd 2f0e 043d 340f 75bc
00000240: 8158 c5bd 6503 f5bd 11e6 dc3d c17a bd3c
00000250: 8335 d4bc 984c c9bd a6e6 63bc a526 64bd
00000260: 8575 ccbd 87c4 03bc 3e4f c9bd 109f d43c
00000270: a272 72bd fa07 3ebd bb5c dabb 6e44 c7bb
00000280: defb 233d 688c 06bd 0136 43bd 0ef2 843d
00000290: 1f4f 963d 4d32 43bc d408 343c 9537 023d
000002a0: 3477 f9bd 0a17 053d 4e8f 973d 6424 fa3d
000002b0: 3e86 323d 33fc 95bc e738 0fba 4646 933c
000002c0: bee9 1f3d eb24 0fbd fdde 133e ec31 62ba
000002d0: c34f b3bd 5d7a 6ebd 0985 41be 4fe1 d23c
000002e0: 536e 1c3d c5c8 2c3d f11e c9bb 6a84 a53d
000002f0: 0513 dc39 4ccf b23d ab01 473d bfe5 98bd
00000300: d4e8 a23d 8642 f43c cd2c 1abd 9227 b2ba
00000310: b4d6 0f3e 7e91 1bbc 1ab3 153d c5ff 46bd
00000320: 9c32 59bd 819b 443d 3cd6 dbba 91c6 59bc
00000330: e888 283b e822 93bc 68c5 9b3d 341f d739
00000340: 90cb 003e b793 af3b 07cc dfbc f658 9dbd
00000350: eebd d4bd ee45 9bbc cbac 0bbe 0687 9fbd
00000360: c96b db3a 961c b63d 76bb 053d 403a bf39
00000370: c61a ed3c 59b2 3fbd 76b4 f23c 764d a03d
00000380: ebbb 0b3d cbf6 6fbd b2c0 4abd 7c6d d1bc
00000390: e9fa 453d 68ee 97bb 3537 5bbd babe 943c
000003a0: f0ad ee3d ea39 38bc 8139 8bbc 402e 31bd
000003b0: 46d4 a6bd 0b2a 50bc cf3e 10be 48a6 1b3d
000003c0: 4d84 0e3c 722a 9cbd bbf5 8ebd 1fa0 15bd
000003d0: 12f1 00bd 0f02 3a3e 3be0 2a3c 208d 123d
000003e0: 16e7 87bb 4a9a ee3c 184f 473d a73b 2d3d
000003f0: e722 85bd 3b4a 07bd a926 bfbc b1cf 3fbd

network_body.linear_encoder.seq_layers.2.bias f4 [256]
0.009958771 0.010046087 -0.00789768 -0.011977948 -0.010768356 0.005078237 0.010350105 0.0034452304
0.00839841 0.0100430995 0.0063726525 6.810956e-05 0.024492597 0.007585294 -0.0028423208 -0.0034437787
0.0051864088 -0.011877538 -0.0055919006 0.0148838125 0.012743069 0.010813592 0.0047375066 0.00024708675
0.004631904 0.0039015312 0.0058065434 -0.0012722083 0.010305983 0.013311523 0.016984595 0.016221274
0.00015737451 0.0053562676 -0.016942093 0.0024054106 -0.0029152865 0.0006382194 -0.009287545 -0.0014399989
0.005375071 0.011724026 -0.0002857633 0.01235535 0.024624342 0.025528334 0.004274505 -0.0009875214
0.0060897963 -0.0058170645 0.010070891 0.0068344963 -0.0050980793 0.0055051767 0.0029341897 0.012838918
0.023445535 0.010115152 0.002961496 -0.010577116 0.0103804255 0.013800272 -0.014815637 -0.0007586727
-0.011733043 0.010410175 0.007389719 0.007754472 0.009093499 0.025632013 -0.0058126273 -0.0035167835
-0.0005720872 -0.0020873663 -0.0009654299 0.0066613737 -0.004198324 -0.0017573711 0.0005333144 0.016264986
0.02459934 0.006205937 0.008726999 0.010981623 0.0029774932 0.014664169 -0.0058665425 0.006266316
0.0063645737 0.01820642 0.030263808 0.0065425085 0.0115101775 0.011724371 -0.002980357 0.015143939
-0.0031411413 0.0006697277 -0.0004160213 0.008504683 0.010455051 -0.0014520516 0.028171606 0.012650247
-0.0026384534 -0.0056437585 0.0069768988 0.011883236 0.042369056 0.022402164 0.0027466079 0.007048964
-0.0037031597 0.0041982173 0.015564208 -0.0009672977 0.001966503 0.007690631 0.0020134212 0.005540514
0.007959928 0.013839613 -0.0076675448 0.008000975 0.017438676 -0.00271751 0.016178694 0.012134962
0.009999506 0.011911376 0.013585305 0.0051959036 0.0027365584 0.0016006398 0.010762341 0.005206937
0.007341379 0.0008171303 0.011679624 0.013448722 0.030346906 -0.001412052 0.008580927 -0.0006632738
0.004639599 0.0103180865 0.016407639 0.0098296 0.009443308 0.0035309314 -0.0039896937 0.0052609867
-0.003269863 0.02087547 0.00629547 0.016768228 -0.0020927996 0.015475297 0.013275755 0.00039215205
0.011950351 -0.0010184668 0.0033082247 0.018532895 0.0038083869 -0.0054868557 0.0058414033 -0.005674446
0.0064834864 0.0053369254 0.016746402 0.0019390665 0.02023846 0.009841253 0.0063142087 -0.006749867
0.0058957753 0.024655335 -0.0090195015 0.0131330835 0.004651323 0.00087486074 0.0074354713 0.012149509
0.0046444507 0.009933907 0.017317155 0.0033369123 0.00051162124 0.0047076717 0.0058961045 0.007456951
0.009770222 0.014510796 0.0040568756 0.0076737306 0.0112814605 -0.0053306483 0.008285087 0.0157362
0.013206316 -0.0019806707 0.017328147 0.005147266 0.00783544 0.008022003 0.008189156 0.014647982
0.0058886902 0.005637538 0.0031883756 0.01959811 0.004156804 -0.009666111 0.005458217 -0.001228988
-0.008531987 -0.0039795167 0.0110624945 -0.0010919443 -0.0074201347 0.0052159466 0.0071830875 -0.005904241
0.019356662 0.002028438 0.01385682 0.015273672 0.0124308355 0.006683698 0.02989684 0.0067182384
0.02497762 0.008275264 0.0048098247 0.0041256836 0.0074895187 0.007353694 0.0008048506 -0.0030996073
0.015526896 -0.0019562992 0.004552648 -0.0003823386 0.012905715 0.006126388 -0.01908627 0.00348057
-0.00988534 0.0013083764 0.0015195259 0.032261804 0.020706054 0.022807652 0.023895057 -0.008821414
00000000: 1d2a 233c 5898 243c 4565 01bc 283f 44bc
00000010: c26d 30bc 5767 a63b 7d93 293c 60c9 613b
00000020: 7c99 093c d08b 243c afd1 d03b 0bd6 8e38
00000030: b3a4 c83c 0f8e f83b 3b46 3abb 05b1 61bb
00000040: c0f2 a93b 019a 42bc 433c b7bb 3cdb 733c
00000050: 4ec8 503c 7e2b 313c 163d 9b3b 6c8b 8139
00000060: 3ac7 973b d5b0 7f3b d144 be3b 3ac0 a6ba
00000070: 6dda 283c 9318 5a3c 4723 8b3c 7ae2 843c
00000080: e604 2539 a183 af3b 25ca 8abc 18a4 1d3b
00000090: 640e 3fbb 2e4e 273a ca2a 18bc 58be bcba
000000a0: 5d21 b03b 2116 403c 80d2 95b9 186e 4a3c
000000b0: fdb8 c93c cc20 d13c 2611 8c3b b86f 81ba
000000c0: ea8c c73b 139d bebb 6100 253c e9f3 df3b
000000d0: ca0d a7bb c564 b43b 894b 403b 535a 523c
000000e0: da10 c03c 06ba 253c a815 423b a44b 2dbc
000000f0: a912 2a3c 891a 623c 49bd 72bc aae1 46ba
00000100: f33b 40bc 708f 2a3c 7525 f23b 3a19 fe3b
00000110: e6fc 143c 3afa d13c da77 bebb d679 66bb
00000120: 1ff8 15ba 32cc 08bb e714 7dba a747 da3b
00000130: 1892 89bb 9757 e6ba 20ce 0b3a 263e 853c
00000140: 8e84 c93c 2c5b cb3b b0fb 0e3c 44ec 333c
00000150: 0c22 433b fc41 703c 203c c0bb ab55 cd3b
00000160: ea8d d03b a125 953c ceeb f73c 8a62 d63b
00000170: 2f95 3c3c 9417 403c 1852 43bb 491e 783c
00000180: 9bdb 4dbb aa90 2f3a 6f1d dab9 3a57 0b3c
00000190: aa4b 2b3c c452 beba 24c8 e63c fb42 4f3c
000001a0: e7e9 2cbb 47ef b8bb 789e e43b e7b1 423c
000001b0: 2d8b 2d3d be84 b73c 6f00 343b fffa e63b
000001c0: b6b0 72bb 3391 893b 0501 7f3c 4092 7dba
000001d0: 72e0 003b b001 fc3b 9af3 033b 338d b53b
000001e0: 5c6a 023c 8bbf 623c 0740 fbbb 8516 033c
000001f0: 8edb 8e3c 4118 32bb 2e89 843c b8d1 463c
00000200: f8d4 233c ef27 433c e694 5e3c 6642 aa3b
00000210: d557 333b 8fcc d13a 8854 303c f49e aa3b
00000220: f38f f03b b034 563a e55b 3f3c 0758 5c3c
00000230: 139a f83c 9a14 b9ba 0497 0c3c 8ddf 2dba
00000240: c707 983b 310d 293c 5069 863c 550c 213c
00000250: 1bb8 1a3c 3367 673b fabb 82bb 5b64 ac3b
00000260: 334b 56bb 0903 ab3c 3b4a ce3b 865d 893c
00000270: 5a27 09bb 1a8c 7d3c 8d82 593c c299 cd39
00000280: 68cb 433c 137e 85ba cdce 583b 4cd2 973c
00000290: 2196 793b 15cb b3bb 3e69 bf3b b4f0 b9bb
000002a0: 6d73 d43b 60e1 ae3b c02f 893c 4628 fe3a
000002b0: 20cb a53c 353d 213c 6ce7 ce3b fd2d ddbb
000002c0: 5931 c13b fcf9 c93c 88c6 13bc 252c 573c
000002d0: 206a 983b e956 653a 41a5 f33b bc0e 473c
000002e0: 7a30 983b d3c1 223c b5dc 8d3c 19b0 5a3b
000002f0: 521e 063a d042 9a3b 1c34 c13b 7059 f43b
00000300: 4813 203c b1be 6d3c 8aef 843b eb73 fb3b
00000310: e0d5 383c b8ac aebb 2cbe 073c 34e9 803c
00000320: 4e5f 583c 24ce 01bb c2f3 8d3c 66aa a83b
00000330: 3860 003c b86e 033c cf2b 063c 17fe 6f3c
00000340: eaf5 c03b 19bb b83b 11f4 503b 378c a03c
00000350: cd35 883b 9c5e 1ebc d8da b23b ff15 a1ba
00000360: bfc9 0bbc 9b66 82bb 773f 353c 921f 8fba
00000370: 9a24 f3bb 88ea aa3b 1b60 eb3b 5d78 c1bb
00000380: dd91 9e3c 8bef 043b b707 633c 6c3e 7a3c
00000390: b4aa 4b3c ec02 db3b 38ea f43c ab24 dc3b
000003a0: de9d cc3c f994 073c bc9b 9d3b be30 873b
000003b0: a36a f53b 42f7 f03b 9cfc 523a c822 4bbb
000003c0: 8664 7e3c 4135 00bb 612e 953b 9e74 c8b9
000003d0: 7e72 533c debf c83b cf5a 9cbc 461a 643b
000003e0: 1ff6 21bc d47d ab3a d42a c73a f424 043d
000003f0: be9f a93c 1dd7 ba3c 91bf c33c b187 10bc

action_model._continuous_distribution.log_sigma f4 [1, 5]
-0.119631596 0.022457844 -0.096508935 -0.021855393 -0.20424964
00000000: 6901 f5bd 83f9 b73c 7aa6 c5bd 150a b3bc
00000010: d126 51be

action_model._continuous_distribution.mu.weight f4 [5, 256]
-0.053146493 -0.00048371925 -0.020666592 -0.0078463955 -0.016125144 0.0052661793 -0.014556914 -0.031081675
0.0021737297 0.003725809 0.018002408 0.0029261785 0.014524341 -0.01430644 0.02034575 -0.009504515
-0.022434896 0.01578863 0.013406282 -0.0031859172 0.03014018 -0.04770669 -0.043519914 0.0038323768
0.044888727 0.00509972 0.03851434 0.009506292 0.04575094 -0.031109221 -0.05081828 0.03897304
0.011953211 -0.02963459 0.021225708 -0.016357692 -0.036858674 -0.01831362 0.010710221 0.013638372
-0.005533139 0.0032808166 -0.014247962 -0.019787379 -0.01493569 0.014636082 -0.051875994 -0.025081858
0.0047184895 0.0069859647 0.0459019 -0.019204564 -0.00055327744 -0.0017587971 -0.013120623 0.022340577
0.04402316 -0.021519117 -0.029400306 -0.0060958373 0.040551923 0.026233247 0.01201969 -0.028409667
-0.0025678715 0.0109748375 0.044455417 -0.007582887 -0.030541243 -0.030168237 -0.0070110084 -0.00010805855
-0.0023231008 -0.011420601 -0.0008076603 0.028592508 -0.008808457 0.037822083 0.020776281 -0.03057583
-0.05527451 -0.04429277 -0.01687194 0.005525552 -0.038819507 -0.022147674 -0.006043283 0.02408361
-0.05557959 0.010148722 -0.016020138 0.033427183 -0.02553849 -0.04127784 0.020245025 0.0574901
-0.019344186 -0.001202052 -0.041346125 0.0066230576 -0.050706416 -0.0326496 -0.028465733 0.010131187
-0.013325705 -0.025418865 -0.056801517 0.01764288 0.0033951171 -0.013958076 -0.0044000186 0.04124794
-0.024586115 0.026767066 0.00067075115 0.031399366 0.052554633 -0.025521776 0.018363178 0.03078858
-0.018415159 -0.032829802 0.013984896 -0.024491044 0.034187287 0.0020724717 0.061531175 0.054644126
0.0029606384 0.027978364 0.067675725 -0.03950287 -0.026405366 0.029664336 0.011229177 -0.015149169
0.053318385 0.023839014 0.041350745 0.049489833 -0.0073208367 0.015269867 0.00930952 0.05289527
0.041061725 -0.049683984 -0.002106432 0.05580455 0.03655578 -0.050870124 -0.008479281 -0.041396126
0.00176551 -0.06964493 -0.058300033 0.045895517 0.024525575 -0.031310685 0.010207189 -0.004156915
0.048387714 0.033422347 -0.046775717 -0.069813654 0.01760541 0.014325376 0.02792904 -0.006666584
0.005008268 -0.046744287 -0.009376303 0.034031678 -0.006000072 0.035291716 -0.012770647 0.0029424815
0.016706895 -0.0025841156 0.016749287 0.028289283 -0.034912784 -0.03390658 0.032070387 -0.010191381
0.04452692 -0.03515338 -0.009072139 0.0069625834 0.013952493 0.009816885 -0.050492045 -0.06806199
0.048432134 0.008814076 0.0116104605 0.012195858 0.042069703 -0.026438888 0.014751486 -0.010420212
0.054081228 -0.0070857042 0.024540642 -0.0050396174 -0.03834995 -0.02876457 0.011866414 -0.00077604596
-0.00595533 -0.021850549 0.022394774 0.017965881 -0.047136303 -0.049866486 0.002815102 0.0046097585
0.0029374976 0.023279758 0.046516757 -0.04508516 -0.015434392 0.048008423 -0.041554656 -0.012371141
-0.028517349 -0.026038524 -0.0051612756 -0.050231434 0.042011343 0.04304973 0.057604328 0.035501946
-0.016952954 -0.008776862 0.036559496 0.05041061 0.059250437 -0.024387091 -0.039998155 0.010378402
-0.001373834 -0.022283481 -0.030715624 -0.041591883 -0.008792435 -0.03536452 -0.0077309674 0.020142654
-0.0063315444 -0.06518001 0.012451823 0.053398725 0.03618673 0.022872707 -0.013650408 -0.0031595358
00000000: 23b0 59bd b39b fdb9 fc4c a9bc 2b8e 00bc
00000010: e118 84bc ea8f ac3b 1f80 6ebc ff9e febc
00000020: 2275 0e3b b42c 743b c979 933c 21c5 3f3b
00000030: 80f7 6d3c 8f65 6abc 21ac a63c d3b8 1bbc
00000040: 63c9 b7bc 2857 813c 06a6 5b3c d2ca 50bb
00000050: 8ae8 f63c 1768 43bd f041 32bd 9d28 7b3b
00000060: 3edd 373d 8d1b a73b 36c1 1d3d 47c0 1b3c
00000070: 5665 3b3d c4d8 febc d426 50bd 32a2 1f3d
00000080: 67d7 433c 3dc4 f2bc 89e1 ad3c 9100 86bc
00000090: 1ff9 16bd 7206 96bc ec79 2f3c 7a73 5f3c
000000a0: 564f b5bb f802 573b 4970 69bc 2419 a2bc
000000b0: d3b4 74bc 2dcc 6f3c ec7b 54bd 7878 cdbc
000000c0: 8f9d 9a3b 85ea e43b a103 3c3d e452 9dbc
000000d0: d209 11ba 7087 e6ba e2f7 56bc 9603 b73c
000000e0: a151 343d dc48 b0bc e9d8 f0bc 97bf c7bb
000000f0: c619 263d 1be7 d63c 3cee 443c 64bb e8bc
00000100: bc49 28bb cecf 333c e216 363d de79 f8bb
00000110: a131 fabc 6123 f7bc 9abc e5bb 7e9d e2b8
00000120: 2a3f 18bb 791d 3bbc 2ab9 53ba d63a ea3c
00000130: 5951 10bc 54eb 1a3d 0533 aa3c 2a7a fabc
00000140: 8667 62bd 566c 35bd 0637 8abc b10f b53b
00000150: 3401 1fbd 0a6f b5bc bb06 c6bb fe4a c53c
00000160: 6da7 63bd d346 263c aa3c 83bc f1ea 083d
00000170: 1836 d1bc f412 29bd e5d8 a53c bd7a 6b3d
00000180: b377 9ebc 2c8e 9dba 8e5a 29bd 3c06 d93b
00000190: 88b1 4fbd 96bb 05bd f830 e9bc 47fd 253c
000001a0: 0f54 5abc 393b d0bc b5a8 68bd cd87 903c
000001b0: 9d80 5e3b 6ab0 64bc 082e 90bb 9af3 283d
000001c0: d268 c9bc 9b46 db3c 59d5 2f3a 9f9c 003d
000001d0: 8743 573d 0b13 d1bc 606e 963c 5538 fc3c
000001e0: 63db 96bc 8b78 06bd e820 653c 71a1 c8bc
000001f0: f807 0c3d 4ed2 073b 1d08 7c3d 85d2 5f3d
00000200: 4507 423b e232 e53c 9299 8a3d c3cd 21bd
00000210: 1150 d8bc 9f02 f33c 95fa 373c 3834 78bc
00000220: 6164 5a3d 094a c33c 665f 293d dab5 4a3d
00000230: a1e3 efbb 772e 7a3c f586 183c b6a8 583d
00000240: 5730 283d 6f81 4bbd 110c 0abb 5093 643d
00000250: 83bb 153d 315d 50bd afec 0abc fc8e 29bd
00000260: af68 e73a 00a2 8ebd 04cc 6ebd f0fc 3b3d
00000270: dce9 c83c a23f 00bd 0e3c 273c bb36 88bb
00000280: 3232 463d dfe5 083d e597 3fbd 76fa 8ebd
00000290: 3939 903c fbb4 6a3c 71cb e43c 5c73 dabb
000002a0: 661c a43b f076 3fbd 119f 19bc cd64 0b3d
000002b0: 419c c4bb 0c8e 103d fa3b 51bc a6d6 403b
000002c0: e6dc 883c 445a 29bb cd35 893c edbe e73c
000002d0: b500 0fbd a0e1 0abd 3d5c 033d c0f9 26bc
000002e0: dc61 363d fefc 0fbd 4fa3 14bc 6226 e43b
000002f0: ff98 643c 00d7 203c bfd0 4ebd 1664 8bbd
00000300: c660 463d ea68 103c cd39 3e3c 23d1 473c
00000310: 4851 2c3d 5e96 d8bc 37b0 713c 89b9 2abc
00000320: 4784 5d3d 322f e8bb 7509 c93c 6023 a5bb
00000330: d614 1dbd ada3 ebbc 596b 423c 906f 4bba
00000340: ee24 c3bb ecff b2bc 3f75 b73c 2f2d 933c
00000350: ff11 41bd cd40 4cbd 937d 383b 750d 973b
00000360: 0883 403b 31b5 be3c 5b88 3e3d 37ab 38bd
00000370: 88e0 7cbc 7ba4 443d 3735 2abd 54b0 4abc
00000380: 379d e9bc be4e d5bc eb1f a9bb 7abf 4dbd
00000390: 1614 2c3d ea54 303d 84f2 6b3d 7d6a 113d
000003a0: ece0 8abc d4cc 0fbc 69bf 153d 5b7b 4e3d
000003b0: 96b0 723d 70c7 c7bc 1bd5 23bd 2c0a 2a3c
000003c0: 3812 b4ba d98b b6bc 559f fbbc 405c 2abd
000003d0: 250e 10bc 63da 10bd 0e54 fdbb 3502 a53c
000003e0: d878 cfbb 197d 85bd bb02 4c3c 9fb8 5a3d
000003f0: 8938 143d 8b5f bb3c f6a5 5fbc 3710 4fbb

action_model._continuous_distribution.mu.bias f4 [5]
0.006532647 -0.0113979075 -0.0018758023 0.0012486476 -0.0045459988
00000000: d10f d63b 4abe 3abc 7bdd f5ba a9a9 a33a
00000010: 9af6 94bb
