MLConfig/results/newAnimal/Animal/Animal-2999896.onnx (onnx, 296297 bytes, 7 tensors)

network_body.linear_encoder.seq_layers.0.weight f4 [256, 24]
0.027035307 -0.19049016 -0.2379261 0.36262017 0.07407028 -0.019318964 -0.24071425 -0.11160695
0.27701163 -0.40008405 0.123933315 -0.02090277 -0.06076353 0.073631115 0.05248036 -0.12178051
0.08436386 -0.007831581 -0.20103842 -0.48125714 -0.19191109 -0.0028707355 0.35086092 -0.2361672
-0.4004211 0.31815532 -0.46667963 -0.22146286 0.10275731 -0.056260135 0.1956361 0.6047171
-0.0023350418 0.09764905 0.07426409 0.111727215 -0.2608082 0.3644872 -0.22492443 -0.31569213
-0.016380038 -0.11042034 -0.14410762 -0.49681738 0.3434717 -0.2404375 0.15698516 0.036111973
0.0018597449 0.15018667 -0.22220063 -0.19085631 -0.22699371 0.2443307 0.10458288 -0.19203417
-0.23452792 0.29766747 0.039025847 0.12597711 -0.23877063 0.1406132 -0.55286366 0.3898719
0.34186918 0.08134066 0.2311967 -0.21433227 0.048195526 -0.194029 0.16832243 -0.027122745
-0.09724759 -0.01060792 0.2549852 -0.2835322 -0.0038397277 0.09493467 0.05308328 -0.2849092
0.107100874 0.16776524 -0.06821314 0.17715177 0.16281274 -0.089382015 0.34836036 0.14689258
-0.07714172 -0.16664164 0.1180828 0.095949695 0.34392956 -0.26242578 -0.07326899 0.08693763
0.1972837 -0.28121376 0.10394917 -0.28534952 0.009878207 -0.115937404 -0.06711399 0.19717506
-0.022269657 -0.44364145 0.36129212 0.10267383 0.119369954 -0.019589912 0.1971355 0.091565534
-0.34487298 -0.42494205 0.017785313 0.2773876 -0.32205516 -0.21048862 -0.061691713 -0.08290451
0.14382307 0.2030351 0.027574036 0.038444404 -0.4163069 0.21383893 -0.16729501 0.35755304
0.03557177 0.10213654 -0.31879652 0.0967373 0.16633157 0.19672142 0.009695098 -0.09220275
0.2227601 0.31018066 -0.08229817 0.00154661 0.09643577 -0.024104787 -0.04926017 0.04299428
-0.05901342 0.061546344 -0.23122151 0.17873777 -0.16656679 0.3708458 -0.20534097 -0.30149204
-0.19098388 0.05508343 0.23891033 -0.0038414376 0.012753059 -0.10682258 -0.0640082 0.04576531
-0.117926925 -0.18965325 -0.04963066 0.012417391 -0.33432323 -0.20710714 0.38073397 -0.04521166
0.022270642 0.11494543 -0.045918223 -0.020250976 0.41821164 -0.15784177 -0.13543534 0.09384099
0.30352345 0.22753978 0.1638421 0.08748893 -0.27582464 -0.13617562 0.21837851 -0.030480841
-0.06598471 -0.4092892 0.18354385 0.1375882 -0.1905706 -0.11697531 0.30957967 -0.037822645
-0.095306635 0.14904329 0.002584252 0.25324237 -0.3078506 0.6037707 -0.19675772 -0.023902595
0.05890042 0.16275683 -0.25744635 -0.22036663 -0.2317203 -0.028633645 0.16459869 -0.04498513
-0.20574678 0.6246784 -0.2977187 -0.016098175 -0.09263791 -0.06867219 -0.059150845 -0.046310343
-0.1822451 -0.27185017 0.13239 0.2100783 0.06251696 -0.014505252 -0.04052731 -0.09676022
-0.16517478 0.20502234 0.22230378 0.08846762 -0.13017265 -0.023453554 -0.114713356 0.12735848
-0.29061103 0.27231467 -0.09613958 -0.49768397 0.17391752 0.14892273 0.03286842 -0.055321652
0.11147826 0.1475481 -0.38796157 0.07444006 0.22317842 -0.20857742 -0.18719225 0.044842247
-0.10057945 -0.14123963 0.096857436 0.09463372 -0.2347002 -0.0012260719 -0.1041016 0.1312438
00000000: 2679 dd3c da0f 43be e6a2 73be 5aa9 b93e
00000010: 29b2 973d ce42 9ebc cc7d 76be 2f92 e4bd
00000020: 78d4 8d3e d1d7 ccbe c0d0 fd3d 493c abbc
00000030: 2ee3 78bd e9cb 963d a5f5 563d 0f68 f9bd
00000040: f6c6 ac3d 0850 00bc 04dd 4dbe 5667 f6be
00000050: 5784 44be f322 3cbb 0ba4 b33e d1d5 71be
00000060: ff03 cdbe 41e5 a23e a2f0 eebe 29c7 62be
00000070: 6d72 d23d 0771 66bd d454 483e bdce 1a3f
00000080: 8007 19bb 3afc c73d c517 983d 3dd1 e43d
00000090: a788 85be 119e ba3e 9752 66be 66a2 a1be
000000a0: 6e2f 86bc 0f24 e2bd f390 13be d95e febe
000000b0: 86db af3e 3f35 76be b8c0 203e 26ea 133d
000000c0: afc2 f33a 89ca 193e 9088 63be d66f 43be
000000d0: 0a71 68be d431 7a3e 8d2f d63d 9ba4 44be
000000e0: 1628 70be df67 983e 91d9 1f3d 2500 013e
000000f0: 4a80 74be e8fc 0f3e 7988 0dbf 4a9d c73e
00000100: 7a09 af3e ef95 a63d d4be 6c3e eb79 5bbe
00000110: ac68 453d 8aaf 46be b75c 2c3e 8530 debc
00000120: bf29 c7bd d7cc 2dbc 6c8d 823e 222b 91be
00000130: f1a3 7bbb 1c6d c23d da6d 593d 9edf 91be
00000140: b457 db3d a7ca 2b3e 55b3 8bbd 4667 353e
00000150: 62b8 263e eb0d b7bd 4a5c b23e 026b 163e
00000160: 7afc 9dbd 1ba4 2abe 65d5 f13d 4681 c43d
00000170: 8917 b03e ac5c 86be 0d0e 96bd 5b0c b23d
00000180: bd04 4a3e 40fb 8fbe 4de3 d43d 5519 92be
00000190: 34d8 213c 9770 edbd 0f73 89bd 42e8 493e
000001a0: db6e b6bc f924 e3be 48fb b83e a846 d23d
000001b0: 3c78 f43d 067b a0bc e3dd 493e b686 bb3d
000001c0: 3193 b0be 0192 d9be 81b2 913c bf05 8e3e
000001d0: 6ae4 a4be 548a 57be 73b0 7cbd d7c9 a9bd
000001e0: 5b46 133e 6fe8 4f3e f2e2 e13c e177 1d3d
000001f0: 2e26 d5be 98f8 5a3e 624f 2bbe 3111 b73e
00000200: b4b3 113d f62c d13d 4c39 a3be 351e c63d
00000210: d352 2a3e 5771 493e 30d8 1e3c ccd4 bcbd
00000220: 391b 643e 00d0 9e3e f18b a8bd 9fb7 ca3a
00000230: 1e80 c53d 6777 c5bc 08c5 49bd c51a 303d
00000240: 0eb8 71bd 0518 7c3d 55c5 6cbe 0907 373e
00000250: 7c90 2abe 80df bd3e e744 52be 2a5d 9abe
00000260: 4791 43be 2a9f 613d e9a4 743e a1c0 7bbb
00000270: 35f2 503c ccc5 dabd bb16 83bd 6874 3b3d
00000280: ac83 f1bd 7634 42be 8549 4bbd 5072 4b3c
00000290: 6a2c abbe e513 54be 90ef c23e dd2f 39bd
000002a0: ec70 b63c 8268 eb3d bf14 3cbd 60e5 a5bc
000002b0: d61f d63e 46a1 21be 90af 0abe b42f c03d
000002c0: 6d67 9b3e 3000 693e 39c6 273e 652d b33d
000002d0: e338 8dbe 9f71 0bbe 9e9e 5f3e f5b2 f9bc
000002e0: fe22 87bd 5b8e d1be ebf2 3b3e ece3 0c3e
000002f0: f024 43be c090 efbd 3a81 9e3e ebeb 1abd
00000300: 2030 c3bd ce9e 183e 8e5c 293b fca8 813e
00000310: 989e 9dbe b790 1a3f db7a 49be 60cf c3bc
00000320: 9141 713d baa9 263e 02d0 83be caa7 61be
00000330: 1648 6dbe 1b91 eabc 8f8c 283e 5442 38bd
00000340: 49af 52be ecea 1f3f 966e 98be 52e0 83bc
00000350: f2b8 bdbd 01a4 8cbd 2848 72bd eaaf 3dbd
00000360: 769e 3abe f22f 8bbe 3f91 073e c41e 573e
00000370: e408 803d 70a7 6dbc f7ff 25bd 392a c6bd
00000380: 9423 29be 60f1 513e 9aa3 633e 832e b53d
00000390: fb4b 05be ab21 c0bc d6ee eabd 436a 023e
000003a0: f8ca 94be d46c 8b3e d4e4 c4bd 6fd0 febe
000003b0: 6f17 323e 337f 183e 09a1 063d f598 62bd
000003c0: b74e e43d d916 173e e6a2 c6be 0874 983d
000003d0: e288 643e 5295 55be 53af 3fbe 81ac 373d
000003e0: 99fc cdbd 1fa1 10be 315d c63d 53cf c13d
000003f0: 4055 70be 25b4 a0ba 3833 d5bd c664 063e

network_body.linear_encoder.seq_layers.0.bias f4 [256]
0.004674003 -0.0012728695 0.008471118 0.01626574 0.02346409 -0.0068305596 0.0070644664 0.007011424
0.032813303 0.017467272 0.0721357 0.03806462 0.011619969 0.024894562 0.014304632 0.015918344
0.009273913 0.008780271 0.0015546441 0.014212216 -0.009519827 0.0138861695 0.010600293 -0.003340479
0.017720873 -0.01065508 0.009350622 0.0027684767 0.0039194017 0.016048055 -0.002086767 0.009710439
0.03647929 0.021465458 -0.0021752096 0.018051382 0.015180188 0.05649236 -0.014155834 -0.028161598
0.02381514 0.01885536 -0.00025176618 0.030233053 0.010244647 0.016951967 0.012371376 0.011255795
0.010123042 0.010399334 -0.005248337 0.0028548657 -0.002625669 0.0060430137 -0.009678886 0.03210364
0.021380994 -0.017088596 0.023290424 0.015736673 0.0048308787 0.019735996 0.013248242 0.0151899895
9.0128095e-05 0.012610686 -0.027511345 0.020429166 0.011785601 0.010859546 0.026725415 0.0009098428
0.0050310534 -0.0041527096 -2.2044758e-05 -0.017021198 0.0064239698 0.033802312 0.018186426 0.014519417
0.0013236307 0.010709155 -0.012162934 0.029633615 0.0016017966 0.039418705 0.018996328 0.005903616
-0.0010781514 0.009785927 0.018406399 0.017329095 0.0023072215 -0.0077859364 0.007879144 0.00870683
0.027313102 0.0035696959 0.012339333 -0.0063500516 -0.002907968 0.026888695 0.019823248 0.012925223
0.022367569 -0.00020232104 0.0045359074 0.01930561 0.016787266 0.02709565 0.021608397 0.0047090445
0.0219235 0.011524571 0.007214159 -0.0039962903 -0.0024026323 -0.020724175 0.025841469 0.02693981
0.020418685 0.02192905 0.026486533 -0.0009523336 0.031494174 0.005628359 0.011168591 0.03460491
-0.0042471206 -0.023777183 -0.012934274 0.050879464 -0.0066105546 0.011545734 0.025088884 -0.000113770555
0.008603417 -0.004153452 -0.008405654 0.012590167 -0.0069033266 0.010553381 -0.008826756 -0.016389348
0.012575605 -0.007668346 0.021686966 0.02023095 0.0146769965 -0.0071599693 -0.007543756 -0.01323987
0.028443763 -0.01308778 0.016144415 0.01914172 0.030350456 0.020874694 0.012301545 -0.007890866
0.009982635 0.032619145 0.018968994 0.039178602 -0.022456782 0.019949095 -0.011586417 0.011617898
-0.0011657604 -0.0021743663 0.03182774 0.011852256 -0.0087085115 -0.007126408 0.016481098 -0.0030470004
0.0014757016 -0.016344255 0.02227906 -0.0027288913 0.0030337018 0.025207045 0.0128622465 0.023429254
0.023571843 0.01520103 0.0036309573 0.03491576 0.011686784 -0.01667684 0.003095666 0.019315235
0.020611737 0.017321087 0.018485077 0.002349913 0.020211395 0.010835595 0.0069037764 0.010314074
0.028677976 -0.0063359537 0.005825378 0.021638088 0.029997677 0.021730438 0.028639676 0.008610394
-0.0018459752 0.0025165968 -0.00029630354 0.012818888 0.03629371 0.00064600096 0.010551973 -0.0040377555
0.045263957 0.006047064 -0.0011314118 0.021608202 0.0066293436 0.017518478 -0.0022141975 0.0026812772
0.010403642 -0.022549946 0.017316658 0.008684887 0.0076250453 0.002749414 0.0145508805 -0.010042393
0.0034200826 0.023701724 0.016553262 0.0069897803 -0.010144769 0.026804412 0.008563092 0.013846387
0.012142401 0.0160778 -0.0041732993 -0.02111269 0.029504163 0.021895658 0.00032472695 0.016352683
0.016907072 0.024416663 0.010430087 0.010352444 0.0045509334 -0.013138863 0.021219436 0.0040395376
00000000: 6128 993b 6ad6 a6ba 72ca 0a3c bb3f 853c
00000010: c337 c03c e3d2 dfbb 0a7d e73b 16c0 e53b
00000020: 3e67 063d 8617 8f3c e2bb 933d a6e9 1b3d
00000030: af61 3e3c aeef cb3c fa5d 6a3c 3067 823c
00000040: 9cf1 173c 20db 0f3c 33c5 cb3a 5bda 683c
00000050: 0cf9 1bbc d182 633c daac 2d3c f0eb 5abb
00000060: 5d2b 913c a592 2ebc 5a33 193c 556f 353b
00000070: 536e 803b 3677 833c 24c2 08bb 8818 1f3c
00000080: 4f6b 153d 54d8 af3c f68d 0ebb 7ee0 933c
00000090: 53b6 783c 8864 673d dfed 67bc 27b3 e6bc
000000a0: f817 c33c 8e76 9a3c 7cff 83b9 4fab f73c
000000b0: 2ad9 273c dade 8a3c 50b1 4a3c 3a6a 383c
000000c0: 1edb 253c f861 2a3c 3efa abbb b318 3b3b
000000d0: 6a13 2cbb 7904 c63b 3194 1ebc 1b7f 033d
000000e0: 3227 af3c 62fd 8bbc 8fcb be3c 32ea 803c
000000f0: 594c 9e3b 62ad a13c 280f 593c 6fdf 783c
00000100: 2703 bd38 0d9d 4e3c 795f e1bc 115b a73c
00000110: 6518 413c 3dec 313c 42ef da3c 8482 6e3a
00000120: 89db a43b 7413 88bb c2ec b8b7 0a70 8bbc
00000130: 2a80 d23b 4b74 0a3d b3fb 943c d9e2 6d3c
00000140: ad7d ad3a 7475 2f3c 0b47 47bc 32c2 f23c
00000150: 60f3 d13a 8275 213d 309e 9b3c 1f73 c13b
00000160: c250 8dba 2755 203c 04c9 963c bff5 8d3c
00000170: c134 173b 2b21 ffbb 8617 013c 18a7 0e3c
00000180: babf df3c 8ff1 693b ea2a 4a3c 1814 d0bb
00000190: 9b93 3ebb ae45 dc3c 5d64 a23c 51c4 533c
000001a0: 313c b73c 2426 54b9 f3a1 943b cc26 9e3c
000001b0: 7385 893c b2f7 dd3c 1804 b13c 544e 9a3b
000001c0: e998 b33c 8ed1 3c3c c064 ec3b 50f3 82bb
000001d0: 7b75 1dbb bfc5 a9bc 7db1 d33c e0b0 dc3c
000001e0: 1645 a73c 8da4 b33c 49fa d83c 07a6 79ba
000001f0: 0900 013d 196e b83b 77fc 363c e1bd 0d3d
00000200: 6e2b 8bbb 5ec8 c2bc 47ea 53bc fc66 503d
00000210: 5a9d d8bb 512a 3d3c 3487 cd3c 1a98 eeb8
00000220: 59f5 0c3c ae19 88bb deb7 09bc fd46 4e3c
00000230: 4d35 e2bb 17e8 2c3c 199e 10bc f442 86bc
00000240: e909 4e3c c046 fbbb dda8 b13c 61bb a53c
00000250: c977 703c 2d9e eabb 9d31 f7bb 0aec 58bc
00000260: e502 e93c 216e 56bc 4b41 843c 19cf 9c3c
00000270: 85a1 f83c 6801 ab3c 6b8c 493c b148 01bc
00000280: 358e 233c a79b 053d dd64 9b3c be79 203d
00000290: 49f7 b7bc 496c a33c f5d4 3dbc ff58 3e3c
000002a0: 6ecc 98ba d07f 0ebb ce5d 023d f72f 423c
000002b0: 25ae 0ebc a584 e9bb 5e03 873c 2fb0 47bb
000002c0: 546c c13a 63e4 85bc 9382 b63c 33d7 32bb
000002d0: 12d1 463b 017f ce3c 2cbc 523c b5ee bf3c
000002e0: bd19 c13c be0d 793c 5bf5 6d3b d403 0f3d
000002f0: ed79 3f3c de9d 88bc a8e0 4a3b fc3a 9e3c
00000300: f2d9 a83c f4e4 8d3c 046e 973c ff00 1a3b
00000310: 5e92 a53c c887 313c 1339 e23b 5dfc 283c
00000320: 13ee ea3c d59d cfbb d0e2 be3b 5c42 b13c
00000330: b0bd f53c 0804 b23c c19d ea3c 9c12 0d3c
00000340: a6f4 f1ba 7ded 243b 3059 9bb9 5006 523c
00000350: b7a8 143d 6458 293a 2fe2 2c3c 264f 84bb
00000360: b366 393d 7326 c63b e14b 94ba af03 b13c
00000370: f73a d93b e982 8f3c 121c 11bb 5eb8 2f3b
00000380: 0a74 2a3c aaba b8bc aadb 8d3c 0e4b 0e3c
00000390: 84db f93b 832f 343b d166 6e3c d988 24bc
000003a0: 7723 603b 1e2a c23c b59a 873c 870a e53b
000003b0: 3f36 26bc ed94 db3c 364c 0c3c f5db 623c
000003c0: ecf0 463c 97b5 833c 2cc0 88bb 85f4 acbc
000003d0: b7b2 f13c 865e b33c 1d40 aa39 10f6 853c
000003e0: b380 8a3c 7405 c83c f5e2 2a3c 4c9d 293c
000003f0: ff1f 953b 6344 57bc 62d4 ad3c 195e 843b

network_body.linear_encoder.seq_layers.2.weight f4 [256, 256]
-0.022767121 -0.066058934 0.069707915 -0.036864534 0.056540217 0.120868824 0.09547679 -0.17834802
0.058449946 0.04491686 -0.038471073 0.10001777 -0.045052137 -0.07258422 -0.07296876 -0.10741245
-0.009674243 0.038427472 -0.012391005 0.015867429 0.05328523 0.06900039 0.028443936 0.02876126
0.09200717 0.01848315 -0.022119744 0.009328607 -0.06724129 -0.004174227 0.010517055 0.021566749
0.033571415 0.085924596 -0.10263258 -0.014587701 0.0055956515 0.10413348 -0.105061255 -0.0683937
-0.018816229 -0.15146968 0.041522678 -0.11225193 0.15351656 -0.03186387 -0.092381954 0.0768868
-0.02822784 -0.07135468 -0.15694377 -0.040935177 0.0042073526 -0.021992061 -0.0052909595 0.11424206
-0.08430519 -0.1353268 0.009413275 -0.11607215 -0.042610023 -0.079642095 -0.012409366 0.026338125
-0.012023977 -0.043296155 0.06201159 -0.030747699 -0.005874328 -0.008509878 0.09782624 0.10805122
-0.13673873 0.05106221 0.05388522 -0.02865529 -0.18221529 -0.0254567 -0.071373194 0.05588756
0.06897316 0.14870073 0.027202535 0.0612661 0.031260777 0.009092195 -0.11640071 0.09864739
-0.058741212 -0.038265515 0.0043539405 0.083206676 -0.117394604 0.04136229 -0.03166542 0.09557485
0.027566759 -0.04130195 -0.06277332 0.03808502 -0.028642034 -0.041032698 -0.09203295 0.05855765
0.095198445 0.028173579 -0.0835767 -0.027741062 -0.06092146 -0.040147264 -0.052678138 0.022332005
0.02967426 -0.07186559 0.013298423 -0.03676874 -0.0493273 0.013226298 0.092654355 -0.025205633
0.05445179 0.08594691 0.092571266 0.00715532 0.14724398 0.004194819 -0.17935157 0.025195887
0.06104435 0.037570447 0.004025936 0.010767181 -0.04008907 0.115099244 -0.02106969 0.023641821
-0.008944948 0.03535074 -0.010209304 0.0027673522 -0.045421727 -0.03853296 0.027683573 -0.01405389
-0.10079814 -0.11563281 0.11128893 0.023824885 -0.026604775 -0.09858061 -0.009335414 -0.05276562
-0.102402434 -0.0068070674 -0.10369925 0.028970545 -0.06012108 -0.04733075 -0.012589923 -0.0074446555
0.041589882 -0.035587512 -0.048324123 0.066977344 0.07407308 -0.011615954 0.011598203 0.037165068
-0.12549138 0.03338911 0.07560997 0.12666453 0.046558794 -0.017700255 -0.0047205016 0.022083826
0.042449627 -0.036609337 0.14026949 0.0027497837 -0.08906006 -0.06560952 -0.18945622 0.027324453
0.025248302 0.0456039 -0.0051268823 0.08379502 -0.0015963821 0.08396185 0.047012802 -0.078426875
0.07615555 0.02890605 -0.03728067 0.0007288101 0.14120735 -0.007425494 0.035306673 -0.047530014
-0.053097453 0.04970192 -0.0012559581 -0.0096407095 0.004525454 -0.018228339 0.07565877 0.0019976404
0.12951885 0.0030077668 -0.027719328 -0.0786259 -0.109918885 -0.016527178 -0.13526301 -0.074515834
0.0012132182 0.09119501 0.035159778 -0.0040488103 0.02526179 -0.048942003 0.03314414 0.079471886
0.036801692 -0.058626156 -0.049493667 -0.028294923 0.051065218 -0.0028308753 -0.052290387 0.022173243
0.115482375 -0.0065017133 -0.012116398 -0.039325256 -0.08002513 -0.022171572 -0.13719514 0.037423823
0.010573606 -0.08269624 -0.06522733 -0.03558045 -0.033137385 0.18798387 0.01370186 0.03182964
-0.0082833 0.03186632 0.052319113 0.041795045 -0.069931336 -0.02856999 -0.018535564 -0.045607515
00000000: 1d82 babc e849 87bd 06c3 8e3d 44ff 16bd
00000010: b796 673d 138a f73d 5689 c33d dda0 36be
00000020: 3669 6f3d befa 373d d893 1dbd 1ed6 cc3d
00000030: 9788 38bd 09a7 94bd a570 95bd 0ffb dbbd
00000040: b780 1ebc 2066 1d3d a403 4bbc 69fc 813c
00000050: 9d41 5a3d 1450 8d3d 4203 e93c bc9c eb3c
00000060: 416e bc3d fa69 973c 7734 b5bc 03d7 183c
00000070: cdb5 89bd f4c7 88bb ba4f 2c3c c0ac b03c
00000080: 2e82 093d 3cf9 af3d 0831 d2bd 4101 6fbc
00000090: ba5b b73b ef43 d53d 5b2a d7bd ff11 8cbd
000000a0: 7e24 9abc de1a 1bbe af13 2a3d 57e4 e5bd
000000b0: 7233 1d3e b083 02bd c032 bdbd d476 9d3d
000000c0: 123e e7bc 6722 92bd deb5 20be a5ab 27bd
000000d0: d5dd 893b b228 b4bc c95f adbb bef7 e93d
000000e0: 33a8 acbd 1c93 0abe 233a 1a3c 3cb7 edbd
000000f0: d987 2ebd 651b a3bd a750 4bbc 0dc3 d73c
00000100: 3700 45bc 4f57 31bd ddff 7d3d 99e2 fbbc
00000110: 6f7d c0bb 046d 0bbc 2059 c83d f549 dd3d
00000120: 3d05 0cbe 9c26 513d c0b6 5c3d 80be eabc
00000130: a596 3abe 928a d0bc 1c2c 92bd 5bea 643d
00000140: cd41 8d3d 0145 183e dad7 de3c 29f2 7a3d
00000150: 4d0b 003d 6ef7 143c 7f63 eebd a507 ca3d
00000160: a09a 70bd 4dbc 1cbd 80ab 8e3b 4368 aa3d
00000170: 956c f0bd 816b 293d 99b3 01bd bfbc c33d
00000180: afd3 e13c 3c2c 29bd 4c8f 80bd 0aff 1b3d
00000190: b3a2 eabc e711 28bd c57b bcbd 25da 6f3d
000001a0: 67f7 c23d 47cc e63c 432a abbd 3941 e3bc
000001b0: c888 79bd 7571 24bd 08c5 57bd 9cf1 b63c
000001c0: 6f17 f33c 442e 93bd a1e1 593c d19a 16bd
000001d0: 6c0b 4abd 1db3 583c 91c1 bd3d 0b7c cebc
000001e0: d708 5f3d ef04 b03d 0196 bd3d 2d77 ea3b
000001f0: 20c7 163e b174 893b f0a7 37be 9b67 ce3c
00000200: a409 7a3d 78e3 193d 00ec 833b d568 303c
00000210: 7034 24bd 27b9 eb3d 589a acbc 7eac c13c
00000220: d58d 12bc f0cb 103d ed44 27bc 775c 353b
00000230: 220c 3abd bdd4 1dbd a9c8 e23c 4942 66bc
00000240: 416f cebd e5d0 ecbd 73eb e33d 682c c33c
00000250: 42f2 d9bc a1e4 c9bd 90f3 18bc c320 58bd
00000260: 5eb8 d1bd d20d dfbb 4660 d4bd a353 ed3c
00000270: 8641 76bd e3dd 41bd f745 4ebc 4cf2 f3bb
00000280: 275a 2a3d 36c4 11bd 84ef 45bd 6b2b 893d
00000290: a1b3 973d d850 3ebc 6406 3e3c 663a 183d
000002a0: d080 00be 05c3 083d 66d9 9a3d 59b4 013e
000002b0: 6fb4 3e3d 2000 91bc 70ae 9abb 24e9 b43c
000002c0: a9df 2d3d acf3 15bd cea2 0f3e b735 343b
000002d0: 1f65 b6bd 495e 86bd d000 42be 88d7 df3c
000002e0: 87d5 ce3c 28cb 3a3d 68ff a7bb b99c ab3d
000002f0: b23d d1ba 31f4 ab3d 7f90 403d 459e a0bd
00000300: 71f7 9b3d 61cc ec3c 9eb3 18bd 9e0d 3f3a
00000310: a998 103e 8f51 f3bb bb9d 103d d5ae 42bd
00000320: b77c 59bd 3e94 4b3d f69e a4ba 11f4 1dbc
00000330: 424a 943b 9953 95bc fcf2 9a3d d8ea 023b
00000340: 97a0 043e f41d 453b a513 e3bc 9e06 a1bd
00000350: 271d e1bd 0164 87bc 6382 0abe c29b 98bd
00000360: d904 9f3a 73c4 ba3d b303 103d e2ab 84bb
00000370: d0f1 ce3c 6977 48bd 26c2 073d 28c2 a23d
00000380: 5fbd 163d fb21 70bd dfb9 4abd c1ca e7bc
00000390: c329 513d 3586 39bb 722e 56bd a9a4 b53c
000003a0: 0682 ec3d 530c d5bb db83 46bc 8513 21bd
000003b0: 37e4 a3bd 28a1 b5bc e27c 0cbe b949 193d
000003c0: eb3c 2d3c a55c a9bd e895 85bd cebc 11bd
000003d0: 11bb 07bd d87e 403e c47d 603c cc5f 023d
000003e0: aeb6 07bc 4286 023d 914c 563d 4831 2b3d
000003f0: 2938 8fbd 9d0b eabc e5d7 97bc f2ce 3abd

network_body.linear_encoder.seq_layers.2.bias f4 [256]
0.010566786 0.008155534 -0.0071349503 -0.016021755 -0.0075102467 0.0058076745 -4.812254e-05 0.004584622
0.008139684 0.011452226 0.008673371 0.0015095903 0.023981115 0.008091222 -0.00165905 -0.0056051286
0.00095887017 -0.010689996 -0.007488794 0.012972669 0.012739853 0.010782602 0.005112423 -0.00047044508
0.003885947 0.00358536 0.009372559 0.0003431319 0.0075569577 0.013094337 0.016172154 0.017635591
-0.0014573002 0.008469128 -0.01621072 0.0014163463 -0.0009342774 -0.0045720343 -0.01236487 -0.0044238823
0.0037771356 0.008388951 -0.001160056 0.014085905 0.0236873 0.024257006 0.002462542 -0.0022050515
0.006431679 -0.005183294 0.010967186 0.0062324754 -0.0073326323 0.0010091197 -0.0048742713 0.0139488755
0.021892028 0.0070927776 -0.0017023 -0.015436326 0.010456847 0.017087929 -0.02093149 0.005336578
-0.016213141 0.007874105 0.007911339 0.004594619 0.0066600284 0.029232671 -0.004042741 -0.0025240995
0.00017362167 -0.0050320732 -0.0060009854 0.005347502 -0.008632209 -0.0004364161 0.0003957803 0.016271476
0.025101548 0.0040465156 0.00885447 0.008546136 0.005228095 0.015820721 -0.008094864 0.008564744
0.010534254 0.01868586 0.034645148 0.00559244 0.0080210855 0.01393586 -0.0041181096 0.013860188
-0.0070320982 0.0034548186 0.0010255015 0.0076017287 0.009377651 -0.004561184 0.026085984 0.014499268
-0.0030962848 -0.0036875238 0.006581866 0.010360332 0.040802535 0.027554175 0.003531031 0.008280483
-0.0067053577 0.006742834 0.014361812 0.0017883525 0.0040350575 0.009497685 0.00044976262 0.0051000933
0.0063154493 0.011322017 -0.0071177143 0.008204762 0.016779097 -0.0018355191 0.015515569 0.010837635
0.007067759 0.011319275 0.01370504 0.009459922 -0.00021336398 0.002721119 0.009338744 0.0049712104
0.0058266837 0.001653703 0.012639233 0.016847618 0.028318737 0.001334117 0.008810907 -0.0020891055
0.007734758 0.011759513 0.015735984 0.010938372 0.01281004 0.00019956529 -0.008380513 0.0052870265
-0.005776698 0.022750774 0.0032911892 0.017519675 -0.005599368 0.017022045 0.014230124 -0.0010156236
0.011369002 -0.001501487 0.0009078065 0.020051472 -0.00058262475 0.0006256012 0.0071159187 -0.0045029465
0.0077270577 0.0040710634 0.0155917825 0.0007449441 0.021015123 0.008833079 0.0062894863 -0.008002935
0.007344213 0.025103318 -0.009007423 0.013703016 0.0062657646 0.0041827406 0.009163419 0.011509782
0.0025116212 0.009937062 0.01661603 0.0037824274 0.00011891256 0.004508222 0.0067399694 0.009377853
0.009692524 0.012825289 0.0057202447 0.0070701665 0.013068479 -0.0037073123 0.009397959 0.0138365785
0.01352084 -0.005294022 0.020189697 0.0032676738 0.008411924 0.00861993 0.0034477601 0.01474491
0.0038805485 0.0073920353 0.0036548798 0.019204328 0.0010296652 -0.011298099 0.003560321 -0.001597548
-0.010937532 -0.0007482998 0.012250236 0.0012098296 -0.008102566 0.004043991 0.008573048 -0.007881278
0.016398497 -0.00013473823 0.012420516 0.015955284 0.012982502 0.0064963386 0.029896323 0.005116541
0.020544797 0.008828513 0.0043280483 0.0042861095 0.0076325433 0.005893653 0.0033718988 -0.000688125
0.014493561 -0.004658899 0.0023434802 -0.00073378126 0.015461809 0.004744701 -0.021290816 0.001957127
-0.01495946 -0.0012611772 -0.00011126081 0.031335346 0.021029554 0.022656888 0.021156413 -0.005403478
00000000: 5020 2d3c ca9e 053c 4dcc e9bb 0e40 83bc
00000010: 8418 f6bb 4e4e be3b 2fd7 49b8 993a 963b
00000020: 4f5c 053c 1ea2 3b3c c11a 0e3c 72dd c53a
00000030: 0b74 c43c 0b91 043c 7b74 d9ba 3aab b7bb
00000040: b05c 7b3a 1825 2fbc 8f64 f5bb 518b 543c
00000050: d1ba 503c 83a9 303c 1d86 a73b 12a6 f6b9
00000060: 5fab 7e3b 5cf8 6a3b 5d8f 193c 62e6 b339
00000070: 5ba0 f73b a189 563c 777b 843c 8478 903c
00000080: e102 bfba 19c2 0a3c 58cc 84bc b2a4 b93a
00000090: 4cea 74ba 01d1 95bb 0696 4abc 37f6 90bb
000000a0: d289 773b d071 093c 050d 98ba 91c8 663c
000000b0: de0b c23c a1b6 c63c 9962 213b a082 10bb
000000c0: d5c0 d23b 9fd8 a9bb b6af 333c cb39 cc3b
000000d0: 9446 f0bb 7044 843a 5ab8 9fbb d389 643c
000000e0: e956 b33c 886a e83b b61f dfba a5e8 7cbc
000000f0: 3253 2b3c fcfb 8b3c 8478 abbc 76de ae3b
00000100: 6cd1 84bc 6402 013c 909e 013c 758e 963b
00000110: 5e3c da3b 5b79 ef3c f878 84bb 5d6b 25bb
00000120: 360e 3639 17e4 a4bb eaa3 c4bb 193a af3b
00000130: 1c6e 0dbc c7ce e4b9 bc80 cf39 c24b 853c
00000140: c3a1 cd3c a298 843b 5712 113c 1805 0c3c
00000150: 7150 ab3b 759a 813c 52a0 04bc 2453 0c3c
00000160: dd97 2c3c 1713 993c 12e8 0d3d c940 b73b
00000170: df6a 033c 3c53 643c 35f1 86bb d815 633c
00000180: 846d e6bb 3d6a 623b 1f6a 863a ec17 f93b
00000190: b8a4 193c fc75 95bb 46b2 d53c 568e 6d3c
000001a0: 0aeb 4abb 62aa 71bb b2ac d73b 62be 293c
000001b0: 8f20 273d 4bb9 e13c df68 673b ddaa 073c
000001c0: 9eb8 dbbb fef2 dc3b ce4d 6b3c 2767 ea3a
000001d0: 8438 843b 2e9c 1b3c 1ece eb39 af1e a73b
000001e0: d4f1 ce3b fb7f 393c b73b e9bb 446d 063c
000001f0: 5174 893c cd95 f0ba 0335 7e3c 5690 313c
00000200: a998 e73b 7b74 393c 1b8b 603c cafd 1a3c
00000210: 75ba 5fb9 cd54 323b 8801 193c 89e5 a23b
00000220: c4ed be3b 11c1 d83a c914 4f3c 0404 8a3c
00000230: b2fc e73c 8add ae3a 9f5b 103c 60e9 08bb
00000240: da73 fd3b f9aa 403c c0e8 803c dc36 333c
00000250: 34e1 513c 6642 5139 6b4e 09bc cb3e ad3b
00000260: 744a bdbb d55f ba3c feb0 573b 6c85 8f3c
00000270: e77a b7bb d171 8b3c 7725 693c ac1e 85ba
00000280: 0d45 3a3c 8bcd c4ba ddf9 6d3a fc42 a43c
00000290: 49bb 18ba 63ff 233a a72c e93b 748d 93bb
000002a0: 4233 fd3b 8e66 853b ad74 7f3c 5a48 433a
000002b0: e827 ac3c 9eb8 103c 0918 ce3b be1e 03bc
000002c0: b9a7 f03b 79a5 cd3c df93 13bc 9d82 603c
000002d0: 0b51 cd3b 5f0f 893b 2a22 163c 8693 3c3c
000002e0: 039a 243b 0fcf 223c 571e 883c 9ae2 773b
000002f0: b260 f938 b5b9 933b f6da dc3b 91a5 193c
00000300: 64cd 1e3c 2921 523c e470 bb3b dbac e73b
00000310: 2c1d 563c 61f6 72bb e6f9 193c d1b2 623c
00000320: 8386 5d3c 7a79 adbb dd64 a53c 7826 563b
00000330: 2bd2 093c 9b3a 0d3c d1f3 613b a394 713c
00000340: cd50 7e3b e338 f23b b586 6f3b 6552 9d3c
00000350: d5f5 863a a91b 39bc 4654 693b d164 d1ba
00000360: 5633 33bc 8d29 44ba 37b5 483c 2593 9e3a
00000370: a0c0 04bc 7583 843b f875 0c3c 7a20 01bc
00000380: 2456 863c 8548 0db9 6c7f 4b3c a8b4 823c
00000390: 8fb4 543c 3ddf d43b 22e9 f43c a8a8 a73b
000003a0: 904d a83c 78a5 103c 4dd2 8d3b 7e72 8c3b
000003b0: 6a1a fa3b 8b1f c13b 13fb 5c3b 4963 34ba
000003c0: 6776 6d3c ada9 98bb 1395 193b 3a5b 40ba
000003d0: 8753 7d3c 7079 9b3b 146a aebc 2443 003b
000003e0: 8618 75bc 164e a5ba b154 e9b8 7e59 003d
000003f0: 2c46 ac3c f09a b93c 3750 ad3c a90f b1bb

action_model._continuous_distribution.log_sigma f4 [1, 5]
-0.13359328 0.02183586 -0.09631221 -0.03000714 -0.21771546
00000000: adcc 08be 1ee1 b23c 563f c5bd 89d1 f5bc
00000010: cdf0 5ebe

action_model._continuous_distribution.mu.weight f4 [5, 256]
-0.053682335 -0.00088410324 -0.022114635 -0.00457712 -0.015268096 0.0016254813 -0.012709057 -0.03307626
-0.0032295266 0.0011859809 0.016610349 -0.0026268258 0.016373914 -0.018170698 0.01869779 -0.009730397
-0.020841494 0.013453331 0.016858565 -0.002365917 0.029615907 -0.045386706 -0.0465085 0.0066786
0.04539274 0.0017474878 0.03853699 0.010363659 0.051348977 -0.030811384 -0.046908535 0.034966875
0.011725244 -0.038595147 0.025313338 -0.016924348 -0.040799353 -0.019129219 0.014240232 0.013967299
-0.0023174917 0.0029639937 -0.01365084 -0.025781292 -0.0152344415 0.015276903 -0.051398546 -0.023794187
0.0007986798 0.002843533 0.046050966 -0.023511551 -0.001256338 0.0018990015 -0.013121556 0.02190593
0.045621604 -0.02104404 -0.028387342 -0.0040243575 0.04113867 0.027266372 0.016880743 -0.028571548
-0.00085602014 0.012177136 0.046389863 -0.0060112444 -0.028644016 -0.038992852 -0.0099336505 -0.0049516167
-0.0027477376 -0.010086615 0.0024184892 0.030407488 -0.005382679 0.038202938 0.021135291 -0.02840117
-0.05685562 -0.044333365 -0.017969316 0.0058443565 -0.038688596 -0.027511057 -0.0038465424 0.023729105
-0.05404378 0.007827404 -0.022974355 0.03671195 -0.024513869 -0.041769993 0.021272447 0.05919564
-0.021029714 0.002613964 -0.040665686 0.0074174176 -0.049418654 -0.033043496 -0.026301388 0.010724829
-0.016717099 -0.026890947 -0.058608577 0.0173369 0.0022891355 -0.024692088 -0.0050336462 0.04297372
-0.020619608 0.027284361 -8.289509e-06 0.036911998 0.056453485 -0.023919519 0.018538013 0.034580242
-0.017547531 -0.032433275 0.014702608 -0.029905988 0.037916802 0.002679775 0.062991194 0.054013215
0.007972432 0.03354252 0.06749379 -0.04703974 -0.025052698 0.03085554 0.014346935 -0.01558699
0.05423114 0.02447968 0.046584677 0.050971817 -0.008037544 0.018634347 0.007444613 0.05475017
0.041833367 -0.049622413 -0.001346996 0.05968498 0.040225312 -0.05137259 -0.0072269575 -0.04252929
-0.000102833576 -0.06706619 -0.056735657 0.046915084 0.025535533 -0.035527866 0.006981102 -0.005111439
0.048718274 0.034280274 -0.0476925 -0.074041985 0.01933379 0.016078385 0.026988452 -0.0061964937
0.0051499573 -0.045623966 -0.008977294 0.037991874 -0.008571286 0.03753445 -0.012259192 0.0030425491
0.017416745 -0.0029831792 0.013189335 0.027873078 -0.037039056 -0.042245645 0.0337719 -0.011817873
0.04470991 -0.03769289 -0.010653697 0.0059648007 0.012570172 0.0049896617 -0.05462881 -0.07408069
0.050705075 0.010295861 0.006731775 0.008530069 0.0425623 -0.025834562 0.011310795 -0.012754755
0.056094933 -0.0058794813 0.024504494 -0.0030835697 -0.035924338 -0.03403808 0.012130314 -0.00068187213
-0.0069279824 -0.020887582 0.022902582 0.019331211 -0.047231887 -0.04982888 0.0024706472 0.0056994273
0.0028861442 0.02472194 0.04579511 -0.04506782 -0.017020958 0.049324363 -0.043734394 -0.011063479
-0.027611855 -0.027427087 -0.004191756 -0.05337605 0.042367406 0.043193292 0.060097434 0.037574455
-0.013658625 -0.009701741 0.036103867 0.05352348 0.063305244 -0.027618298 -0.03729475 0.008939145
-0.0015966618 -0.021843057 -0.031123193 -0.04306396 -0.0068606474 -0.0357789 -0.010230982 0.020240812
-0.004694211 -0.06489999 0.013423338 0.05558374 0.034480203 0.024727551 -0.013128407 -0.0063647414
00000000: 02e2 5bbd 2ac3 67ba c029 b5bc aafb 95bb
00000010: 0927 7abc 1a0e d53a a639 50bc f97a 07bd
00000020: 77a6 53bb ea72 9b3a 6d12 883c d326 2cbb
00000030: 9622 863c b7da 94bc 1c2c 993c 3e6c 1fbc
00000040: c8bb aabc 5c6b 5c3c f91a 8a3c 800d 1bbb
00000050: 0f9d f23c 69e7 39bd b27f 3ebd 28d8 da3b
00000060: bded 393d f60b e53a f6d8 1d3d 56cc 293c
00000070: 4e53 523d 2868 fcbc 2a23 40bd 6d39 0f3d
00000080: 3d1b 403c f215 1ebd eb5d cf3c eea4 8abc
00000090: 391d 27bd e1b4 9cbc dd4f 693c 19d7 643c
000000a0: 0fe1 17bb 903f 423b c6a7 5fbc 4a33 d3bc
000000b0: e199 79bc fa4b 7a3c 4887 52bd 07ec c2bc
000000c0: 7e5e 513a 915a 3a3b f09f 3c3d 4c9b c0bc
000000d0: b5ab a4ba ebe7 f83a cbfb 56bc 1174 b33c
000000e0: b8dd 3a3d 8d64 acbc 928c e8bc c2de 83bb
000000f0: 0681 283d ba5d df3c 7c49 8a3c e10e eabc
00000100: 8a66 60ba 9c82 473c 4c03 3e3d f9f9 c4bb
00000110: dba6 eabc f8b6 1fbd c0c0 22bc 2c41 a2bb
00000120: 6313 34bb 5442 25bc 847f 1e3b 2019 f93c
00000130: 2f61 b0bb af7a 1c3d eb23 ad3c 92a9 e8bc
00000140: 70e1 68bd e796 35bd 6334 93bc 0482 bf3b
00000150: ef77 1ebd de5e e1bc 4616 7cbb 8a63 c23c
00000160: 035d 5dbd 833e 003c b734 bcbc 455f 163d
00000170: 4fd1 c8bc 0317 2bbd 8e43 ae3c 2177 723d
00000180: 8246 acbc 0a4f 2b3b 1091 26bd cf0d f33b
00000190: 376b 4abd 9e58 07bd 0276 d7bc 31b7 2f3c
000001a0: 4cf2 88bc 674a dcbc 8c0f 70bd 1d06 8e3c
000001b0: 5205 163b 1047 cabc 49f1 a4bb 3605 303d
000001c0: 74ea a8bc 7483 df3c 2c13 0bb7 0931 173d
000001d0: c53b 673d def2 c3bc 08dd 973c 03a4 0d3d
000001e0: d7bf 8fbc c1d8 04bd 35e3 703c 67fd f4bc
000001f0: a64e 1b3d 2a9f 2f3b 8701 813d f63c 5d3d
00000200: ce9e 023c e263 093d 2f3a 8a3d beac 40bd
00000210: 513b cdbc c2c4 fc3c 680f 6b3c 9360 7fbc
00000220: 7921 5e3d 9c89 c83c 93cf 3e3d d3c7 503d
00000230: e7af 03bc 0fa7 983c f1f1 f33b b741 603d
00000240: 7759 2b3d df40 4bbd b08d b0ba 3d78 743d
00000250: 4cc3 243d 116c 52bd 1dd0 ecbb 3133 2ebd
00000260: 5ba8 d7b8 005a 89bd a663 68bd 082a 403d
00000270: e52f d13c ab85 11bd bac1 e43b dc7d a7bb
00000280: d08c 473d 7969 0c3d 3659 43bd 53a3 97bd
00000290: e561 9e3c d1b6 833c e316 dd3c f50b cbbb
000002a0: f9c0 a83b 32e0 3abd 8015 13bc 5e9d 1b3d
000002b0: 946e 0cbc b9bd 193d c7da 48bc 8165 473b
000002c0: 90ad 8e3c 7181 43bb 1518 583c 1556 e43c
000002d0: 44b6 17bd c509 2dbd 6754 0a3d c19f 41bc
000002e0: bd21 373d dc63 1abd d88c 2ebc 6074 c33b
000002f0: 1ff3 4d3c 5180 a33b 76c2 5fbd 9eb7 97bd
00000300: 20b0 4f3d f9af 283c 3996 dc3b b4c1 0b3c
00000310: ce55 2e3d 01a3 d3bc ea50 393c 52f9 50bc
00000320: cdc3 653d aaa8 c0bb a6bd c83c b715 4abb
00000330: 6625 13bd 846b 0bbd 39be 463c aabf 32ba
00000340: 2104 e3bb 6f1c abbc 329e bb3c 7d5c 9e3c
00000350: 3976 41bd 5e19 4cbd 95ea 213b 43c2 ba3b
00000360: 7725 3d3b aa85 ca3c a793 3b3d 0999 38bd
00000370: 896f 8bbc 5808 4a3d d622 33bd 9843 35bc
00000380: 4232 e2bc c5ae e0bc ff5a 89bb d8a0 5abd
00000390: 7289 2d3d 73eb 303d ba28 763d ace7 193d
000003a0: 6dc8 5fbc 0df4 1ebc a6e1 133d 703b 5b3d
000003b0: 2ea6 813d c53f e2bc 61c2 18bd 7e75 123c
000003c0: 1447 d1ba 36f0 b2bc 11f6 febc d663 30bd
000003d0: 48cf e0bb e58c 12bd d99f 27bc 0fd0 a53c
000003e0: e5d1 99bb 49ea 84bd 8fed 5b3c c7ab 633d
000003f0: 1d3b 0d3d 6f91 ca3c 8818 57bc 528f d0bb

action_model._continuous_distribution.mu.bias f4 [5]
0.0073913913 -0.013589591 -0.003854978 -0.006685105 -0.0026460737
00000000: 7c33 f23b e0a6 5ebc cca3 7cbb ba0e dbbb
00000010: c069 2dbb
