MLConfig/results/newAnimal/Animal/Animal-4092768.onnx (onnx, 296297 bytes, 7 tensors)

network_body.linear_encoder.seq_layers.0.weight f4 [256, 24]
00000000: a80d de3c 8293 3ebe 6623 71be 3715 bc3e
00000010: b984 9a3d 1739 85bc 7709 74be f5b4 dabd
00000020: 390b 8e3e f887 cdbe 2204 0a3e d29a 17bc
00000030: f938 63bd 57c5 9e3d 1bad 813d 5cbe f7bd
00000040: ff1f ae3d 31c9 97bc f503 4fbe 52f8 fbbe
00000050: f49b 3abe 3c92 253c 0734 b13e 62c8 6ebe
00000060: c223 cebe 3712 a33e 1582 edbe b95b 60be
00000070: 44d4 cb3d f5a2 6abd 5b16 513e bd7c 1c3f
00000080: fbed 2f3b df97 d43d 6b41 9e3d f072 e83d
00000090: b1a4 83be 7b55 bc3e c676 65be d832 9ebe
000000a0: add7 ddbc 664f e5bd 8d5c 10be 49c8 fabe
000000b0: 3dd3 b13e cfca 7dbe 60e8 1c3e 7b6a 473d
000000c0: c2dc 7d3a 180d 1b3e 6588 64be 52d3 42be
000000d0: b75a 63be 3529 7e3e 278c c93d 6a75 4abe
000000e0: e8f8 6ebe 40c6 973e d2df 113d 02fd f93d
000000f0: c9de 74be a185 0e3e 24fe 0fbf b45a c83e
00000100: 6831 ac3e 96dd a53d 2bbc 6b3e a3e4 5ebe
00000110: c995 303d 2990 42be e7fb 2c3e 18a7 fbbc
00000120: bfe1 c6bd e48b 42bc cf45 843e 8dc5 8fbe
00000130: 7427 8fbb 4ec6 c23d fc26 493d 8ef1 93be
00000140: e356 d63d 7be3 2b3e 7447 92bd e054 303e
00000150: d5d5 243e 1563 b9bd 253e b13e 1c08 1b3e
00000160: 4f6f 92bd 54b7 25be 6946 e83d df66 cf3d
00000170: a2a1 ad3e e17b 89be ad1f 9bbd 71be b93d
00000180: be12 4e3e a88d 8dbe a234 cf3d 2449 93be
00000190: f7c1 4b3c e650 e9bd a5a7 90bd 50a1 483e
000001a0: f48f 8bbc 497c e2be 43d6 b83e 7207 d33d
000001b0: 1c5d f43d f30f a3bc ad9a 4a3e e5ed b63d
000001c0: c2fb abbe 7552 dcbe e43d 8d3c fd4f 8c3e
000001d0: 78a5 a3be 61f0 52be 2643 80bd ef7d b4bd
000001e0: 32d9 113e c2f9 4e3e 6523 da3c 2cf0 1b3d
000001f0: 9bfa d4be 22ea 5b3e b983 2abe 2cc7 b63e
00000200: 3998 ff3c 3ae5 cb3d c1ed a4be e440 bf3d
00000210: 2b73 293e c564 483e 2b7b 353c 6e79 b7bd
00000220: cbdf 5c3e ecef 9d3e 783e adbd 9e14 913b
00000230: a2eb bc3d 047c edbc 466f 49bd 13b4 4b3d
00000240: f1ee 5dbd 56a1 8e3d 686c 6fbe d78e 373e
00000250: 4ac3 23be b894 c13e 946f 56be b557 9bbe
00000260: 9218 3fbe 90ac 693d a82d 7a3e 32c4 0a3b
00000270: 11cb 8e3c 1332 d5bd 37b9 8bbd 2001 403d
00000280: 7564 e1bd 2a63 53be 251d 4bbd f3af 5139
00000290: 56e8 aabe ef16 46be 78bc c13e 3f1f 43bd
000002a0: 8ac2 e83c 70fa f33d 7f9b 2abd 9437 8cbc
000002b0: 1250 d83e 358a 1cbe 227e 10be 3876 b63d
000002c0: 316d 9b3e bc00 6c3e 13a9 283e 1b3b b33d
000002d0: abce 8dbe 4f45 0bbe 4290 5d3e c08d edbc
000002e0: 454c 51bd c9b4 d0be 42b9 3b3e 9f7e 0f3e
000002f0: a579 4abe dad6 f5bd a330 9d3e 2f65 11bd
00000300: b44d c0bd d70e 183e 429f 5fbb c3ad 7c3e
00000310: e26f 9ebe 74c0 193f 06e7 4dbe 1b3e e7bc
00000320: 1624 513d fb3d 1f3e 7761 85be 88e3 62be
00000330: 7e37 75be 5eff 12bd b24a 333e 6f12 55bd
00000340: 93d0 62be 5ad5 1f3f 18b7 96be d515 1bbc
00000350: 48e5 c3bd 3fe7 9cbd 8c92 60bd 40cc 3dbd
00000360: 5a71 3fbe 764e 8cbe 9fc2 093e 445b 593e
00000370: 1a16 743d 9d39 93bc 5391 28bd 59ce c6bd
00000380: 1756 29be bdde 4c3e 658c 623e f96f b43d
00000390: b801 04be 3955 c0bc f339 e4bd 358c 033e
000003a0: 5b1d 9bbe 97f3 8a3e 0e1f c1bd 1432 00bf
000003b0: 86d8 313e e89a 1c3e 9afd 0a3d 6ca7 7bbd
000003c0: 0532 e83d 096d 1a3e dd22 cabe 3203 8d3d
000003d0: 62a5 683e e73e 52be 6457 40be 15cb 2f3d
000003e0: 826e c5bd e871 12be 9339 c53d 0029 be3d
000003f0: e03b 6fbe c189 fcba 7f96 d2bd 7d62 083e
0.027106121 -0.18610957 -0.2354866 0.36734936 0.07544846 -0.016262574 -0.23831736 -0.10679046
0.27742937 -0.40142798 0.13478139 -0.009253221 -0.055474255 0.07752483 0.063318454 -0.12096855
0.085021965 -0.018528553 -0.20216353 -0.4921289 -0.18223554 0.010105666 0.34610006 -0.23318627
-0.40261656 0.31849834 -0.46388307 -0.2190999 0.09952596 -0.057284314 0.20418684 0.61127836
0.0026844728 0.103805296 0.07727321 0.113500476 -0.25711587 0.36783966 -0.2240859 -0.30898166
-0.027080381 -0.11196785 -0.14097805 -0.4898093 0.34731475 -0.24784397 0.15323019 0.048685532
0.00096840796 0.15141714 -0.22317655 -0.19025925 -0.22202574 0.24820407 0.09841185 -0.19771352
-0.23337138 0.2964344 0.035613842 0.122064605 -0.23913111 0.13918163 -0.5624716 0.391317
0.33631444 0.08098905 0.23020999 -0.21766905 0.043111596 -0.19000305 0.16892968 -0.030719325
-0.097110264 -0.011874173 0.2583451 -0.28080407 -0.004368717 0.0951048 0.049109444 -0.2889523
0.10465791 0.16785996 -0.07142535 0.17219877 0.16097195 -0.090521015 0.34617725 0.15139812
-0.07150137 -0.16183215 0.11341555 0.10127043 0.3391238 -0.26852325 -0.07574401 0.09069527
0.20124337 -0.27647138 0.10117461 -0.2876674 0.012436382 -0.11392383 -0.07063226 0.19592786
-0.017036416 -0.44235447 0.3610097 0.103041545 0.11931822 -0.019905066 0.19785567 0.089320935
-0.33590513 -0.4303166 0.017241426 0.27404776 -0.3196218 -0.2059951 -0.062628075 -0.088130824
0.1424301 0.20212463 0.026628206 0.038070843 -0.41597447 0.21476033 -0.1665181 0.3569883
0.031200515 0.09955831 -0.32212642 0.09338549 0.1654784 0.1956969 0.011076729 -0.08958708
0.21569745 0.30847108 -0.084591806 0.0044275066 0.09224631 -0.0289898 -0.049178384 0.04973228
-0.05418295 0.06964366 -0.23381197 0.17925583 -0.15992466 0.37808776 -0.20941001 -0.30340353
-0.18661717 0.057049334 0.24431479 0.002117407 0.017430814 -0.104099415 -0.06822436 0.046876073
-0.11005489 -0.20643297 -0.04958834 0.0001999734 -0.33380383 -0.19344686 0.37839103 -0.04763722
0.028413076 0.119130015 -0.0416522 -0.017116345 0.4224859 -0.15287097 -0.14110616 0.08909267
0.30356744 0.23047155 0.16470747 0.08751508 -0.27696738 -0.13600658 0.21637061 -0.028998256
-0.051098127 -0.40762928 0.18332389 0.14013146 -0.19772966 -0.1200387 0.3070117 -0.035496887
-0.09389821 0.14849411 -0.0034122025 0.2467566 -0.30944735 0.60059285 -0.2010766 -0.028227856
0.051059805 0.15550987 -0.26050922 -0.22157109 -0.2394695 -0.03588807 0.17508963 -0.052019533
-0.22149877 0.62434924 -0.29436564 -0.009465654 -0.09565216 -0.07661294 -0.054827258 -0.046337366
-0.18695584 -0.2740361 0.13453148 0.21226221 0.05959139 -0.017971808 -0.041154217 -0.097073264
-0.16536747 0.20006843 0.22123869 0.088104196 -0.1289128 -0.023478137 -0.111438654 0.12846453
-0.30295834 0.2713897 -0.09429751 -0.50076413 0.17367753 0.15293467 0.03393326 -0.061438963
0.113376655 0.15080656 -0.39479724 0.06885375 0.22719339 -0.20531808 -0.18783337 0.042918283
-0.09640218 -0.14301264 0.09630122 0.09285164 -0.23362684 -0.0019267128 -0.10282611 0.1331882

network_body.linear_encoder.seq_layers.0.bias f4 [256]
00000000: 2c34 423c a782 b33a e7ce d63b 7201 803c
00000010: 68e1 cb3c f98f f9bb f5a3 463c ee87 0e3c
00000020: a70e e93c 32ae 853c 02ad 8f3d cab1 153d
00000030: 0a17 493c 82c9 d83c 7389 7f3c d0cc 8e3c
00000040: fb91 203c 3c42 e43b 098f 9a3a 108c 8a3c
00000050: 8b8f 1ebc 8aa1 543c cb6b 303c b242 e73a
00000060: f213 8c3c b8d3 4bbc de8d e43b 2863 e93a
00000070: 9535 913a c94f 8b3c 2ecc 6dbb 87b4 f83b
00000080: 6212 103d e9e8 b03c c2d7 33bb 1439 843c
00000090: f643 9b3c e830 6e3d 48d3 7ebc 211f f1bc
000000a0: 8444 b03c aff5 b63c 1899 04ba dea6 fc3c
000000b0: a50f 463c bcbe 823c fadc 2c3c 5764 3a3c
000000c0: 9d5e 243c cfaa 1a3c 8d91 5bba 8841 1a3b
000000d0: 0e28 433a 7019 e03b bb76 1cbc ea62 f83c
000000e0: 0f65 a83c 94d5 9cbc d309 d83c f0c3 5c3c
000000f0: 2877 733b 4840 9a3c 5449 7b3c c1b4 503c
00000100: 2082 533b ec63 233c 28d3 f8bc 1437 ac3c
00000110: cf4b 333c 7291 183c ef40 dc3c 2451 f93a
00000120: 1843 a73b 3216 c3bb 8f6b f6ba f50b 90bc
00000130: f5b4 8f3b fc6c 0a3d 6841 9d3c fc32 813c
00000140: 9835 a639 f855 163c 50af 42bc 5936 f03c
00000150: f688 393a 26ac 223d 3dbf a33c 3d45 843b
00000160: e01b caba a38a 3e3c 8100 8e3c 8c90 983c
00000170: 4f5b 463b c361 04bc a90e f63b 1b73 073c
00000180: 71e1 c13c 5cff 0d3b cd53 363c ae21 95bb
00000190: ccb6 10bb de21 da3c c5e7 a33c fa64 583c
000001a0: 8ad0 b83c 7d94 e03a 750d a53b cc7b bc3c
000001b0: 3bfb 853c 0990 de3c cce4 ae3c 36d3 cd3b
000001c0: 601b aa3c c98b 163c 6dd1 1e3b bdb5 abbb
000001d0: 9755 9dba a927 a9bc 531e d03c 8df7 d53c
000001e0: 5065 a63c ea97 c53c 2fed d83c 227f c9ba
000001f0: bf41 fb3c 0995 1f3c 30aa 443c 7418 133d
00000200: bf52 43bb df9a cbbc 4cac 52bc f9d8 493d
00000210: 2dc9 bcbb d747 573c f693 be3c 5551 933a
00000220: 94df 073c 227e 8bbb 6ca4 34bc 4dff 583c
00000230: cd16 0abc dc92 263c 098a 02bc 8f94 9abc
00000240: b790 4e3c a89d e0bb 57c0 a13c 0278 af3c
00000250: b200 3c3c 61c3 ffbb 2e3e 07bc a536 62bc
00000260: a128 f13c 05e7 52bc 66d1 a23c df7c a03c
00000270: f398 0a3d 8802 9d3c 1224 413c 8329 afbb
00000280: 2c47 4b3c 7ff7 123d 4efa 9e3c 7922 1f3d
00000290: 10d1 b2bc ca8f be3c 1206 5bbc ca9a 113c
000002a0: 5c05 dfba a1ee f4b9 18dc 0a3d ec6c 113c
000002b0: 1b6f 15bc 94ce fcbb 789e a63c baf1 16bb
000002c0: 8098 983b 39f1 7ebc dd6f c23c b7fa 6dbb
000002d0: 488b 523b 42fe d73c 1786 523c 17d3 ac3c
000002e0: 6efc ea3c 3b52 553c 4b0b 8d3b a48c 073d
000002f0: 1d45 943c 991a 6dbc dcd0 383b c22f 943c
00000300: 44d0 b93c 676d 9c3c 2ebb 8b3c f25a 8c3b
00000310: 38d5 973c 2a80 1a3c 60e0 143c 2ada 173c
00000320: a6bf df3c 7063 8bbb 419f cd3b 8aa4 a13c
00000330: e9a4 f83c bb8f a73c 16dd eb3c f68e 143c
00000340: 3c60 3fbb 7d19 723b fac8 d33a c392 593c
00000350: b20d 183d 925d 8f3a c238 283c 6311 d9bb
00000360: a5a8 3d3d 5c08 f53b 0a1d 7abb 1eaa c93c
00000370: 04f4 b53b cd51 913c a2d4 27bb 5b50 3f3b
00000380: b9f0 053c fdb3 b0bc 64d2 8a3c 7910 213c
00000390: a6d6 aa3b 4b39 68b9 d6e0 753c cc61 20bc
000003a0: 931f 0c3b 6a10 c43c de27 783c 6f60 eb3b
000003b0: 22b0 09bc b865 f73c 260b fe3b f48b 2e3c
000003c0: 99a8 303c 7c79 793c b0b5 54bb 5a67 b9bc
000003d0: e839 093d 7a8c a73c e706 bcb8 39ab 8a3c
000003e0: d4bf 943c 1fd7 be3c f73a 1d3c 4dde 5b3c
000003f0: 7c6e fc3b 0d4c 65bc 1fd7 a23c 115e 843a
0.011853259 0.0013695554 0.0065554264 0.01562569 0.024887756 -0.00761604 0.012124051 0.0086994
0.02844937 0.016318414 0.070154205 0.036546506 0.012273559 0.026463274 0.015596735 0.017431647
0.009800429 0.0069659036 0.0011791895 0.01691249 -0.009677778 0.012977967 0.010767887 0.0017643778
0.017099354 -0.012440614 0.0069749197 0.001780604 0.0011078591 0.017005818 -0.003628503 0.00758988
0.03517378 0.021595435 -0.0027441834 0.016140498 0.018953305 0.05815211 -0.015553303 -0.029433789
0.021517046 0.022333948 -0.0005058213 0.030841287 0.012088691 0.01596009 0.010550732 0.011376462
0.010032323 0.009440138 -0.0008375876 0.0023537595 0.0007444628 0.00683897 -0.009549792 0.030320603
0.020556001 -0.01914481 0.026371872 0.0134744495 0.003714988 0.01882948 0.015337307 0.012738408
0.0032273605 0.009972554 -0.030374125 0.021022357 0.010943367 0.009312021 0.026886432 0.0019021374
0.0051044337 -0.0059535736 -0.0018800366 -0.017583827 0.0043855854 0.03379534 0.019196227 0.015771382
0.00031701918 0.00917577 -0.011882618 0.02932279 0.0007077599 0.039714955 0.01998865 0.004036574
-0.0015419684 0.011629733 0.017334225 0.018623613 0.0030266827 -0.008079949 0.007509072 0.008267189
0.02366707 0.0021667099 0.011128378 -0.004551134 -0.0022081612 0.026627477 0.020007977 0.013207668
0.022560377 0.0017134097 0.0050370046 0.02300825 0.016355148 0.02716829 0.021349333 0.006281282
0.020765007 0.009188601 0.0024233714 -0.0052401708 -0.0012003657 -0.020648794 0.025405085 0.026119018
0.020311981 0.02412029 0.026480285 -0.0015372972 0.030670999 0.009740123 0.0120034665 0.035911992
-0.002980396 -0.024854122 -0.012858462 0.049279187 -0.0057612867 0.013139687 0.023263913 0.0011239449
0.008293051 -0.0042569796 -0.011025529 0.013244462 -0.008428288 0.01016685 -0.00796748 -0.018869666
0.012607745 -0.0068547316 0.019745035 0.021419529 0.011474775 -0.0078052734 -0.008254571 -0.013806974
0.029438319 -0.012872462 0.01987524 0.019590793 0.03383727 0.019166246 0.011788385 -0.0053455248
0.012407105 0.035880562 0.019406464 0.038851235 -0.021828204 0.023261923 -0.0133681465 0.008887002
-0.0017015147 -0.000467171 0.033901304 0.008876067 -0.009120728 -0.0077150557 0.020339236 -0.0023032264
0.0046568513 -0.015560442 0.023734981 -0.0036312768 0.0032126475 0.026366357 0.012849352 0.02109675
0.028684821 0.013020094 0.0043043247 0.03309311 0.018099362 -0.014471673 0.0028200662 0.018089179
0.022682317 0.019095136 0.017057028 0.0042833025 0.018534288 0.009429971 0.009086698 0.009268323
0.027313065 -0.0042537972 0.006275088 0.019731779 0.030352073 0.020454278 0.028791945 0.009067288
-0.0029201647 0.0036941462 0.0016157918 0.01327962 0.037122436 0.001093792 0.010267438 -0.006624387
0.04630341 0.007477803 -0.0038164281 0.024617251 0.0055527706 0.017739201 -0.0025608917 0.0029192183
0.008175069 -0.0215702 0.016946025 0.009830588 0.0052135764 -0.00022146587 0.015007218 -0.009788942
0.0021381124 0.023933608 0.015146224 0.0071831266 -0.00840381 0.03019987 0.007752794 0.010653485
0.010782384 0.015226718 -0.0032456927 -0.02263229 0.03350249 0.020452727 -8.965824e-05 0.016927348
0.018157877 0.023295937 0.009596578 0.0134197 0.0077036005 -0.013995183 0.019877968 0.0010098835

network_body.linear_encoder.seq_layers.2.weight f4 [256, 256]
00000000: bed1 babc bbd0 75bd 4046 853d 14f6 19bd
00000010: eb5d 773d 98c9 f33d 8b6b bd3d 576f 38be
00000020: 3971 5a3d dbaf 313d 5a47 17bd a0fa cb3d
00000030: c328 3cbd 3359 8abd f96c 8abd 48ae dcbd
00000040: bf0a 71bc f99a 2e3d 5bb7 28bc ef93 413c
00000050: 203c 633d 2703 8b3d 9bbc c43c f668 e03c
00000060: cf65 ba3d baf3 a23c 1571 bbbc 0aa0 283c
00000070: 7476 88bd 8454 97bb 3ffb 1f3c f1fe a53c
00000080: 5af2 223d 9a11 bd3d 6899 c9bd c745 3abc
00000090: 0859 f03b ae88 d63d 8133 dfbd abc6 90bd
000000a0: 59d4 72bc 1613 16be c33f 223d b3db e9bd
000000b0: 5b98 1d3e de23 0dbd c096 babd 88a8 a13d
000000c0: 1174 16bd 10dd 91bd f2bb 25be d844 28bd
000000d0: f6cb aebb cedd b8bc 5933 09bc 161b e13d
000000e0: e95b b2bd f2ae 0cbe ec47 2f3c b786 ecbd
000000f0: 5fa0 2bbd e008 a5bd 1943 4abc 3a09 c73c
00000100: 76fc c8bb 13a8 41bd 63ae 8a3d c161 f6bc
00000110: 27e8 e9bb 9119 2dbc 34f8 c73d cc22 de3d
00000120: d5ea 0dbe f350 463d 9e38 603d b741 0dbd
00000130: 43ab 38be c541 d5bc d122 95bd fdb2 6f3d
00000140: 600d 7f3d 94d0 173e 16a7 c73c 3419 7f3d
00000150: 4cb9 f13c 01d4 023c 3ae4 f9bd a6e6 c43d
00000160: 5866 81bd 399b 1dbd e912 f63b e399 b33d
00000170: 388f e9bd f95d 2d3d 93db 01bd ead4 c53d
00000180: 2cc0 f23c d621 2cbd f17e 7bbd 70cf 023d
00000190: 0f22 dabc 5d97 34bd 9f98 babd 72e5 823d
000001a0: 6e47 c63d 3121 d63c 9fed b5bd f7a0 0cbd
000001b0: 9d10 8dbd 6424 2abd 11c1 46bd d165 c53c
000001c0: 60a4 e83c df6a 84bd 7e51 783c 6756 22bd
000001d0: 92f1 60bd f9f1 573c d5f3 bc3d 11f4 d7bc
000001e0: 0e03 623d ca47 b43d 86b1 c33d e40c c23b
000001f0: 6aaa 183e 85f6 ff3a c087 35be 8619 e93c
00000200: 7923 7f3d 82a5 163d 8f8a 883b 6fcd 303c
00000210: 149f 1fbd 6caa f03d afd2 aabc dbe2 d93c
00000220: 9cbb e0bb 4ddf 163d 8bc6 47bc 1b78 a5bb
00000230: 7351 3bbd b208 0dbd abd7 f03c f455 8abc
00000240: e201 debd a8e3 f4bd 5950 e33d a391 c23c
00000250: 020a cdbc c4a7 c8bd fb8c 22bc 1d93 52bd
00000260: 44b0 d6bd 4f33 22bc 1b7a cebd dd77 e73c
00000270: 834f 62bd 3e81 2fbd 5cf0 10bc d149 35bc
00000280: 3e83 3d3d 7f83 13bd 2367 60bd bfd5 883d
00000290: 675d 933d dd07 4abc 4962 2a3c 3208 213d
000002a0: b8c3 f7bd ebc3 0b3d a03a 9d3d f880 013e
000002b0: 592c 3c3d 4500 9dbc d505 0fbc 5639 783c
000002c0: e7a3 193d 995e 16bd 6858 0c3e 849c 4e3b
000002d0: de8d aebd 6d61 88bd 4ed5 43be 20f0 f13c
000002e0: e575 a63c 980d 443d 87cb 30bc 2159 a33d
000002f0: 3936 aabb 0d36 ac3d 8be2 343d 366e a3bd
00000300: 03fa a23d d266 0b3d c401 0cbd 4b8c 5ebb
00000310: ced1 0d3e 4900 9eba 5810 053d a62e 41bd
00000320: 9fbe 5dbd 15ed 563d 9d22 d2b9 498c 40bc
00000330: 7b02 823b 32a1 a2bc a8a5 9b3d 93d4 7bbb
00000340: 2fc2 083e 957d 9fba 5752 dcbc 286a a9bd
00000350: fecf e7bd cb0a a4bc b3b2 0abe a909 96bd
00000360: 5b67 d63a 22f4 be3d e42e 063d 7ccb e0ba
00000370: 7335 be3c 6dc0 4abd 82bb 033d 63d1 993d
00000380: d2e9 203d 1447 6cbd 1330 2ebd b445 ebbc
00000390: 3cbd 403d 9352 b5bb ee6d 52bd 13ce c93c
000003a0: 9a44 e13d 81e4 84bb e18d 0fbc 022e 0dbd
000003b0: 8a0d a1bd e6ab cbbc 4bc1 10be 6c5b 153d
000003c0: 8e7f 073c 27f3 b2bd e64f 83bd 1f60 19bd
000003d0: dac5 f0bc 357d 3d3e ecdb 453c 8038 de3c
000003e0: 42af 03bc 0b7b 103d 8ceb 593d 051c 003d
000003f0: 8405 98bd 143b 01bd 7812 b3bc 724d 44bd
-0.022805091 -0.060013514 0.0650754 -0.037588194 0.0603923 0.11903685 0.09249028 -0.18011223
0.053330634 0.0433806 -0.03693328 0.09959912 -0.04593731 -0.06755295 -0.06759066 -0.10775429
-0.014712035 0.042628262 -0.010297622 0.011815055 0.05547726 0.06787711 0.024015715 0.0273938
0.0910145 0.019891609 -0.02288107 0.010292063 -0.06663218 -0.0046182293 0.009764492 0.020263167
0.039781906 0.09231873 -0.09843713 -0.011369175 0.007334832 0.10475288 -0.108984955 -0.07069143
-0.014821135 -0.14655718 0.03961159 -0.114188574 0.1539015 -0.034458034 -0.091107845 0.07893473
-0.036731783 -0.071222425 -0.16184977 -0.04108128 -0.0053343726 -0.022566702 -0.008374059 0.10991494
-0.08708937 -0.13738611 0.0106983 -0.11549132 -0.04190099 -0.080583334 -0.012345099 0.024296392
-0.0061336113 -0.04727943 0.06771543 -0.03007591 -0.0071382704 -0.010565178 0.09764138 0.10846481
-0.13859113 0.048417043 0.054741494 -0.0344865 -0.18034081 -0.026032338 -0.07282031 0.058520306
0.062268615 0.1482566 0.024371665 0.062279895 0.029507302 0.007985116 -0.12201734 0.09614305
-0.06318349 -0.03847811 0.0075095785 0.08769586 -0.1140427 0.042325947 -0.031703543 0.09659751
0.02963265 -0.042024456 -0.061400358 0.03193611 -0.026627569 -0.044089664 -0.091111414 0.063914195
0.09681593 0.026138874 -0.08883213 -0.034333196 -0.06887934 -0.04153861 -0.048523966 0.024096401
0.028398693 -0.064656965 0.015156148 -0.03963318 -0.05491788 0.013180249 0.09226195 -0.026361497
0.055178694 0.08802755 0.09555344 0.005921947 0.14908758 0.0019528425 -0.17727566 0.028454553
0.06228969 0.036778934 0.004166908 0.010791167 -0.038970068 0.117512554 -0.020852415 0.02659743
-0.0068583023 0.03683405 -0.012193332 -0.005049718 -0.045731973 -0.03443212 0.029399714 -0.016886689
-0.10840203 -0.119574845 0.110993095 0.023751086 -0.025029186 -0.09797624 -0.009921308 -0.05140983
-0.10482839 -0.009899928 -0.100818835 0.028255397 -0.05525161 -0.042847864 -0.008846369 -0.0110649625
0.04626774 -0.036014076 -0.05478586 0.06681394 0.071955495 -0.012330976 0.01039941 0.039314456
-0.12097877 0.03412239 0.076771975 0.12646854 0.04594073 -0.019165168 -0.008729418 0.015150389
0.037509825 -0.03671131 0.137056 0.0031526396 -0.08523153 -0.066592075 -0.19124338 0.029533446
0.020319888 0.047864527 -0.010790712 0.07975984 -0.005194452 0.08408747 0.04416136 -0.079800054
0.07957842 0.034033604 -0.03418137 -0.0033958133 0.13849565 -0.0012054528 0.03248629 -0.047163628
-0.05413687 0.052472193 -0.0004008011 -0.011752197 0.003967581 -0.019852255 0.07599956 -0.0038426265
0.13355325 -0.0012168164 -0.026894731 -0.08272201 -0.11318968 -0.020024678 -0.13544731 -0.07326061
0.0016357707 0.093239084 0.032759562 -0.0017150487 0.023218846 -0.049499918 0.032161243 0.075106405
0.03928549 -0.057684973 -0.042526316 -0.02871976 0.047055468 -0.0055335253 -0.05137437 0.024634397
0.10999413 -0.00405556 -0.008761854 -0.034467705 -0.078639105 -0.024862241 -0.14136235 0.03646414
0.0082701575 -0.08737784 -0.06411724 -0.037445184 -0.029391218 0.18504794 0.012076359 0.02712655
-0.00803739 0.035273593 0.05320315 0.03127672 -0.07422927 -0.031550482 -0.021859393 -0.04792542

network_body.linear_encoder.seq_layers.2.bias f4 [256]
00000000: b46b 1e3c 44a6 0c3c 058b 0dbc 077c 9abc
00000010: af82 a2bb 2588 c73b 96b2 a8ba 76eb 7f3b
00000020: 3058 d23b c547 773c 336b 223c 5820 2937
00000030: 42f0 ac3c 9dc0 143c a85b 163b e135 cebb
00000040: 8fc1 ab39 3ca7 38bc 3249 9dbb e486 513c
00000050: ad3e 6e3c b9fe 213c 65ef 853b 2eb8 92ba
00000060: ae96 e93a 154d 4d3b c00a 083c fc56 403b
00000070: f3df 903b de48 493c 43bf 5e3c 86e7 973c
00000080: 2497 b539 f7a7 ef3b a150 89bc 3406 f53a
00000090: f6aa 6dbb 3208 9fbb cb87 8abc 0709 abbb
000000a0: 521b 9b3b 175b 303c a5b1 a2ba 512e 813c
000000b0: d6e8 c43c c836 cc3c 1898 3b3b 81c0 9abb
000000c0: 907c 803b 9edd 42bb 8b91 2e3c 5f69 063c
000000d0: e877 41bc 8bf3 89bb cce1 c1bb 7434 803c
000000e0: 694e a93c 0b9c 303b ef1a 62bb bdfb 93bc
000000f0: 5634 1f3c 0ff0 a73c 7d67 bcbc 33bc 053c
00000100: f848 92bc 9bc2 b33b 63e2 fa3b 40fe b03a
00000110: 16ca 693b 31fe da3c 2a60 91bb 81a2 18bb
00000120: 05c0 5a3b 4227 ebbb cab0 d9bb cdeb 903b
00000130: ecbd 08bc 1da5 b8b9 d8f2 f73a e6a9 8c3c
00000140: 4a3a c53c 4907 a03b e4f4 023c 4c14 053c
00000150: bb2b 473b b5f0 833c 595a 46bc 39a6 103c
00000160: eb1e 463c ba32 ae3c 7de2 0b3d 7c81 ff3a
00000170: 423c 123c e8cf 6a3c 444d 9bbb 5938 553c
00000180: 249e 12bc 5f06 8d3b f2a9 e73a 72fe 2e3c
00000190: 2210 463c dbd5 ccbb 2e75 d03c f3ca 8c3c
000001a0: d9ff 51bb 5fb1 a5bb 3b36 c13b 6613 1a3c
000001b0: f021 253d 3012 da3c f0b2 9e3b f3d9 ee3b
000001c0: 9d11 19bc d9ab 173c d38e 863c 9a0e 083b
000001d0: 8e2a b53b 6548 383c a34d 24ba 5c4a 1d3b
000001e0: a21d 0d3c 5cd9 353c c56e 26bc 8792 a73b
000001f0: 2c49 8a3c 3eb6 ffba 6b02 773c 81f2 243c
00000200: e553 8f3b 21dd 0b3c 0e67 3a3c 557c 883b
00000210: fa01 9b3a 46ca 173b c3cd ea3b 3e4c 923b
00000220: 1cf1 a13b 60ef 493b 1a37 333c 2bd2 943c
00000230: ad65 e53c c6cc 723a ef3d 283c 78c4 9ebb
00000240: 4fff db3b 90f4 483c 5926 9c3c 5fd8 113c
00000250: 556d 543c c5f0 68ba 274d 1ebc bbb4 aa3b
00000260: 1dd9 17bc 3bb6 b03c 29c7 ad3b 1ad2 973c
00000270: 6c2b e4bb 2d53 943c 0f73 763c 55c7 043b
00000280: 13ba 1c3c 351f 31bb 2a3e e0ba 81da 913c
00000290: 4a5b c3b6 007c 3f3b 98e3 e83b b976 b9bb
000002a0: 6dc6 0c3c bbdf 3e3b 71d8 993c 4b13 09bb
000002b0: 4ec8 af3c facc f93b 97ad d93b 5d75 35bc
000002c0: ee49 023c 6c7f d03c bdbf 25bc df46 6d3c
000002d0: 5e7b fa3b 9df1 7b3a a65c 1b3c 9d0e 5c3c
000002e0: e9ab 4cb9 6e9a 0b3c 616c 903c 020d b13b
000002f0: 2b0b d5ba a62e 733b a957 8c3b 8f58 0a3c
00000300: 57f8 0c3c 6152 6d3c bf19 ed3b fe87 b53b
00000310: 86a8 7d3c fd6f 8bbb 0f50 173c 4240 4f3c
00000320: 0092 323c a0a1 89ba a86c b33c 3c2d 3d3b
00000330: db91 093c ae97 ec3b bd5d 603b a952 793c
00000340: cf4b b03b 48e1 323c df48 c93b 7d13 9b3c
00000350: a323 eaba 71cf 90bc 05aa 713b ef33 75bb
00000360: 5932 2abc b84a a53a aa71 4c3c 413b 893b
00000370: edd6 3abc fc86 893b c341 ed3b 3cb4 2fbc
00000380: f1a8 783c 52a8 a5b9 3fac 323c 74e3 863c
00000390: b34c 3b3c 02b5 f43b aedb e03c b422 183b
000003a0: 3bda 973c c528 233c c3dc e43b 5cea 693b
000003b0: 86ed b03b fd1d b73b 3ab4 d73b 3b82 9b3a
000003c0: d3f4 543c f7e2 20bb bde2 1a3a 9b75 89ba
000003d0: 12c5 883c 24f3 c53b f9c5 d3bc cfd6 7b3b
000003e0: 876d a6bc 64d5 89bb 70ef 0bbb 1ee8 fb3c
000003f0: 1ec6 c23c fd18 b83c a1ec ae3c da27 a9bb
0.009669233 0.008584563 -0.008639102 -0.018857969 -0.0049594264 0.0060892277 -0.0012870606 0.0039050258
0.006419204 0.015092795 0.009913254 1.0080716e-05 0.021110658 0.009079126 0.0022942815 -0.006293044
0.00032759874 -0.0112703405 -0.0047999853 0.012788508 0.01454131 0.009887391 0.004087376 -0.0011193806
0.0017821395 0.0031326462 0.008303344 0.0029348722 0.004421228 0.012285439 0.013595405 0.018543016
0.0003463562 0.007313724 -0.01676208 0.0018693865 -0.003626523 -0.004853272 -0.016910454 -0.005219582
0.0047334814 0.010763905 -0.0012412561 0.015769156 0.024036806 0.024928465 0.002862459 -0.0047226553
0.003921099 -0.0029734145 0.010654817 0.008203833 -0.011808373 -0.004209941 -0.0059168097 0.015650012
0.020667272 0.0026948478 -0.0034500917 -0.018064374 0.009717068 0.020500211 -0.022998566 0.008162546
-0.01785706 0.0054858453 0.007656382 0.0013503507 0.003567343 0.026732536 -0.0044365125 -0.002329022
0.0033378613 -0.0071763108 -0.0066433894 0.004422641 -0.008346062 -0.00035218234 0.0018916978 0.017170858
0.024075646 0.004883681 0.007992957 0.008122515 0.0030391056 0.016105989 -0.0121065015 0.008828693
0.012092332 0.021264423 0.034151543 0.0019493545 0.008925499 0.014331795 -0.0047394354 0.013013923
-0.0089488365 0.004303738 0.0017674549 0.010680782 0.012088807 -0.0062510795 0.0254465 0.017186617
-0.0032043366 -0.0050565447 0.0058963574 0.009404039 0.04031557 0.02662 0.0048431084 0.007289165
-0.009342578 0.00925728 0.016425526 0.0020760656 0.0055287546 0.011247729 -0.0006267672 0.002400062
0.008613022 0.011099186 -0.010158245 0.005113903 0.016880594 -0.0019509268 0.01507626 0.010067583
0.0043740147 0.008536608 0.011377109 0.004165212 0.0011826151 0.0023161336 0.007165642 0.004464655
0.0049420726 0.0030812845 0.01093843 0.018166622 0.028002584 0.0009262081 0.010268672 -0.0048451982
0.0067137848 0.0122653395 0.019061254 0.008901685 0.01296552 -0.0008885975 -0.009661949 0.005209533
-0.009268072 0.02157127 0.0053032828 0.018532801 -0.006963184 0.018106068 0.015042081 0.0020260413
0.009565848 -0.0027026657 -0.001710837 0.017804386 -5.8220803e-06 0.0029218197 0.0071072094 -0.005659905
0.00859223 0.0029125053 0.018779965 -0.002091604 0.021457817 0.007623312 0.006643008 -0.011075345
0.0079521965 0.025451384 -0.010116515 0.014482229 0.007644101 0.00096108933 0.009482538 0.013431218
-0.00019518998 0.008520706 0.017629804 0.005403162 -0.0016253939 0.0037106662 0.004282911 0.008443966
0.008604131 0.014484973 0.007235735 0.005539893 0.015482074 -0.0042552934 0.009235396 0.012649598
0.010899067 -0.0010500439 0.021902397 0.0028866073 0.008396591 0.00722023 0.003423556 0.015217462
0.005380131 0.010917969 0.00614272 0.018930191 -0.0017863404 -0.01767704 0.0036875021 -0.0037414988
-0.01038798 0.0012610769 0.0124782715 0.004187972 -0.011403781 0.0041969996 0.0072405054 -0.010724124
0.0151769975 -0.0003159666 0.0109053245 0.01646588 0.011431861 0.007467867 0.027448501 0.0023214044
0.018536678 0.009958451 0.0069843247 0.0035692668 0.0053994088 0.0055882917 0.006582764 0.0011864373
0.012997824 -0.0024549344 0.00059084204 -0.001048732 0.016695533 0.0060409475 -0.025851237 0.0038427596
-0.020315899 -0.0042063463 -0.0021352433 0.03075033 0.02377611 0.022472853 0.021353068 -0.0051622214

action_model._continuous_distribution.log_sigma f4 [1, 5]
00000000: d4bc 1dbe b55f a73c 4a47 d2bd a520 c3bc
00000010: 7414 7cbe
-0.15404063 0.020431379 -0.102675036 -0.023819277 -0.24617177

action_model._continuous_distribution.mu.weight f4 [5, 256]
00000000: 99ea 55bd b1d7 37bb 546f a3bc 01f5 58bb
00000010: 8459 70bc ad89 ef3a 9211 46bc 977b f3bc
00000020: 2589 96bb d1a6 063b 4e74 5b3c 84fe 4bbb
00000030: cafe 2b3c 3c82 80bc ae5f a83c a448 30bc
00000040: bb1c c9bc d179 833c 9c9a 883c 3ccf 08bc
00000050: 8986 083d d301 2fbd bd0f 1abd b23f 7b3b
00000060: 2273 283d 0a5c f539 5e87 023d ad79 6c3c
00000070: b5ce 463d ca1e b2bc ae61 2fbd 3fb4 133d
00000080: 48e0 3b3c 70c4 fbbc b62d d63c d07e 54bc
00000090: deed 10bd 2d62 86bc 0389 573c 71e4 503c
000000a0: 6604 43bb b8b3 d23b b8fb 8ebc 2134 9dbc
000000b0: 39ed 81bc c832 a43c 6e22 61bd c4e8 babc
000000c0: 9d6b 483b 1e4e 2b3c 2ca8 203d 12d6 abbc
000000d0: d1c7 c1ba ff49 dc3a 0f00 b9bc b474 ae3c
000000e0: 0223 1f3d 2c09 b7bc 82e6 ebbc 6ed0 b9bb
000000f0: 1366 073d 3e4f 003d 6bbb 883c 04d0 c0bc
00000100: 1654 6bbb ddc1 333c 687e 1e3d b1ed e4bb
00000110: 7460 05bd dcd5 0dbd f4b5 7aba 4f68 a2bb
00000120: 9c36 173a 5d56 43bc 40f9 e43b e072 f03c
00000130: 040c 04bc d630 2a3d 5e27 ae3c e7a6 d4bc
00000140: 43b0 5cbd 35b2 31bd 2302 51bc 594f d23b
00000150: d75b fdbc 7e7c aabc f187 343b 32bc 983c
00000160: 9cf1 42bd a965 683c 5865 a8bc d5bd 043d
00000170: 5d8b ecbc 62f0 0ebd 35d4 7a3c fbb9 593d
00000180: 7948 d6bc 3fce 873b 6771 0bbd b362 253c
00000190: 963d 5fbd f55c babc ae12 adbc e4dc 3c3c
000001a0: 1fd5 6abc fb13 e6bc c90b 52bd 9b8b 0f3c
000001b0: ae43 8d3b 96ee c2bc ab4f cabb c367 123d
000001c0: 9588 98bc e4b3 d43c cbe8 b03b 72d0 163d
000001d0: 4a46 723d 58ab f2bc c62c 1a3c 50c4 f63c
000001e0: 3bad c3bc 7baf f2bc 79d9 5a3c bca9 e4bc
000001f0: f18d 243d 029c 59b9 adf4 6d3d fa6c 503d
00000200: 752e 663b f243 ff3c 16c2 7a3d 6c90 2ebd
00000210: 8fae e0bc b82e f63c 7b4c 553c 22b2 aabc
00000220: e649 453d a4e5 bd3c dda5 2a3d 567b 543d
00000230: de77 51bc 11f0 773c 1888 1b3c ccc5 4c3d
00000240: 0f54 143d 0b23 41bd 2203 18bb 2a08 5e3d
00000250: 1c8a 173d 6be5 3ebd a8f4 07bb a14d 19bd
00000260: 9f8a e53a 8825 75bd dcad 72bd 3a2d 353d
00000270: 65c9 bd3c 388c 12bd c9a3 533c 1de6 38bb
00000280: 1664 1a3d 30b2 df3c 7486 38bd ef9f 89bd
00000290: 89b5 853c 7981 4c3c 6c6a a93c a2f7 14bb
000002a0: c2d1 003c 4c7a 29bd 9d8b ebba 5c9f 133d
000002b0: cb81 cfbb 560f 0f3d 35d8 3ebc 8ddf e93b
000002c0: e02b 833c 6587 45ba 31a6 7c3c c577 c93c
000002d0: 771a 10bd adfc 17bd af3d 053d 93e6 a0bb
000002e0: 82de 2c3d f5bd dfbc 7fa2 0ebc 8f90 473b
000002f0: c645 453c a24d e13a 8ea6 3ebd 35ab 83bd
00000300: 584b 4d3d 1cf9 6b3b 47ba 233c 1c8e 013c
00000310: fac9 2e3d d114 e3bc 51bc 3f3c 9b00 01bc
00000320: ad95 5b3d 6ba0 17bb 12e9 973c a7e5 cbbb
00000330: 672a 0bbd e899 01bd 3ee4 ba3b 7590 abba
00000340: e95c 88bb f87d dcbc 9c80 a03c 4233 803c
00000350: 8b84 33bd 20a1 2abd 5e61 03bb c5d8 153c
00000360: e676 bf3a b5db b13c cf8b 263d af34 3ebd
00000370: 70a6 9bbc f96c 333d 8ed8 1bbd eb0c 30bc
00000380: c986 07bd 069a d4bc 51b3 c3ba 5da9 43bd
00000390: 31ac 103d 3bb4 2f3d 3e93 593d 51d4 053d
000003a0: eb98 5bbc de81 b1bb 5855 173d 9e5f 523d
000003b0: 672d 7c3d 9ac4 02bd a797 0bbd 667f 2b3c
000003c0: f4b9 69bb 61e1 93bc 1d45 debc 33ea 09bd
000003d0: c19d a4bb ff28 17bd 05d7 feba 100b b03c
000003e0: 0a6b f23a 2268 67bd 995f 303c 5310 5c3d
000003f0: c97f 043d 38f7 b33c 7cc1 46bc 0962 bfba
-0.052225683 -0.0028052146 -0.019950546 -0.0033105018 -0.01466978 0.0018275284 -0.01208915 -0.029722018
-0.0045939856 0.0020546208 0.013394428 -0.0031127045 0.010497758 -0.0156871 0.020553436 -0.010759506
-0.024549833 0.016049298 0.016675286 -0.00835019 0.033331428 -0.04272635 -0.037612665 0.0038337526
0.041125424 0.00046798616 0.031867377 0.014433307 0.048536975 -0.021743197 -0.042817764 0.036060568
0.011467047 -0.030733317 0.026144844 -0.012969688 -0.035383098 -0.016404236 0.013155225 0.012749777
-0.002975726 0.0064301156 -0.017454013 -0.019189896 -0.015860187 0.020043746 -0.054964475 -0.02281607
0.003058172 0.010455636 0.03922288 -0.0209761 -0.0014784281 0.001680672 -0.022583036 0.021295883
0.038851745 -0.02234324 -0.028796438 -0.0056705987 0.03305633 0.03132557 0.01669093 -0.02353669
-0.0035908273 0.010971514 0.03869477 -0.006986343 -0.032562688 -0.03462778 -0.00095638563 -0.004956282
0.00057683303 -0.011922446 0.0069877207 0.029351652 -0.008059505 0.04155048 0.021259006 -0.025958491
-0.053879034 -0.043382842 -0.012756857 0.0064181504 -0.030927582 -0.020811316 0.0027546848 0.018644426
-0.047593698 0.014184394 -0.020556137 0.0324076 -0.028875047 -0.034897216 0.015309383 0.05315588
-0.026157605 0.0041444595 -0.034043696 0.0100943325 -0.054502092 -0.022749403 -0.021127071 0.011527274
-0.014333039 -0.0280857 -0.05128077 0.008761312 0.0043110466 -0.023795407 -0.006174048 0.035743486
-0.018619815 0.025964685 0.005398845 0.036819883 0.059149064 -0.029622719 0.009410089 0.030122906
-0.023886314 -0.029624691 0.013357514 -0.027912967 0.04017443 -0.0002075285 0.05809467 0.05088518
0.0035122905 0.031160329 0.06122025 -0.0426182 -0.027426986 0.030051574 0.013018723 -0.020836893
0.04816618 0.02318079 0.041662086 0.051875435 -0.012784926 0.01513292 0.0094928965 0.04999332
0.036212977 -0.04715256 -0.0023195227 0.054207005 0.036996946 -0.04660551 -0.0020745192 -0.03742755
0.0017512626 -0.059850246 -0.059247836 0.044232585 0.023167321 -0.035778254 0.012917467 -0.002821333
0.037693106 0.027306646 -0.0450501 -0.06719958 0.016321914 0.012482041 0.020680629 -0.0022730608
0.00786251 -0.041376397 -0.0017970685 0.03604065 -0.006332611 0.034926735 -0.011648227 0.007137245
0.016012132 -0.0007535129 0.0154204825 0.024593243 -0.03518149 -0.037106205 0.03252953 -0.004910299
0.042204387 -0.027312258 -0.008705734 0.0030451154 0.012040561 0.0017189274 -0.046545558 -0.064291395
0.05012068 0.0036006635 0.009993142 0.007907417 0.04267309 -0.027719887 0.011702613 -0.0078736795
0.05360954 -0.0023136388 0.018543754 -0.006222445 -0.033975985 -0.031640917 0.005703478 -0.0013089316
-0.0041614664 -0.026915535 0.019592576 0.015649442 -0.043827575 -0.041657567 -0.002004705 0.00914592
0.0014607578 0.02171121 0.040660676 -0.04643696 -0.019000262 0.043805096 -0.03804832 -0.010745267
-0.033087526 -0.02595235 -0.001493076 -0.04776894 0.035320465 0.04289649 0.053118937 0.032673184
-0.013403158 -0.0054170927 0.036946625 0.05136072 0.061566737 -0.031925775 -0.034080174 0.010467386
-0.0035663815 -0.018051805 -0.027132565 -0.033670615 -0.0050236885 -0.03690433 -0.0019442743 0.02148965
0.0018495035 -0.056495793 0.01076498 0.053726505 0.032348428 0.021968469 -0.012131091 -0.001460136

action_model._continuous_distribution.mu.bias f4 [5]
00000000: 3c88 0a3c 3aad a0bc ec59 78bb 04a1 1dbc
00000010: 3b46 2aba
0.008455332 -0.01961385 -0.0037895394 -0.009620909 -0.00064954505
