MLConfig/results/newAnimal/Animal/Animal-3999968.onnx (onnx, 296297 bytes, 7 tensors)

network_body.linear_encoder.seq_layers.0.weight f4 [256, 24]
00000000: 0643 da3c 8144 3fbe 5b07 73be 9d54 bb3e
00000010: ca29 9b3d 4b93 84bc 818d 73be 6a26 dbbd
00000020: 45a4 8d3e c1df cdbe 5647 0b3e 9c18 0dbc
00000030: 84a6 66bd 9236 9d3d 62f8 813d a38c f9bd
00000040: b83a ac3d 88d8 90bc 6402 50be c82f fbbe
00000050: a4af 39be b720 0d3c f587 b13e bb66 70be
00000060: f12a cebe 2cd1 a23e 8745 edbe 4553 60be
00000070: faff cb3d afcd 6bbd 1546 503e 4545 1c3f
00000080: 199f 563b 2f6d d53d e0d1 9c3d 6330 e73d
00000090: c8e2 83be e706 bc3e bfb9 65be 1fdf 9ebe
000000a0: 2939 d6bc 6492 e7bd a725 10be 6e70 fabe
000000b0: d3e3 b13e 1e9d 7ebe ed8e 1d3e c322 423d
000000c0: 1a9f 4a3a 9c1d 1b3e fc80 65be 7213 43be
000000d0: 893a 63be 9678 7e3e 7e82 cb3d 4c99 49be
000000e0: 88b8 6ebe d1e6 973e 836c 173d 7022 fc3d
000000f0: 3c94 74be 3107 0f3e 8dbc 0fbf 7365 c83e
00000100: 28b3 ab3e a795 a73d 9675 6b3e 7686 5ebe
00000110: d107 353d 4cf0 42be 5a3a 2c3e 810f f7bc
00000120: 7474 c9bd 0508 4fbc abae 833e e53d 90be
00000130: 37ca acbb ba36 c13d 0707 473d 9c11 94be
00000140: ed5b d73d 3b7f 2c3e 1a7f 91bd f3a4 303e
00000150: 0d05 253e f7c5 b8bd f70c b23e 3455 1b3e
00000160: 72fd 94bd f3d9 24be dee8 e83d 6ca5 cd3d
00000170: f1be ad3e 4df5 88be d3b7 9bbd 71e2 bc3d
00000180: c607 4e3e debb 8dbe 3a47 d03d cb12 93be
00000190: b5af 533c cd01 e9bd 2794 8ebd 0627 493e
000001a0: cdb5 95bc 5a14 e3be d118 b93e 0ec4 d33d
000001b0: cf59 f33d b896 a7bc d19d 493e 49e0 b53d
000001c0: 86e1 abbe f52a dcbe a6f4 8b3c 8523 8c3e
000001d0: 4653 a3be e384 52be 4b87 7ebd 14c7 b6bd
000001e0: 60f7 113e 5a02 4f3e 99da d73c 51f3 193d
000001f0: 725c d5be 2510 5b3e ebbd 2abe 6e9d b63e
00000200: cc06 003d 43e3 cb3d 671a a5be 0359 be3d
00000210: bc3f 293e 7739 483e 7d8e 393c 2797 b7bd
00000220: 4689 5c3e 28cf 9d3e b696 acbd 5daf 9e3b
00000230: 1b98 bc3d 3f7d f1bc bb43 48bd e614 493d
00000240: b563 62bd 7f49 8c3d 789e 71be 8901 363e
00000250: 6700 24be 975c c13e 8f0e 57be 96d4 9bbe
00000260: 5bdb 3fbe f6ab 663d 3145 7b3e 50ef 2e3b
00000270: 6f46 843c 845c d7bd e906 8abd 63bb 3b3d
00000280: 686d e4bd 24e1 51be b447 52bd 5084 a63a
00000290: fa04 aabe 1e2e 47be b120 c23e 6283 47bd
000002a0: 7af1 df3c b311 f23d 12cc 2dbd 22c8 92bc
000002b0: eaf0 d73e 0959 1dbe c906 11be 2cf9 b53d
000002c0: e95e 9b3e f4ed 6b3e fbbc 283e f783 b33d
000002d0: f7fc 8dbe 4391 0bbe 040a 5e3e 0440 ecbc
000002e0: bcf8 56bd 28f7 cfbe ab07 3c3e 0ff0 0d3e
000002f0: 0115 4bbe 5262 f2bd ab53 9d3e 6c30 0abd
00000300: d25c bebd 319d 183e 3d98 02bb d3b3 7d3e
00000310: 8b62 9ebe 59ca 193f 4cec 4dbe 9afb e6bc
00000320: 6ad7 503d 6108 1f3e 19d0 85be d567 63be
00000330: 8b9e 74be 09fa 11bd 8e4c 323e e226 53bd
00000340: da39 61be 41ac 1f3f bdaa 96be faf0 15bc
00000350: d2c5 c5bd dd7f 9dbd 5ac2 5fbd 520c 41bd
00000360: b8fe 3ebe 922e 8cbe 3760 093e 131a 593e
00000370: b8f7 763d 4a76 8ebc 5584 25bd 6219 c6bd
00000380: 1068 29be eb8e 4c3e 82d5 623e bb91 b43d
00000390: 95d6 03be 1deb bfbc c00e e7bd 5f39 033e
000003a0: 2292 9abe 3481 8a3e b410 c3bd 26f4 ffbe
000003b0: 6299 313e 7089 1b3e d693 0c3d d406 80bd
000003c0: 23c3 e83d 7e79 1a3e 190b cabe 0fd3 8d3d
000003d0: cb77 693e b791 51be e996 3fbe c0e2 313d
000003e0: 6d68 c3bd e5d7 11be bd6d c63d 36f6 be3d
000003f0: 2d6c 6ebe 337a a1ba 6597 d4bd 6350 083e
0.026643287 -0.18678476 -0.23733275 0.36587992 0.0757633 -0.016183516 -0.23784448 -0.10700686
0.2766439 -0.40209773 0.13601431 -0.008611824 -0.056311145 0.07676424 0.063462034 -0.121850275
0.08409637 -0.017681375 -0.20313412 -0.49059892 -0.18133408 0.008613757 0.3467404 -0.23476689
-0.40267137 0.3180021 -0.46342108 -0.21906765 0.09960933 -0.057569202 0.20339234 0.61043197
0.0032748638 0.10421216 0.07657218 0.11288526 -0.25758958 0.36724016 -0.22434138 -0.31029603
-0.026150303 -0.11307219 -0.14076863 -0.48913902 0.3474413 -0.24864623 0.15386553 0.047396433
0.00077293965 0.15148014 -0.22412485 -0.19050387 -0.22190298 0.24850687 0.09936999 -0.19687384
-0.2331258 0.29668286 0.03696872 0.12311256 -0.23884672 0.13967587 -0.5614708 0.391399
0.33535123 0.08182841 0.22994074 -0.2173098 0.044196907 -0.19036978 0.16819134 -0.03015876
-0.09836665 -0.012636189 0.257192 -0.28172222 -0.0052731293 0.094342664 0.048590686 -0.28919685
0.1051558 0.1684541 -0.07104321 0.17250423 0.16115208 -0.09022134 0.34775516 0.15169221
-0.07274903 -0.16098766 0.11372541 0.10041317 0.3393474 -0.2674965 -0.07603421 0.09222878
0.20120153 -0.27682394 0.101698354 -0.28725275 0.01292031 -0.113772966 -0.069618516 0.19643793
-0.018275166 -0.44351465 0.36151746 0.10340129 0.11882364 -0.02045761 0.19689108 0.088806696
-0.33570498 -0.43001524 0.01708443 0.2737085 -0.3189947 -0.20558505 -0.062140744 -0.0892469
0.14254522 0.20215741 0.026349353 0.03758556 -0.41672093 0.21392877 -0.1667401 0.35666984
0.031256482 0.09955456 -0.32246706 0.092943214 0.16528219 0.19553171 0.011325476 -0.08964377
0.2153674 0.3082211 -0.08427183 0.0048426823 0.09208699 -0.029478667 -0.048892718 0.049092196
-0.05527087 0.06849956 -0.23595607 0.17774023 -0.16015778 0.37765953 -0.21001647 -0.30435628
-0.18736021 0.05631634 0.24538113 0.0026692934 0.016146867 -0.10515693 -0.06739599 0.045833003
-0.1115368 -0.2049604 -0.051337913 0.0012704227 -0.33206922 -0.19451186 0.37915567 -0.04870928
0.027336825 0.11819782 -0.042430945 -0.017917696 0.4217599 -0.15365995 -0.14162745 0.088854164
0.30345848 0.2303999 0.1647834 0.08765405 -0.2773206 -0.13629632 0.21683508 -0.028839119
-0.052483305 -0.40618253 0.183623 0.13861106 -0.19832231 -0.11835159 0.30727896 -0.033737585
-0.09295048 0.14903714 -0.0019927167 0.24775629 -0.30934557 0.60074383 -0.20109671 -0.028196145
0.050986685 0.1553054 -0.26135328 -0.22207578 -0.23888604 -0.035638843 0.17412016 -0.051550753
-0.21994725 0.62372214 -0.29427138 -0.009151692 -0.09656872 -0.076904036 -0.054628707 -0.04713089
-0.18651855 -0.2737928 0.1341561 0.21201353 0.060294837 -0.017390389 -0.040409405 -0.0967281
-0.16543603 0.19976394 0.2215176 0.088168584 -0.12874825 -0.02342754 -0.1128211 0.12814854
-0.30189615 0.270517 -0.0952467 -0.49990958 0.17343667 0.15189147 0.034320675 -0.06251302
0.113653444 0.15085408 -0.39461592 0.06925022 0.22799604 -0.20465742 -0.18709911 0.043429136
-0.09541402 -0.14242513 0.096889 0.09324305 -0.23283453 -0.0012319743 -0.10380439 0.13311915

network_body.linear_encoder.seq_layers.0.bias f4 [256]
00000000: c0a4 2f3c 6765 883a fe39 dc3b ac92 833c
00000010: 2069 c63c edca f8bb b58f 2f3c bb21 0a3c
00000020: 30b5 e93c 4b79 803c 2c29 8f3d 75e2 133d
00000030: 7028 443c eb0a d43c b930 713c 32f9 8a3c
00000040: 1aee 173c 4a49 df3b cffb 5f3a 7a4e 883c
00000050: b195 1ebc aa2e 603c 43db 2c3c a438 a63a
00000060: 7484 8a3c d670 51bc b127 e53b fcb6 ba3a
00000070: 41eb a03a 727c 8e3c 7b6b 68bb 226a 0a3c
00000080: 3489 0e3d ddf9 ac3c b07c 2dbb 2de6 813c
00000090: 9afa 9b3c a2b7 6d3d 018f 6dbc a1ab f0bc
000000a0: 719d ae3c ab55 b63c 26b3 6bb8 d243 003d
000000b0: 726d 403c abd6 883c 78ce 353c d320 3b3c
000000c0: 941a 2a3c 344a 213c 64d2 5eba 2473 253b
000000d0: 0447 bf3a 40b9 c33b 472d 1ebc e77a f53c
000000e0: ef00 a83c 42b5 9bbc c2b1 cd3c dcd2 6e3c
000000f0: 7565 903b 63bc 9b3c 8712 6d3c b2af 543c
00000100: 45e3 453b 41cc 303c 1d81 fabc 9cd3 a73c
00000110: 2630 2b3c a38d 1a3c c09b d83c 9042 ff3a
00000120: 5ba4 aa3b a038 c4bb 7953 f7ba 1b68 89bc
00000130: c38f a03b d8f0 0b3d 579e a43c 293e 843c
00000140: ad3d 32b9 ea08 173c a403 47bc 3600 ec3c
00000150: 8aba ad3a 3c8d 213d 5086 a93c b26b 933b
00000160: 356d 9dba 1495 303c a7db 993c 179e 943c
00000170: 5ca3 3b3b f766 07bc 0c24 fd3b d28f 013c
00000180: f8de bb3c 87d3 293b e182 403c 85de 78bb
00000190: a268 c7ba 08e8 da3c a758 9f3c 82fc 4d3c
000001a0: 3ce7 b83c a12c 193b 074f c33b 2fee ba3c
000001b0: 46dc 863c 1844 dd3c 3e17 ad3c eceb b13b
000001c0: faef a33c 10f2 1e3c 7a7f ca3a 4184 a9bb
000001d0: 43b2 70ba 97b7 afbc bf4e cf3c 156e d33c
000001e0: da5a a53c 6906 c73c 9c7d d73c 81cd daba
000001f0: 9ae7 f83c eb63 2d3c b9ab 413c 23e4 0e3d
00000200: 09df 4abb eff8 c5bc a3e9 59bc 2fa1 493d
00000210: fcdb bebb 0976 4f3c b1cc c23c 016e c23a
00000220: e5ea fd3b c06e 94bb 540d 2abc 1273 553c
00000230: db5c f1bb 883d 223c 5738 fcbb 3bef 9abc
00000240: dc4f 513c 1f5f dabb 88c2 9e3c fd23 ac3c
00000250: 2350 403c 19bd e9bb de73 0cbc 60f5 67bc
00000260: 4668 f73c 561e 56bc a6ea 9c3c c8b1 9e3c
00000270: 18d1 093d 6b7d 973c 17c2 473c f095 bdbb
00000280: 1ba8 3a3c cb6a 0f3d 40b3 9f3c bbf8 1b3d
00000290: 5256 b3bc 4342 c83c be8b 6abc 2306 143c
000002a0: 3721 b3ba 6b34 3cba 68ac 0b3d 139e 0d3c
000002b0: 5a90 19bc 9fa0 ebbb 97e0 ac3c e1ac e3ba
000002c0: 8479 9a3b cd8f 76bc a3c8 bd3c 98f7 86bb
000002d0: 6531 753b 466d dd3c a25a 573c 7336 b13c
000002e0: 4c2e f13c d477 563c 43dc b03b 6c4f 073d
000002f0: 381c 9e3c b630 79bc 8d5a 503b b944 973c
00000300: 2c5e b83c 97ca 973c 02d4 913c ac22 7b3b
00000310: 6d43 953c fb7c 163c 7fa3 0b3c 304b 1f3c
00000320: 4ecf db3c 599f 87bb cb21 bd3b e719 a03c
00000330: b8cc f33c 357f a93c 3739 eb3c f45b 173c
00000340: 468b 34bb d2d6 853b f440 743a 75df 513c
00000350: 41b1 193d 95cf ac3a 1757 333c 834a d3bb
00000360: fe24 3f3d 5fb9 d23b f85c 86bb 5b15 c93c
00000370: ba83 bc3b e883 943c 518a 1abb 29cd 4e3b
00000380: 198b 0a3c f3d1 b0bc c05c 903c efa3 1f3c
00000390: 9949 bc3b 3420 01b9 2630 763c 7f1c 1fbc
000003a0: 8dfc 203b 8e0f c33c 16a0 6e3c c252 ea3b
000003b0: 5e56 13bc 83da f13c 2949 013c 4a53 243c
000003c0: da4b 2e3c 8351 863c 4415 84bb 4dd5 b9bc
000003d0: af68 053d 42b3 a03c 7f58 0b39 a266 883c
000003e0: 0234 963c 07e4 bd3c a357 1a3c c76b 603c
000003f0: cfb0 e43b 9f65 59bc 10c5 a03c 5f61 c93a
0.010720432 0.0010406197 0.0067207804 0.01606115 0.02422005 -0.00759255 0.010715415 0.0084308935
0.02852878 0.015682837 0.06990275 0.036104638 0.011972532 0.025884112 0.014721089 0.016964529
0.009273076 0.0068141567 0.00085442973 0.016638983 -0.009679244 0.013683001 0.010550323 0.0012681675
0.016908862 -0.01278325 0.006993257 0.0014245207 0.0012277142 0.017393325 -0.0035464454 0.008448156
0.034798816 0.021115238 -0.0026472025 0.015856827 0.019040395 0.058036454 -0.014499427 -0.029378714
0.021315308 0.022257647 -5.619521e-05 0.03131468 0.011744844 0.016703924 0.011096589 0.0114214
0.010382313 0.009844352 -0.00084999786 0.002524563 0.0014593308 0.0059730113 -0.00965435 0.029965831
0.020508258 -0.019007329 0.025109176 0.01457664 0.004406626 0.019010728 0.014469749 0.012981342
0.0030195278 0.010790885 -0.030579144 0.020486645 0.010448491 0.009433183 0.026441455 0.0019474793
0.005207581 -0.0059881955 -0.0018869481 -0.016773274 0.00489995 0.034165233 0.020095034 0.016142922
-0.00016998379 0.009218434 -0.012146864 0.028808694 0.0013254446 0.039441332 0.020693928 0.0044989223
-0.0012010696 0.0107777305 0.018781496 0.01814179 0.0028631305 -0.008264295 0.0077252444 0.007907825
0.022933468 0.0025913434 0.011749954 -0.003797443 -0.0015213678 0.02672197 0.019451452 0.01257241
0.022571199 0.0023372548 0.0059603485 0.022818653 0.016462456 0.027010009 0.021129247 0.0054297354
0.02001189 0.009701267 0.0015449368 -0.0051732366 -0.00091818365 -0.021449847 0.025306104 0.025809327
0.020184923 0.024295049 0.026305012 -0.0016693325 0.030383874 0.010582904 0.011820727 0.034885537
-0.0030955693 -0.024166552 -0.013300332 0.049225982 -0.005824564 0.012662419 0.023779245 0.0014833809
0.007748949 -0.004529804 -0.010379154 0.013027923 -0.0073658056 0.0099023655 -0.007697146 -0.018912902
0.012775388 -0.0066641713 0.01937987 0.021013254 0.011737856 -0.007133138 -0.008572547 -0.014157623
0.030201089 -0.013068756 0.019154858 0.019371882 0.033646673 0.018492421 0.012192271 -0.005785696
0.0113926185 0.035013955 0.019494653 0.038079005 -0.021891747 0.024445659 -0.014315544 0.009034666
-0.0013666515 -0.0007179442 0.034099966 0.008643645 -0.009372795 -0.0071907784 0.021103187 -0.0017370248
0.004714193 -0.015048933 0.02316696 -0.004118871 0.0037413475 0.027029645 0.013144167 0.021632409
0.029441021 0.013090093 0.005397351 0.033034727 0.019300565 -0.0152093675 0.0031792254 0.018465387
0.022505842 0.01852922 0.017801289 0.0038320227 0.018220628 0.009185071 0.008522867 0.009722516
0.026832249 -0.004138869 0.0057718507 0.019543601 0.029760703 0.02069054 0.028713806 0.009238232
-0.0027548834 0.0040844465 0.000931754 0.012809624 0.037522558 0.0013184423 0.010946057 -0.0064480915
0.046666138 0.0064307894 -0.004100438 0.024546316 0.0057530077 0.018129304 -0.0023580978 0.003155539
0.008456015 -0.021584487 0.017622352 0.009743675 0.005746078 -0.00012314395 0.015026128 -0.009711384
0.0024564594 0.023811128 0.014564535 0.007150979 -0.0089927595 0.02952314 0.007890978 0.010029623
0.010638202 0.01639629 -0.0040308554 -0.022684718 0.032570537 0.019616727 0.0001328904 0.016650502
0.018335346 0.023180021 0.009420308 0.013697571 0.006979085 -0.013268857 0.019625217 0.0015364102

network_body.linear_encoder.seq_layers.2.weight f4 [256, 256]
00000000: c4eb b8bc 487c 75bd 3a59 823d 1ade 1bbd
00000010: 454d 793d 6511 f33d 8b78 be3d a1d2 37be
00000020: c199 593d bd8a 2e3d c63a 17bd 1fbf c93d
00000030: bdbb 3abd bf82 8bbd 7f54 8abd 3f0e dabd
00000040: 65ea 6fbc f2c6 2f3d a93a 23bc 639d 433c
00000050: e0e0 633d d043 8c3d 77dd be3c 9325 e43c
00000060: 7065 bb3d a45e a43c 2697 babc e3df 1a3c
00000070: 9352 87bd 301b 74bb 1671 343c 211b 9d3c
00000080: 1850 203d dd24 bd3d 910e cabd 623b 37bc
00000090: 8a74 e23b 09e8 d73d 8351 debd 3b33 94bd
000000a0: 8848 7fbc 98b0 14be 2727 233d cd46 e9bd
000000b0: 0b45 1e3e 173a 11bd 19bb b7bd aeb3 a23d
000000c0: 3f47 16bd 61d5 93bd c4d7 25be 3e10 2abd
000000d0: d351 c4bb cc7e b4bc 0b8c 1dbc 0f17 e43d
000000e0: c858 b3bd 4ec2 0dbe 1a34 303c 194e eebd
000000f0: 55bc 2abd 9c8f a3bd fd71 46bc b82a c93c
00000100: ee1a c9bb 2fd5 44bd ec51 8a3d 9628 f0bc
00000110: d047 09bc 67a6 21bc 09ee ca3d 3f88 de3d
00000120: 4392 0ebe 71bd 443d 1191 623d bf08 10bd
00000130: f34c 38be 50bc d2bc cbd1 96bd a8e3 743d
00000140: b174 7d3d b16f 183e 44dd c33c 4f6f 7d3d
00000150: 5b84 ea3c eb16 143c df1f fabd 616c c63d
00000160: 25b5 81bd f1d6 1fbd 437c d83b f500 b33d
00000170: 17fb eabd e0b8 2a3d 1b10 ffbc ae70 c73d
00000180: 3340 ef3c 7706 2abd c701 80bd 58aa fd3c
00000190: caf5 cfbc f0ec 34bd 0c6f b9bd 55a9 843d
000001a0: e8fa c83d da9b d13c 190b b5bd d0de 0bbd
000001b0: ac4f 8dbd 4f8a 28bd f8ba 47bd ec67 c33c
000001c0: 5fb6 e53c 094a 81bd b31b 7c3c 37d7 23bd
000001d0: da29 60bd 1898 523c df88 bd3d 2f4c cebc
000001e0: a646 633d 7640 b63d b715 c53d 81be cf3b
000001f0: 2a2d 193e 8b45 203b 7ced 33be 43cf e53c
00000200: 5c43 813d 07f5 143d b0e6 913b 9652 2c3c
00000210: a7ad 1dbd 1358 f23d 9858 acbc 8659 dc3c
00000220: be46 f2bb 7cf7 193d 4952 41bc 21be c1bb
00000230: 7e72 3bbd 4cb2 0ebd 5c76 f93c 0453 8cbc
00000240: d503 debd 7e2d f4bd 62ce e33d a93d c73c
00000250: c412 d4bc dfd5 c9bd f365 1dbc a015 53bd
00000260: 227c d6bd 4280 2cbc 35e2 cdbd 1a74 ea3c
00000270: b229 60bd 1db8 33bd 29f8 06bc 5bcc 3abc
00000280: 8039 3f3d c4a0 10bd a988 61bd b9f5 893d
00000290: ae71 933d 3a74 5bbc 4986 203c 6c08 1d3d
000002a0: 03ed f5bd 49db 093d 22fb 9e3d a0bc 013e
000002b0: 899c 393d 7236 98bc 6941 08bc 8714 793c
000002c0: 2081 1d3d 11d8 12bd 32f2 0b3e d7d4 483b
000002d0: b834 aebd 071f 88bd 82f5 43be db48 f43c
000002e0: 5f47 a73c 55ec 423d 38eb 37bc ec79 a43d
000002f0: 9511 a7bb a72f ac3d 7a1e 323d 68dd a5bd
00000300: 76c3 a43d fd33 093d 5be2 10bd 8d8b 81bb
00000310: 9ad3 0d3e 8c89 90ba 3426 053d 5060 43bd
00000320: 776e 5abd 4732 593d ce47 ce39 fa99 41bc
00000330: 401e 5b3b c4c3 96bc 3b4d 9d3d ff11 6cbb
00000340: daf4 083e 42fc 35bb 9fe4 d3bc 3e42 abbd
00000350: 5349 e6bd b940 a7bc f38a 0abe e331 95bd
00000360: c1ed 0c3b bd0b be3d 1e5b 073d 9971 85ba
00000370: 6924 ba3c f4cb 46bd c415 043d 293d 9a3d
00000380: 66a5 1d3d 3527 72bd e5c1 2bbd a8ff e8bc
00000390: bfa3 413d 9f9b a0bb e6fe 4fbd bca2 ca3c
000003a0: 2c8c df3d 0af2 54bb 606d 15bc d296 0bbd
000003b0: abca a0bd 30c6 ccbc 77cf 10be af4e 153d
000003c0: 61f6 053c 31b9 b4bd 408d 84bd f147 18bd
000003d0: 3e04 efbc 9b38 3d3e c9c8 373c e0f7 de3c
000003e0: 914d 0bbc 2c02 0f3d 9115 5a3d 837f 033d
000003f0: 56d3 95bd dab2 01bd be39 afbc c139 47bd
-0.02257336 -0.059932977 0.06364675 -0.03805361 0.060864706 0.11868552 0.093003355 -0.17951442
0.053125147 0.04261278 -0.036921285 0.098509066 -0.045589197 -0.06812047 -0.067543976 -0.106472485
-0.014643286 0.04291434 -0.009962716 0.011939379 0.05563438 0.06848872 0.023298962 0.027849948
0.09150207 0.02006466 -0.022777151 0.009452793 -0.06607547 -0.003724765 0.01101329 0.019177975
0.039138883 0.09235547 -0.098660596 -0.011183592 0.006910865 0.10542304 -0.10855391 -0.07236334
-0.015581258 -0.1452049 0.03983226 -0.11390457 0.15456025 -0.03545579 -0.08971233 0.079444274
-0.03668904 -0.07218433 -0.1619559 -0.041519396 -0.0059911995 -0.022033118 -0.009615908 0.111372106
-0.08757168 -0.13843653 0.0107546095 -0.1163599 -0.041683514 -0.07986376 -0.012112138 0.024556503
-0.0061372435 -0.04805487 0.067539066 -0.029316228 -0.008378938 -0.009866334 0.09908683 0.10865831
-0.13922982 0.048032228 0.055314127 -0.03516459 -0.17998104 -0.02572456 -0.073642336 0.059787422
0.061878864 0.14886357 0.023909219 0.06187373 0.028627565 0.009038667 -0.1221311 0.096886404
-0.06333379 -0.039023343 0.00660661 0.08740417 -0.11473673 0.041680217 -0.03113561 0.09738289
0.029205417 -0.04151007 -0.06250339 0.030965015 -0.025385756 -0.044171274 -0.09054384 0.0647761
0.098134816 0.025587011 -0.08840007 -0.034148037 -0.06899962 -0.041147526 -0.04876229 0.023853265
0.028041063 -0.06312949 0.015387463 -0.040000167 -0.054727413 0.012853645 0.09254622 -0.025182812
0.055487297 0.08899014 0.096232824 0.0063398485 0.14958635 0.0024455513 -0.17571062 0.028052932
0.06311676 0.03636649 0.004452549 0.010517737 -0.038495686 0.11833205 -0.021038339 0.026898157
-0.007393687 0.037589535 -0.0117994035 -0.0059125577 -0.045763485 -0.034838006 0.030451946 -0.017129429
-0.10840575 -0.119227394 0.11123349 0.024321394 -0.025887854 -0.09855246 -0.009606826 -0.051534295
-0.10472895 -0.010528626 -0.10052911 0.028619815 -0.054727264 -0.043876756 -0.008237877 -0.011401261
0.046685696 -0.035309568 -0.05506197 0.06736321 0.07199417 -0.01339441 0.009797641 0.03833811
-0.12008097 0.033656392 0.077627435 0.12669611 0.0453153 -0.018580649 -0.008316376 0.015202648
0.03845322 -0.03585059 0.13666609 0.003064444 -0.08506149 -0.06646543 -0.19136623 0.029819896
0.020419775 0.047588665 -0.011225514 0.08031067 -0.0050985315 0.084075265 0.043486096 -0.080988705
0.08045094 0.033496846 -0.03537212 -0.0039534033 0.13850251 -0.001102732 0.032507136 -0.047699273
-0.053328004 0.053026464 0.0003934488 -0.011816496 0.0033434778 -0.018403895 0.07680746 -0.0036021469
0.13374653 -0.0027768766 -0.025865851 -0.08362244 -0.11244454 -0.020416604 -0.13529567 -0.07284906
0.0021504017 0.09279583 0.03304588 -0.001018095 0.02272244 -0.04853435 0.03224732 0.075311966
0.038487814 -0.059119422 -0.04193296 -0.028442219 0.0472753 -0.004901364 -0.0507802 0.0247358
0.109154075 -0.00324929 -0.009120315 -0.03407938 -0.07851156 -0.024996847 -0.14141642 0.03645199
0.008176417 -0.08824385 -0.06472254 -0.037177984 -0.029176828 0.18478625 0.0112173045 0.027217805
-0.00850238 0.03491418 0.053243224 0.032104027 -0.073157 -0.031664707 -0.021389838 -0.048639063

network_body.linear_encoder.seq_layers.2.bias f4 [256]
00000000: 8d93 183c 8781 0f3c 2fb9 09bc a589 95bc
00000010: 0b24 b4bb 4c56 a73b a91c 90ba 5390 9c3b
00000020: 3543 bd3b 21e7 653c b3a6 133c eecc 8636
00000030: c0e2 b03c 1d0f 0b3c bc83 163b 0c5e e4bb
00000040: fa90 2e39 899f 22bc ef31 c6bb 7ee0 523c
00000050: d8d6 773c 066f 1f3c 3605 8a3b 4ee1 10ba
00000060: ab0e e43a 0ff5 203b ee80 fa3b f82a 5f3b
00000070: dd81 a53b c598 503c 7ab2 5b3c bf52 973c
00000080: d8e1 ed39 29da 083c 69a8 8ebc 212d db3a
00000090: d492 7bbb 7624 b5bb 696b 87bc 913e a9bb
000000a0: 1c61 9c3b 425e 293c e40a eeba 43b7 853c
000000b0: cf0a c83c 722f cb3c 8a03 2e3b 84fc 6cbb
000000c0: f0d3 653b 97ef 0cbb 2634 283c f9f9 043c
000000d0: 74e1 44bc 12f5 83bb 79f7 bbbb 2f91 833c
000000e0: f721 a93c 221a 8c3b 7c83 65bb dd40 8fbc
000000f0: c4be 1c3c e241 a83c c37e b5bc a8c1 ed3b
00000100: f827 88bc c8a7 cf3b c6c2 ff3b 1965 a83a
00000110: b32a 9f3b 4c87 d63c 3d71 73bb 4e7b d6ba
00000120: 1fb3 2f3b e610 d5bb 17fb ddbb a200 8c3b
00000130: 0650 0ebc dfb0 39b9 7329 0e3b 791a 8c3c
00000140: 70bb bf3c 5b43 7a3b c357 023c a38c fb3b
00000150: f880 613b 3b2b 843c ad4b 32bc f288 023c
00000160: be78 3c3c 696f aa3c ad12 0b3d 4ff3 353b
00000170: 92ad 083c 4739 643c 3a39 9fbb 08bf 5b3c
00000180: a509 15bc ea98 903b 1c63 5a3a 7745 283c
00000190: 09ac 3f3c 5b04 bdbb e8e9 cf3c 2731 8d3c
000001a0: 9fb5 80bb c90f 9dbb 53f1 c63b bdc1 153c
000001b0: 9f7d 243d 13b5 db3c 0609 943b c650 fc3b
000001c0: 7c70 0cbc cc66 143c 8c7c 823c 5f28 213b
000001d0: 32f9 bb3b 6860 363c 15be 1ab8 5058 403b
000001e0: 07e7 fb3b 4f74 333c 8f7e 0ebc a81e a63b
000001f0: 248b 833c a6fd ccba f43c 773c 578d 203c
00000200: 2d48 9e3b 6147 153c b7f8 343c 740b 953b
00000210: d03d 2d3a 134c 2d3b 966a d93b 54ce 833b
00000220: 8a2c 983b 3a25 4e3b d3e9 313c c5bb 913c
00000230: 6feb e33c 0d0b e13a c015 2c3c 1a1b 9dbb
00000240: 4caa cd3b 1254 463c 0a4d 913c 5fc4 143c
00000250: ba14 553c d1d8 99ba b885 17bc aaa2 a73b
00000260: 71eb 11bc e107 af3c 29cd 8c3b d6f8 973c
00000270: 8947 eabb 1c2f 8d3c ad1a 6d3c b3b7 b43a
00000280: 945f 193c ce4d 26bb 90ce 93ba a7e9 8e3c
00000290: a2b0 26ba 8ee4 013b cd3f e03b 72dc 9ebb
000002a0: fe9b 153c 9f94 363b 89d9 8f3c dec2 d5ba
000002b0: 4506 af3c 935e 013c b1a2 c43b 4ea3 32bc
000002c0: 19c5 f33b 4003 cb3c ab6d 28bc 25c6 663c
000002d0: 9758 e03b a45d 953a a11e 223c 10c3 573c
000002e0: 2d8f 1bb9 c95b 133c 6195 893c 64e9 b13b
000002f0: 72fd d1ba 85bf 703b 2618 a83b afe2 0e3c
00000300: 0e8f 073c 6fbb 563c 82af f43b 1a5c 9e3b
00000310: aca8 7d3c ff0c 67bb f38e 143c bf0b 423c
00000320: c0ba 303c 8f01 84ba 46dc ab3c 8c17 163b
00000330: d29c fc3b 641d dc3b b7b1 8e3b 17fe 703c
00000340: 0184 973b a3f4 213c 99ef a33b 2480 9a3c
00000350: 8ff5 9dba d7b3 89bc 436f 4c3b ca5a 4bbb
00000360: 1c9f 31bc f1eb fc39 1f4d 463c 1122 7a3b
00000370: 796c 1dbc b3d7 8a3b 5bd1 e73b 7d77 19bc
00000380: 48bb 7b3c 3833 6ab9 1540 313c d7cd 833c
00000390: a765 383c 879e 003c 7beb e03c 0d4a 3b3b
000003a0: 2fd3 9d3c 3425 1b3c 67b5 e13b 8c80 853b
000003b0: 6f18 b53b 50be b83b 6a49 c33b 4b93 d33a
000003c0: d410 523c 9ea9 68bb 83f2 ce3a 3e22 bbba
000003d0: d621 833c 5cec a33b 0f92 c8bc abd1 593b
000003e0: c729 a6bc 0d95 84bb 94f0 e2ba b19b f93c
000003f0: 79e8 bd3c 9c1e b33c 1feb af3c df93 acbb
0.009312523 0.008758909 -0.008405968 -0.01825411 -0.0054974607 0.005106723 -0.001099487 0.004777947
0.005775834 0.014032156 0.009011912 4.017368e-06 0.021592498 0.00848749 0.0022966703 -0.006969219
0.00016647941 -0.009925731 -0.006048433 0.012870906 0.015126906 0.00973106 0.004212047 -0.0005526737
0.0017399391 0.0024560129 0.007644764 0.003405271 0.0050508813 0.012731736 0.013409251 0.018472074
0.0004537243 0.008352795 -0.017414289 0.0016721823 -0.0038387077 -0.005528028 -0.01653071 -0.005164929
0.0047723185 0.010337414 -0.0018161205 0.016322738 0.024419216 0.024802897 0.0026552402 -0.0036161253
0.0035068952 -0.0021505111 0.010266339 0.008116239 -0.012016643 -0.0040270174 -0.005736288 0.01606044
0.020646079 0.004275576 -0.0035020998 -0.017486984 0.009566966 0.020539228 -0.022155171 0.0072557516
-0.016620621 0.0063371398 0.007805201 0.0012847512 0.004857385 0.026187561 -0.0037146353 -0.0016363652
0.0026809645 -0.0065022586 -0.006774317 0.0042725364 -0.008686071 -0.00017708864 0.0021692186 0.017102467
0.023404807 0.003818712 0.007955494 0.0076766773 0.0034409147 0.016133895 -0.0108823 0.007967221
0.011503397 0.020805078 0.033953357 0.0027763431 0.008342164 0.013929672 -0.004859117 0.013412245
-0.009096538 0.00441276 0.00083308085 0.010270468 0.011698731 -0.0057683415 0.02538009 0.017235352
-0.003927901 -0.0047931415 0.0060712486 0.009140429 0.040158864 0.026819741 0.0045176772 0.0077000586
-0.00857174 0.009057712 0.01592853 0.0024590713 0.0057364935 0.0111313835 -3.689349e-05 0.0029349513
0.0076874527 0.010953023 -0.008697166 0.0050695725 0.016057558 -0.0015639558 0.015090216 0.009799323
0.0048303814 0.009111256 0.011045626 0.0045484845 0.0006608637 0.002644305 0.0066350205 0.004022399
0.0046439813 0.0031455294 0.010858971 0.01778973 0.027822224 0.0017169431 0.0105032325 -0.0047944905
0.0062764045 0.012105005 0.01773693 0.009080022 0.01300543 -0.001173759 -0.00924819 0.0051158266
-0.008906231 0.021366062 0.004296918 0.018551271 -0.007149641 0.017234378 0.014471692 0.0013787657
0.0093611665 -0.0025375965 -0.001127677 0.017445398 -0.0006358718 0.0019820067 0.006843543 -0.0048480565
0.00913143 0.0027859581 0.017559784 -0.0016308685 0.021365294 0.007896083 0.0060008396 -0.010903193
0.0074392674 0.024781823 -0.010280053 0.014085327 0.006846498 0.0011395705 0.009894998 0.013169065
-0.00014835289 0.008994051 0.016794862 0.0054294337 -0.0016020967 0.0036735248 0.005129832 0.008721038
0.008273853 0.013106211 0.007467211 0.0048327567 0.015482109 -0.003525555 0.009067285 0.011843621
0.010786712 -0.0010071265 0.020979058 0.0022902219 0.007709124 0.006717371 0.0043546814 0.014709017
0.0046238904 0.009884986 0.0050029275 0.01885993 -0.0012051332 -0.016809387 0.0031194247 -0.0031029456
-0.010841157 0.00048240976 0.012103348 0.0038167278 -0.009608381 0.004237139 0.0070745177 -0.009366867
0.015364476 -0.0002233506 0.010818501 0.016089363 0.011254705 0.007850296 0.027456036 0.0028578073
0.01926574 0.009469319 0.00688808 0.004074162 0.0055265944 0.0056379214 0.0059596794 0.0016141919
0.012821395 -0.003550149 0.0015788827 -0.0014277173 0.016007345 0.0050025415 -0.024483709 0.0033236544
-0.020283593 -0.0040460886 -0.001731413 0.030469747 0.02318214 0.021865182 0.02147442 -0.005266651

action_model._continuous_distribution.log_sigma f4 [1, 5]
00000000: 06b6 1dbe c528 a93c d5b9 d2bd e51f e0bc
00000010: bb58 7abe
-0.15401468 0.020649323 -0.10289351 -0.027358958 -0.2444791

action_model._continuous_distribution.mu.weight f4 [5, 256]
00000000: 5d24 58bd 4ec0 56bb c784 a8bc 28f4 4dbb
00000010: eca2 6dbc c85c fa3a 107a 42bc bddd f4bc
00000020: d27c 92bb 292f ff3a edec 5b3c 29de 75bb
00000030: b61b 323c 1ada 85bc b81a ab3c dd74 2ebc
00000040: 3a3a c7bc 8534 783c eda4 813c ada6 04bc
00000050: 44c5 063d 0ab3 2fbd d76b 1cbd 37f5 933b
00000060: 5428 2b3d e2e1 8b3a 0d6a 073d e04e 6d3c
00000070: c0a8 493d 0bc8 aebc c75f 2ebd b226 143d
00000080: 4e9d 383c 450a 04bd b55b ce3c c33d 67bc
00000090: eef7 13bd da11 86bc bf0b 4d3c f272 573c
000000a0: c0d5 81bb f757 da3b 2df7 89bc cce6 a1bc
000000b0: 1db9 7fbc 51f6 9c3c f94a 5fbd f921 bebc
000000c0: d060 063b f0f4 193c 3365 243d 2b63 afbc
000000d0: 7b67 e7ba 61c8 9f3a 578d b5bc 07e1 b13c
000000e0: 1bdc 213d e872 b9bc b7bc ecbc 646d bcbb
000000f0: 3769 083d 548c f83c fa6b 873c 1121 bebc
00000100: 89d2 54bb cabd 2c3c c86a 203d edb0 e2bb
00000110: b1c9 07bd 476b 15bd 60cf 75ba 1491 adbb
00000120: 9bb8 113a 03d5 52bc dd31 e83b e25d f53c
00000130: 5fd0 d0bb da2f 253d 4ea3 a23c 6a0b d9bc
00000140: 4582 5cbd f41f 30bd 2d07 65bc cc98 b23b
00000150: 5e0b 00bd e042 abbc 5252 163b a80a 9f3c
00000160: 00ff 43bd 56b2 633c ebd2 a9bc 8b33 073d
00000170: 7290 e8bc c85f 10bd ded0 863c e712 5a3d
00000180: 8741 d8bc b403 813b 378f 0abd 5b91 373c
00000190: f251 5dbd b150 bcbc a7de abbc e83e 453c
000001a0: 0974 6fbc f27c e7bc 6a7b 52bd 312d 223c
000001b0: 059a 813b 4584 c9bc 7761 b2bb 9faf 1a3d
000001c0: 2a5b 9dbc a1c0 d03c 8a30 bc3b ef9e 133d
000001d0: 2546 6e3d c2de f0bc bd9e 293c f529 f33c
000001e0: 9c14 bcbc ec4c f8bc a694 483c b147 ebbc
000001f0: 6427 1f3d 214b aab9 e49a 713d 76bb 513d
00000200: 631c 623b 5844 fd3c c292 7d3d 7fc3 34bd
00000210: 797a dbbc d5d2 ed3c a40b 483c 7032 a3bc
00000220: e3a9 473d 00c1 c43c cc18 2b3d 5353 523d
00000230: dae4 4fbc 6fd0 693c 2ddf 123c 3c29 4b3d
00000240: 63a7 193d 8167 42bd 9e54 9cba 3d4e 5d3d
00000250: dbf9 1a3d 1c6e 3ebd 5077 0ebb efa7 17bd
00000260: 004e c13a 24c0 74bd 24ff 6ebd 666f 343d
00000270: e896 c83c 3adc 14bd d67f 473c e8cb 25bb
00000280: 1947 1d3d dfb9 ec3c 40a9 39bd 9721 8cbd
00000290: 376c 833c ea7f 553c 4519 b33c 4090 45bb
000002a0: 8906 f83b 9b50 29bd 2458 3fbb 0915 103d
000002b0: 9e4f d4bb f33e 113d f9ad 46bc e587 c83b
000002c0: 8069 803c 8bd6 a6ba fc70 773c f09a d03c
000002d0: cfd2 10bd 581d 1ebd e79c 093d 3054 b4bb
000002e0: 117a 2e3d fa19 e0bc 297f 1fbc 9af6 603b
000002f0: ce77 4c3c 3518 e03a 4f4a 41bd c203 85bd
00000300: a2b5 4e3d a8ec 8c3b feb8 213c ccf0 e13b
00000310: b89b 303d 2feb e0bc 3b57 333c 4195 12bc
00000320: 17e6 5c3d 4bed 94ba db86 9c3c 885a b7bb
00000330: 606d 0abd a49b 04bd 2420 da3b 7817 b6ba
00000340: 6238 6fbb f33e d6bc da08 a73c a1cc 803c
00000350: d1c8 34bd 86b0 2bbd 2193 deba 33cf 153c
00000360: d57f 1e3b e099 b73c 4c4c 283d 47dc 3cbd
00000370: 89b3 9cbc b3d4 353d 1ad8 20bd 90e1 38bc
00000380: 1e32 06bd 13ff d6bc a219 2abb ebab 44bd
00000390: d7f3 153d 33ab 313d 11a4 5c3d 6b13 083d
000003a0: 9ba3 58bc 6768 d1bb 3035 163d 2b87 4f3d
000003b0: 603c 7e3d e7f3 00bd 9f54 0abd ee9c 2e3c
000003c0: 15af 66bb 18d2 8fbc ed3f e2bc 108f 0abd
000003d0: a079 a0bb 7dc8 13bd 5735 50bb b5c7 ad3c
000003e0: ca0b 8f3a 2e9e 67bd 2710 393c c4bf 5b3d
000003f0: 3bb4 053d 2b9e b43c d27b 51bc ac00 17bb
-0.052769054 -0.003276843 -0.020571126 -0.0031426046 -0.014504176 0.0019101137 -0.011869922 -0.02989089
-0.004470446 0.0019469011 0.013423187 -0.003751645 0.010870865 -0.01633935 0.020886764 -0.01064798
-0.024319757 0.01514924 0.015825713 -0.008096379 0.03290297 -0.042895354 -0.03818878 0.004515316
0.041786507 0.0010672177 0.033060122 0.014484137 0.0492332 -0.021335622 -0.04257181 0.036169715
0.011267973 -0.032236356 0.025190214 -0.014113846 -0.036125116 -0.016365934 0.0125150075 0.013149964
-0.0039622486 0.0066633183 -0.016841495 -0.019763373 -0.015608099 0.019160422 -0.05451486 -0.023209559
0.0020504482 0.009396777 0.040135574 -0.021409592 -0.0017654741 0.0012190455 -0.022162123 0.021713747
0.03951655 -0.0226378 -0.02889858 -0.005750345 0.033303466 0.030340351 0.01653098 -0.023209127
-0.0032474122 0.010543296 0.039164335 -0.006918064 -0.033151332 -0.03647926 -0.00093769096 -0.0052968357
0.00055588194 -0.012868169 0.0070860223 0.029951993 -0.006372496 0.040328838 0.01985326 -0.0264947
-0.053835172 -0.042999223 -0.013978762 0.0054503437 -0.03126084 -0.020905912 0.002293725 0.019414261
-0.04785061 0.013897499 -0.020730456 0.03300814 -0.02838919 -0.035247594 0.016457018 0.053240683
-0.026398433 0.003937209 -0.033827987 0.011204089 -0.054033227 -0.022987695 -0.020980192 0.012038924
-0.014615067 -0.02825782 -0.051387228 0.00989847 0.003955128 -0.024599204 -0.0054437476 0.03776514
-0.01920851 0.025482478 0.005743091 0.036040243 0.058172364 -0.029403094 0.010352788 0.029683093
-0.022959046 -0.030310117 0.012242472 -0.028720709 0.038855925 -0.00032480902 0.058985606 0.051204167
0.0034501783 0.030916378 0.061907537 -0.044131752 -0.026791798 0.029031197 0.012209807 -0.019921511
0.048746 0.02401781 0.041771695 0.051348995 -0.01268884 0.014270886 0.008964342 0.04959987
0.037513148 -0.04746199 -0.0011927073 0.054029692 0.037835937 -0.046491727 -0.0021738596 -0.03702539
0.0014747977 -0.059753552 -0.05834879 0.04405155 0.02448602 -0.036342837 0.012176475 -0.002529854
0.038397882 0.028897224 -0.045327425 -0.06842344 0.016042812 0.013030985 0.021862635 -0.0030145794
0.0075691384 -0.041336637 -0.0029196823 0.03517631 -0.0064792177 0.035460424 -0.012126439 0.0061197155
0.015675306 -0.0012728734 0.015102621 0.025464505 -0.035357293 -0.038602203 0.0335969 -0.0055032
0.04259688 -0.027356137 -0.009734907 0.0034326673 0.012479736 0.0017097058 -0.047190007 -0.06494857
0.050466187 0.0043006726 0.009870766 0.0068951603 0.043117255 -0.027455894 0.01094609 -0.008946718
0.05393037 -0.0011362223 0.019107273 -0.005595509 -0.033795714 -0.032374993 0.0066566635 -0.0013892492
-0.0036502113 -0.026153063 0.020389963 0.015722575 -0.044136826 -0.041916393 -0.0016981104 0.009143638
0.002418508 0.02241224 0.041088387 -0.04610851 -0.019128578 0.0443923 -0.03926859 -0.011284247
-0.03276264 -0.026244676 -0.002595522 -0.048015516 0.036609497 0.04337616 0.053867403 0.033221643
-0.0132226 -0.0063906196 0.036671817 0.050666016 0.062069297 -0.031482603 -0.033772107 0.010657532
-0.0035199572 -0.017556235 -0.027618373 -0.03382784 -0.0048973113 -0.036079872 -0.0031770074 0.021213392
0.0010913548 -0.056547336 0.011295355 0.05364968 0.032642584 0.022048077 -0.012785869 -0.0023041172

action_model._continuous_distribution.mu.bias f4 [5]
00000000: 6a5d 0b3c 8000 93bc bba7 69bb 1546 13bc
00000010: fc6c aeb9
0.008506158 -0.017944574 -0.0035652954 -0.008988877 -0.00033269066
