MLConfig/results/newAnimal/Animal/Animal-3499920.onnx (onnx, 296297 bytes, 7 tensors)

network_body.linear_encoder.seq_layers.0.weight f4 [256, 24]
000000 6c 3c d5 3c e2 33 41 be 29 ed 72 be 27 ed b9 3e
       0.026029788 -0.18867448 -0.23723282 0.36313745
000010 31 1e 98 3d a6 bf 92 bc ea 5a 74 be 93 0d dd bd
       0.074276336 -0.01791365 -0.23862806 -0.10793605
000020 d8 2e 8e 3e 03 33 cd be 5f 29 02 3e a4 16 8a bc
       0.27770114 -0.4007798 0.12711094 -0.016856499
000030 15 58 70 bd 53 87 98 3d 12 ee 71 3d c9 f5 fc bd
       -0.05867775 0.07447686 0.059064932 -0.12351567
000040 3d 6a ab 3d e6 de 60 bc 98 a6 4b be 90 e9 f8 be
       0.08369873 -0.013725018 -0.19887769 -0.48615694
000050 35 30 3b be 62 73 52 3b 24 e2 b2 3e ad 41 6f be
       -0.18280108 0.003211223 0.34938157 -0.23364897
000060 84 35 cc be bc 64 a3 3e 95 c2 ec be bd 26 5f be
       -0.3988458 0.31912792 -0.46242204 -0.21792121
000070 d2 40 d2 3d db 75 61 bd ea dc 4c 3e 0e 8c 1b 3f
       0.1026627 -0.055044036 0.20006147 0.6076058
000080 af a9 b5 ba 84 9c cc 3d 5c 1e 9b 3d 1c ff e5 3d
       -0.0013859774 0.099907905 0.0757415 0.11230299
000090 67 43 85 be 1c 38 bb 3e 82 1f 64 be 07 9d a0 be
       -0.26027986 0.36566246 -0.22277644 -0.31369802
0000a0 fe 72 c8 bc b9 04 e6 bd 77 b7 11 be c4 ca fd be
       -0.024468895 -0.112313695 -0.14230143 -0.4956876
0000b0 b5 9d b1 3e f7 14 78 be 0d 48 1f 3e 7e 48 37 3d
       0.34690633 -0.24226747 0.15554829 0.04474687
0000c0 0b df fd 39 eb db 19 3e 2f 70 66 be d9 6e 45 be
       0.000484221 0.15025298 -0.22503732 -0.19280566
0000d0 e7 4b 67 be b2 b5 7a 3e 29 5b d0 3d 88 7e 47 be
       -0.22587548 0.24483374 0.101736374 -0.19481862
0000e0 1d f0 6d be 52 59 98 3e 4b 88 19 3d ce c7 fc 3d
       -0.23236127 0.29755646 0.037483495 0.12342797
0000f0 b3 45 75 be 76 72 0e 3e c6 79 0e bf c0 61 c8 3e
       -0.2395237 0.13910851 -0.5565456 0.39137077
000100 cd cd ab 3e 76 0a a8 3d 83 8a 6d 3e 4a d3 5c be
       0.3355545 0.0820512 0.2319737 -0.21564975
000110 21 58 33 3d c0 63 45 be 85 b9 2a 3e 89 d7 fe bc
       0.04378522 -0.19276333 0.16672333 -0.031108635
000120 68 61 c7 bd 01 83 39 bc d0 10 83 3e c0 a1 90 be
       -0.09735376 -0.011322738 0.25598764 -0.28248405
000130 25 4b a9 bb f6 f8 c0 3d f1 c7 57 3d 41 82 92 be
       -0.0051664286 0.094224855 0.052680913 -0.28615
000140 f0 e5 d9 3d ea 98 2c 3e 7c 94 8b bd ab 4e 33 3e
       0.1063956 0.16855207 -0.068154305 0.17510478
000150 ed c1 24 3e c1 d1 ba bd 1b 2e b3 3e 6d 40 1a 3e
       0.16089602 -0.09122039 0.34996113 0.15063639
000160 fc f5 99 bd de af 26 be 7b fb e9 3d c7 6e c8 3d
       -0.07517621 -0.16278026 0.11424919 0.09786754
000170 44 e9 ad 3e db 8a 87 be 75 f5 98 bd f5 7c bd 3d
       0.3396703 -0.26473126 -0.07468692 0.09252349
000180 54 8d 4c 3e 03 87 8e be 03 32 d7 3d 14 e3 91 be
       0.19975787 -0.2783738 0.10507586 -0.2849356
000190 8b de 39 3c 78 8f ec bd d5 7e 8a bd 37 f1 4a 3e
       0.011344562 -0.11550802 -0.067624725 0.19818579
0001a0 b9 fe 93 bc 40 73 e2 be 81 e9 b7 3e c6 ab cf 3d
       -0.018065797 -0.44228554 0.35920337 0.10140185
0001b0 ad e4 f4 3d d7 9a 9e bc 85 be 44 3e e5 46 ba 3d
       0.11957679 -0.019360943 0.19213302 0.09095553
0001c0 5a 90 ad be 48 3b db be fb 64 91 3c 75 89 8d 3e
       -0.33899194 -0.42818666 0.017748347 0.27643934
0001d0 3a 4e a4 be 13 f4 55 be f6 f1 80 bd 98 6e b8 bd
       -0.32090932 -0.20893888 -0.062961504 -0.09005469
0001e0 6c 17 11 3e a4 ac 4d 3e 14 e1 e2 3c c3 b7 1f 3d
       0.14169091 0.20085388 0.027695216 0.03899361
0001f0 04 1b d6 be 48 85 59 3e a6 ac 2b be 87 42 b6 3e
       -0.41817486 0.21242249 -0.16765079 0.3559763
000200 0f 9d f4 3c 08 1f c8 3d 1c 2f a4 be 96 c2 c1 3d
       0.029860048 0.09771544 -0.32067192 0.094609424
000210 ac 8b 29 3e f8 b8 48 3e 04 d1 74 3c b1 15 b9 bd
       0.16557187 0.1960181 0.014942411 -0.090373404
000220 4a c4 5c 3e 40 4d 9d 3e d9 ac aa bd ed d0 21 3b
       0.21559253 0.30723 -0.08333749 0.002469118
000230 46 0b c3 3d 27 08 da bc d5 20 48 bd 01 ea 3e 3d
       0.095236346 -0.026615215 -0.048859436 0.046609882
000240 ba 82 66 bd c3 25 87 3d 59 16 70 be 40 c8 33 3e
       -0.056277014 0.06598999 -0.23446025 0.17556858
000250 fd a2 24 be 5f 80 c0 3e 5c 5a 53 be 7e ae 9a be
       -0.160778 0.3759794 -0.20639938 -0.30211252
000260 32 44 3e be 7d 9a 6c 3d bb 0b 77 3e 9c 53 b3 ba
       -0.18580702 0.05776452 0.24125569 -0.0013681534
000270 50 d2 4c 3c d4 bd dd bd 89 c6 86 bd d1 29 3b 3d
       0.012501314 -0.108272225 -0.06580836 0.045694176
000280 fb 6a e7 bd d5 51 4a be 80 37 40 bd f5 0b af 3b
       -0.11299702 -0.19757779 -0.04692793 0.0053420016
000290 00 b1 aa be 77 5c 4c be 68 9a c2 3e cd 7e 4a bd
       -0.33338165 -0.19957148 0.38008428 -0.049437333
0002a0 78 0c cf 3c 0a 22 f0 3d ed d2 3d bd c8 29 ab bc
       0.0252745 0.117252424 -0.046343733 -0.020893946
0002b0 3c af d7 3e 17 4e 1e be e5 79 0e be 58 69 b9 3d
       0.4212588 -0.15459476 -0.13913687 0.09053296
0002c0 6a d7 9b 3e 52 c7 6b 3e 2e fe 28 3e c2 79 b3 3d
       0.30437785 0.23025253 0.16503212 0.08763458
0002d0 b0 f1 8d be 11 cc 0c be fb 51 5a 3e ee ae ee bc
       -0.27723455 -0.1374972 0.21320336 -0.029136147
0002e0 dc 7a 65 bd 8d 73 d0 be 9b a1 39 3e f3 ee 0d 3e
       -0.05602537 -0.40713158 0.18128054 0.13860683
0002f0 58 51 48 be 1a c4 f1 bd 3e 34 9e 3e d1 fa 09 bd
       -0.1956228 -0.118049815 0.30899233 -0.033686463
000300 eb 34 bf bd dd ea 18 3e bb 87 ab 3a 87 f3 80 3e
       -0.09336265 0.14933343 0.0013086715 0.25185797
000310 1b ab 9d be 9a 3f 1a 3f 2d f1 4d be cd 8a df bc
       -0.30794606 0.602533 -0.20111533 -0.027287865
000320 bb fc 54 3d fc 92 20 3e 4c b9 84 be 96 19 61 be
       0.051998835 0.1568107 -0.2592262 -0.21982417
000330 b2 47 71 be ae e5 01 bd 1c 6d 2f 3e c1 2f 4d bd
       -0.23562506 -0.03171318 0.17131466 -0.05009437
000340 c0 03 5e be 22 14 20 3f 87 fb 97 be f5 3b 28 bc
       -0.21681118 0.6253072 -0.29684088 -0.010268201
000350 ad a6 bd bd bb 95 9a bd fc 9e 65 bd 1c 87 3b bd
       -0.092603065 -0.0754809 -0.056059822 -0.045783147
000360 f8 ca 3c be 67 c1 8b be 19 35 0a 3e ad 37 59 3e
       -0.18436801 -0.27295992 0.13496818 0.21212645
000370 9c c2 6f 3d 4a db 97 bc 0d 5a 2e bd ec 1b c9 bd
       0.058535203 -0.018537182 -0.042566348 -0.09819779
000380 af 8e 2a be 60 3b 4d 3e f0 2d 60 3e d6 ea af 3d
       -0.16655992 0.20042181 0.21892524 0.08589713
000390 07 7d 04 be 3d 61 bc bc 61 76 e4 bd 67 d1 03 3e
       -0.12938319 -0.022995586 -0.111553915 0.1287285
0003a0 fe 2c 99 be 29 82 8a 3e ab a1 be bd 97 f3 fe be
       -0.2991714 0.2705243 -0.093081795 -0.4979522
0003b0 90 7c 30 3e 89 36 19 3e 20 fb 03 3d bc 12 7e bd
       0.17235017 0.1496221 0.032221913 -0.062029585
0003c0 41 84 e5 3d 23 f4 17 3e a5 ce c8 be 6e d3 8f 3d
       0.11206866 0.14839225 -0.39220157 0.07022749
0003d0 16 3d 63 3e 9d 20 57 be d5 60 41 be e2 41 2d 3d
       0.22191271 -0.21008535 -0.18884595 0.04229916
0003e0 8a f0 ca bd 2a 82 13 be df f2 c2 3d 75 a6 bc 3d
       -0.099091604 -0.14405122 0.0951898 0.09211437
0003f0 34 54 70 be 86 44 b3 ba 1c 98 ce bd 7e 98 07 3e
       -0.23469621 -0.0013677038 -0.10087606 0.13241765

network_body.linear_encoder.seq_layers.0.bias f4 [256]
000000 ed c9 e9 3b 3b 74 b2 39 5c 90 05 3c e3 51 7c 3c
       0.007134667 0.00034037404 0.008152094 0.015400383
000010 c8 27 ca 3c 30 b1 eb bb c5 ca 0f 3c 68 3f ea 3b
       0.024677172 -0.0071927533 0.008776371 0.007148672
000020 83 27 f6 3c b1 0d 90 3c 5c 33 94 3d aa e9 1c 3d
       0.030048138 0.017584654 0.072363585 0.038308777
000030 b3 22 1c 3c 8b 34 da 3c b7 19 69 3c ff b6 96 3c
       0.009529757 0.026636383 0.014227322 0.018397806
000040 7d 1f 28 3c a0 42 c8 3b 0d 3d 23 3b b8 16 89 3c
       0.010261414 0.006111458 0.0024908215 0.016734466
000050 55 b4 22 bc 32 4d 2f 3c ae 94 10 3c 2e 97 c1 3a
       -0.00993069 0.010699557 0.0088245105 0.0014769787
000060 ba 46 9a 3c 9f 6e 30 bc 1a 59 f8 3b b0 98 4b 3b
       0.018832553 -0.010768562 0.007578981 0.003106635
000070 fc 61 12 3b 0f a4 96 3c 27 7b 96 bb b5 6c 11 3c
       0.0022336235 0.018388776 -0.0045923176 0.008876015
000080 6d 0f 18 3d 49 74 b1 3c a5 e3 e6 ba b5 80 8d 3c
       0.037124086 0.021661894 -0.0017615451 0.017273286
000090 e3 49 85 3c 50 2b 73 3d 00 e4 5e bc 38 c0 f8 bc
       0.016270583 0.059367478 -0.013604164 -0.030365095
0000a0 aa bd c1 3c d9 15 a4 3c b7 d4 e7 39 84 34 e8 3c
       0.02365001 0.020029949 0.00044218238 0.028345354
0000b0 12 e7 53 3c 22 c2 81 3c 67 be 30 3c 27 4a 23 3c
       0.012933509 0.01583964 0.010787583 0.00996641
0000c0 05 f5 1f 3c 90 c4 28 3c 4b aa 69 bb 08 05 e0 3a
       0.009763007 0.01030077 -0.003565448 0.0017091343
0000d0 ec c2 1a bb 56 43 10 3c 14 89 24 bc dc bf 09 3d
       -0.0023614718 0.008805117 -0.010042448 0.033630237
0000e0 34 61 a7 3c ad 4d 98 bc d4 9d d0 3c d4 d7 60 3c
       0.020432092 -0.018591726 0.025465883 0.013723332
0000f0 05 6a 5b 3b d0 6b 92 3c ba 0e 65 3c 0b c0 6c 3c
       0.003347994 0.017873675 0.013980562 0.0144500835
000100 ff a0 b1 39 3f 0a 2d 3c cb 58 ea bc be f6 b9 3c
       0.00033880022 0.010561525 -0.028606793 0.022700664
000110 68 84 58 3c ee 7c 38 3c fd ac e4 3c 0d 3c 09 3b
       0.013215162 0.011260254 0.027914518 0.0020940334
000120 01 80 5e 3b 5e a0 8c bb 55 84 0a b9 4e 17 88 bc
       0.0033950808 -0.004291578 -0.00013210003 -0.016612675
000130 a6 a9 88 3b 5d ec 05 3d 0b 8b 94 3c a6 20 8d 3c
       0.0041706143 0.032696117 0.018132707 0.017227482
000140 1e 08 9a 3a 10 c4 1d 3c 81 3b 50 bc 5e 60 f9 3c
       0.0011751687 0.0096292645 -0.012709499 0.03044146
000150 f9 52 08 ba da c2 2a 3d c0 7a 97 3c 75 d8 8d 3b
       -0.0005200352 0.04168973 0.018491149 0.004328782
000160 5e 4f 9b 38 b1 fe 2d 3c 3b 47 8b 3c ad 5d 8f 3c
       7.405759e-05 0.010619805 0.017001739 0.017500723
000170 ae 09 d9 3a c5 35 1b bc 60 1b 27 3c 5a 60 3c 3c
       0.0016558671 -0.009473269 0.010199398 0.011497581
000180 6f a4 e7 3c 3b a1 87 3b bb c0 32 3c a1 73 b6 bb
       0.02827665 0.004139093 0.010910208 -0.0055679833
000190 a8 87 12 bb 32 11 d4 3c d4 99 9e 3c c0 31 2c 3c
       -0.002235869 0.025887106 0.01936046 0.010509908
0001a0 08 c3 cc 3c 03 cc bc ba c6 6b a9 3b 8b 38 a3 3c
       0.024995342 -0.0014404062 0.0051703183 0.019924423
0001b0 66 ce 6f 3c 57 df d1 3c dc 25 b8 3c 66 9d d0 3b
       0.014636612 0.025619192 0.02247899 0.0063664196
0001c0 4a 48 bc 3c b8 80 04 3c 73 50 b6 3b c9 c2 bc bb
       0.022983689 0.00808733 0.0055637895 -0.005760525
0001d0 66 71 85 bb 4a 78 af bc cf 56 df 3c 02 0f e1 3c
       -0.004072356 -0.021419663 0.027263073 0.027472977
0001e0 d3 fd b4 3c c8 13 c5 3c 1f 6e e9 3c 01 ed 00 b9
       0.02209369 0.024057284 0.028494893 -0.00012295322
0001f0 2f cf 00 3d eb 06 f6 3b 82 36 16 3c 8e 66 19 3d
       0.031447586 0.007508149 0.009168269 0.03745132
000200 c4 03 6e bb ec 47 c2 bc cd 38 4b bc cd 53 4e 3d
       -0.0036318162 -0.023715936 -0.012403679 0.050372887
000210 d6 29 0d bc 72 9d 75 3c 1e 6a c1 3c 31 92 30 3b
       -0.0086159315 0.014991151 0.02361017 0.0026942606
000220 86 50 dc 3b 14 be 0c bc 2a 5c 2d bc f0 da 3e 3c
       0.0067234663 -0.00859024 -0.010581056 0.011648878
000230 b9 ed df bb 06 27 35 3c 55 1c b9 bb 5e a3 95 bc
       -0.0068337587 0.011056667 -0.0056491294 -0.018266376
000240 fd d6 28 3c 43 e4 0d bc 73 fd b5 3c 4d 47 b5 3c
       0.010305163 -0.008660379 0.02221558 0.022128725
000250 ef 5d 51 3c 41 f2 2c bc 32 9c d3 bb d4 32 68 bc
       0.012778743 -0.010555805 -0.006457829 -0.014172275
000260 f0 12 d7 3c a4 2f 58 bc de 5e 65 3c 22 73 b0 3c
       0.026254147 -0.013194952 0.013999669 0.021539275
000270 4a e7 13 3d 58 63 a7 3c aa f2 6b 3c 09 3a f6 bb
       0.036109246 0.020433113 0.014401117 -0.0075142425
000280 60 2f 71 3c 47 8e 08 3d e7 86 93 3c 4a 56 25 3d
       0.014720768 0.03333881 0.018008662 0.040365495
000290 fb 37 b9 bc 1f b2 a9 3c e1 9b 5e bc b1 a7 24 3c
       -0.022609701 0.020714818 -0.013586969 0.010049746
0002a0 06 0f 08 bb 83 ee e7 ba 7c cd 10 3d 55 75 32 3c
       -0.0020760908 -0.0017694983 0.035352215 0.010892232
0002b0 5b 63 23 bc 5c 71 0e bc 7b 1b 9e 3c bb 4f 1f bb
       -0.009972419 -0.008694019 0.019300213 -0.0024308998
0002c0 16 65 c1 3a d0 37 7e bc cf ca ae 3c 11 79 11 bb
       0.0014754857 -0.015516236 0.021336941 -0.0022197405
0002d0 6a 86 c7 39 0b dc e6 3c 46 c6 3d 3c 15 0b b7 3c
       0.00038056384 0.028181097 0.011582917 0.022344152
0002e0 fb ef c3 3c c3 ba 6a 3c 25 35 25 3b 61 68 11 3d
       0.023918143 0.014326754 0.0025208679 0.035499934
0002f0 f9 80 5b 3c 11 73 8a bc 94 b6 82 3b d6 5e a1 3c
       0.013397449 -0.016900571 0.00398905 0.019698542
000300 e8 db b6 3c a9 2d af 3c 46 90 97 3c 3f c2 14 3b
       0.022321656 0.021384077 0.018501412 0.0022698788
000310 ca ac 99 3c 72 cf 29 3c 1c 6f e3 3b de f4 0a 3c
       0.01875915 0.0103644 0.0069407355 0.008481232
000320 ee ee f4 3c b9 6f a1 bb 26 e3 ed 3b 2a 5f ab 3c
       0.029899087 -0.0049266485 0.007259744 0.020919401
000330 c1 63 06 3d f9 c9 ae 3c a2 75 fb 3c a1 10 f8 3b
       0.032809976 0.021336542 0.03069574 0.0075703417
000340 0e e7 b3 ba 9b 4c 4a 3b dc b5 b7 3a 26 40 39 3c
       -0.0013725476 0.0030868414 0.001401599 0.011306798
000350 92 6e 15 3d 70 ca a0 b9 8f f2 11 3c 49 e4 d6 bb
       0.0364824 -0.00030668406 0.008907928 -0.0065579754
000360 5a 76 30 3d e3 2a e5 3b d3 2a 08 bb 66 0a d9 3c
       0.04308162 0.006993638 -0.0020777478 0.026494216
000370 e0 8a 01 3c 17 49 8c 3c 61 79 64 bb 28 c9 06 3a
       0.007906646 0.017124696 -0.0034862387 0.0005141669
000380 fa 88 22 3c de 48 ba bc 11 27 91 3c dc c5 45 3c
       0.009920353 -0.022739824 0.017718824 0.012071099
000390 46 bc bd 3b 15 e2 79 3a 65 98 59 3c 4d 5e 0f bc
       0.005790266 0.0009532285 0.013280963 -0.00875051
0003a0 59 f9 ae 3a 99 57 ca 3c 75 27 a3 3c 7c aa 0a 3c
       0.0013349458 0.024699973 0.019916276 0.008463498
0003b0 c8 2e 24 bc a0 18 e9 3c 1b bb 07 3c 89 fa 46 3c
       -0.010020919 0.028454125 0.0082843555 0.012144693
0003c0 d7 a2 3c 3c 54 c7 73 3c 9c 73 7d bb 30 91 bc bc
       0.011513433 0.0148790665 -0.0038673645 -0.02301845
0003d0 8f a6 fe 3c 41 56 ab 3c 0e 0f 76 ba 0d 93 8a 3c
       0.03108528 0.020915153 -0.00093863986 0.016915822
0003e0 4c a4 8c 3c b2 f0 c8 3c dc c1 24 3c 8b 18 3a 3c
       0.017168187 0.024528835 0.010055985 0.011358391
0003f0 a3 8a 7f 3b cd 21 61 bc 20 97 a7 3c 8e 8b 00 3b
       0.0038992546 -0.013740969 0.020457804 0.001961443

network_body.linear_encoder.seq_layers.2.weight f4 [256, 256]
000000 06 c2 c0 bc 18 c8 84 bd 9b f3 81 3d 20 a9 1f bd
       -0.023530018 -0.06483477 0.06345292 -0.03897965
000010 89 db 70 3d 79 38 f5 3d f6 a8 ba 3d 83 ab 3a be
       0.058803115 0.11973662 0.09114258 -0.18229489
000020 02 43 61 3d e9 d1 2f 3d 4d 95 1b bd e7 fc c8 3d
       0.054995544 0.042924795 -0.03798418 0.09813862
000030 1b 17 38 bd e8 96 8e bd 90 74 90 bd f0 fd d3 bd
       -0.04494391 -0.06962377 -0.070534825 -0.10351169
000040 d4 62 56 bc ae 6b 2d 3d c5 79 4a bc 2f c6 5a 3c
       -0.013085086 0.04233902 -0.012358134 0.013352915
000050 a5 9e 5b 3d 6c 3c 8e 3d 16 e3 ca 3c 1d a4 ea 3c
       0.053618092 0.06945118 0.024766486 0.028642708
000060 7e 28 be 3d 9b ae a6 3c 93 dc b6 bc 43 e3 0f 3c
       0.09285067 0.02034693 -0.022321975 0.008782211
000070 14 6b 8b bd d4 e5 3e bb 1b 9f 2f 3c 89 17 a4 3c
       -0.06807533 -0.0029128687 0.010719086 0.020030754
000080 f4 93 16 3d c9 31 b2 3d 9f de d1 bd 35 2c 67 bc
       0.036762193 0.08700902 -0.1024754 -0.014109661
000090 b0 8e 36 3c 10 ff d7 3d ed a5 dc bd 06 af 9b bd
       0.011142418 0.10546696 -0.10773835 -0.076017424
0000a0 4c ae 95 bc 8c 3c 17 be 72 5f 25 3d c5 32 e6 bd
       -0.018271588 -0.1476919 0.040374227 -0.11240152
0000b0 33 12 1f 3e 39 2b 0e bd 1f d3 b4 bd 8d b0 a2 3d
       0.15534286 -0.03470919 -0.08829331 0.07943831
0000c0 8d f0 15 bd be 87 91 bd 21 23 26 be ab 3f 2a bd
       -0.03660636 -0.07105969 -0.16224338 -0.041564625
0000d0 0a bd 93 bb d1 d8 a4 bc bc e3 34 bc 7f 68 ea 3d
       -0.004508619 -0.020122917 -0.011040624 0.11445712
0000e0 61 89 af bd 3d 51 0d be e2 43 57 3c 1c 97 ed bd
       -0.08571125 -0.13800521 0.013138743 -0.116010875
0000f0 be a1 32 bd 1e ef a6 bd c9 34 16 bc 88 b8 c9 3c
       -0.04361128 -0.08151077 -0.009167858 0.024624124
000100 ab 9b 3b bc 4f dd 3c bd b1 20 82 3d 5f 9c d9 bc
       -0.011450688 -0.046109494 0.06353892 -0.026563821
000110 24 c7 a0 bb 53 38 12 bc ae a6 ce 3d 31 85 df 3d
       -0.004906552 -0.008924562 0.100903854 0.10914076
000120 51 bc 0d be d8 70 45 3d 5d bd 5b 3d 14 a2 07 bd
       -0.13841368 0.04820332 0.053647388 -0.033113554
000130 fc bf 38 be b6 f0 cb bc fb 8c 97 bd f0 a2 67 3d
       -0.18041986 -0.024895053 -0.07399937 0.056551874
000140 76 80 79 3d d8 a1 17 3e f1 11 c2 3c 3f 65 76 3d
       0.060913526 0.14807832 0.023690196 0.06015515
000150 ce 2d f1 3c 08 4f 3a 3c 90 19 f3 bd be 9f cb 3d
       0.029440787 0.011371382 -0.1187011 0.09942578
000160 e6 42 7f bd fd 15 23 bd da 89 03 3c 6b a8 ab 3d
       -0.06231966 -0.03981589 0.008028472 0.083817326
000170 c6 a1 eb bd 77 5f 23 3d ec 01 ec bc 0f 0a c8 3d
       -0.11505465 0.039885964 -0.02880951 0.097675435
000180 72 69 f7 3c 79 c9 2a bd 22 70 84 bd 73 61 fe 3c
       0.030201647 -0.041696046 -0.064667 0.031052327
000190 d1 bc d6 bc 84 6b 2e bd 4a 84 b5 bd 0d 43 84 3d
       -0.026213082 -0.042583004 -0.08863123 0.064581014
0001a0 61 bc c9 3d 17 3f d0 3c 43 d6 b7 bd 78 dc 03 bd
       0.098503835 0.025420709 -0.08976414 -0.032192677
0001b0 e3 69 8c bd 18 45 27 bd 60 e7 4e bd c7 41 c6 3c
       -0.06856134 -0.040837377 -0.050513625 0.024201287
0001c0 70 dd ee 3c 25 84 87 bd fc 09 6d 3c cb 5f 25 bd
       0.029158324 -0.066170014 0.0144677125 -0.04037456
0001d0 18 4a 57 bd fc 25 53 3c ea ed bc 3d a9 7c ba bc
       -0.052560896 0.012887474 0.09225066 -0.02276452
0001e0 74 01 65 3d eb a7 b2 3d fc dc c9 3d e2 72 0a 3c
       0.05590959 0.08723434 0.098566025 0.008450242
0001f0 61 5c 16 3e 1c d5 9c 3b 5c 36 35 be ea 58 d6 3c
       0.14683677 0.004786147 -0.17696518 0.026165444
000200 d3 1d 82 3d e4 e0 0b 3d ca 95 ab 3b a5 d3 42 3c
       0.06353345 0.03415002 0.005236362 0.01189128
000210 f0 05 14 bd aa 15 f7 3d 05 f1 b2 bc bd f1 db 3c
       -0.036138475 0.12064679 -0.021843443 0.026848668
000220 e3 1c a7 bb a3 20 17 3d f6 76 44 bc 8d 1f a5 bb
       -0.005099879 0.03689636 -0.011991253 -0.0050391615
000230 d9 4e 3b bd a0 fc 1e bd a3 b0 08 3d 35 65 83 bc
       -0.04572949 -0.03881514 0.03337158 -0.01603947
000240 30 37 d8 bd 4f d5 f1 bd cb 48 e8 3d 97 16 cf 3c
       -0.10557401 -0.118082635 0.11342009 0.025279326
000250 0d c2 e9 bc d9 92 c7 bd 00 1d 0d bc f3 0c 55 bd
       -0.028534913 -0.09744806 -0.008612871 -0.052014302
000260 92 06 d4 bd 88 a0 1a bc 1a d5 d1 bd 4f 01 fa 3c
       -0.10352816 -0.009437688 -0.10245724 0.030518202
000270 cf 2b 53 bd 5a 5e 33 bd 13 45 02 bc 4a 25 4e bc
       -0.05155545 -0.043791153 -0.007951039 -0.012582133
000280 f5 92 3f 3d 64 1c 16 bd ec 67 5b bd 09 1f 91 3d
       0.04677101 -0.03664817 -0.053565904 0.070859976
000290 d6 7e 98 3d 05 44 4c bc 74 7c 22 3c 03 f8 0c 3d
       0.07446067 -0.012467389 0.009917367 0.03441621
0002a0 7c 08 f3 bd 4f ed 0a 3d e0 12 a4 3d 5f 7f 02 3e
       -0.11866853 0.03391772 0.080114126 0.127439
0002b0 af d4 38 3d 0c 33 99 bc 11 de 2a bc 90 e5 8b 3c
       0.045124706 -0.018701099 -0.010428921 0.017077237
0002c0 08 85 23 3d 1c b3 10 bd ee d5 09 3e 90 59 6f 3b
       0.03992179 -0.035327062 0.13460514 0.003652189
0002d0 d9 5c ad bd 8b 56 82 bd 45 a5 41 be 1e 04 e7 3c
       -0.08464975 -0.06364163 -0.18910702 0.028200205
0002e0 c3 4e b0 3c b8 98 3a 3d b9 8f 1e bc cc ef a9 3d
       0.021521932 0.0455558 -0.009677821 0.08297691
0002f0 25 cb 95 bb 05 d7 a8 3d 8d d5 30 3d a3 68 a4 bd
       -0.004571336 0.08244137 0.043172408 -0.0802777
000300 69 28 a1 3d 99 5b 11 3d e2 87 1f bd 6a c8 39 bb
       0.07869036 0.035487745 -0.038947947 -0.0028348216
000310 c3 69 0d 3e d3 d1 ae bb 6e ab f5 3c 73 f0 37 bd
       0.13809876 -0.0053350716 0.02998897 -0.044907045
000320 7a f6 59 bd 68 c6 54 3d 87 39 2b 3b e6 3c 39 bc
       -0.053213574 0.051947027 0.0026126818 -0.011306023
000330 42 12 c7 3b 53 06 97 bc 40 da 9f 3d 4e 52 4f bb
       0.0060751745 -0.018435633 0.078053 -0.003163475
000340 cb cb 06 3e 64 b5 60 ba 0c 25 d4 bc d7 8a ab bd
       0.13163678 -0.0008571951 -0.025896572 -0.08376091
000350 85 05 e9 bd f2 5a aa bc fb 41 0c be 6c f9 94 bd
       -0.11378006 -0.02079532 -0.13697045 -0.07274136
000360 3f c9 90 3b 0d ee b8 3d d7 99 0c 3d b6 65 8c 3a
       0.0044185217 0.090297796 0.0343264 0.0010711465
000370 ab 5b d3 3c 24 14 4f bd 33 cd fe 3c 08 97 9e 3d
       0.025800547 -0.050556317 0.031103706 0.07743651
000380 6f 52 15 3d 14 ff 79 bd 99 2b 34 bd 99 d4 cc bc
       0.036455568 -0.061034277 -0.04398689 -0.025003718
000390 36 ce 53 3d 68 7b 9a bb b3 9a 53 bd 12 bc b1 3c
       0.05171033 -0.004714418 -0.051661205 0.021696124
0003a0 95 b7 df 3d 4c 26 97 bb d9 ae 00 bc db 77 12 bd
       0.10923687 -0.0046127196 -0.007854187 -0.035758834
0003b0 2e 14 a6 bd e2 13 c2 bc ad 12 0f be 21 38 15 3d
       -0.08109318 -0.023691121 -0.13971968 0.03643048
0003c0 22 a2 15 3c f6 fa ac bd 63 05 8b bd 9b c2 18 bd
       0.009132894 -0.084463045 -0.06788137 -0.037294965
0003d0 c4 e3 02 bd f7 28 3d 3e 72 5d 4e 3c 9c 6d d6 3c
       -0.031955495 0.18472658 0.012595521 0.026175313
0003e0 d6 5f ae bb 31 f0 09 3d f8 dd 5a 3d a1 bf 07 3d
       -0.005321483 0.03367633 0.053434342 0.033141736
0003f0 27 a3 95 bd 77 57 04 bd 14 ef b2 bc 7b 04 49 bd
       -0.073065095 -0.032309975 -0.021842517 -0.04907654

network_body.linear_encoder.seq_layers.2.bias f4 [256]
000000 6a 76 2f 3c d5 aa e8 3b 9b 3c f6 bb cb 5e 99 bc
       0.010709384 0.007100443 -0.007514549 -0.018721959
000010 f0 96 69 bb 5f 7d ed 3b 9f db 44 bb 55 c7 84 3b
       -0.0035642944 0.0072476114 -0.003003813 0.0040520825
000020 7f 01 f9 3b 58 54 57 3c 47 ce 35 3c f2 dc 64 3a
       0.0075990553 0.013142668 0.011096544 0.0008730433
000030 42 ea b9 3c d7 b5 33 3c 90 15 1b ba ea d8 f0 bb
       0.02269471 0.010968647 -0.0005915994 -0.007350077
000040 d7 53 fe 3a c5 e3 49 bc 4f 62 da bb 33 59 59 3c
       0.0019403648 -0.012322371 -0.0066645513 0.013265896
000050 b2 ec 47 3c 72 68 3b 3c 43 41 6f 3b e3 a6 8e 3a
       0.012202429 0.011438476 0.0036507405 0.0010883476
000060 12 42 5c 3b af 39 51 3b c0 9d 1a 3c 63 77 c4 b8
       0.0033608717 0.0031925251 0.009437025 -9.368246e-05
000070 73 9a 9d 3b cc 73 41 3c 69 2b 77 3c b0 0d 8c 3c
       0.0048096715 0.011807393 0.015086033 0.01709637
000080 8b 3b 2e bb fd f3 eb 3b a9 e8 72 bc f5 09 65 3b
       -0.0026585783 0.0072007165 -0.014825978 0.0034948562
000090 7b 6f 20 bb c6 b8 d8 bb 6f 83 6d bc f3 d3 aa bb
       -0.002448051 -0.0066138236 -0.014496668 -0.0052132546
0000a0 43 a6 e3 3b 1e 4c 0d 3c aa b7 89 b9 f6 f9 60 3c
       0.00694731 0.008624105 -0.00026267517 0.01373147
0000b0 4a fc bd 3c 7b 8b dc 3c ca 1b 71 3b 62 93 59 bb
       0.02319159 0.026921978 0.0036790245 -0.003319942
0000c0 b4 65 b3 3b 07 26 c2 bb b5 c4 36 3c 3e 4a c2 3b
       0.0054747704 -0.0059249434 0.011155297 0.0059292605
0000d0 2b c9 13 bc a3 9c 80 ba 2f 63 ba bb a4 bd 58 3c
       -0.00902013 -0.0009812306 -0.005688093 0.013228808
0000e0 4e c0 b5 3c 92 fe 85 3b e1 69 3b bb ff 96 91 bc
       0.022186425 0.004089185 -0.0028597044 -0.017772196
0000f0 2f 6e 14 3c 02 23 8b 3c cd 6f b9 bc fa 2f 15 3c
       0.009059473 0.016984466 -0.022636319 0.009105677
000100 d9 50 9c bc 84 b6 a5 3b 9a ea dd 3b 6e 28 d0 3a
       -0.01908152 0.005057158 0.0067723515 0.001588119
000110 26 29 a1 3b d7 9d f5 3c b0 0d ee bb ff 3f 9c bb
       0.0049182354 0.02998249 -0.0072648153 -0.004768371
000120 f5 58 78 3a 23 87 ad bb b6 22 e6 bb 4d 5c a5 3b
       0.0009473705 -0.0052956506 -0.007023181 0.0050464035
000130 64 3a 01 bc 2c c6 12 ba 9f 09 94 ba 38 ac 9c 3c
       -0.007887457 -0.0005598988 -0.0011294371 0.019125089
000140 5e 48 be 3c ba 1a 38 3b 91 d8 2d 3c 53 cc 1d 3c
       0.023227867 0.0028092102 0.0106107155 0.009631234
000150 11 42 cd 3b 45 12 75 3c a0 06 24 bc 89 b4 19 3c
       0.0062639792 0.014957969 -0.010011345 0.009381422
000160 70 4a 5e 3c 73 e7 9b 3c e2 df 0a 3d ba b7 69 3b
       0.013567552 0.019031262 0.033904918 0.0035662488
000170 ca 14 22 3c d8 88 8d 3c 04 e0 8c bb c0 63 4d 3c
       0.009892652 0.017277166 -0.0042991657 0.012535989
000180 5f 8b 1d bc b2 f5 a3 3b be 61 87 3a f1 ec fc 3b
       -0.009615748 0.0050036544 0.0010328812 0.0077186753
000190 ae fd 4b 3c 41 4a e8 bb 5f b4 e7 3c 30 29 7f 3c
       0.012450619 -0.00708893 0.02828425 0.015573785
0001a0 a2 1c 61 bb 44 27 ab bb f5 14 ae 3b b5 b2 2d 3c
       -0.0034349342 -0.0052231867 0.005312557 0.010601689
0001b0 42 2c 2e 3d 09 c5 db 3c bb 91 77 3b e2 ba f9 3b
       0.042522676 0.026827352 0.003777607 0.007621155
0001c0 25 c1 d5 bb 70 52 ed 3b 8a 08 69 3c 59 fd 59 3a
       -0.0065232688 0.0072424933 0.014223227 0.0008315645
0001d0 ba 82 3e 3b 67 45 49 3c 3c b0 e0 b7 aa 77 02 3b
       0.0029069618 0.012284613 -2.6784946e-05 0.001990775
0001e0 9c 85 1e 3c ac c8 4a 3c a6 64 2c bc 14 0e bc 3b
       0.00967541 0.0123769455 -0.010522043 0.005738983
0001f0 2d ea 8d 3c 0a cd 09 bb 09 01 82 3c e8 36 25 3c
       0.017323578 -0.0021026754 0.015869634 0.010083891
000200 5e 3d cb 3b 4a bc 27 3c 1f b6 54 3c b3 e6 03 3c
       0.006202384 0.010237763 0.012982874 0.008050608
000210 8b 5f fc 3a bb 3e a1 39 61 f3 18 3c dc c6 b3 3b
       0.0019254548 0.0003075505 0.00933537 0.0054863524
000220 6b f4 ab 3b 39 18 b0 3a 14 2b 47 3c dc 00 94 3c
       0.0052476428 0.0013434953 0.012156267 0.018066816
000230 7e 3e ee 3c 64 a1 7b 39 7b 03 13 3c f3 24 94 bb
       0.029082533 0.00023997348 0.008972998 -0.0045210063
000240 56 f8 04 3c c9 e9 60 3c 04 16 89 3c 29 66 21 3c
       0.0081158485 0.013727614 0.01673413 0.009851017
000250 a9 d6 6b 3c 8b dd d9 ba 05 52 2e bc 14 c0 91 3b
       0.014394441 -0.0016621811 -0.010639672 0.0044479463
000260 d0 bc 08 bc 99 74 bf 3c db 02 80 3b 4f 5b 8f 3c
       -0.008345798 0.023371028 0.0039065904 0.017499594
000270 3c e8 e4 bb 8d f9 95 3c 9e d7 8e 3c 51 94 f1 b9
       -0.0069856923 0.018307472 0.017436799 -0.00046077606
000280 25 4b 25 3c e2 13 f3 ba 2e cb d1 ba 5a db a4 3c
       0.010088717 -0.0018545354 -0.0016005987 0.020124126
000290 5b 1c 92 ba 66 18 6c 3b cb 0b df 3b 29 d0 c6 bb
       -0.0011147367 0.0036025285 0.0068068258 -0.006067295
0002a0 06 45 ea 3b 70 74 a6 3b e1 f9 a7 3c c4 2d 10 bb
       0.0071493415 0.0050797984 0.020504894 -0.0021999935
0002b0 74 02 a3 3c ba b4 07 3c 37 94 0b 3c 67 d7 46 bc
       0.01989863 0.008282835 0.008519224 -0.012136317
0002c0 20 dd 01 3c c3 7b ed 3c 6a 94 16 bc 63 bc 62 3c
       0.007926255 0.028989678 -0.009190658 0.01383886
0002d0 3c ab ee 3b e5 49 85 3b 6b 21 16 3c 5e ce 37 3c
       0.0072835963 0.004067647 0.009163241 0.011218635
0002e0 a9 06 52 3a ed 6f 04 3c 3c 4f a1 3c 70 29 88 3b
       0.00080118567 0.008083326 0.019691102 0.0041553304
0002f0 d6 73 af ba 15 c0 58 3b b8 f4 91 3b b0 69 02 3c
       -0.0013385962 0.0033073474 0.0044542216 0.007959768
000300 0d 5e 14 3c 17 ce 67 3c d1 4a b8 3b 4c b0 f9 3b
       0.009055627 0.014148257 0.005624153 0.007619893
000310 4a 87 66 3c ad 8b 9f bb bb 33 0d 3c 9c 35 6a 3c
       0.014070341 -0.0048689456 0.008618291 0.014295008
000320 03 f1 4f 3c b1 13 96 bb 93 eb b3 3c 5d c1 9e 3b
       0.012691739 -0.004579984 0.021962916 0.004844828
000330 ef ea fc 3b b1 17 04 3c 40 2f 7f 3b cb 21 80 3c
       0.007718436 0.008062289 0.0038938075 0.015641114
000340 82 68 3f 3b 08 16 45 3c a9 f0 a0 3b 38 45 ae 3c
       0.0029206579 0.012029178 0.0049115014 0.02127324
000350 da ba e1 ba 1f b5 75 bc 0f a9 95 3b f6 f5 8e ba
       -0.0017221824 -0.014996796 0.0045672725 -0.0010907042
000360 43 e2 4b bc c7 68 ef 3a 5d 2f 53 3c c2 e1 74 3b
       -0.012444082 0.0018265479 0.01288971 0.0037366007
000370 bd 2f 2c bc e1 8c 7a 3b 0f ca 11 3c 4a ab 24 bc
       -0.010509429 0.0038230943 0.008898272 -0.010050604
000380 08 99 90 3c 86 b1 ed ba 0c c8 3b 3c dd 0a 7f 3c
       0.017651096 -0.0018134571 0.011461269 0.015566555
000390 cb 67 53 3c ad ad b9 3b 57 12 f5 3c 71 b6 8f 3b
       0.012903164 0.0056664557 0.029915972 0.0043857624
0003a0 24 99 91 3c d7 76 49 3c 28 6c 9c 3b 4a da 13 3b
       0.017773218 0.0122964 0.0047736354 0.002256053
0003b0 8f f0 bd 3b 4b 62 ba 3b ec 32 f7 3b b9 40 0d ba
       0.005796499 0.005687987 0.007543912 -0.00053883676
0003c0 25 16 68 3c d8 86 a4 bb 85 a4 9a 39 9a dd 10 bb
       0.014165436 -0.0050209574 0.00029495746 -0.002210474
0003d0 88 3e 8d 3c a9 98 9d 3b 55 a6 cf bc bf 9a fa 3a
       0.017241731 0.0048094583 -0.025347868 0.0019119604
0003e0 34 28 93 bc 95 2d 87 bb 85 88 92 b8 44 80 04 3d
       -0.017963506 -0.004125307 -6.987251e-05 0.032348886
0003f0 49 df b2 3c 20 e3 c0 3c 24 74 bf 3c 68 35 1d bb
       0.021834986 0.023545802 0.02337081 -0.0023988131

action_model._continuous_distribution.log_sigma f4 [1, 5]
000000 09 e4 11 be 2e d8 8c 3c 73 25 cb bd b9 80 fb bc
       -0.14247145 0.017192926 -0.09919252 -0.030701028
000010 6b 95 72 be
       -0.23689811

action_model._continuous_distribution.mu.weight f4 [5, 256]
000000 7f 9a 59 bd 0f 03 7f bb 0f 72 b8 bc 89 aa 78 bb
       -0.053125855 -0.0038911735 -0.022515325 -0.0037943444
000010 f3 e0 80 bc 47 a5 ae 3a 68 5a 35 bc 0c 05 01 bd
       -0.015732264 0.0013324403 -0.011068918 -0.031498954
000020 b2 10 42 bb 10 90 05 3b 57 c1 69 3c 01 6d 42 bb
       -0.0029612002 0.0020380057 0.014267287 -0.0029667022
000030 27 e4 34 3c b3 af 94 bc bc eb ac 3c 8e c8 03 bc
       0.011040724 -0.018150186 0.0211085 -0.008043421
000040 77 f4 c0 bc 44 df 58 3c cf a3 8f 3c 8c ad e2 bb
       -0.02355407 0.013236824 0.017534165 -0.006917661
000050 16 72 07 3d c8 b2 30 bd 20 a5 21 bd e4 4f 26 3b
       0.033067785 -0.04313925 -0.039464116 0.0025377208
000060 22 ef 37 3d 33 d6 30 3b 30 8d 11 3d 51 57 45 3c
       0.04490579 0.0026983141 0.035535038 0.012044744
000070 01 3a 45 3d 94 69 c5 bc 27 78 3f bd 2e 58 18 3d
       0.04815102 -0.024098195 -0.046745446 0.03719347
000080 eb 5c 48 3c 52 5e 06 bd 12 c9 d2 3c fd f5 86 bc
       0.012229185 -0.032804795 0.025730643 -0.016474718
000090 95 8c 1b bd da be 7c bc 2b ff 66 3c 70 0d 98 3c
       -0.037975866 -0.015426362 0.014098923 0.018561095
0000a0 49 0c 87 bb ef cb 13 3c 06 fe 82 bc 33 43 a8 bc
       -0.0041213376 0.0090207895 -0.015990268 -0.020539856
0000b0 fc a4 87 bc b1 e5 7a 3c 62 b1 5d bd c1 f7 c7 bc
       -0.016558163 0.015313552 -0.054124244 -0.02441013
0000c0 ae de 7b 3a 51 95 fe 3b 78 9a 36 3d 5b 6f 9b bc
       0.0009608072 0.0077692647 0.044580907 -0.018973997
0000d0 3a ca ae ba ba 7c 7b 3a 6f 5f 91 bc da aa bc 3c
       -0.0013335415 0.0009593476 -0.017745702 0.023030687
0000e0 b7 15 2c 3d 6b 54 cb bc 23 5a ee bc 36 01 c3 bb
       0.042012896 -0.024820527 -0.029095715 -0.005951072
0000f0 a1 fc 13 3d 8e f4 f8 3c 5e e9 98 3c fb c0 dc bc
       0.036129598 0.03039005 0.018665966 -0.026947489
000100 60 c7 3c ba 84 a2 17 3c c7 ac 2e 3d 1a 67 bf bb
       -0.000720134 0.009255055 0.042645242 -0.005841148
000110 30 0d 09 bd dd ed 21 bd 33 cb 1c bb 42 e7 78 bb
       -0.033459842 -0.039533485 -0.0023924827 -0.0037979637
000120 44 3a bf 39 09 87 63 bc 1c cb 02 3c cb e1 fb 3c
       0.0003647377 -0.013887175 0.007982995 0.030747315
000130 44 14 d9 bb 17 d6 1e 3d a7 21 a0 3c 91 46 eb bc
       -0.0066247303 0.03877839 0.019547297 -0.028720172
000140 2d 4b 59 bd 78 1b 29 bd a8 04 96 bc de d5 a2 3b
       -0.05305021 -0.041285962 -0.018312767 0.0049693426
000150 95 1e 16 bd dc bf ab bc d8 76 4c bb d7 09 b4 3c
       -0.03665026 -0.02096551 -0.0031198766 0.021977348
000160 9a a5 53 bd ad 33 6b 3c 87 01 af bc 64 3d 05 3d
       -0.0516716 0.014355582 -0.021363033 0.03252925
000170 df e1 e4 bc 28 ba 22 bd e5 d8 9c 3c a7 4a 61 3d
       -0.027939735 -0.039728314 0.019146392 0.055002835
000180 eb 7e c0 bc c8 58 83 3a 8a b0 10 bd d6 7c 5a 3c
       -0.02349802 0.0010020966 -0.03532461 0.013335427
000190 91 56 5c bd 06 fd cf bc cd f1 d4 bc 8a 7b 3c 3c
       -0.053793494 -0.025389206 -0.025994206 0.011504063
0001a0 62 83 84 bc 85 80 eb bc 05 89 58 bd 02 66 4d 3c
       -0.01617593 -0.028747806 -0.052865047 0.012536528
0001b0 0c a1 4b 3a 3f d2 ce bc 4f c0 ca bb c7 84 2a 3d
       0.00077678333 -0.025246738 -0.0061874758 0.041630533
0001c0 43 e8 b0 bc 29 da d6 3c 4c 99 dd 3b de ab 0a 3d
       -0.021595126 0.026227074 0.006762659 0.03385531
0001d0 5e a1 67 3d c9 91 e3 bc b2 91 62 3c fb 05 f3 3c
       0.056550376 -0.027779477 0.013828682 0.029665938
0001e0 17 20 b1 bc 24 b7 06 bd 41 59 24 3c 82 c5 f0 bc
       -0.021621747 -0.0328895 0.010031045 -0.029391054
0001f0 f3 93 1d 3d f0 07 08 ba 3b 38 80 3d 96 e3 5d 3d
       0.038471173 -0.0005189171 0.06260725 0.05417212
000200 26 ba 51 3b 3b b0 ef 3c 2d ee 85 3d d9 60 43 bd
       0.0032001822 0.029258838 0.06539569 -0.047699783
000210 f0 2c dd bc 83 2c e9 3c f6 2a 47 3c 5f a6 9c bc
       -0.026998967 0.028463608 0.012156239 -0.0191223
000220 f8 41 56 3d 11 5e d9 3c d4 56 2d 3d 5e 8d 4d 3d
       0.052309006 0.026534112 0.042319134 0.050183646
000230 c3 e0 3c bc fa f5 61 3c 25 a2 29 3c ec f5 55 3d
       -0.011528197 0.013791556 0.0103536 0.052236483
000240 91 85 1f 3d 45 12 4b bd 6c 96 a1 3a bf a8 60 3d
       0.03894574 -0.04957797 0.0012328154 0.05484843
000250 79 2b 1b 3d bc 83 40 bd e2 39 28 bb b7 16 1f bd
       0.037883256 -0.04700063 -0.0025669266 -0.038840022
000260 4d e8 6f 3b a8 a7 83 bd 2d f9 69 bd d7 b0 3c 3d
       0.0036606968 -0.06428462 -0.0571224 0.046067085
000270 37 89 d7 3c 0d 20 14 bd 52 8b 09 3c 93 11 3f bb
       0.026310546 -0.03616338 0.008395033 -0.0029154762
000280 e8 15 32 3d 5d 34 05 3d 2a 5c 3b bd 68 52 95 bd
       0.043477923 0.03252064 -0.04574219 -0.07291108
000290 2e 8d 8b 3c 30 4f 55 3c 8c 13 c6 3c 77 8f 92 bb
       0.017035093 0.013019368 0.024179243 -0.0044726687
0002a0 c0 ae af 3b 13 d5 37 bd da 7f c6 bb 3e d8 0f 3d
       0.005361408 -0.044880938 -0.0060577216 0.035118334
0002b0 08 86 b4 bb e3 36 10 3d dc dd 66 bc 25 96 95 3b
       -0.005509142 0.035208594 -0.014090981 0.0045650178
0002c0 ed 1a 85 3c 10 56 c8 bb 1d 6b 5d 3c 25 a9 dc 3c
       0.01624819 -0.006113775 0.013514307 0.026936123
0002d0 50 ca 10 bd 09 24 25 bd 00 1d 0e 3d 6b c4 e5 bb
       -0.03534919 -0.04031757 0.034695625 -0.0070119402
0002e0 ba 53 38 3d 69 ed eb bc d9 2f 34 bc 17 a7 88 3b
       0.045001723 -0.02879973 -0.010997736 0.0041703093
0002f0 83 ff 6f 3c de 10 8b 3b 84 a7 48 bd df 49 87 bd
       0.014648321 0.004243954 -0.04898788 -0.06605887
000300 27 54 57 3d 12 68 02 3c 45 c5 25 3c 98 dd 04 3c
       0.05257049 0.007959383 0.0101178335 0.008109473
000310 3d c1 32 3d 15 f7 df bc 06 f3 3e 3c 35 85 2e bc
       0.043641318 -0.027339498 0.011654621 -0.010651876
000320 84 da 61 3d bf bb c0 ba f4 c2 ab 3c 06 80 ce bb
       0.055140033 -0.001470439 0.020966984 -0.0063018827
000330 07 b6 0a bd 88 81 05 bd 19 90 05 3c 2d 81 9b ba
       -0.033865 -0.032594234 0.008152031 -0.0011864059
000340 97 65 3b bb 95 20 cc bc 72 66 af 3c 86 2e 7f 3c
       -0.0028594488 -0.02491788 0.021411154 0.015575057
000350 a1 86 39 bd fa 91 3a bd 1f 4a 99 3a 62 67 5d 3b
       -0.045294408 -0.04554937 0.0011695063 0.0033783545
000360 6a fc df 3b 83 95 bb 3c fa 68 38 3d 7f b8 3b bd
       0.00683551 0.022898441 0.04502199 -0.045830246
000370 6d 69 a1 bc 80 7d 45 3d fd 35 34 bd 24 67 47 bc
       -0.019703591 0.04821539 -0.0439968 -0.012170587
000380 f6 b0 02 bd 6a 67 dd bc 06 88 95 bb cf 7a 46 bd
       -0.031907044 -0.02702685 -0.0045633344 -0.048456963
000390 2b c1 21 3d 4b c1 37 3d 7b fc 66 3d b3 3e 1a 3d
       0.03949086 0.044862073 0.056393128 0.03765745
0003a0 34 26 6a bc 46 42 1e bc 3b 9d 18 3d a0 26 50 3d
       -0.014291335 -0.0096593555 0.03725932 0.050818086
0003b0 e8 c1 80 3d dc 56 fa bc 62 3e 15 bd ff 60 23 3c
       0.06286985 -0.030558996 -0.036436446 0.009971856
0003c0 65 2f 64 bb 4c f8 8a bc 85 41 ec bc 4e 1f 0d bd
       -0.0034818288 -0.0169641 -0.028839836 -0.034453683
0003d0 e4 39 ed bb 7e 6f 0d bd 10 52 76 bb 40 b0 c5 3c
       -0.007239567 -0.034530155 -0.0037585534 0.024131894
0003e0 d5 b8 8c ba ad ea 6a bd e8 e8 2e 3c 2b 50 5c 3d
       -0.0010736237 -0.05735271 0.010675646 0.05378739
0003f0 ea 05 12 3d 07 1c bf 3c ee e4 6c bc 58 c4 c8 bb
       0.03565017 0.023328794 -0.014458878 -0.0061269216

action_model._continuous_distribution.mu.bias f4 [5]
000000 d3 f0 02 3c 31 45 8f bc 8a 2e 51 bb 47 38 32 bc
       0.007991987 -0.017489048 -0.0031918609 -0.010877675
000010 04 ff 2c bb
       -0.0026397118
